Conditional_TimeGAN/result/original/model/JP_lag1_total1/torch_best_model.pt (torch, 87834 bytes, 7 tensors)

lstm.weight_ih_l0 f4 [256, 1]
0	0x3e000f8b	0.12505929
1	0x3e4ea9ba	0.20181933
2	0xbd989366	-0.07449989
3	0xbd031fa7	-0.032012608
4	0xbc27d62a	-0.010243932
5	0x3cf0b7ba	0.029384483
6	0x3d9d4205	0.07678608
7	0x3e1bcae1	0.15214111
8	0x3c4891ab	0.012241761
9	0x3dfcc0a4	0.12341431
10	0x3d9f5985	0.07780746
11	0x3d435d3f	0.04769635
12	0xbdd10281	-0.10205556
13	0xbcb227f4	-0.021747567
14	0xbc745f99	-0.01491537
15	0x3c11c71e	0.008897571
16	0x3e229a93	0.15879278
17	0x3e3f6f9a	0.18694916
18	0xbd9fd97f	-0.07805156
19	0x3a2473f1	0.000627338
20	0x3e7fa513	0.24965315
21	0x3e83e04b	0.2575706
22	0xbcdee03c	-0.027206533
23	0x3e1b379a	0.15157929
24	0x3e1e89a7	0.15482198
25	0x3e08800a	0.13330093
26	0x3e1f94b0	0.15584064
27	0xbd0c1387	-0.03419831
28	0xbd0df1b7	-0.034654345
29	0xbcd6c550	-0.026217133
30	0xbcaf566e	-0.021403518
31	0x3e5fef55	0.21868642
32	0xbd256a23	-0.040384423
33	0xbd0acbe4	-0.03388585
34	0xbca5df50	-0.020248085
35	0xbd2fe504	-0.042943016
36	0x3d368b26	0.044566296
37	0x3e6ef9cb	0.23337476
38	0x3e10a5b7	0.14125715
39	0x3e93aca8	0.28842664
40	0x3c68014d	0.014160466
41	0xbca2d12a	-0.019875128
42	0x3dd33754	0.103132874
43	0xbd0cd049	-0.034378324
44	0xbd113736	-0.035453044
45	0xbd35384c	-0.044243142
46	0x3de7e554	0.11323038
47	0x3e2b90f5	0.16754515
48	0x3beef252	0.0072920704
49	0x3b1531f0	0.002276536
50	0x3db9d726	0.090742394
51	0x3e0ad151	0.1355641
52	0x3e507d99	0.20360412
53	0x3e21675c	0.15762085
54	0x3e94ffb8	0.29101348
55	0xbd03f11c	-0.03221236
56	0x3d2a822b	0.041628044
57	0xbdd2ff64	-0.10302618
58	0xbd109d34	-0.03530617
59	0xbd83fc07	-0.06444555
60	0x3e000118	0.12500417
61	0x3e2c6383	0.16834836
62	0xbc96640c	-0.018358253
63	0x3daa5f67	0.08318978
64	0x3cc33fff	0.023834227
65	0x3cc5a077	0.024124367
66	0x3d100853	0.03516419
67	0x3d7c8b79	0.06165645
68	0x3e33689b	0.17520373
69	0x3e43a470	0.19105697
70	0x3c34c05b	0.011032189
71	0x3d145c3c	0.036220774
72	0x3daa9959	0.0833003
73	0x3e60e0a1	0.21960689
74	0x3dc324b7	0.09528487
75	0x3e4e9ac5	0.20176227
76	0x3daa6129	0.08319313
77	0x3d11c7f8	0.035591096
78	0x3d9a40d9	0.075319
79	0x3c2fcecc	0.010730457
80	0xbc83d3b5	-0.01609216
81	0x3d872015	0.06597916
82	0x3e42f831	0.1903999
83	0xbc927cd3	-0.017881786
84	0x3caf14d0	0.021372229
85	0x3ce2fc4c	0.027708195
86	0x3c3be306	0.011467701
87	0x3cd83b18	0.026395366
88	0x3d145ea9	0.036223087
89	0xbc6fa38b	-0.014626394
90	0x3dd05185	0.101717986
91	0x3e41d758	0.18929803
92	0x3dfc753b	0.123270474
93	0x3d8d305e	0.06893991
94	0xbc97cb6a	-0.018529613
95	0x3caaa5ab	0.02083095
96	0x3d42f53e	0.047597162
97	0x3dc5885c	0.09645149
98	0xbc316590	-0.010827437
99	0xbc5230ed	-0.012829048
100	0x3d16a26d	0.036775995
101	0x3d25ee6c	0.04051058
102	0x3c4255d5	0.011861284
103	0x3c9efc28	0.019407347
104	0x3cbe75b8	0.023249492
105	0x3d794677	0.060858216
106	0xbc479ebc	-0.012183841
107	0x3c90dca0	0.017683327
108	0x3d6cf3bb	0.057849627
109	0x3de8bfee	0.11364733
110	0x3d0f5505	0.03499319
111	0x3d12d20f	0.03584486
112	0xba946d3f	-0.0011324062
113	0x3e5bd1ec	0.21466798
114	0x3be4b463	0.0069795116
115	0xbbc3aba1	-0.0059713875
116	0x3bed2176	0.007236655
117	0x3d40d012	0.04707343
118	0x3d4faea9	0.05070368
119	0x3e4b1a26	0.19834194
120	0x3aaa0c04	0.0012973552
121	0x3d2e8543	0.042607557
122	0x3c42a5ba	0.011880333
123	0x3d895bcd	0.06706963
124	0xbc803c81	-0.01565385
125	0x3c8cd5b3	0.017191743
126	0x3d3c2740	0.04593587
127	0x3c825a5c	0.015912227
128	0xbc33f7c0	-0.010984361
129	0xbce6750e	-0.028131988
130	0xbca122b1	-0.019669862
131	0x3d578841	0.052620176
132	0xbc809ed4	-0.015700735
133	0x3b5fbc26	0.0034139245
134	0x3d6d4558	0.05792746
135	0xbc158f69	-0.00912843
136	0xbc3ba32b	-0.0114524765
137	0xbb57e07a	-0.0032940195
138	0xbc66f95d	-0.014097539
139	0x3def26a0	0.11677289
140	0x3d69313e	0.056931727
141	0x3caaed0f	0.020864991
142	0x3e36de4a	0.17858234
143	0x3bcd4d7f	0.006265342
144	0xbe3f38ed	-0.18674059
145	0xbde52eb1	-0.11190546
146	0x3d8ce766	0.06880073
147	0xbc656895	-0.014001985
148	0xbc3fcd37	-0.011706642
149	0xbd387776	-0.0450358
150	0xbe6d6d46	-0.23186216
151	0xbcb87dbc	-0.022520892
152	0xbc1de55b	-0.009637202
153	0x3da20920	0.07911897
154	0x3d108a83	0.035288345
155	0xbe294a3d	-0.16532226
156	0x3df40e95	0.11916844
157	0xbcf4f3a0	-0.029901326
158	0xbdac53c9	-0.08414418
159	0xbd1b806c	-0.03796427
160	0xbd7152b5	-0.058916766
161	0xbd9ab081	-0.07553197
162	0xbd83b068	-0.06430131
163	0xbe69107e	-0.22760198
164	0xbc6332f0	-0.013867125
165	0x3d7e3c10	0.062069
166	0x3c1290f5	0.008945693
167	0x3ce58c59	0.028021025
168	0xbb880c4a	-0.0041518556
169	0xbbb07b82	-0.005385817
170	0x3d016367	0.031588938
171	0xbe52e01f	-0.20593308
172	0x3e0446f7	0.12917696
173	0x3ddbcb35	0.10732118
174	0xbd3c2664	-0.04593505
175	0x3d686558	0.056737274
176	0xbc271ec6	-0.010200208
177	0xbe07461a	-0.13210335
178	0x3bbe6e1e	0.005811467
179	0x3ba5206d	0.005039266
180	0x3cc0aaa5	0.02351887
181	0x3d1df4dd	0.038563598
182	0x3dffe35d	0.12494538
183	0x3ec42a5a	0.38313562
184	0x3c6a750d	0.014310134
185	0xbb875da0	-0.004131034
186	0xbddb5607	-0.10709768
187	0xbdb94354	-0.09046045
188	0xbd88b274	-0.06674662
189	0x3c4a409b	0.012344505
190	0x3e19418c	0.1496641
191	0x3ca201b2	0.019776199
192	0x3c2b63bf	0.010460793
193	0x3d3d06de	0.046149127
194	0x3c909408	0.017648712
195	0x3cdbb778	0.026820883
196	0x3cbc5de9	0.022993999
197	0x3d747bfe	0.05968856
198	0x3b328117	0.0027237588
199	0x3d04d435	0.03242894
200	0x3cd351a3	0.025795763
201	0x3d216888	0.03940633
202	0x3c129c32	0.008948373
203	0x3cad5ac3	0.021161443
204	0x3ccd7735	0.025081256
205	0x3cb436bd	0.021998757
206	0x3d5bfd1f	0.053708192
207	0x3ccab584	0.024744757
208	0x3d24abbd	0.040202845
209	0x3d9fa285	0.0779467
210	0xbb7cb5fa	-0.0038560615
211	0x3d0dd95d	0.034631122
212	0x3dba0f70	0.09084976
213	0x3d54c483	0.05194522
214	0x3d8d4896	0.0689861
215	0x3d875c45	0.06609396
216	0x3d12f6dd	0.03587996
217	0x3c83dbcd	0.01609602
218	0x3dd571af	0.10422074
219	0x39664263	0.0002195924
220	0x3d259f5a	0.040435173
221	0x3db2ebbd	0.0873637
222	0x3c716db4	0.014735628
223	0xbb080504	-0.0020754943
224	0x3beb830d	0.0071872533
225	0x3c3b39d5	0.011427362
226	0x3c8c99ce	0.017163184
227	0xbbcc789c	-0.0062399637
228	0x3c4df541	0.01257068
229	0x3d9adb6e	0.07561384
230	0x3c1b7aee	0.009489758
231	0x3e0ec0f9	0.139408
232	0x3c42e957	0.011896453
233	0x3c8dd0ab	0.017311415
234	0x3cc6df0a	0.024276275
235	0x3d4f2719	0.050574396
236	0x3d90b844	0.07066396
237	0xbafcec31	-0.0019296465
238	0x3cc066ea	0.023486573
239	0x3debd68d	0.11515532
240	0x3d2c78a5	0.042107243
241	0x3d67b6b9	0.056570742
242	0x3ca23820	0.019802153
243	0x3d5b2370	0.053500593
244	0x3b71d5eb	0.0036901187
245	0x3cc15119	0.02359824
246	0x3e2e8cda	0.17045918
247	0x3c52a718	0.012857221
248	0x3d10ab4e	0.03531962
249	0x3ce4c553	0.027926123
250	0x3c8b718c	0.017021917
251	0x3d8bcbbd	0.06825969
252	0x3cc8c1fc	0.024506561
253	0x3d170568	0.03687039
254	0x3c3e2d02	0.01160741
255	0x3d15b92b	0.036553543

lstm.weight_hh_l0 f4 [256, 64]
0	0xbe0166f7	-0.12636934
1	0x3dcc76c0	0.09983587
2	0xbe43b9af	-0.19113801
3	0x3d335a35	0.0437872
4	0x3d21a294	0.039461687
5	0xbc96d8b8	-0.018413886
6	0x3e378b6a	0.17924276
7	0xbca21ece	-0.01979008
8	0x3dac1442	0.08402301
9	0xbe1180cf	-0.14209293
10	0x3d146f07	0.036238696
11	0x3e33d92b	0.17563312
12	0x3e7c684d	0.24649163
13	0x3e30d469	0.17268528
14	0x3d86f75e	0.0659015
15	0x3da4bc9d	0.08043788
16	0xbe5b5c57	-0.21421944
17	0x3de2282b	0.11042818
18	0x3cd00aa8	0.025395706
19	0xbe5a0520	-0.21291018
20	0x3df0c79a	0.11756821
21	0x3d127e92	0.035765238
22	0xbe21a3b2	-0.15785101
23	0x3d7ad9bf	0.061242815
24	0x3c98ab51	0.018636378
25	0x3d391e4b	0.045194905
26	0xbe4a0379	-0.19727887
27	0xbd176ff2	-0.036971994
28	0x3e074d1e	0.13213012
29	0xbc6ff284	-0.014645223
30	0xbde5e1cb	-0.11224707
31	0xbd89cc15	-0.06728379
32	0xbe1ec5b3	-0.15505104
33	0xbd89cc25	-0.067283906
34	0xbe4d3dbf	-0.20043086
35	0xbd2393f5	-0.039936025
36	0x3d3eb50a	0.04655937
37	0xbcf5f08b	-0.030021926
38	0xbd8df29a	-0.06931038
39	0xbdd5d7e8	-0.104415715
40	0xbd19c5e3	-0.037542235
41	0x3d1bc1b2	0.03802652
42	0x3e32446e	0.17408916
43	0xbe2e5dcf	-0.17027973
44	0x3d802d1e	0.062586054
45	0x3dfab21d	0.12241004
46	0xbd6c5867	-0.057701495
47	0xbce3d1bf	-0.027809976
48	0xbdddd0d5	-0.10830847
49	0xbe3f2397	-0.1866592
50	0x3d4b29ed	0.04960053
51	0xbd96ece3	-0.07369401
52	0x3d8c3335	0.068457045
53	0x3b5ed505	0.0034001481
54	0xbe053f5b	-0.1301245
55	0x3dec5120	0.11538911
56	0x3d15cc07	0.03657153
57	0x3dc4c697	0.096081905
58	0xbda59a16	-0.0808603
59	0xbd3e86c9	-0.04651526
60	0xbe26f51a	-0.16304436
61	0x3ddb0313	0.10693946
62	0x3e34e7fc	0.1766662
63	0x3e11160e	0.1416857
64	0x3df88aaf	0.12135827
65	0x3e605da3	0.2191072
66	0xbe528de7	-0.20561944
67	0x3d9ebda7	0.07751017
68	0x3e18d237	0.1492394
69	0x3d09a8ab	0.03360812
70	0x3dcf0ad0	0.10109484
71	0xbd3e5f47	-0.046477582
72	0xbc9a3090	-0.018821985
73	0xbd4a2f0d	-0.049361277
74	0xbe1054b7	-0.14094816
75	0xbcf4e259	-0.029893087
76	0x3e656f44	0.22405726
77	0x3d032029	0.032013092
78	0xbd16cdcd	-0.03681736
79	0x3dfa4acd	0.12221298
80	0x3e331bef	0.17491125
81	0x3e7013b5	0.23445018
82	0xbcd2b891	-0.025722774
83	0x38d0f3cf	9.963626e-05
84	0x3d63657f	0.055516716
85	0x3e4f1d5a	0.2022604
86	0x3ccb8b84	0.0248468
87	0x3e16e67c	0.1473636
88	0x3dd51369	0.10404093
89	0x3e0ae4c7	0.13563834
90	0xbe4d4f8f	-0.2004988
91	0x3b9087aa	0.0044107037
92	0xbcd26558	-0.02568309
93	0xbc9016cf	-0.017589001
94	0x3d8ef528	0.069803536
95	0xbdf4681e	-0.11933921
96	0xbda0dd4d	-0.0785471
97	0x3e1bea2c	0.15226048
98	0xbd0af5c2	-0.03392578
99	0x3e316b1e	0.17326018
100	0x3d3ce311	0.046114985
101	0xbcfecd95	-0.031103889
102	0xbd85ea9f	-0.06538891
103	0xbe50c2eb	-0.20386855
104	0xbe8d2d8a	-0.27573806
105	0xbdfa7499	-0.122292705
106	0x3d4db858	0.050224632
107	0x3d6a213a	0.057160594
108	0x3d18be33	0.037290763
109	0x3e14abb9	0.14518632
110	0x3e55a6a6	0.20864353
111	0xbea00e4f	-0.31260917
112	0xbd05e61c	-0.032690153
113	0xbc9473a0	-0.01812154
114	0xbd4e187c	-0.05031632
115	0xbc828f48	-0.015937462
116	0xbe7cfaa2	-0.24704984
117	0xbda96119	-0.08270473
118	0xbe8cd7cb	-0.27508387
119	0xbcb0d25f	-0.021584688
120	0x3e0552dc	0.1301989
121	0x3e572590	0.21010423
122	0x3ce9c5fe	0.028536793
123	0x3d5b8009	0.0535889
124	0x3e3165d1	0.17323996
125	0x3d8da865	0.06916884
126	0x3de22049	0.11041314
127	0x3e6753c9	0.22590555
128	0x3b9923d0	0.0046734586
129	0xbc3590f5	-0.011081924
130	0xbcea7ad0	-0.028623015
131	0x3e058ad2	0.13041237
132	0x3def84bc	0.11695239
133	0x3bd0558b	0.0063578538
134	0x3e07f865	0.13278349
135	0xbdc520a9	-0.0962537
136	0x3dde9c5f	0.10869669
137	0xbe0b9124	-0.13629586
138	0xbd5dba83	-0.05413295
139	0x3e05581f	0.13021897
140	0x3e163bde	0.14671275
141	0x3d4895df	0.048971053
142	0xbc578129	-0.013153353
143	0x3e7ab11c	0.24481624
144	0x3c2bd14f	0.010486915
145	0xbcb80f03	-0.022468096
146	0x3abb8267	0.0014305831
147	0x3d58c7f7	0.052925076
148	0x3c938b25	0.018010685
149	0xbde92b9c	-0.11385271
150	0x3d901937	0.07036059
151	0x3d53a1c3	0.05166794
152	0xbdb0a857	-0.08625858
153	0x3e09f270	0.13471389
154	0xbd24782a	-0.04015366
155	0xbde3d620	-0.111248255
156	0x3e210a6c	0.15726632
157	0xbd07e177	-0.033174004
158	0xbe6ef1ff	-0.23334502
159	0xbe40612c	-0.18787068
160	0xbde1821d	-0.11011145
161	0xbe5ae5c3	-0.2137671
162	0xbd6e386f	-0.058159288
163	0xbc6c5196	-0.0144237485
164	0xbcc701e0	-0.024292886
165	0xbd2676d9	-0.040640686
166	0xbd5ce8d5	-0.053932983
167	0x3de6d758	0.11271542
168	0xbb854730	-0.004067324
169	0x3d865f8d	0.065611936
170	0xbb2d107a	-0.0026407526
171	0xbe390ade	-0.18070552
172	0xbc43aa56	-0.011942467
173	0x3e3bfdca	0.18358532
174	0xbe1b48bf	-0.15164469
175	0x3db88c74	0.09011164
176	0x3ceacf0e	0.028663184
177	0xbd7bf8cc	-0.061516568
178	0xbcafd9c6	-0.021466147
179	0xbdb2ca0d	-0.087299444
180	0x3e10c924	0.14139229
181	0xbd678786	-0.05652573
182	0x3dbdc283	0.09265616
183	0xbd0b432f	-0.03399962
184	0xbd63b60e	-0.055593543
185	0xbde01ca1	-0.109429605
186	0xbdb78d77	-0.08962529
187	0x3d1db3e2	0.038501628
188	0xbe49b722	-0.19698766
189	0x3e27d01a	0.16387978
190	0x3c812781	0.015765907
191	0x3de40099	0.111329265
192	0xbcec20f9	-0.028824316
193	0xbe1fa361	-0.15589668
194	0xbd7211f9	-0.05909917
195	0x3e354f9a	0.17706147
196	0x3e8cd0af	0.27502963
197	0x3cd30652	0.02575985
198	0x3d0433b4	0.03227587
199	0x3d401fb0	0.04690522
200	0x3da1b4bc	0.078958005
201	0x3c9ff9bb	0.01952826
202	0xbd638aab	-0.055552166
203	0x3bc636b0	0.0060489997
204	0xbca0f77f	-0.019649265
205	0x3c8fbf6d	0.017547334
206	0x3d9ec49e	0.077523455
207	0xbd8b9fc4	-0.06817582
208	0xbbbeca21	-0.0058224355
209	0x3d31b86b	0.043388765
210	0x3e1bbbb0	0.15208316
211	0xbe0a8ce3	-0.13530307
212	0xbe06c54e	-0.13161203
213	0xbd81695a	-0.06318922
214	0x3bd40984	0.006470861
215	0x3dc08524	0.094003946
216	0x3d1d4975	0.038400132
217	0x3d2f7f60	0.042846084
218	0x3d938294	0.0720264
219	0xbe67b2c7	-0.22626792
220	0xbc2e1fb2	-0.010627674
221	0xbc341754	-0.01099189
222	0xbdf84620	-0.1212275
223	0x3cd1b5b7	0.025599344
224	0xbe3091a8	-0.17243063
225	0xbe2583d8	-0.16163576
226	0xbe2bfb39	-0.16795053
227	0xbd928f14	-0.07156196
228	0xbd16d344	-0.036822572
229	0x3e015048	0.12628281
230	0x3d4c1606	0.04982569
231	0x3df2e3bb	0.118598424
232	0xbd0b92aa	-0.034075417
233	0x3c8bbfb8	0.017059192
234	0x3c88be76	0.016692381
235	0xbddbc4c0	-0.107308865
236	0x3e101975	0.14072211
237	0x3d90a8eb	0.070634685
238	0x3d5336be	0.051565878
239	0x3c92a9e4	0.017903276
240	0xbe1c717a	-0.15277663
241	0xbde4f71a	-0.111799434
242	0x3e733991	0.23752429
243	0x3ca23235	0.019799331
244	0xbd9ac9be	-0.075580105
245	0x3dfc8223	0.12329509
246	0x3db5bcbb	0.08873888
247	0x3e37ae5d	0.17937608
248	0x3e852d63	0.2601119
249	0x3de80d81	0.11330701
250	0xbcffca66	-0.03122444
251	0xbd190882	-0.03736163
252	0xbda0c9b5	-0.078509726
253	0x3db48960	0.08815265
254	0x3d1290e6	0.035782717
255	0x3e18c7b1	0.14919926

lstm.bias_ih_l0 f4 [256]
0	0x3e781960	0.2422843
1	0x3d4fdec4	0.050749555
2	0x3d1b82f1	0.037966672
3	0x3e134dc2	0.14385131
4	0x3e1630c4	0.1466704
5	0xbc805b23	-0.015668457
6	0xbd41634a	-0.04721383
7	0xbcbfe285	-0.023423443
8	0x3bc0ae15	0.005880127
9	0x3cddc606	0.027071964
10	0x3cfca7f9	0.030841814
11	0x3d9fb9e7	0.0779913
12	0xbcbe553a	-0.023233999
13	0x3e3b8a3f	0.18314455
14	0x3e2ffbf7	0.1718596
15	0x3df92614	0.12165466
16	0x3e69be82	0.22826579
17	0x3e37c53b	0.17946331
18	0xbd68f1fe	-0.056871407
19	0x3dc9f050	0.09860289
20	0x3e6aefe6	0.22943076
21	0x3d8a5114	0.06753746
22	0x3dcb183e	0.09916733
23	0x3d6d5b85	0.057948608
24	0x3dc6cc8c	0.09706983
25	0x3e0833bb	0.13300984
26	0x3e15f0b7	0.14642607
27	0x3c4b8744	0.012422387
28	0x3d1678af	0.036736187
29	0x3d7b1669	0.06130067
30	0x3d95c605	0.0731316
31	0x3ce2f7f7	0.02770613
32	0xbc514d9e	-0.012774853
33	0x3e2e7e15	0.17040284
34	0x3d8b7249	0.068089075
35	0x3e23f260	0.16010427
36	0x3e4be7bd	0.1991262
37	0x3d61b0cc	0.055100247
38	0x3d8b5251	0.0680281
39	0x3e0096a8	0.12557471
40	0x3c828776	0.015933733
41	0x3d64159e	0.05568468
42	0x3e0aafe2	0.13543656
43	0x3e388226	0.18018398
44	0x3e520eef	0.20513509
45	0x3e27af07	0.16375361
46	0xbc53aa50	-0.012919024
47	0x3da9154f	0.082560174
48	0x3cae7289	0.021294849
49	0xbdb337df	-0.08750891
50	0x3e2992df	0.16559933
51	0x3bb00f8b	0.0053729466
52	0x3c6ebcb5	0.014571358
53	0x3e175e73	0.14782123
54	0x3e22323a	0.15839472
55	0x3d85f1fc	0.065402955
56	0x3debe5b5	0.115184225
57	0x3dace84c	0.084427446
58	0x3ddfd357	0.10928982
59	0x3ca9a4d2	0.020708475
60	0x3d2f1439	0.042743895
61	0x3c495282	0.012287738
62	0x3df61413	0.120155476
63	0xbe163e6a	-0.14672247
64	0x3d044917	0.032296266
65	0xbd5adc10	-0.053432524
66	0x3d3c01da	0.045900203
67	0x3df05bcf	0.11736261
68	0xbd431514	-0.047627524
69	0x3dadb05c	0.084809035
70	0x3d32ed99	0.043683622
71	0xbcf93ef8	-0.030425534
72	0xbda1052f	-0.07862317
73	0xbdd9f5ce	-0.10642587
74	0xbe28c9ab	-0.1648318
75	0xbce46482	-0.027879957
76	0x3d309a8f	0.04311615
77	0x3e2b3c50	0.16722226
78	0x3d1c481d	0.03815471
79	0x3d93179a	0.07182236
80	0x3dda7b2b	0.10668024
81	0xbd14a2aa	-0.03628794
82	0x3e75ddfc	0.24010462
83	0x3e08ec94	0.13371497
84	0x3cbe2f49	0.023215907
85	0x3d4f405f	0.0505985
86	0x3d7e1866	0.062034987
87	0x3e085fad	0.13317747
88	0x3d852afe	0.06502341
89	0x3d330266	0.04370346
90	0xbe1f08e9	-0.15530743
91	0xbd442f9a	-0.04789696
92	0x3daa5ffd	0.083190896
93	0x3d2514ee	0.040303163
94	0x3e01f534	0.12691194
95	0xbb072ace	-0.0020624879
96	0xbdbcf510	-0.092264295
97	0x3daca78b	0.08430394
98	0x3e3cc3a8	0.18434012
99	0x3d42dfce	0.047576718
100	0x3d620ce7	0.055188086
101	0xbaf0452b	-0.001833116
102	0x3e0171b1	0.12641026
103	0x3da4e20f	0.0805093
104	0x3e5124b6	0.2042416
105	0x3e0a5425	0.13508661
106	0x3df36a1b	0.118854724
107	0x3e2aa9e7	0.16666375
108	0x3e46b514	0.19405013
109	0xbd19af34	-0.037520602
110	0xbd3db3f4	-0.046314195
111	0xbdadd327	-0.0848754
112	0xbae152ff	-0.0017190872
113	0xbd133242	-0.0359366
114	0x3e19bd86	0.15013704
115	0x3e1820a6	0.14856204
116	0x3d44e9cd	0.048074532
117	0xbd9e1060	-0.07717967
118	0xbddc738b	-0.107642256
119	0x3e166d77	0.14690195
120	0x3de53641	0.11191989
121	0x3d82414e	0.06360112
122	0x3e38b778	0.18038738
123	0x3dc3d441	0.095619686
124	0x3e0b3ff0	0.13598609
125	0xbbd602b2	-0.006531083
126	0xbd731aee	-0.059351854
127	0x3cd104bb	0.025514951
128	0xbbd65a44	-0.006541522
129	0xbbb21152	-0.0054341936
130	0x3d376dcd	0.04478245
131	0xbe0fc94d	-0.14041634
132	0x3dfdde5b	0.123959266
133	0x3db976de	0.09055875
134	0x3ca6b1f7	0.020348532
135	0xbd3bf164	-0.045884505
136	0x3dcbf0d7	0.09958046
137	0xbdbca674	-0.09211436
138	0x3d0cd613	0.034383845
139	0xbde21f22	-0.11041094
140	0xbeb6bddd	-0.3569173
141	0xbe1fffce	-0.15624925
142	0xbe015026	-0.1262823
143	0x3c92ee7a	0.01793598
144	0xbdc5ff0c	-0.09667787
145	0x3d776237	0.0603964
146	0xbc22b2d0	-0.009930328
147	0x3d71b491	0.059010092
148	0x3d768dae	0.06019371
149	0x3e4ff251	0.2030728
150	0x3d7d6ac0	0.061869383
151	0x3e3c8b56	0.18412527
152	0x3c9f34af	0.019434301
153	0xbe1da4b7	-0.15394865
154	0xbdd575ac	-0.10422835
155	0x3d66ff87	0.056396034
156	0xbd78f3c4	-0.060779348
157	0x3e1d092a	0.15335527
158	0xbe246283	-0.16053204
159	0x3e5437ea	0.20724455
160	0xbc8e1db3	-0.017348146
161	0xbcf8d2c7	-0.030373944
162	0x3d8b3228	0.06796676
163	0xbe88d822	-0.26727396
164	0x3da837c2	0.0821376
165	0xbe32eea9	-0.17473854
166	0x3c8ea7ad	0.017413938
167	0xbe1450a3	-0.14483885
168	0x3e6e6756	0.23281607
169	0x3e0c28e4	0.13687474
170	0xbe607f75	-0.21923621
171	0xbd2fc800	-0.042915344
172	0xbe153c98	-0.14573896
173	0xbde6cdb3	-0.11269703
174	0x3e111551	0.14168288
175	0xbe073f26	-0.13207683
176	0x3dd69c6c	0.10479054
177	0x3d9786cf	0.073987596
178	0xbd5e6d7e	-0.05430364
179	0x3cbfbf10	0.023406535
180	0x3da19554	0.0788981
181	0xbd80ec73	-0.06295099
182	0xbe685118	-0.22687185
183	0xbc96294c	-0.018330239
184	0xbda9cb3b	-0.08290716
185	0xbd9cfa33	-0.07664909
186	0xbc81ae93	-0.015830314
187	0xbaede014	-0.0018148446
188	0x3dc6c1a8	0.09704906
189	0xbdf007bf	-0.117202275
190	0xbd93de0d	-0.07220087
191	0xbdf743f2	-0.120735064
192	0x3e3a47c0	0.18191433
193	0x3caa71f9	0.0208063
194	0x3e310c53	0.17289858
195	0x3e28e445	0.16493328
196	0x3c72f325	0.014828478
197	0xbe19b7ef	-0.15011571
198	0x3e0e66d8	0.1390642
199	0xbc5e7268	-0.013577081
200	0xbd0271a9	-0.031846676
201	0xbd32c178	-0.043641537
202	0xbb338276	-0.0027390993
203	0x3e04405d	0.12915178
204	0x3e35ba30	0.17746806
205	0xbd675229	-0.05647484
206	0x3d2c301f	0.04203808
207	0xbd8f5595	-0.06998745
208	0x3c51735c	0.0127838515
209	0x3df19782	0.11796476
210	0xbde56286	-0.112004325
211	0x3e01aebb	0.1266431
212	0x3de4a768	0.11164743
213	0xbd560fd9	-0.052261207
214	0xbaac06c5	-0.0013124576
215	0xbd91b8b7	-0.0711531
216	0x3e539006	0.2066041
217	0x3de256a9	0.11051685
218	0xbe0d9715	-0.13827164
219	0x3e44b364	0.19209057
220	0x3ba72734	0.005101109
221	0xbe1def9e	-0.15423438
222	0xbe13e632	-0.14443281
223	0x3d1b8428	0.03796783
224	0x3de46453	0.11151948
225	0xbe0f8c76	-0.14018425
226	0x3b96e50f	0.0046049426
227	0xbe17fca4	-0.14842469
228	0x3dbf9833	0.093552016
229	0x3d4a8e21	0.04945195
230	0x3df593d8	0.119910896
231	0xbd66a0a8	-0.056305557
232	0x3ce1ca26	0.027562212
233	0xbe40027b	-0.18750946
234	0xbe5e0a8d	-0.21683712
235	0x3e27aa9a	0.16373673
236	0xbe395b96	-0.18101344
237	0x3dc1554a	0.09440096
238	0xbd35ade3	-0.044355284
239	0xbd5b9765	-0.053611178
240	0xbde98fcf	-0.114043824
241	0xbe002d73	-0.12517338
242	0x3e5bbd8c	0.21459025
243	0x3db2fd9c	0.087397784
244	0xbd5b61a8	-0.05355993
245	0x3d3ade08	0.0456219
246	0xbd2a7e6e	-0.04162448
247	0x3da74b3d	0.081686474
248	0xbc1fea98	-0.009760521
249	0x3dff09a9	0.124530144
250	0x3e59e16d	0.212774
251	0x3db10184	0.08642867
252	0xbdd240aa	-0.1026624
253	0x3c8097c2	0.015697364
254	0x3d1929c5	0.03739335
255	0x3d1f15e8	0.03883925

lstm.bias_hh_l0 f4 [256]
0	0x3d847d4a	0.064692095
1	0xbde9b6a1	-0.11411787
2	0xbd71756a	-0.058949865
3	0x3d59d759	0.053183887
4	0xbd102bdb	-0.035198074
5	0xbd947087	-0.072480254
6	0x3e2d8f13	0.1694911
7	0xbcdbae58	-0.026816532
8	0x3c9c1588	0.019053236
9	0x3e4388de	0.1909518
10	0x3c1f7d79	0.009734505
11	0x3e269f4b	0.16271703
12	0xbca33578	-0.019922957
13	0x3dd3faa4	0.1035054
14	0x3ddd847a	0.108162835
15	0xbcda33dd	-0.026636058
16	0x3da671a6	0.081271455
17	0x3e1ef900	0.15524673
18	0x3cd51b1a	0.0260139
19	0x3e4e4dff	0.2014694
20	0x3dd6e051	0.10492004
21	0x3e0b7925	0.13620432
22	0xbc4fa17e	-0.01267278
23	0xbde0875a	-0.10963316
24	0x3da972a4	0.08273819
25	0x3e7bc84f	0.2458813
26	0x3e1363eb	0.14393584
27	0x3e3de8bc	0.18545812
28	0xbc896486	-0.016771566
29	0x3d36a8e3	0.044594657
30	0x3e112607	0.14174663
31	0x3e6c60a9	0.23083748
32	0x3e071468	0.13191378
33	0x3dcf95de	0.10136007
34	0x3d7ac8d4	0.06122668
35	0x3e551508	0.20808804
36	0x3e4640c7	0.19360648
37	0xbdd20118	-0.10254115
38	0x3de72142	0.1128564
39	0x3d96d940	0.07365656
40	0x3e2177ea	0.157684
41	0x3e19a09f	0.15002678
42	0x3e4e3915	0.20138963
43	0x3ab79c0c	0.0014008298
44	0xbd1ad6f9	-0.03780267
45	0xbc281eb1	-0.010261224
46	0x3de6d668	0.112713635
47	0x3d2ab714	0.041678503
48	0x3dd92b18	0.106039226
49	0xbd8b693f	-0.068071835
50	0x3e044c18	0.12919652
51	0xbdad87b3	-0.08473148
52	0x3e3de5a6	0.18544635
53	0x3c9f09e0	0.019413888
54	0x3d3b7436	0.045765124
55	0x3e083827	0.1330267
56	0x3e0566b1	0.13027455
57	0xbdc596a9	-0.09647877
58	0x3e1cabf6	0.15299973
59	0xbdb0ff57	-0.08642452
60	0xbdbd42bc	-0.09241244
61	0xbc95c934	-0.018284418
62	0xbd53db89	-0.051723037
63	0x3b84c3b0	0.004051648
64	0x3d94d918	0.0726797
65	0x3e20e5ca	0.15712658
66	0x3dec1f6f	0.11529433
67	0x3c94dd58	0.018171951
68	0x3d3602f7	0.04443642
69	0x3e240219	0.16016425
70	0xbd1e30d2	-0.038620777
71	0x3cd7083e	0.026249047
72	0xbce73b7b	-0.028226605
73	0x3d848ff2	0.06472768
74	0xb923dd6c	-0.00015627377
75	0xbd2187f6	-0.039436303
76	0x3da58847	0.080826335
77	0x3e5f2726	0.21792278
78	0x3e0969e4	0.134193
79	0xba34b8c5	-0.0006893988
80	0x3e626cf9	0.22111882
81	0xbd910101	-0.070802696
82	0x3dfb2c79	0.12264342
83	0x3df238f6	0.11827271
84	0x3d981690	0.074261785
85	0xbd60b395	-0.054858763
86	0x3d312cf4	0.04325576
87	0x3d0a39c3	0.033746492
88	0xbd090d36	-0.033459865
89	0x3e226f87	0.15862857
90	0xbe6a8c74	-0.22905141
91	0xbd94f006	-0.07272343
92	0x3d42e6e6	0.047583483
93	0x3d50abf1	0.050945226
94	0x3dc99bd4	0.09844175
95	0x3d0da96a	0.034585394
96	0xbc6697d2	-0.014074283
97	0x3dca45bd	0.09876583
98	0x3e46330d	0.19355412
99	0x3e308cd4	0.17241222
100	0x3c9c5f4b	0.019088408
101	0x3d5cd337	0.053912368
102	0x3dd4bdc4	0.103877574
103	0x3d500e55	0.050794918
104	0x3d9c7c8c	0.07640943
105	0x3bc87be9	0.006118287
106	0x3de39593	0.111125134
107	0x3e49f67d	0.19722934
108	0x3c483510	0.012219682
109	0xbcce6ef2	-0.025199387
110	0x3c642b14	0.013926286
111	0x3b860e93	0.004091093
112	0x3e2d5ca4	0.16929871
113	0x3df15345	0.117834605
114	0x3e369694	0.17830878
115	0x3dcac77c	0.0990133
116	0x3ab7e7c6	0.0014030866
117	0x3bb1834c	0.005417263
118	0xbde8e1d6	-0.113712
119	0x3db746e8	0.08949071
120	0x3dad9c73	0.08477106
121	0x3d8caa02	0.06868364
122	0x3c1e2e50	0.009654596
123	0xbce63741	-0.028102519
124	0x3d74d155	0.059769947
125	0x3dc0a2e4	0.09406069
126	0x3e02b178	0.12763011
127	0x3e2c1365	0.16804273
128	0xbb269e38	-0.0025423896
129	0x3e3a16e4	0.18172795
130	0x3cfc20bb	0.030777326
131	0xbd8a6575	-0.06757633
132	0x3d324901	0.043526653
133	0xbc83abd5	-0.016073147
134	0xbb05c890	-0.0020413734
135	0x3e04c7a0	0.12966776
136	0x3e07db12	0.13267162
137	0x3ddbc165	0.107302465
138	0x3e15b2cb	0.14618985
139	0xbe0a7bbf	-0.13523768
140	0xbe1a0cc1	-0.15043928
141	0xbde17293	-0.110081814
142	0xbbfdebe4	-0.0077490676
143	0xbd979880	-0.07402134
144	0xbd8ec5d5	-0.06971327
145	0x3df258a9	0.11833317
146	0xbdb9e5a0	-0.090770006
147	0xbdb4c88d	-0.088273145
148	0x3ce2d488	0.027689233
149	0x3cfaca91	0.03061417
150	0xbbb2c9af	-0.0054561715
151	0xbcffc6ba	-0.03122269
152	0x3de12f79	0.10995383
153	0xbd5d75a5	-0.054067273
154	0xbdedc4eb	-0.11609825
155	0x3e345808	0.17611706
156	0x3c80c717	0.015719933
157	0x3d405fff	0.04696655
158	0xbde27102	-0.11056711
159	0x3e5f8508	0.21828091
160	0x3daacb82	0.08339597
161	0xbcb08fef	-0.021553008
162	0x3d89c395	0.067267574
163	0xbdfc42a0	-0.12317395
164	0xbdc6c063	-0.097046636
165	0xbd81fdb4	-0.06347218
166	0xbdfa1daa	-0.12212689
167	0x3d25e8ad	0.0405051
168	0x3e17c4f7	0.1482123
169	0xbd616086	-0.055023693
170	0xbe8ba6dc	-0.2727574
171	0xbd3936d2	-0.045218296
172	0xbe0840cc	-0.13305968
173	0xbddf245c	-0.10895607
174	0x3ddf20bf	0.10894918
175	0xbe2a938d	-0.16657849
176	0xbe01bf66	-0.12670669
177	0xbcdf4afb	-0.027257433
178	0x3d6ed033	0.058304023
179	0xbcec2c9c	-0.028829865
180	0xbc936ed7	-0.017997188
181	0x3db89556	0.090128586
182	0xbd3d1dff	-0.046171185
183	0xbcbcc302	-0.023042206
184	0xbe4ccd86	-0.20000276
185	0x3dce1a85	0.10063652
186	0xbe237c96	-0.15965495
187	0xbd60d531	-0.054890815
188	0x3cd811a9	0.026375609
189	0xbc2aa098	-0.010414265
190	0xbe279d78	-0.16368663
191	0xbda453ea	-0.08023818
192	0x3d26261a	0.04056368
193	0x3da9bb6b	0.082877
194	0x3d0657ac	0.032798454
195	0x3d3c7a9c	0.046015367
196	0x3ccc37d2	0.024928961
197	0x3d29a54b	0.0414174
198	0x3db35c71	0.08757866
199	0x3ce0ac16	0.027425807
200	0xbc8eaf14	-0.017417468
201	0x3c89da0c	0.016827606
202	0xbbd43186	-0.00647563
203	0x3e5effd7	0.21777283
204	0x3e17f6fc	0.14840311
205	0x3bc539f4	0.0060188714
206	0x3dd5b5db	0.10435077
207	0xbe81d7e7	-0.25360033
208	0xbdd077a1	-0.101790674
209	0x3e55f656	0.20894751
210	0xbde20d55	-0.11037699
211	0xbcfea4ec	-0.0310845
212	0x3d38e7c2	0.045142896
213	0x3d94d6b2	0.072675124
214	0xbc24c9ce	-0.01005788
215	0xbcf31749	-0.02967419
216	0x3de69455	0.11258761
217	0x3d827983	0.06370833
218	0xbe7786d5	-0.24172528
219	0x3db7c76e	0.08973585
220	0x3d24d3da	0.0402411
221	0xbd8a4d00	-0.06752968
222	0xbe94e2ca	-0.29079276
223	0xbd3698dc	-0.04457937
224	0x3dd754e9	0.10514242
225	0xbda99d14	-0.082819134
226	0x3d3202db	0.043459754
227	0x3d1f7be9	0.03893653
228	0x3d846020	0.06463647
229	0x3db8074a	0.08985765
230	0xbdc5ba93	-0.09654727
231	0xbdd070c1	-0.10177756
232	0xbe26f382	-0.16303828
233	0xbdc1be00	-0.09460068
234	0xbe965820	-0.2936411
235	0x3e890594	0.26762068
236	0xbe6bc61d	-0.23024793
237	0x3e2ac946	0.16678342
238	0x3c6d48f0	0.014482722
239	0xbe333cba	-0.17503634
240	0xbdc7a181	-0.09747601
241	0xbe8a8506	-0.27054614
242	0x3e08842b	0.13331668
243	0x3e23bbb2	0.15989569
244	0xbdb0bae3	-0.08629396
245	0x3d5f41ca	0.0545061
246	0x3dc30482	0.09522344
247	0x3e13750a	0.14400116
248	0x3dd3ebc6	0.103477046
249	0x3df81b93	0.12114634
250	0xbcce7922	-0.025204245
251	0xbd67ebbb	-0.056621294
252	0xbe245dd3	-0.16051416
253	0x3dba3558	0.09092206
254	0x3d235574	0.039876416
255	0xbc5c1d22	-0.01343468

fc_layer.weight f4 [64, 64]
0	0xbec0291c	-0.37531364
1	0xbe9d9d47	-0.30784056
2	0xbeded6f9	-0.43523386
3	0x3ef49b65	0.47774807
4	0x3ed01b9d	0.40646067
5	0xbeefc696	-0.46831197
6	0x3e9b714b	0.30359873
7	0xbeb3c0df	-0.35108086
8	0x3eec65f1	0.46171525
9	0xbe858352	-0.26076752
10	0x3f190075	0.5976632
11	0x3f13da09	0.5775457
12	0x3eebc026	0.46045035
13	0x3f00117e	0.5002669
14	0x3efdeea3	0.49596128
15	0x3e9fe633	0.31230316
16	0xbe87f965	-0.2655746
17	0xbec3466b	-0.38139662
18	0x3edf1b99	0.43575743
19	0xbeab1495	-0.3341414
20	0xbed63c40	-0.41842842
21	0xbe8f8264	-0.28029168
22	0xbeb94366	-0.36184233
23	0xbedbb787	-0.42913458
24	0xbf028da3	-0.5099737
25	0x3eb7f383	0.35927972
26	0x3ec77f36	0.38964242
27	0xbeeb5a99	-0.45967558
28	0x3ed01608	0.40641809
29	0xbec54a1f	-0.38533112
30	0xbef7a0bd	-0.4836482
31	0xbea4b256	-0.3216731
32	0xbf0beb56	-0.5465597
33	0xbed69f46	-0.4191839
34	0xbeafcdee	-0.343368
35	0xbee5079e	-0.44732374
36	0xbeb0eae6	-0.34554213
37	0x3ef3840d	0.47561684
38	0xbf129e5d	-0.57272893
39	0x3e778e62	0.24175408
40	0xbef664ed	-0.48123875
41	0x3f044687	0.51670116
42	0x3edec6f1	0.43511155
43	0xbeaea944	-0.34113514
44	0x3efcf7c7	0.4940779
45	0x3ec47e4c	0.38377607
46	0xbe7c444a	-0.24635425
47	0x3ed010b9	0.40637758
48	0xbea94d65	-0.3306686
49	0xbeaef750	-0.3417306
50	0x3ee69995	0.4503905
51	0xbeedc679	-0.46440485
52	0x3eddbcc3	0.43308076
53	0x3f012434	0.50445867
54	0x3e665172	0.22492006
55	0x3ebf0e26	0.37315482
56	0x3ed8644a	0.42264014
57	0x3e8980e1	0.2685614
58	0xbed8a92a	-0.42316562
59	0xbeab669c	-0.33476722
60	0xbebdff16	-0.37108678
61	0x3ecaa4b0	0.39578772
62	0x3ef589f0	0.479568
63	0x3ea10b8c	0.31454122
64	0xbd0e5005	-0.03474428
65	0xbc619447	-0.013768262
66	0x3d6ef804	0.058341995
67	0x3ce77f5d	0.028258974
68	0xbdd16dc9	-0.10226018
69	0x3a5a6201	0.0008330644
70	0xbdd2bc26	-0.10289793
71	0xbdb923e4	-0.09040049
72	0x3a81cb4e	0.0009902508
73	0xbd7eac5c	-0.062176093
74	0x3dbf550b	0.093423925
75	0xbd9632f9	-0.07333941
76	0xbd02cf90	-0.03193623
77	0x3d4ac121	0.04950059
78	0x3cd8846b	0.02643033
79	0x3cc78012	0.02435306
80	0x3bf68bbc	0.007523982
81	0xbc5ef198	-0.013607405
82	0xbd9441ed	-0.07239137
83	0x3e0abeac	0.13549298
84	0x3dd9cfc3	0.106353305
85	0xbd5e203e	-0.054229967
86	0x3da904d8	0.08252877
87	0x3d56a67c	0.052404866
88	0xbda0153d	-0.07816551
89	0xbd885014	-0.06655899
90	0xbc41b071	-0.011821852
91	0xbd8b94ee	-0.068155155
92	0xbdb0b21a	-0.0862772
93	0x3c136e6f	0.008998497
94	0xbdc87ddd	-0.097896315
95	0xbd8e712c	-0.069551796
96	0x3ce49a62	0.027905647
97	0x3b105830	0.002202522
98	0x3d86ac54	0.06575838
99	0x3dc18d29	0.09450752
100	0x3dc02edd	0.093839385
101	0xbd91c2da	-0.07117243
102	0x3cd95c3b	0.026533237
103	0xbd58cfc6	-0.052932523
104	0x3d2e20fc	0.042511925
105	0xbe079a60	-0.13242483
106	0x3db8fa39	0.09032101
107	0x3db1ff01	0.08691216
108	0xbd2e6be6	-0.04258337
109	0xbd707ef6	-0.05871483
110	0x3de7f25a	0.11325522
111	0x3d6b80c9	0.057495866
112	0x3e08033a	0.13282481
113	0xbd80a834	-0.06282082
114	0xbdc942bd	-0.098271824
115	0xbdcc3e88	-0.099728644
116	0xbcfb72f6	-0.030694466
117	0x3bb921c8	0.005649779
118	0x3db99df6	0.09063332
119	0xbd928713	-0.071546696
120	0xbdf6ff2e	-0.120603904
121	0xbaa4bbbb	-0.0012568155
122	0x3cecd70f	0.028911142
123	0x3d48a0a1	0.048981313
124	0xbd1bf6f3	-0.038077306
125	0xbde03748	-0.10948044
126	0xbdfb32e7	-0.12265568
127	0x3df036a5	0.117291726
128	0x3ea1fd24	0.31638443
129	0xbee7b398	-0.45254207
130	0x3d4f2f88	0.05058244
131	0xbd30556f	-0.043050226
132	0xbe9e4178	-0.30909324
133	0xbe413b35	-0.18870242
134	0x3d0c1ff5	0.034210164
135	0xbca13991	-0.01968077
136	0xbef402bd	-0.4765834
137	0xbe97077c	-0.29497898
138	0xbf1d0891	-0.61341196
139	0x3d90be55	0.07067553
140	0x3dcde2c8	0.10053021
141	0xbdd44aa8	-0.10365802
142	0x3dd6fcd9	0.104974456
143	0x3e36a0ae	0.17834732
144	0xbe8d7309	-0.27626827
145	0xbe851b0e	-0.25997204
146	0xbeac00d5	-0.33594385
147	0xbde61f08	-0.112363875
148	0xbb7c9b5d	-0.0038544752
149	0xbf3a50e0	-0.72779655
150	0xbd0051f8	-0.03132817
151	0x3f00bd84	0.5028918
152	0xbcbef413	-0.023309743
153	0xbd3aa041	-0.045562986
154	0x3eef9a97	0.4679763
155	0xbdfd0fa5	-0.123564996
156	0xbd5ee8b4	-0.05442114
157	0xbe4ed568	-0.20198596
158	0x3f00e44b	0.5034835
159	0x3e87dfe2	0.26537997
160	0xbdda570c	-0.10661134
161	0x3e8dcf78	0.2769735
162	0x3db3168e	0.08744536
163	0x3f05399e	0.5204104
164	0x3deeaa95	0.1165363
165	0x3df3ca3a	0.11903806
166	0x3f29b05c	0.6628473
167	0x3ea06603	0.3132783
168	0x3c5f1896	0.013616702
169	0xbddb7cfe	-0.107172
170	0x3dfba37f	0.12287044
171	0xbe011e04	-0.12609106
172	0x3e19c01c	0.1501469
173	0x3d6990f9	0.057023022
174	0xbef0d814	-0.47039855
175	0x3e17d775	0.14828284
176	0xbeed54ba	-0.46353704
177	0xbed9ed46	-0.42563838
178	0xbf551c19	-0.83246
179	0x3e3d6965	0.18497236
180	0xbdf077a2	-0.11741568
181	0x3dee202d	0.11627231
182	0x3d111a79	0.035425637
183	0x3da591e1	0.08084465
184	0xbeda3d11	-0.42624715
185	0x3e01b2cc	0.12665862
186	0xbcc00b16	-0.023442786
187	0x3d97d9cc	0.07414588
188	0xbd78b335	-0.06071778
189	0xbd410d59	-0.04713187
190	0x3e0dfc11	0.13865687
191	0xbb9a32ac	-0.0047057476
192	0xbf23f4f4	-0.64045644
193	0xbe5dcf7e	-0.21661183
194	0xbf0aba94	-0.54190946
195	0x3ef2d6ac	0.47429407
196	0x3f14d89d	0.58143026
197	0xbf03d077	-0.5148997
198	0x3f0f9b8f	0.5609674
199	0xbecba8d7	-0.39777252
200	0x3f0533fb	0.5203244
201	0xbec25366	-0.37954253
202	0x3f090bc8	0.535336
203	0x3ee9408b	0.45557055
204	0x3eb122c2	0.3459683
205	0x3f18585d	0.5950983
206	0x3ec7117d	0.3888053
207	0x3f0b0de1	0.5431805
208	0xbec40bf6	-0.38290375
209	0xbedf1f94	-0.4357878
210	0x3f1b3caa	0.6063944
211	0xbec56f15	-0.3856131
212	0xbe9cd936	-0.3063447
213	0xbedecb41	-0.43514445
214	0xbeca0cf5	-0.3946301
215	0xbf1800bd	-0.59376127
216	0xbf03ff40	-0.51561356
217	0x3ee87ba0	0.45406818
218	0x3eaf1dcf	0.3420243
219	0xbf051616	-0.51986825
220	0x3ef78af0	0.48348188
221	0xbeaf361a	-0.34220964
222	0xbf09e850	-0.53870106
223	0xbf0c3ae5	-0.54777366
224	0xbf05b9ed	-0.52236825
225	0xbf109c15	-0.5648816
226	0xbf0105fd	-0.5039976
227	0xbf1f20ac	-0.6215923
228	0xbf098952	-0.5372516
229	0x3ef76d25	0.48325458
230	0xbf1d4b94	-0.6144345
231	0x3ed2eca8	0.4119618
232	0xbeb0843c	-0.34475887
233	0x3ec8eb23	0.39241895
234	0x3f04f7e7	0.5194077
235	0xbf126522	-0.57185566
236	0x3ea8e083	0.3298379
237	0x3f181a84	0.5941546
238	0xbef312c1	-0.47475246
239	0x3f17a648	0.592381
240	0xbe961c13	-0.29318294
241	0xbeb36b4a	-0.35042793
242	0x3efee32b	0.4978269
243	0xbedf4d62	-0.43613726
244	0x3f02302f	0.5085477
245	0x3f01ab2b	0.50651807
246	0x3ec7a276	0.38991135
247	0x3f19cefc	0.6008146
248	0x3f0a7c64	0.54096055
249	0x3f0105a1	0.50399214
250	0xbeff3e07	-0.4985201
251	0xbef38b47	-0.47567198
252	0xbeab8a26	-0.33503836
253	0x3edd37dc	0.4320668
254	0x3f00d54a	0.50325453
255	0x3ecd9676	0.40153855

fc_layer.bias f4 [64]
0	0x3ee2753f	0.44230077
1	0xbd272169	-0.040803347
2	0xbdf8a344	-0.121405154
3	0x3f0c96c4	0.5491755
4	0x3e82535f	0.25454232
5	0x3efc9d1a	0.4933861
6	0x3eedd0b0	0.46448278
7	0x3cbeddd7	0.02329914
8	0x3e01a45f	0.12660359
9	0x3eef2ea6	0.46715277
10	0x3f0b453a	0.54402506
11	0x3ef364e8	0.47537923
12	0x3e66692a	0.22501054
13	0x3e0ee1b7	0.13953291
14	0x3e1f044b	0.15528981
15	0xbdb2fd53	-0.08739724
16	0x3e5c67e3	0.21524005
17	0xbdbf58f1	-0.09343136
18	0x3e78e60f	0.2430651
19	0x3e05383a	0.1300973
20	0xbd143bfb	-0.036190014
21	0xbcdd6e60	-0.02703017
22	0xbbebf76e	-0.007201127
23	0x3d85030e	0.06494723
24	0x3ed809ba	0.4219492
25	0x3eb51aee	0.35372108
26	0x3c724cf5	0.014788856
27	0x3ed8d89d	0.42352763
28	0x3e3e9b48	0.18613923
29	0x3eb2e69d	0.3494157
30	0x3e5e9e8d	0.2174017
31	0x3e06a882	0.13150218
32	0x3ed56d29	0.41684845
33	0xbcf3f44f	-0.029779581
34	0x3e0b4be9	0.13603176
35	0x3e61157a	0.21980849
36	0x3d6d1ba7	0.0578877
37	0x3ecebf37	0.4038026
38	0xbcef8f12	-0.029243026
39	0xbd0482f6	-0.032351457
40	0x3e06fdf2	0.1318281
41	0x3edd4e6f	0.43223903
42	0x3f05cf07	0.52269024
43	0x3ed18488	0.40921426
44	0x3dd47157	0.1037318
45	0x3db0d12d	0.08633647
46	0x3e2e66ab	0.17031352
47	0x3f020483	0.50788134
48	0x3e3a8513	0.18214826
49	0xbd2b514c	-0.041825578
50	0x3efa4e7a	0.48887998
51	0x3e93b9cd	0.28852692
52	0x3ea7486f	0.3267245
53	0x3cbb4508	0.022860065
54	0x3eddce40	0.4332142
55	0x3edf6912	0.4363485
56	0x3ec19397	0.37807915
57	0x3f05983a	0.52185404
58	0x3ef86216	0.48512334
59	0x3eb1832e	0.34670395
60	0x3d93d48e	0.07218276
61	0x3e285497	0.16438518
62	0x3ea8ce97	0.32970116
63	0xbd07a502	-0.033116348

output_layer.weight f4 [1, 64]
0	0x3f0d1bd8	0.5512061
1	0xbca89dd9	-0.02058308
2	0xbf36f639	-0.71469456
3	0x3eebbc5a	0.46042138
4	0x3f08dd74	0.5346291
5	0x3efa014e	0.4882912
6	0x3f07b31a	0.5300766
7	0xbf1bb9bb	-0.6083028
8	0xbf8a681b	-1.081302
9	0x3f031665	0.51206046
10	0x3ef0aa12	0.47004753
11	0x3f0a09df	0.5392131
12	0x3f0a5f14	0.5405133
13	0xbf5833ab	-0.8445384
14	0xbf44d033	-0.76880187
15	0xbd9658ca	-0.07341154
16	0xbf7ff55a	-0.9998375
17	0xbf656c64	-0.89618516
18	0x3f0f2ea9	0.5593057
19	0xbf89c149	-1.0762111
20	0xbf924fac	-1.1430564
21	0xbd938c56	-0.07204501
22	0xbf694d31	-0.9113341
23	0xbda43336	-0.0801758
24	0x3efa6f65	0.48913112
25	0x3f0d70ee	0.5525044
26	0xbf6d73fc	-0.92755103
27	0x3f020401	0.5078736
28	0xbf86319c	-1.048389
29	0xbf6f8bf7	-0.93572944
30	0xbf7efec7	-0.9960751
31	0xbf34b3f0	-0.7058706
32	0x3f097e65	0.5370849
33	0xbbc1a15d	-0.0059091286
34	0xbf3984c2	-0.724682
35	0xbf6d6bf2	-0.92742836
36	0xbd9a0643	-0.075207256
37	0x3f0db099	0.5534759
38	0xbf567d5b	-0.8378503
39	0xbd94f158	-0.07272595
40	0x3f85c181	1.0449678
41	0x3f0bd9b8	0.5462909
42	0x3ef01161	0.4688826
43	0x3efed053	0.49768314
44	0xbf81e7a1	-1.0148813
45	0xbf147e47	-0.58005184
46	0x3f81a479	1.0128318
47	0x3ef4aab9	0.477865
48	0xbf4f4987	-0.8097157
49	0x3f79ae0a	0.9753119
50	0x3f070aa3	0.52750605
51	0x3ef52da0	0.47886372
52	0x3f091312	0.53544724
53	0xbf4b12c1	-0.7932549
54	0x3ef765f8	0.48319983
55	0x3f105259	0.5637565
56	0x3f018ce5	0.50605613
57	0x3ef2547a	0.47330076
58	0x3f01dc3c	0.50726676
59	0xbf6a9c17	-0.91644424
60	0xbf632b42	-0.8873788
61	0xbf89a878	-1.0754538
62	0x3f136c44	0.57587075
63	0xbf5fbbec	-0.8739612
