Conditional_TimeGAN/result/original/model/CT_lag1_total1/torch_best_model.pt (torch, 87834 bytes, 7 tensors)

lstm.weight_ih_l0 f4 [256, 1]
0	0xbd5cf519	-0.05394468
1	0x3da34ca8	0.079736054
2	0x3bb7c850	0.005608596
3	0xbd3dd5f1	-0.04634661
4	0x3d87ff2f	0.06640469
5	0xbb7535a4	-0.0037416006
6	0x3d978668	0.07398683
7	0x3e1dfd36	0.15428624
8	0x3cfc6d33	0.030813789
9	0x3d79573c	0.06087421
10	0x3c6193cc	0.013768148
11	0xbdbbb45d	-0.09165261
12	0xbd0fb20a	-0.0350819
13	0xbc298237	-0.010345987
14	0xbd96124b	-0.07327708
15	0x3ce4418c	0.027863286
16	0x3e0000aa	0.12500253
17	0x3d93df72	0.07220353
18	0xbdb13c19	-0.08654041
19	0xbcbea76b	-0.02327319
20	0x3e1c9dfd	0.15294643
21	0x3df5efc2	0.12008621
22	0x3d07c156	0.033143364
23	0x3dd9884a	0.10621698
24	0x3d2be535	0.041966636
25	0x3db3d33d	0.08780525
26	0x3e27d5c4	0.16390139
27	0xbd857f22	-0.06518389
28	0xbc035bda	-0.008017505
29	0x3e084de9	0.1331097
30	0x3c2c3371	0.010510311
31	0x3efe492b	0.49665198
32	0xbd84c60d	-0.06483088
33	0xbccdc0b2	-0.025116298
34	0xbc9ee724	-0.019397326
35	0x3cb47a84	0.022031076
36	0xbdd0faea	-0.10204108
37	0x3d0163f8	0.03158948
38	0x3db2039e	0.08692096
39	0x3d9d400b	0.07678231
40	0x3da0a68c	0.07844266
41	0x3c5ed0a1	0.013599546
42	0x3c2a8759	0.010408246
43	0xbd5c6451	-0.053806607
44	0xbc4355fc	-0.011922356
45	0xbd2dab23	-0.042399537
46	0x3d1b13ad	0.03786056
47	0x3e17c453	0.14820985
48	0x3be50c20	0.006989971
49	0xbc3cb299	-0.01151719
50	0x3ca90d75	0.0206363
51	0x3dee1185	0.11624435
52	0x3e1765f2	0.14784983
53	0x3d40b6dc	0.04704939
54	0x3df18cef	0.11794459
55	0xbcbf761b	-0.023371747
56	0x3d927b64	0.07152441
57	0xbd42b7b2	-0.047538467
58	0xbd623ef6	-0.055235825
59	0xbcebcec3	-0.028785115
60	0x3d578ee7	0.052626517
61	0x3da569b3	0.08076801
62	0x3c902625	0.017596314
63	0x3dcb627e	0.09930895
64	0x3e1741be	0.14771172
65	0x3cc2b346	0.023767125
66	0x3db6171f	0.08891129
67	0x3d905c99	0.070489116
68	0x3d8daf49	0.069181986
69	0x3e88198c	0.2658199
70	0xbc761ade	-0.015021054
71	0xbc3f1585	-0.0116628455
72	0x3bdaa39d	0.0066723363
73	0x3de47658	0.11155385
74	0x3d877d03	0.06615641
75	0x3e8572bf	0.26064107
76	0x3e3c4004	0.18383795
77	0xbc352cc8	-0.01105804
78	0xbc9341a5	-0.017975638
79	0x3c77b3c2	0.015118541
80	0xbcf65844	-0.030071385
81	0x3d3a3393	0.04545934
82	0x3e19181b	0.14950602
83	0x3d279772	0.040915914
84	0x3c0507d0	0.008119538
85	0x3c373c8b	0.011183868
86	0x3b9f1972	0.0048553282
87	0xbb3d8609	-0.0028919003
88	0x3d026b09	0.031840358
89	0xbc1fadde	-0.009746043
90	0x3c77e2b4	0.015129734
91	0x3e3504bf	0.17677592
92	0x3e7884fb	0.24269478
93	0xbbe2faa0	-0.0069268495
94	0x3d0baa81	0.034098152
95	0xbd0d8a66	-0.034555815
96	0x3e0acdfa	0.13555136
97	0x3d9ddcc4	0.07708123
98	0xbc88ffb8	-0.016723499
99	0x3d182bb3	0.03715105
100	0x3e373cea	0.1789433
101	0x3da0d4f2	0.07853116
102	0xbc893e7e	-0.016753431
103	0x3c219689	0.0098625505
104	0xbc251890	-0.010076657
105	0x3cbdbac5	0.023160348
106	0xbc9dc10c	-0.019257091
107	0x3b1ed8c1	0.0024238082
108	0x3d14dea9	0.036345158
109	0x3d3bc11b	0.045838457
110	0x3ccc1bc9	0.024915593
111	0x3dd75e17	0.10515993
112	0xbbdf5c67	-0.006816435
113	0x3dd75d97	0.10515898
114	0x3e232eb1	0.1593578
115	0xbcb37634	-0.02190695
116	0x3d1e5ef8	0.038664788
117	0xbbc10edb	-0.0058916635
118	0x3b6d9de1	0.0036257433
119	0x3d3696d1	0.044577423
120	0xbad76144	-0.0016432186
121	0x3d190756	0.03736051
122	0x3cb61581	0.02222705
123	0x3da45445	0.08023886
124	0xbc5f7950	-0.013639763
125	0x3ccfe905	0.025379667
126	0x3c585378	0.013203494
127	0x3d5f09d9	0.05445275
128	0xbe0067aa	-0.12539545
129	0xbd2aa80f	-0.04166418
130	0xbc330dee	-0.010928614
131	0x3d35e255	0.0444053
132	0xbc81dad0	-0.015851408
133	0xbd0f3701	-0.034964565
134	0x3d01dd14	0.031704977
135	0xbb1d960e	-0.0024045738
136	0xbc353ef1	-0.01106237
137	0xbd9f1433	-0.077675246
138	0xbc0b0471	-0.008484946
139	0x3e4825a1	0.19545604
140	0x3ed115ef	0.40837047
141	0x3de9afa0	0.11410451
142	0x3d66d313	0.05635364
143	0xbb9e201d	-0.0048256055
144	0xbd38c1cb	-0.04510669
145	0xbd92425f	-0.071415655
146	0x3bc87dd1	0.006118514
147	0xbc1e419d	-0.009659198
148	0xbbe92563	-0.0071150525
149	0xbcb8968a	-0.02253272
150	0xbd33a9bb	-0.04386304
151	0xbcabb7f2	-0.020961735
152	0xbc9d3419	-0.019189881
153	0x3d898dcd	0.067164995
154	0x3c9a409f	0.018829642
155	0xbe16ecb0	-0.14738727
156	0x3da7ea3e	0.08198975
157	0xbc40c7ae	-0.011766357
158	0x3b74db4e	0.003736216
159	0xbe5d4fe3	-0.21612506
160	0xbd6b3796	-0.057426058
161	0xbc19d003	-0.009387973
162	0xbdce98b2	-0.10087718
163	0xbe14619b	-0.14490359
164	0xbd88d9d2	-0.06682171
165	0x3b1b1437	0.0023663172
166	0xbd4b64db	-0.04965673
167	0x3d749c42	0.05971933
168	0xbcab236d	-0.020890916
169	0x3c5abfc5	0.0133513855
170	0x3de75689	0.11295802
171	0xbdf05b06	-0.11736111
172	0x3da0a967	0.07844811
173	0x3d034d8c	0.032056376
174	0xbd56de19	-0.052457903
175	0x3d05de86	0.032682918
176	0xbb23e8ca	-0.002501058
177	0xbe4d89d8	-0.20072114
178	0x3d18f07d	0.037338722
179	0xbd281e01	-0.04104424
180	0x3ca9fc41	0.020750167
181	0xbbf91e2b	-0.0076024733
182	0x3c7f9575	0.015599598
183	0x3d140361	0.036136035
184	0x3c5de6b7	0.013543776
185	0x3d6701b7	0.05639812
186	0x3a1f9427	0.0006087445
187	0xbd531749	-0.05153588
188	0xbcf1369b	-0.029444983
189	0x3d0d68d6	0.034523807
190	0x3d23d6b4	0.03999968
191	0x3d8c7ebc	0.0686011
192	0x3caa11a3	0.020760363
193	0x3c08516d	0.008320195
194	0x3bc940ed	0.006141773
195	0x3ccefb81	0.02526641
196	0x3d2df479	0.042469475
197	0x3dd07888	0.101792395
198	0x3bdf49c9	0.006814216
199	0x3d887bdd	0.0666425
200	0x3db0c95e	0.08632158
201	0x3cba7699	0.02276163
202	0x3cc134eb	0.023584804
203	0x3c5105ee	0.012757761
204	0x3d81e33b	0.06342169
205	0x3d74571d	0.05965339
206	0x3d1976b5	0.037466723
207	0x3df8cc0a	0.12148292
208	0x3c14af5a	0.00907501
209	0x3cac2b8a	0.021016855
210	0x3df7209a	0.12066765
211	0x3cc82b36	0.024434667
212	0x3db1630e	0.08661471
213	0x3cefa909	0.029255407
214	0x3ca0ce46	0.019629609
215	0x3d71e7c1	0.05905891
216	0x3d1306b0	0.03589505
217	0x3c1684ed	0.009186965
218	0x3e39f959	0.18161525
219	0x3c1f65a6	0.009728825
220	0x3d4e87b4	0.050422385
221	0x3e466b44	0.19376856
222	0x3cdfe37b	0.02733015
223	0x3c98e6aa	0.018664677
224	0x3c2debf5	0.010615339
225	0x3d7d4ea1	0.061842564
226	0x3c0282cb	0.007965754
227	0x3c433fc3	0.011917057
228	0x3c834ef3	0.016028857
229	0x3cc8b1ee	0.024498906
230	0xbba009c6	-0.0048839776
231	0x3e2ae299	0.16688003
232	0x3deb600c	0.11492929
233	0x3e00da94	0.12583381
234	0x3e14a531	0.1451614
235	0x3c645f64	0.0139387585
236	0x3e0915d1	0.13387229
237	0xba6dc11e	-0.0009069609
238	0x3cac6006	0.021041881
239	0x3df1d28b	0.11807736
240	0x3e09dab9	0.13462342
241	0x3d4b8370	0.049685895
242	0x3dba953e	0.09110497
243	0x3bf35ed6	0.007427077
244	0x3e49d19f	0.1970887
245	0x3c708357	0.014679751
246	0x3dc88e89	0.097928114
247	0x3baf6dda	0.0053536715
248	0x3c06dc87	0.008231289
249	0x3ca5ecc4	0.0202545
250	0x3cb2d8f7	0.021831973
251	0x3d9da23c	0.076969594
252	0x3ce6df7e	0.028182741
253	0x3b92631c	0.004467381
254	0xbb4a64c9	-0.0030882827
255	0xbc4faee7	-0.012675977

lstm.weight_hh_l0 f4 [256, 64]
0	0xbe7d0486	-0.24708757
1	0xbc85f6a1	-0.016352953
2	0xbe052e64	-0.13005978
3	0x3d2b603c	0.041839823
4	0x3d93ec94	0.07222858
5	0x3c79285f	0.015207379
6	0x3e3dc8b0	0.18533587
7	0xbc87f1db	-0.016594818
8	0x3dcc96af	0.09989678
9	0xbde9f0da	-0.11422892
10	0x3d23a95d	0.03995644
11	0x3ce57a5d	0.028012449
12	0x3e766fd8	0.24066103
13	0x3e052380	0.13001823
14	0x3da9bc35	0.08287851
15	0x3de7ffdf	0.113281004
16	0xbe4d0012	-0.20019558
17	0xbd5733a6	-0.05253949
18	0x3c9fba5a	0.019498039
19	0xbe62ea88	-0.22159779
20	0x3e18fcb6	0.14940152
21	0x3c69c0e9	0.014267185
22	0xbdeb5459	-0.114906974
23	0xbc40188d	-0.011724603
24	0x3d140004	0.036132827
25	0x3cc80894	0.024418153
26	0xbdfc99e8	-0.12334043
27	0xbd728645	-0.05921008
28	0x3e1e3c58	0.15452707
29	0x3cc4d9b4	0.02402959
30	0xbe092dee	-0.13396427
31	0xbd55302a	-0.052047886
32	0xbe195737	-0.14974676
33	0xbdcfb95c	-0.10142776
34	0xbe442c7e	-0.19157597
35	0xbdc21182	-0.094759956
36	0x3dbde80f	0.09272777
37	0x3c8a4a66	0.016881179
38	0xbdf2d4d9	-0.11857004
39	0x3b67a090	0.0035343505
40	0xbbedf8f5	-0.007262344
41	0xbd87960b	-0.06620415
42	0x3e0a8dbf	0.13530634
43	0xbe5ce83c	-0.21572965
44	0x3d807daa	0.062739685
45	0x3e1c5f1b	0.15270655
46	0xbe1c032f	-0.1523559
47	0x3de4a423	0.11164119
48	0xbd997e30	-0.074947715
49	0xbe4327e2	-0.19058183
50	0x3df08eec	0.1174601
51	0xbd10fb09	-0.035395656
52	0x3e099c98	0.13438642
53	0x3da1d5a8	0.0790208
54	0xbe036de6	-0.12834892
55	0x3dde7534	0.108621985
56	0x3cccaf94	0.024986066
57	0x3df3a960	0.1189754
58	0xbdb01575	-0.085978426
59	0xbd8e6669	-0.06953127
60	0xbe148057	-0.14502083
61	0x3dd8cf51	0.105864175
62	0x3e1f7ba6	0.15574512
63	0x3e016f03	0.12640004
64	0xbcbbb56d	-0.022913659
65	0x3e1802d6	0.14844832
66	0xbe0dff9f	-0.13867043
67	0x3d3329a9	0.043740902
68	0x3db67b51	0.089102395
69	0x3dc60acb	0.09670027
70	0x3da7fe3c	0.08202788
71	0xbcaf7f4d	-0.021423006
72	0xbc0c12e9	-0.00854943
73	0xbc1dca5f	-0.009630769
74	0xbd8d9115	-0.06912438
75	0xbdf2898c	-0.11842641
76	0x3e27070c	0.16311282
77	0x3c0cbe0c	0.008590233
78	0xbd5aff57	-0.053466167
79	0x3d06e862	0.03293646
80	0x3de61a35	0.11235467
81	0x3df2d4b8	0.11856979
82	0x3da81e90	0.08208954
83	0x3d79d160	0.06099069
84	0x3d5b3949	0.05352143
85	0x3d120fcb	0.035659593
86	0x3c8706bb	0.016482702
87	0x3dc599ac	0.09648451
88	0x3d6582fb	0.056033116
89	0x3e16b245	0.14716442
90	0xbe36e5cc	-0.17861098
91	0x3db29b7d	0.08721063
92	0xbd4d294d	-0.050088216
93	0xbe50869e	-0.20363852
94	0xbd70695d	-0.058694232
95	0x3d974070	0.07385337
96	0xbd33bfdd	-0.043884147
97	0x3d65d545	0.056111593
98	0xbd692c77	-0.05692717
99	0x3d244cca	0.040112294
100	0x3e05faa6	0.13083896
101	0x3d9a0992	0.07521357
102	0xbe08f015	-0.13372834
103	0x3d9c2a48	0.07625252
104	0xbe02dfd8	-0.12780702
105	0xbddc8eb0	-0.10769403
106	0xbddb13bb	-0.10697123
107	0x3d8a7cc5	0.06762079
108	0x3db42728	0.08796531
109	0x3e128c46	0.14311323
110	0x3df09726	0.11747579
111	0xbdcd7e88	-0.100338995
112	0xbe1182c4	-0.1421004
113	0x3c8417b1	0.016124578
114	0xbd90cc47	-0.07070213
115	0x3d6b7726	0.057486676
116	0xbe2073e3	-0.15669207
117	0xbcac7f83	-0.021056896
118	0xbe875bbe	-0.2643718
119	0xbd1dc0e3	-0.03851403
120	0x3e677806	0.22604379
121	0x3df913f9	0.121620126
122	0x3d650d41	0.055920843
123	0x3db995e3	0.09061792
124	0x3e193b6f	0.14964078
125	0x3be6141f	0.0070214416
126	0x3ca9c1a8	0.020722225
127	0x3e14c076	0.14526543
128	0x3bd4c8d4	0.006493667
129	0xbd201116	-0.039078794
130	0xbe0aab7c	-0.13541979
131	0x3d9e96a9	0.0774358
132	0xbd0ed8ce	-0.03487473
133	0xbc6f460c	-0.014604103
134	0x3e533678	0.20626247
135	0xbe435a24	-0.19077355
136	0xbdccd87c	-0.100022286
137	0xbe71f443	-0.23628335
138	0xbde97fab	-0.11401304
139	0x3e1b1d59	0.15147914
140	0x3daeaa37	0.0852856
141	0x3d97703f	0.07394456
142	0xbd6cd17b	-0.057816964
143	0x3d70cf0d	0.05879121
144	0xbdc44bbf	-0.0958476
145	0xbe1b6c5c	-0.15178055
146	0xbcbd1eac	-0.023085915
147	0xbd4b3f51	-0.04962093
148	0xbdef2cf4	-0.11678496
149	0xbea3b77d	-0.31975928
150	0xbce50b88	-0.0279596
151	0xbd93f5fb	-0.072246514
152	0xbe7d3aa6	-0.24729404
153	0x3e5c0d4d	0.21489449
154	0x3db572f5	0.08859817
155	0xbe073b49	-0.13206209
156	0x3e1db1fe	0.1539993
157	0xbe295b1b	-0.1653866
158	0xbdca7e9c	-0.0988743
159	0xbe687efc	-0.2270469
160	0xbd618770	-0.055060804
161	0xbd2a72af	-0.041613277
162	0xbd5154ce	-0.051106267
163	0xbbd88102	-0.006607176
164	0xbdbe6c10	-0.09297955
165	0x3dd3d138	0.1034264
166	0xbe219487	-0.15779315
167	0x3e2ccd91	0.16875292
168	0xbdb5bb1e	-0.088735804
169	0x3d4dee21	0.050275926
170	0x3dbdf106	0.09274487
171	0xbdffbe5f	-0.12487482
172	0xbcb9cc18	-0.022680327
173	0x3e0307d4	0.12795955
174	0xbe5d8d0a	-0.21635833
175	0x3e27d284	0.16388899
176	0xbd74eb1b	-0.059794527
177	0xbd2aaa4d	-0.041666318
178	0x3d10ce82	0.03535319
179	0xbe59a6e1	-0.21255066
180	0x3e309fa9	0.17248406
181	0xbea0e222	-0.31422526
182	0x3e6ae3a8	0.22938406
183	0xbd49ca68	-0.049265295
184	0x3d84ded4	0.064878136
185	0xbdf2a759	-0.11848325
186	0xbd105150	-0.035233796
187	0x3d950cfc	0.07277867
188	0xbe959658	-0.29216266
189	0x3e784fee	0.24249241
190	0x3d98779f	0.07444691
191	0x3e3a0ffa	0.18170157
192	0xbdee80fa	-0.11645694
193	0xbe6c5bad	-0.23081847
194	0xbce3a413	-0.027788198
195	0x3e75737b	0.23969834
196	0x3e12e224	0.14344078
197	0xbd533d54	-0.05157216
198	0x3dc576aa	0.09641774
199	0xbd127348	-0.035754472
200	0x3dd7386d	0.10508809
201	0xbd6f714d	-0.05845766
202	0x3d35a752	0.044349022
203	0x3d740d0e	0.059582762
204	0x3c60d67d	0.013723013
205	0x3dc4b51b	0.096048556
206	0x3da4feb5	0.08056394
207	0xbe1e2dc4	-0.15447146
208	0xbda620f3	-0.08111753
209	0xbd5a7922	-0.053338178
210	0x3dabcc5f	0.0838859
211	0xbe5e3862	-0.21701196
212	0xbe733914	-0.23752242
213	0xbe1b5a0f	-0.15171073
214	0xbd9e263c	-0.077221364
215	0x3b0e4a28	0.002171168
216	0xbd682da3	-0.056684148
217	0x3e06b741	0.13155843
218	0x3e0d8bff	0.13822936
219	0xbe8a9374	-0.27065623
220	0x3d15fc2b	0.03661744
221	0xbd70c15b	-0.05877815
222	0xbe501c6d	-0.20323344
223	0xbd8388d1	-0.0642258
224	0xbe7ec8c7	-0.24881278
225	0xbe2ab7b2	-0.16671637
226	0xbe85757e	-0.26066202
227	0xbddc3e79	-0.10754103
228	0xbd8960dc	-0.067079276
229	0x3e60f830	0.21969676
230	0xbd42b1a8	-0.047532707
231	0x3e3e786c	0.18600625
232	0xbdfcc243	-0.1234174
233	0x3d9ecf16	0.07754342
234	0x3dba6a70	0.091023326
235	0xbe326c0f	-0.17424034
236	0x3e432e38	0.190606
237	0x3da35df0	0.079769015
238	0xbce40ac6	-0.027837168
239	0x3ddbd358	0.1073367
240	0xbe728f3f	-0.23687457
241	0xbe2e9c44	-0.17051798
242	0x3e704587	0.23464023
243	0xbc2800e4	-0.010254119
244	0x3bb39c7c	0.005481301
245	0x3c874dba	0.016516555
246	0x3e2697ab	0.16268794
247	0x3e6cdbe6	0.2313076
248	0x3e4f3956	0.20236716
249	0x3d77a845	0.06046321
250	0xbddfc513	-0.10926261
251	0xbd3a475a	-0.045478202
252	0xbe2179f2	-0.15769175
253	0x3e34e090	0.17663789
254	0x3de59c60	0.11211467
255	0x3e6c6152	0.23084

lstm.bias_ih_l0 f4 [256]
0	0x3e16f601	0.1474228
1	0x3dd3b0d8	0.10336465
2	0x3d934135	0.07190172
3	0x3e13a6c8	0.14419091
4	0x3e485634	0.19564134
5	0xbd30f8d7	-0.043206062
6	0xbd895f11	-0.067075856
7	0xbd0d42ef	-0.03448766
8	0xbc94d3b0	-0.018167347
9	0xb992b93d	-0.00027985303
10	0xbd9ddd8f	-0.077082746
11	0xbd1cc15a	-0.038270332
12	0xbc649f78	-0.013954036
13	0x3e252c80	0.16130257
14	0x3e1f22e7	0.15540658
15	0x3e27776c	0.1635415
16	0x3df058ec	0.117357105
17	0x3d3fa741	0.046790365
18	0xbcc9e18e	-0.024643686
19	0x3db786c7	0.089612536
20	0x3e1587fa	0.14602652
21	0x3c0a48fb	0.008440251
22	0x3e2cd095	0.16876443
23	0x3ddb7e3f	0.10717439
24	0x3d68783f	0.0567553
25	0xbb981f96	-0.004642437
26	0x3e14fa42	0.14548591
27	0x3a9ec580	0.0012113303
28	0x3d84aa80	0.06477833
29	0x3e1f579a	0.15560761
30	0x3d59892e	0.05310934
31	0x3eb55fa2	0.35424525
32	0xbca0f806	-0.019649517
33	0x3e127dbd	0.14305778
34	0x3d7a59f5	0.061120946
35	0x3e2c4bb0	0.16825747
36	0x3e0175ac	0.12642545
37	0xbd55e325	-0.052218575
38	0x3dfcd042	0.123444095
39	0xbcabbd46	-0.020964276
40	0x3c28445c	0.010270204
41	0x3d8b1b5a	0.06792326
42	0xbdbe6ff1	-0.09298695
43	0x3e24bc63	0.16087489
44	0x3e3c620a	0.18396774
45	0x3e321433	0.17390518
46	0xbde0f951	-0.10985053
47	0x3e076c22	0.13224843
48	0x3a9bc37f	0.0011883824
49	0xbd490d02	-0.04908467
50	0x3dd7ddfb	0.10540386
51	0xbca5dc22	-0.020246569
52	0xbd972913	-0.07380881
53	0x3d1f7e1c	0.038938627
54	0x3e0bdb03	0.13657765
55	0x3d9b6b0b	0.07588776
56	0xbd9318aa	-0.07182439
57	0x3e066d07	0.13127528
58	0x3e08bede	0.1335406
59	0x3d9301b0	0.07178056
60	0x3c4b4adf	0.012407987
61	0xbd543807	-0.051811244
62	0x3e13f9ec	0.14450806
63	0x3c65b270	0.014019594
64	0x3e03eb5c	0.12882751
65	0xbda770b6	-0.08175795
66	0x3d1e368d	0.038626242
67	0x3db29c35	0.087212004
68	0xbdf4a56c	-0.11945614
69	0x3d9ad2d5	0.07559744
70	0x3d8ac42c	0.06775698
71	0xbc9f93f3	-0.019479727
72	0x3b4c121b	0.0031138721
73	0xbdc42b6b	-0.09578594
74	0xbe126122	-0.14294866
75	0x3e2d5610	0.16927361
76	0x3deb0e3a	0.11477323
77	0x3e049cc1	0.12950422
78	0x3d9ddece	0.07708512
79	0x3df979a7	0.121814065
80	0x3e0bf893	0.13669042
81	0xbd9422a5	-0.072331704
82	0x3de3f20d	0.11130152
83	0x3dded7e7	0.10881024
84	0x3d9949c9	0.074847765
85	0x3d596038	0.053070277
86	0x3da8b47f	0.08237552
87	0x3dab1c09	0.08354957
88	0x3da104df	0.07862257
89	0x3d153ea8	0.036436707
90	0x3d5153e8	0.05110541
91	0x3e17de80	0.14830971
92	0x3e723a24	0.23654991
93	0x3e272fe0	0.16326857
94	0x3e4661c1	0.19373228
95	0x3d3e6c7b	0.046490174
96	0xbcea015e	-0.028565105
97	0x3dcb990e	0.09941302
98	0x3e319014	0.17340118
99	0x3cb9a75b	0.02266281
100	0x3df30d82	0.11867811
101	0x3cbe5c61	0.02323741
102	0x3de1ec8e	0.11031447
103	0x3cf74462	0.030183975
104	0x3e087f74	0.1332987
105	0x3d5b975d	0.05361115
106	0x3df3212a	0.1187156
107	0x3ddf4588	0.10901934
108	0x3e0d9879	0.13827695
109	0xbcae515c	-0.02127903
110	0x3cd85a27	0.026410175
111	0xbdd9db8d	-0.10637579
112	0x3d253e87	0.040342834
113	0xbe220004	-0.15820318
114	0x3db485d9	0.08814592
115	0x3e01d532	0.12678984
116	0x3d1e5b18	0.038661093
117	0x3d31e1f8	0.04342839
118	0x3c554c7c	0.013018724
119	0x3d417841	0.047233824
120	0x3d268e9f	0.040663358
121	0x3ca6135d	0.020272905
122	0x3e5b5a9a	0.2142128
123	0x3dbe414e	0.092898
124	0x3e17aae1	0.14811279
125	0x3d3161b7	0.04330608
126	0xbdaffd89	-0.0859328
127	0x3d2822bd	0.041048754
128	0xbdf2784a	-0.118393496
129	0x39498caa	0.00019221255
130	0xbd804763	-0.06263616
131	0xba590ed4	-0.00082801026
132	0x3e4da2e4	0.20081669
133	0x3dba6f0d	0.091032125
134	0x3dc974d0	0.09836733
135	0xbddd9929	-0.108202286
136	0x3d546a9a	0.051859476
137	0xbe43f6b3	-0.19137077
138	0x3d06381e	0.03276836
139	0x3dda5197	0.10660093
140	0x3e196986	0.1498166
141	0xbdff07c5	-0.12452654
142	0xbe388d22	-0.18022588
143	0x3b8cfa1c	0.0043022763
144	0x3c761d19	0.015021586
145	0xbdc108eb	-0.09425529
146	0xbdd427d2	-0.103591576
147	0x3dc909ce	0.09816323
148	0x3d8f42d9	0.06995172
149	0x3e3448c1	0.17605878
150	0x3d3933bd	0.045215357
151	0x3e1d85a4	0.15383011
152	0x3d466b98	0.048442453
153	0xbb96e7eb	-0.0046052835
154	0xbdd54393	-0.104132794
155	0xbdb64a0c	-0.08900842
156	0xbca6fe8e	-0.020385053
157	0x3d3a1ec5	0.0454395
158	0xbdbefdfc	-0.093257874
159	0xbe23090b	-0.15921418
160	0xbe1fe1f6	-0.15613541
161	0xbc8a64eb	-0.016893825
162	0xbb283274	-0.0025664838
163	0xbdc50895	-0.096207775
164	0x3cfb5e55	0.03068463
165	0xbde8ab0f	-0.11360752
166	0x3db1df8c	0.08685216
167	0xbe42ccab	-0.19023387
168	0x3e2ecbb4	0.17069894
169	0x3df56c76	0.11983578
170	0xbd3b3b33	-0.045710754
171	0xbdb26376	-0.08710377
172	0xbc624e77	-0.013812653
173	0x3da88774	0.08228961
174	0x3da6aeda	0.08138819
175	0xbc960fb7	-0.01831804
176	0x3d43dae7	0.047816183
177	0xbd863025	-0.065521516
178	0xbdc9c702	-0.09852411
179	0x3d014f0c	0.031569526
180	0x3c9162eb	0.017747363
181	0xbd1c9878	-0.038231343
182	0xbe16512c	-0.14679402
183	0xbdd92b09	-0.106039114
184	0xbd7a8c30	-0.06116885
185	0xbd6012f1	-0.054705564
186	0x3d82ee1d	0.06393073
187	0x3d635277	0.055498566
188	0x3d31b342	0.043383844
189	0xbdd25691	-0.102704175
190	0x3d17d395	0.037067015
191	0xbe044be8	-0.12919581
192	0x3e42a3dd	0.19007821
193	0xbdc68b6b	-0.096945606
194	0x3e107762	0.14108041
195	0x3e219944	0.15781122
196	0x3c65f0ea	0.014034489
197	0xbe37b52b	-0.17940204
198	0x3e1cd08a	0.15313926
199	0x3d02ceaa	0.03193537
200	0x3c2cbfe8	0.010543801
201	0xbe07d12c	-0.13263386
202	0xbd57a7d0	-0.052650273
203	0x3e097276	0.1342257
204	0x3e480a3e	0.19535157
205	0xbe02781d	-0.12741132
206	0x3c38fb62	0.011290403
207	0x3ab66967	0.001391691
208	0xbcbfce50	-0.023413807
209	0xbdd3498b	-0.103167616
210	0xbb847b25	-0.0040430003
211	0xbd76a690	-0.06021744
212	0x3e08108f	0.13287567
213	0xbd476877	-0.04868361
214	0xbe2a9925	-0.16659983
215	0xbd6d2fa6	-0.05790677
216	0x3e76c296	0.24097666
217	0x3d8a87a2	0.06764151
218	0x3caad01a	0.020851184
219	0x3e34108f	0.17584442
220	0xbcc0a134	-0.023514368
221	0xbdc78dda	-0.09743853
222	0xbe0543e4	-0.1301418
223	0xbc6f50cb	-0.014606665
224	0x3dd01052	0.10159363
225	0xbd4b09b5	-0.049569804
226	0x3b947536	0.004530574
227	0xbe51ae8d	-0.20476742
228	0x3d88f9b6	0.066882536
229	0x3cf127e1	0.029437961
230	0x3ca41b82	0.020032648
231	0xbdd738e4	-0.10508898
232	0x3dd73464	0.105080396
233	0xbdbbee5b	-0.09176322
234	0xbd147832	-0.03624744
235	0x3db493d2	0.08817257
236	0xbde8d597	-0.11368864
237	0x3db7db29	0.08977348
238	0xbdbb65ac	-0.09150252
239	0xbd2bec7e	-0.041973583
240	0xbd7505b0	-0.059819877
241	0xbde8569a	-0.11344643
242	0x3e51a6bd	0.20473762
243	0xbca20504	-0.019777782
244	0xbcc2b626	-0.023768496
245	0x3cbc5940	0.022991776
246	0xbd3da4ac	-0.04629962
247	0x3d21b71c	0.039481267
248	0xbd78c4f2	-0.060734697
249	0x3dfc859a	0.1233017
250	0x3e59a9ed	0.21256228
251	0x3d9ec7a5	0.07752923
252	0xbdb522dc	-0.088445395
253	0xbc9b2523	-0.018938607
254	0x3c8cc589	0.017184036
255	0xbc8f7af3	-0.017514681

lstm.bias_hh_l0 f4 [256]
0	0xbcf7275d	-0.030170137
1	0xbd7be97b	-0.06150196
2	0xbccce9a2	-0.025013749
3	0x3d5b3b99	0.053523634
4	0x3c61a663	0.01377258
5	0xbdccd724	-0.10001972
6	0x3e193a6c	0.14963692
7	0xbd1b2904	-0.037880912
8	0xbba3a83b	-0.00499442
9	0x3e27873d	0.16360183
10	0xbdc917b0	-0.09818971
11	0x3d3e47a7	0.04645505
12	0xbc2e5fb7	-0.010642937
13	0x3da7417a	0.081667855
14	0x3dbbd1f0	0.09170902
15	0x3c7a0738	0.01526051
16	0xbcf2c906	-0.029636871
17	0x3cb8ecfb	0.022573939
18	0x3d6e8e6c	0.058241293
19	0x3e4516be	0.19246957
20	0x3cb03f8a	0.021514673
21	0x3d9de9b4	0.07710591
22	0x3d692c54	0.05692704
23	0xbd777785	-0.060416717
24	0x3d2dc43f	0.042423483
25	0x3ddda7df	0.108230345
26	0x3e126d78	0.14299572
27	0x3e326e28	0.17424834
28	0x3c38a8ff	0.011270761
29	0x3e0e3c8f	0.13890289
30	0x3df94714	0.1217176
31	0x3f0eb005	0.55737334
32	0x3e000a0c	0.12503833
33	0x3d979a89	0.07402522
34	0x3d5e3dd7	0.054258194
35	0x3e5d6b9a	0.21623078
36	0x3df79dcf	0.120906465
37	0xbe56e56d	-0.20985956
38	0x3e2c4f43	0.16827111
39	0xbd954359	-0.07288236
40	0x3e1baa15	0.152016
41	0x3e262927	0.16226636
42	0xbcdd787b	-0.027034989
43	0xbc92b15c	-0.017906837
44	0xbd719021	-0.058975343
45	0xb8e5f635	-0.000109654306
46	0x3c814985	0.015782127
47	0x3dbb1e40	0.09136629
48	0x3daffc58	0.085930526
49	0xbcf2dff1	-0.0296478
50	0x3d8d504d	0.06900082
51	0xbde1ff5b	-0.11035033
52	0x3dc6caaf	0.097066276
53	0xbdb73b9e	-0.08946918
54	0x3cc42ef2	0.023948167
55	0x3e12f4ae	0.1435115
56	0xbd686228	-0.056734234
57	0xbd4b4b71	-0.049632493
58	0x3e3583ca	0.17726055
59	0xbd10cee3	-0.035353553
60	0xbdfb6362	-0.12274815
61	0xbda8b902	-0.082384124
62	0xbce03dfa	-0.027373303
63	0x3e28c039	0.16479577
64	0x3e2d45aa	0.16921106
65	0x3e03e4c6	0.12880239
66	0x3ddd3949	0.10801942
67	0xbc444115	-0.011978407
68	0xbce062dc	-0.02739089
69	0x3e1a9302	0.15095142
70	0xbc6e539d	-0.014546302
71	0x3d185b5e	0.03719651
72	0x3d5b2d71	0.053510133
73	0x3d9a5adf	0.075368635
74	0x3cb20163	0.021729177
75	0x3e2180cc	0.15771788
76	0x3e1c24e8	0.15248454
77	0x3e38890c	0.18021029
78	0x3e31471b	0.17312281
79	0x3d49efeb	0.04930107
80	0x3e8094d1	0.25113538
81	0xbddad290	-0.10684693
82	0xbbc9e573	-0.0061613857
83	0x3dbf376a	0.09336741
84	0x3e00e8a6	0.12588748
85	0xbd569382	-0.05238677
86	0x3d823eaa	0.063596085
87	0xbc82206a	-0.015884597
88	0xbca2b327	-0.019860817
89	0x3e1afd51	0.15135695
90	0xbcb97483	-0.022638565
91	0x3dfce573	0.123484515
92	0x3e4dc404	0.20094305
93	0x3e32153a	0.1739091
94	0x3e293a3a	0.16526118
95	0x3daa4480	0.083138466
96	0x3d4b46fa	0.049628235
97	0x3de93743	0.113874935
98	0x3e3aff7b	0.1826152
99	0x3e170990	0.14749742
100	0x3da91f4f	0.08257925
101	0x3da1c28b	0.07898434
102	0x3db3c6e4	0.0877817
103	0x39f68ce5	0.0004702575
104	0x3bb2fee8	0.005462516
105	0xbd9a5415	-0.075355686
106	0x3de34ca6	0.11098604
107	0x3e0eee18	0.13958013
108	0xbd326413	-0.04355247
109	0xbc12c47b	-0.008957977
110	0x3db17436	0.086647436
111	0xbc8ea0ac	-0.017410599
112	0x3e587250	0.21137357
113	0xbb913969	-0.0044318927
114	0x3dee37a9	0.1163171
115	0x3d9e3096	0.07724111
116	0xbc033d77	-0.00801026
117	0x3e010c96	0.12602457
118	0x3be3b434	0.006948972
119	0xbc26b983	-0.010176065
120	0x3c5d68bc	0.01351374
121	0x3ccfb63a	0.025355447
122	0x3d321ea5	0.043486256
123	0xbcfc8986	-0.030827295
124	0x3d933c0c	0.071891874
125	0x3e1358bf	0.14389323
126	0x3dcef2fb	0.101049386
127	0x3e3bfa67	0.1835724
128	0xbdea478e	-0.11439429
129	0x3e3fd9ef	0.18735479
130	0xbd9cf601	-0.07664109
131	0x3d937a86	0.07201104
132	0x3df689ef	0.120380275
133	0xbc7f9d9c	-0.015601542
134	0x3d9b9a3c	0.07597777
135	0x3d89eeb7	0.06734984
136	0x3dadf9d3	0.08494916
137	0x3c03da03	0.0080475835
138	0x3e140b13	0.1445735
139	0x3da779f2	0.08177556
140	0x3eb66ca0	0.3562975
141	0xbda07be0	-0.07836127
142	0xbd7caf98	-0.061690897
143	0xbdb3876c	-0.08766064
144	0x3d2bfa26	0.041986607
145	0xbd14c395	-0.036319334
146	0xbe3cdb34	-0.18442994
147	0xbd49322c	-0.049120113
148	0x3d196316	0.03744801
149	0x3b6bc47a	0.0035975263
150	0xbcb51b1b	-0.022107651
151	0xbd7be738	-0.061499804
152	0x3e0e4c24	0.13896233
153	0x3dc31ff1	0.09527577
154	0xbded92bc	-0.11600253
155	0x3cfb96a1	0.030711474
156	0x3d65d7ac	0.056113884
157	0xbd79a614	-0.0609494
158	0xbd31562a	-0.043295063
159	0xbe17bbf5	-0.14817794
160	0xbd62e21c	-0.055391416
161	0xbc044494	-0.008072991
162	0xbb5604e5	-0.0032656726
163	0x3d442a16	0.0478917
164	0xbe181007	-0.14849864
165	0xbb196427	-0.0023405643
166	0xbd57cfc8	-0.05268839
167	0xbba0489e	-0.004891469
168	0x3db051e4	0.086093694
169	0xbd939370	-0.07205856
170	0xbdcb3843	-0.099228404
171	0xbdb71ae3	-0.08940675
172	0xba940b4b	-0.001129487
173	0x3db030be	0.08603047
174	0x3d474a52	0.04865486
175	0xbd585a1b	-0.052820306
176	0xbe3c140e	-0.18367025
177	0xbe2ac52e	-0.1667678
178	0x3c66bf44	0.014083687
179	0xbca92cf1	-0.020651313
180	0xbda21573	-0.07914247
181	0x3deb3452	0.11484589
182	0x3d0ae412	0.03390891
183	0xbde2d179	-0.1107511
184	0xbe368b51	-0.17826582
185	0x3dfb0a32	0.12257804
186	0xbda3a098	-0.07989615
187	0x3b1ead66	0.002421224
188	0xbcdf8462	-0.027284805
189	0x3b85d5ae	0.0040843105
190	0xbd5eea67	-0.054422762
191	0xbdb5a851	-0.088699944
192	0x3d4796d8	0.04872784
193	0xbd0ed992	-0.03487546
194	0x3a807b29	0.000980233
195	0x3d1f4e14	0.03889282
196	0x3cc5b624	0.024134703
197	0x3c46c7b1	0.012132571
198	0x3dd02f92	0.10165323
199	0x3d955fd2	0.07293667
200	0x3ccc9407	0.024972929
201	0xbd93cbcc	-0.072166055
202	0xbd66f628	-0.056387097
203	0x3e6431ae	0.22284576
204	0x3e2a4718	0.16628683
205	0xbd84f382	-0.06491758
206	0x3d96bd1a	0.07360287
207	0xbe3a981a	-0.18222085
208	0xbe0d4cd0	-0.13798833
209	0xbc47a063	-0.012184235
210	0xbb1e519e	-0.0024157534
211	0xbe5f2cd8	-0.2179445
212	0x3d87edef	0.06637179
213	0x3d9c2ae6	0.0762537
214	0xbe338dbb	-0.17534535
215	0xbc8692ef	-0.016427485
216	0x3e167cf4	0.14696103
217	0x3caaa979	0.020832764
218	0xbda92c1d	-0.08260367
219	0x3d96816d	0.07348905
220	0x3c3e7844	0.011625353
221	0xbc2fdab7	-0.010733298
222	0xbe8d91a6	-0.27650183
223	0xbdc6f8a9	-0.09715397
224	0x3dc300df	0.095216505
225	0x3bff6eda	0.007795197
226	0x3d31b4f1	0.04338545
227	0xbc8e97ab	-0.017406305
228	0x3d1b836f	0.03796714
229	0x3d8f0960	0.0698421
230	0xbe4923cb	-0.1964256
231	0xbe1a2d60	-0.15056372
232	0xbdaf24e6	-0.0855196
233	0x3a96021c	0.001144472
234	0xbde78787	-0.11305147
235	0x3e44a9ad	0.19205351
236	0xbe26d5b3	-0.16292457
237	0x3e260be3	0.16215472
238	0xbd05cb10	-0.03266436
239	0xbe275215	-0.16339906
240	0xbd31293a	-0.043252207
241	0xbe8483c7	-0.25881788
242	0x3dfcdba2	0.12346579
243	0x3d57f09d	0.0527197
244	0xbd676e78	-0.056501836
245	0x3d02900a	0.031875648
246	0x3db971b9	0.09054894
247	0x3dd07acc	0.10179672
248	0x3d570cde	0.052502505
249	0x3df597b3	0.11991825
250	0xbcd03465	-0.025415609
251	0xbd862fc6	-0.06552081
252	0xbe15ce71	-0.14629532
253	0x3d668c21	0.05628598
254	0x3ca11d17	0.019667191
255	0xbd8eed40	-0.069788456

fc_layer.weight f4 [64, 64]
0	0xbe4254f0	-0.18977714
1	0xbf1eebd9	-0.62078625
2	0xbe2b3bc1	-0.16722013
3	0x3ec4d9a7	0.38447306
4	0x3e82688d	0.2547039
5	0xbeb0187a	-0.34393674
6	0x3e4f702c	0.20257634
7	0xbdeacdc6	-0.114650294
8	0x3f8da975	1.1067339
9	0x3e850e52	0.25987488
10	0x3e7c06bb	0.24611942
11	0x3ecf0954	0.40436804
12	0x3ead5f27	0.33861658
13	0x3e786e5c	0.24260849
14	0x3fb25ab8	1.3933935
15	0x3e2aad06	0.16667566
16	0xbe8dfb37	-0.27730724
17	0xbd870c09	-0.065940924
18	0x3e829a79	0.25508478
19	0xbf93b30e	-1.1539018
20	0xbf7213fc	-0.94561744
21	0x3e1801ce	0.14844438
22	0xbf4c571a	-0.79820406
23	0xbf19a68d	-0.6001976
24	0xbc8bea0e	-0.01707938
25	0x3e4ee521	0.20204593
26	0x3f1298bb	0.572643
27	0xbeb09f41	-0.344965
28	0x3e907587	0.28214666
29	0xbf36ca58	-0.714025
30	0xbf82a467	-1.0206422
31	0xbf36d867	-0.71423954
32	0xbed30ebc	-0.4122218
33	0xbe24ee72	-0.16106585
34	0xbf46d8b9	-0.7767444
35	0xbd7080e3	-0.058716666
36	0xbe4b755e	-0.19868991
37	0x3f223bf4	0.6337273
38	0xbf8c0bfe	-1.094116
39	0x3f18bb1e	0.5966052
40	0xbe9a6e76	-0.301624
41	0x3ed16dca	0.40904075
42	0x3ee6b93d	0.450632
43	0xbe59b5f8	-0.21260822
44	0x3eccf0ab	0.40027365
45	0x3e2e4d7f	0.1702175
46	0x3ed1bebd	0.40965834
47	0x3e851637	0.2599351
48	0xbeb1c2b6	-0.34718865
49	0xbbdc82ec	-0.0067294743
50	0x3e49afbd	0.19695945
51	0xbeaee150	-0.34156275
52	0x3ed1efb4	0.4100319
53	0xbdca3c16	-0.09874742
54	0xbeb86fb6	-0.3602273
55	0x3e641bba	0.22276202
56	0x3f262e13	0.64914054
57	0x3e187263	0.14887385
58	0xbe975e16	-0.2956397
59	0xbe45c0b4	-0.19311792
60	0x3dcad397	0.09903639
61	0x3e096c1b	0.13420145
62	0x3e234772	0.15945223
63	0x3f68c959	0.9093223
64	0xbd0fb13d	-0.035081137
65	0xbc771d9d	-0.015082744
66	0x3d6d757d	0.057973374
67	0x3ce8ba9c	0.028409295
68	0xbdd31b80	-0.103079796
69	0xba093d2b	-0.000523525
70	0xbdd100ff	-0.10205268
71	0xbdbc848d	-0.092049696
72	0x3b53c5cc	0.003231394
73	0xbd820826	-0.063492104
74	0x3dc05d18	0.09392756
75	0xbd94f016	-0.07272355
76	0xbd0781f1	-0.033082906
77	0x3d4d34e4	0.05009927
78	0x3cc0ce22	0.023535792
79	0x3cb6f444	0.022333272
80	0x3bcac098	0.0061875097
81	0xbc752720	-0.014962941
82	0xbd928a02	-0.07155229
83	0x3e0d1051	0.13775755
84	0x3dd70a4b	0.1050001
85	0xbd61a2ed	-0.05508702
86	0x3da8dfbd	0.082458
87	0x3d510995	0.05103453
88	0xbda1684f	-0.078812234
89	0xbd87bc94	-0.06627765
90	0xbc2c3c0e	-0.010512365
91	0xbd8cd1e0	-0.06875968
92	0xbdaf2677	-0.085522585
93	0x3bfaf695	0.0076587894
94	0xbdc97581	-0.09836865
95	0xbd90f983	-0.070788406
96	0x3ce04df8	0.027380928
97	0x3aaf1605	0.0013358003
98	0x3d85e819	0.0653841
99	0x3dc051d0	0.093906045
100	0x3dbfc458	0.093636215
101	0xbd906f6a	-0.070525005
102	0x3cd016c7	0.025401486
103	0xbd537495	-0.051624853
104	0x3d2880dc	0.041138515
105	0xbe07d67f	-0.13265418
106	0x3dbbbd9d	0.09167025
107	0x3db1040d	0.08643351
108	0xbd309d49	-0.04311875
109	0xbd6d508b	-0.05793814
110	0x3de71ef6	0.11285202
111	0x3d71030b	0.058840793
112	0x3e08257f	0.13295554
113	0xbd82c81b	-0.06385823
114	0xbdc87dd3	-0.09789624
115	0xbdcf30c2	-0.10116722
116	0xbcef887b	-0.029239884
117	0x3ba04b2e	0.0048917746
118	0x3dbc617b	0.091982804
119	0xbd8f630b	-0.07001313
120	0xbdf4f37a	-0.11960502
121	0xb9ab5d21	-0.00032685048
122	0x3ce8c6f2	0.028415177
123	0x3d4295e3	0.047506224
124	0xbd216448	-0.039402276
125	0xbde02d22	-0.109461084
126	0xbdfaffd9	-0.1225583
127	0x3df1eb73	0.118124865
128	0xbce90f0e	-0.028449561
129	0xbc9dfd35	-0.019285778
130	0x3d92747c	0.07151124
131	0xbd92313c	-0.07138297
132	0xbde86620	-0.11347604
133	0xbdee80d7	-0.11645668
134	0xbc111adf	-0.008856504
135	0x3d2e5c2b	0.042568367
136	0x3d5e54bb	0.054280024
137	0xbd50fd02	-0.051022537
138	0x3ba7c384	0.005119743
139	0x3a982c75	0.0011609929
140	0x3d92bc24	0.07164791
141	0xbda28f35	-0.07937471
142	0x3db27168	0.08713037
143	0xbcc1add2	-0.023642454
144	0x3d71c29c	0.059023485
145	0xbdc8bab7	-0.09801238
146	0xbd502ffe	-0.05082702
147	0xbd802436	-0.06256907
148	0xbd66d9fc	-0.05636023
149	0xbdc2938c	-0.095007986
150	0x3cfa5291	0.030556949
151	0x3e0130bc	0.12616247
152	0x3dc291a8	0.09500438
153	0xbda8cf09	-0.08242614
154	0xbc86d511	-0.01645902
155	0xbcf2614f	-0.029587416
156	0xbd73040b	-0.059330028
157	0xbd4f889d	-0.050667394
158	0x3d17e45c	0.037083015
159	0xbd47c953	-0.048775982
160	0xbdaa1027	-0.08303862
161	0x3cbd778f	0.023128299
162	0x3df77c23	0.12084224
163	0xba221ed3	-0.0006184403
164	0x3e023e76	0.1271914
165	0xbdb02368	-0.08600503
166	0x3de20fe0	0.11038184
167	0xbbe2fc89	-0.006927077
168	0x3dbf0273	0.09326639
169	0x3ca9d0f1	0.020729514
170	0x3cd7d500	0.026346684
171	0xbdd01fc2	-0.10162307
172	0xbce81b4f	-0.028333334
173	0xbb76afa1	-0.0037641304
174	0xbc9472aa	-0.018121082
175	0x3d9c07bc	0.07618663
176	0xbd29cb53	-0.04145367
177	0xbd382e45	-0.044966
178	0xbdc4b589	-0.096049376
179	0x3d4067a8	0.046973854
180	0x3dc8291d	0.09773467
181	0x3cbb18d9	0.022838997
182	0xbda555e1	-0.08073021
183	0x3d33a8b9	0.04386208
184	0x3c571fea	0.0131301675
185	0x3d99ced2	0.07510151
186	0x3b831481	0.004000247
187	0x3dfb01c7	0.122561984
188	0x3de7ab06	0.11311917
189	0xbdae861a	-0.085216716
190	0x3dc13998	0.09434813
191	0xbd3f467e	-0.046698086
192	0xbecf286b	-0.40460524
193	0xbef7aff6	-0.48376435
194	0xbe607598	-0.21919858
195	0x3ea87146	0.3289892
196	0x3ede134b	0.43374094
197	0xbea56c73	-0.32309303
198	0x3ed61baf	0.41817996
199	0xbddf0321	-0.10889269
200	0x3f8c5db6	1.0966098
201	0x3e5134e5	0.20430334
202	0x3e01d256	0.12677893
203	0x3e6c31d2	0.2306588
204	0x3e2e6fd6	0.1703485
205	0x3e930dce	0.2872147
206	0x3f9deb56	1.2337444
207	0x3eb152c5	0.3463346
208	0xbeaf2393	-0.34206828
209	0xbd6adc40	-0.057338953
210	0x3eb60798	0.3555267
211	0xbf92f98b	-1.1482404
212	0xbf47a2b6	-0.7798265
213	0x3cf89ff8	0.030349717
214	0xbf468d66	-0.77559507
215	0xbf3381ac	-0.7011974
216	0x3cdcd637	0.026957614
217	0x3e7c6400	0.24647522
218	0x3eebe1cb	0.46070704
219	0xbeba5b50	-0.3639779
220	0x3e9b2eee	0.30309242
221	0xbf1be2ae	-0.6089276
222	0xbf81a66e	-1.0128915
223	0xbf6022b8	-0.87552977
224	0xbeae78c6	-0.34076518
225	0xbe72616a	-0.23669973
226	0xbf636a83	-0.888344
227	0xbe328bd6	-0.17436156
228	0xbea8c232	-0.3296066
229	0x3f147789	0.57994896
230	0xbf88dbd6	-1.0692089
231	0x3f352862	0.70764744
232	0xbddb9196	-0.10721128
233	0x3e637bec	0.22215241
234	0x3ef33885	0.47504058
235	0xbecb34f8	-0.3968885
236	0x3e37c6d7	0.17946945
237	0x3eac98a1	0.33710197
238	0x3e6c0602	0.23049167
239	0x3ebff562	0.374919
240	0xbe84e7f9	-0.2595823
241	0x3d2ac17c	0.041688427
242	0x3e38c38e	0.18043348
243	0xbe8182c8	-0.2529509
244	0x3ed5792d	0.41694012
245	0xbe2794a4	-0.16365296
246	0xbe81392e	-0.25238937
247	0x3ec95ba1	0.3932772
248	0x3f35b07b	0.7097241
249	0x3ea75afa	0.32686597
250	0xbea3512c	-0.31897867
251	0xbe8af8c5	-0.2714292
252	0x3e474ea5	0.19463594
253	0x3deaacae	0.11458717
254	0x3e029bf0	0.12754798
255	0x3f72dcfb	0.9486844

fc_layer.bias f4 [64]
0	0x3eadce18	0.339463
1	0xbd21d31f	-0.03950798
2	0xbdf049db	-0.11732837
3	0x3ec4b164	0.38416588
4	0x3e0f95d7	0.14022003
5	0x3ebbf388	0.36709237
6	0x3eb35664	0.35026848
7	0x3d2c10a4	0.042008057
8	0x3e4cf7fa	0.2001647
9	0x3eaf9540	0.34293556
10	0x3eca0023	0.3945323
11	0x3eb8491e	0.35993284
12	0x3df4f5cf	0.11960947
13	0x3e8eb0fc	0.27869403
14	0x3e9d876f	0.3076739
15	0xbdb0e168	-0.08636743
16	0x3e17a6a9	0.1480967
17	0xbcbf054d	-0.023317957
18	0x3e1061b3	0.1409977
19	0x3e27514d	0.16339608
20	0x3e3163aa	0.17323175
21	0xbcdd6e60	-0.02703017
22	0x3e49bf7e	0.19701955
23	0x3d87ab86	0.066245124
24	0x3e91a622	0.28447062
25	0x3e7cfd4b	0.24705999
26	0x3e137a46	0.14402112
27	0x3e98f4b3	0.2987419
28	0x3e993fe1	0.29931548
29	0x3ec52205	0.38502517
30	0x3e2b179f	0.1670823
31	0x3e91f9d7	0.28510925
32	0x3e9a9830	0.30194235
33	0x3d9bd847	0.07609611
34	0x3e8f04fc	0.2793349
35	0x3e4b3dc1	0.19847776
36	0x3dfc8471	0.12329949
37	0x3e9b6f1b	0.30358204
38	0x3e36ddf7	0.1785811
39	0xbd017d9e	-0.03161394
40	0xbd1d380d	-0.038383532
41	0x3ea6255f	0.32450387
42	0x3ebeac21	0.372407
43	0x3e88c39e	0.26711744
44	0x3e2d1345	0.16901882
45	0x3d821d98	0.06353301
46	0x3e17663d	0.14785095
47	0x3eba9e8b	0.36449084
48	0x3e1f3cb6	0.15550503
49	0xbdcde9b5	-0.10054342
50	0x3ebdb4bb	0.3705195
51	0x3e11b542	0.142293
52	0x3e51a0e1	0.20471527
53	0x3d601b6f	0.054713663
54	0x3e991da7	0.29905435
55	0x3ea93769	0.33050087
56	0x3e8032d0	0.25038767
57	0x3ec0c883	0.37652978
58	0x3e739c67	0.23790132
59	0x3eb5a69f	0.35478684
60	0x3e63abda	0.22233525
61	0x3e6a6ede	0.22893855
62	0x3e5286c4	0.20559222
63	0x3ca683c1	0.020326497

output_layer.weight f4 [1, 64]
0	0x3f6301de	0.88674724
1	0xbcb24938	-0.021763429
2	0xbca87251	-0.020562323
3	0x3f3d6b4a	0.73991835
4	0x3f580c71	0.84393984
5	0x3f513aa9	0.81730133
6	0x3f5660fd	0.8374174
7	0xbfa1efa2	-1.2651255
8	0xbf97d77a	-1.1862633
9	0x3f566de6	0.8376144
10	0x3f3ff478	0.74982405
11	0x3f606b2b	0.87663525
12	0x3f5b0bc5	0.85564834
13	0xbf8653c2	-1.0494311
14	0xbf901cf9	-1.1258842
15	0xbd9810d8	-0.07425088
16	0xbf934d5d	-1.1507984
17	0xbfa1cfcf	-1.2641543
18	0x3f6bae47	0.920628
19	0xbf976c54	-1.1829934
20	0xbf9398c5	-1.1530997
21	0xbd938c56	-0.07204501
22	0xbf97dddb	-1.186458
23	0xbda6ae09	-0.08138663
24	0x3f4cca00	0.7999573
25	0x3f62e3a8	0.88628626
26	0xbf8c4836	-1.0959537
27	0x3f5490fa	0.83033717
28	0xbf9c558d	-1.2213608
29	0xbf888024	-1.0664105
30	0xbf941022	-1.1567423
31	0xbf8a371f	-1.0798072
32	0x3f5c9a39	0.86172825
33	0xbf911732	-1.1335204
34	0xbf81dbc8	-1.0145197
35	0xbf897334	-1.0738282
36	0xbf5f4036	-0.87207353
37	0x3f602edb	0.87571496
38	0xbf96a04c	-1.1767669
39	0xbd96a7d3	-0.07356229
40	0x3f689e2d	0.9086636
41	0x3f5f8637	0.8731417
42	0x3f4b73f5	0.7947381
43	0x3f4e0848	0.80481386
44	0xbf8af403	-1.0855716
45	0xbf957760	-1.1677055
46	0x3f581d82	0.84420025
47	0x3f47989c	0.7796724
48	0xbf5494c3	-0.8303949
49	0x3f82df21	1.0224344
50	0x3f5c19c6	0.8597683
51	0x3f4ba105	0.7954257
52	0x3f5a2d5a	0.8522545
53	0xbf975440	-1.1822586
54	0x3f4abc98	0.7919402
55	0x3f62db97	0.8861632
56	0x3f5043b1	0.8135329
57	0x3f466f28	0.7751336
58	0x3f87bcc6	1.0604484
59	0xbf8bc74c	-1.0920196
60	0xbf955b47	-1.1668481
61	0xbf8ea74c	-1.1144805
62	0x3f65da00	0.89785767
63	0xbf982af7	-1.1888112
