Conditional_TimeGAN/result/original/model/BL_lag1_total1/torch_best_model.pt (torch, 87834 bytes, 7 tensors)

lstm.weight_ih_l0 f4 [256, 1]
000000 c1 4d 33 3d 0c 55 93 3d c4 68 d1 bc 38 62 d7 bb
       0.043775324 0.07193956 -0.025562651 -0.006572988
000010 9b 0c 6e bc 8e 0d 50 3e e4 de 7e 3d de d7 42 3e
       -0.014529373 0.2031767 0.062224284 0.1902766
000020 3c 98 85 3d 0e e6 d8 3d 53 0d b6 3d f5 8d 36 3c
       0.06523177 0.105907544 0.0888926 0.011142244
000030 cb 1f 1c bd d6 83 40 ba 90 c8 27 bd 70 2e 61 bb
       -0.038116258 -0.0007343864 -0.040962756 -0.0034359954
000040 0b a0 c7 3d 0e 5a 8f 3e f6 35 f7 bc ee 7a 20 3c
       0.09747323 0.27998394 -0.030177098 0.009794934
000050 8b 33 db 3d f6 d8 35 3e 8b b9 97 bb 3f 0e 2b 3e
       0.107031904 0.17758545 -0.0046302727 0.16704653
000060 5b a9 67 bb 78 88 fb 3d 4d f4 e9 3e 5b d4 be bc
       -0.0035348746 0.12281889 0.456942 -0.023294618
000070 ee 08 5f bd f9 23 3e bc b5 52 87 ba d2 f9 73 3e
       -0.054451875 -0.011605256 -0.0010324331 0.23825768
000080 3c 89 af bc 34 4c f9 bc f4 ff cb bc 83 3c f3 bc
       -0.021427743 -0.030431844 -0.024902321 -0.02969194
000090 98 e5 f0 bb db cd 2d 3e 29 cd c6 3d ee c0 50 3e
       -0.0073515885 0.16973059 0.097071 0.20386097
0000a0 52 e4 74 bb 7f 4b 9b bc 15 c2 b7 3a 30 2b b8 bc
       -0.0037367535 -0.018956898 0.0014019633 -0.02248153
0000b0 a4 c3 f2 bc e3 0e c3 bc 9c 1e d1 3d e6 0c 0f 3e
       -0.029634304 -0.02381081 0.102109164 0.13969764
0000c0 4d 3e 6d 3c 5d 81 77 bc 6d 26 e9 3d b4 8c 7b 3d
       0.014480186 -0.015106526 0.11384282 0.06141348
0000d0 8e f4 d6 3d 4f 5e fd 3d 95 3e 4a 3e 1a e9 98 bb
       0.10495864 0.123715036 0.19750436 -0.0046664597
0000e0 7e 3e 98 3d 1c b4 24 bd bf 8c 92 3c d8 ba c5 bc
       0.074337944 -0.04021083 0.017889379 -0.024136946
0000f0 b3 f1 a3 3d 54 6b 19 3e d5 38 38 bc 97 fa 18 3e
       0.08005085 0.14982349 -0.011244019 0.14939342
000100 6f cb d4 3c b7 14 0a 3c c7 30 ae 3d 73 a9 bc 3d
       0.025975911 0.00842779 0.08505397 0.092120074
000110 2f 13 39 3e a6 e2 36 3e df 20 55 3c 0d d1 87 3c
       0.18073724 0.17859897 0.013008325 0.016579175
000120 09 f5 1a 3d 01 2e 81 3d 27 39 a8 3d 4d f5 03 3e
       0.03783134 0.06307603 0.08214026 0.12886544
000130 4b e6 d0 3d b5 97 1a 3c 2c 31 14 3e c1 49 43 3c
       0.10200175 0.009435584 0.14471883 0.01191944
000140 96 d8 35 3b 21 46 a5 3b e3 9a 6a 3e 36 e6 a0 3b
       0.0027747503 0.0050437604 0.22910647 0.004910256
000150 02 ce e7 3c b3 1f 83 3c 1e 1b 4a 3c 3b e5 45 3c
       0.028296474 0.016006326 0.012335567 0.012078579
000160 a3 b3 26 3d 60 08 10 bb a4 b4 bc 3d 57 35 3f 3d
       0.04069866 -0.0021977648 0.09214142 0.04668173
000170 8e d7 ef 3d f3 1e 1b 3d e1 e7 fe 3b 37 09 dd b8
       0.11711036 0.037871312 0.007779107 -0.000105398176
000180 ac 78 fa 3d b2 69 2e 3d 49 cf a7 3b 0a e9 30 3b
       0.122300476 0.042581268 0.005121146 0.002699437
000190 e6 bd 5e 3e 05 19 bf 3d 4b 00 21 3b 0e 2c d9 3a
       0.21752128 0.09330944 0.0024566825 0.0016568915
0001a0 05 d9 01 3c cd 15 9e 3c bc 47 c2 3c cf fc eb bb
       0.007925277 0.019297505 0.023715846 -0.007201768
0001b0 12 e4 6c 3c 94 ce 1b 3e d3 a0 99 3c b7 2d ef 3c
       0.014458673 0.15215522 0.018753445 0.029196603
0001c0 2d 35 73 3c ff 53 3f 3d 65 de ea 3b a1 91 21 3c
       0.014844221 0.046710964 0.007167625 0.009861381
0001d0 cd 9f 27 3c b1 ac f3 3d b3 ba 9c 3c 2b 1b 65 3d
       0.010230971 0.11898173 0.019131994 0.055934113
0001e0 7e 7a 78 3b 3e bf 92 3c 75 62 a0 3c a1 fc ac 3d
       0.0037914808 0.017913457 0.019578198 0.08446623
0001f0 81 e1 f2 b9 68 db e1 3b 4b 17 0b 3e 44 a6 98 38
       -0.0004632585 0.0068926103 0.13583104 7.278894e-05
000200 9a 43 db ba f8 39 2c bb 2c a5 e4 3b ae b4 07 bc
       -0.0016728521 -0.002627967 0.006977698 -0.0082828235
000210 e0 86 45 bc e4 93 82 bb 76 3a 41 3d 7a d6 bd 39
       -0.0120560825 -0.003984915 0.047174893 0.00036208687
000220 69 5a 09 ba 48 b3 16 bd 49 10 ab 3b fe 78 ab 3c
       -0.00052396074 -0.03679207 0.005220447 0.020931717
000230 80 7d 12 bc b3 44 e4 3c 78 a8 77 3d df 56 17 bb
       -0.008941054 0.02786479 0.0604634 -0.002309255
000240 56 90 7c be 72 c5 83 39 3c 4e ab 3d 24 0e 60 3b
       -0.24664435 0.00025133375 0.083645314 0.0034188116
000250 5a d7 e2 ba b6 6a 15 bc fe 41 60 bc f7 50 e3 bb
       -0.0017306611 -0.00911968 -0.013687609 -0.006937142
000260 31 72 c1 3a 73 42 aa 3d ce 69 19 3d 2b 3b 42 bb
       0.0014758763 0.083134554 0.03745442 -0.0029637318
000270 07 bb 96 bb ad f4 87 bd 11 33 b5 ba d2 a8 34 bd
       -0.004599932 -0.06638465 -0.0013824423 -0.044106312
000280 d7 dd 8f bc d9 1b 6b bd 5f 81 b8 bd c7 45 f7 bd
       -0.017561836 -0.057399604 -0.090090506 -0.12073856
000290 91 a6 a1 3a 35 43 2a bc 50 76 4e bd 26 84 b7 3b
       0.0012332966 -0.010392 -0.0504058 0.00560047
0002a0 d6 a1 b8 bd 35 f3 85 3c 9d b3 53 3e 80 e2 8d bb
       -0.09015243 0.016351322 0.20673986 -0.0043299794
0002b0 82 89 d2 3d cf a2 6a bc a0 18 9f bc c2 3c 3f 3b
       0.10280134 -0.014321043 -0.019420922 0.0029180502
0002c0 4f bf 63 3b 75 19 dd bd 97 e4 de 3b 6f 4c a6 bd
       0.003475148 -0.10795871 0.0068021524 -0.08120047
0002d0 a8 36 3b bb bf 04 a0 bc 89 43 9a 3b 69 c2 4b 3d
       -0.0028566513 -0.019533513 0.004707758 0.04974595
0002e0 cb a9 64 3b af ed cb 39 91 6b 98 3b 19 71 43 bc
       0.0034891244 0.00038896265 0.004651495 -0.01192882
0002f0 33 94 0b bd 53 7d 6d 3d f2 98 6f 3c b1 a0 65 3d
       -0.03407688 0.057980847 0.014623867 0.05606145
000300 ae bb 8a 3c 45 54 29 3d 7d 50 ef 3b b5 88 4e 3d
       0.016935196 0.04134013 0.007303296 0.050423343
000310 2e 6e 58 3c cd 82 c9 3c c9 e5 2f 3b 16 7d d6 3c
       0.013209863 0.024598503 0.0026839843 0.026182692
000320 c5 b9 02 3c eb 41 5a 3c fb 8c 1f 3c af 99 e5 3b
       0.007978861 0.01332138 0.009738202 0.007006846
000330 58 6e 88 3c 73 02 52 3c ce 76 4e 3c f9 a5 7e 3c
       0.016654179 0.012817967 0.012601567 0.015542501
000340 e1 b9 93 3c f6 8b 6a 3d 81 38 25 bb 29 bb 76 3b
       0.01803297 0.057262383 -0.002521068 0.0037648177
000350 50 b3 38 3d d7 99 cb b9 b1 3f 84 3d b9 2e 2c 3d
       0.04509288 -0.00038833797 0.06457461 0.042036746
000360 34 74 34 3c 1c 81 57 3b 58 c9 de 3c 69 8d c4 3c
       0.011014033 0.0032883352 0.027195618 0.02399321
000370 1c 83 f6 3c d9 ad 81 3c c2 77 89 3c fc db 4e 3c
       0.030091815 0.015829967 0.016780738 0.012625691
000380 9e b8 ca 3b 8a ab 6d 3b 63 f8 05 3c 18 6b ae ba
       0.006186559 0.0036265575 0.008176896 -0.0013307063
000390 52 1b 38 3c 59 cd 82 bb e3 24 8c bb d5 cd 3b 3e
       0.011236982 -0.0039917645 -0.004276858 0.18340237
0003a0 fb 31 c5 3c 05 99 2f 3c 98 62 57 3c 42 ae 07 3c
       0.024071684 0.010717635 0.013146065 0.008281292
0003b0 a6 0a 01 3d bc 33 4e 3c a1 46 83 3d a0 31 4e 3c
       0.031504296 0.012585577 0.06409956 0.012585074
0003c0 a9 1a ca 3c ea 65 2e 3c 25 fb 99 3a 38 a3 49 bb
       0.024670916 0.010644415 0.001174782 -0.0030767452
0003d0 2a 06 a9 3c aa ce 05 3c f0 98 a3 3c 87 0b aa 3b
       0.020632822 0.008166948 0.019970387 0.0051893624
0003e0 bf 9d 92 3c f9 de 9e bb df dd c4 3c 4c 8b a5 3b
       0.017897485 -0.0048483578 0.024031578 0.005052006
0003f0 96 2d 12 3d 2b 40 a7 3c ec 81 6b 3c 66 b7 cd 3b
       0.035688005 0.02041634 0.0143742375 0.0062779663

lstm.weight_hh_l0 f4 [256, 64]
000000 0a 68 87 bd 92 3f bb 3d 6f 08 09 be 0b 91 1b b6
       -0.06611641 0.091429844 -0.13382123 -2.3181226e-06
000010 0b fc 9b 3c b3 55 43 bd 77 f8 10 3e 0f 2d 35 3e
       0.019041082 -0.04768915 0.14157282 0.1769297
000020 cf 46 ff 3d 24 07 55 be d8 f8 e2 3b de 62 eb 3d
       0.124646775 -0.20803505 0.006926637 0.11493467
000030 2f 0a 38 3e 06 a5 28 3e 78 ae 56 bb 1e ac 3a 3d
       0.17972635 0.16469201 -0.00327578 0.0455743
000040 40 9e 6d be f4 2a 8f 3b 3d aa ab bc 24 ec 38 be
       -0.23204899 0.004369134 -0.0209552 -0.1805883
000050 7c f4 27 3e 80 ed 61 bd fd c2 09 bd c7 a3 97 3d
       0.16401857 -0.05515814 -0.03363322 0.07404285
000060 7d 4c 9f 3d ef a1 87 bc 91 5a da 3a bd 31 aa bb
       0.07778261 -0.016556708 0.0016659071 -0.0051939175
000070 37 be 7e 3d 1e b0 08 bd e0 e5 0f be 91 c8 f9 bc
       0.06219312 -0.033371083 -0.14052534 -0.030491145
000080 0e f8 d2 bd 56 ae 9e bd 22 4d 1d be 0a 05 97 bc
       -0.10301219 -0.07748096 -0.15361455 -0.01843502
000090 2d 79 0b bc a3 95 74 bc c5 ad e4 bd 06 30 1d be
       -0.008512777 -0.014928254 -0.111659564 -0.1535035
0000a0 00 14 68 3d 78 2c 6f 3d 41 e3 32 3e 0e 27 b0 bd
       0.0566597 0.058392018 0.17469503 -0.08601199
0000b0 73 32 71 3d 3f 1d 97 3d 28 66 64 3c f1 63 97 3c
       0.058886003 0.07378625 0.013940372 0.018480273
0000c0 c2 68 06 be d2 e0 54 be 7c a5 a0 bb 9a 71 ff 3c
       -0.131259 -0.20788887 -0.00490254 0.0311821
0000d0 d6 6d 29 3e 64 3b 79 bc 84 47 1b 3d d8 c1 2e 3d
       0.16545805 -0.015211914 0.03791 0.042665333
0000e0 68 3f 9f 3c 2d 98 2d bb 77 52 8d 3d cf 42 bc 3c
       0.019439414 -0.002648841 0.069004945 0.022981076
0000f0 15 94 80 be 63 c9 65 3d 60 b9 ce 3d df 81 e3 3d
       -0.25112978 0.05610026 0.10093951 0.11108755
000100 77 2f b0 bd 98 3b 10 3e c0 e1 84 be 09 0d 1f 3e
       -0.08602803 0.14085233 -0.25953484 0.15532316
000110 1e cf b7 3d c3 b4 53 bd bc 66 d5 3d a1 c6 95 3d
       0.08975051 -0.05168606 0.10419986 0.07313276
000120 b9 3d f8 3d f5 64 45 be 0c 5b f3 bc f9 98 75 bd
       0.12121148 -0.19276793 -0.0297065 -0.05996034
000130 3b 3b 1c 3e cc af 49 3e 91 82 a0 bd 2d f5 25 3e
       0.1525697 0.19695967 -0.078374036 0.16206808
000140 82 c5 88 3d f6 0d ab 3d e9 08 a1 3d d6 e4 00 bb
       0.066782966 0.08352272 0.078630276 -0.0019667647
000150 c6 8a b8 3d 80 56 56 3d 9b bc fe 3d e3 82 6d 3e
       0.09010844 0.052328587 0.124383174 0.2319446
000160 99 4a 41 3d 19 40 b5 3d c0 b0 20 3e 4e f8 fb bc
       0.047190282 0.08850116 0.15692425 -0.03075805
000170 58 7f d4 bd 64 d5 94 bd 38 8b 17 be 2a 7f bb 3d
       -0.103758514 -0.072672635 -0.14799201 0.09155114
000180 2d 99 80 bd ae af 8b 3d 10 52 98 3b 7a 7a 09 3e
       -0.06279216 0.068206176 0.0046484545 0.13425627
000190 26 68 75 bd e9 1b ac 3c 03 7a d2 bd d9 5e df bc
       -0.059913777 0.021009402 -0.10277178 -0.027266907
0001a0 13 06 ee bc 6d 8b d2 bc 49 94 31 bc 17 51 07 3e
       -0.02905563 -0.025701249 -0.010838577 0.13214527
0001b0 7b 74 09 3e 2b 58 35 3e 50 d9 1f 3e 2b 5d d2 bd
       0.1342334 0.17709415 0.15610242 -0.10271677
0001c0 e1 bd 33 be 76 10 c7 bd 88 a4 19 be 30 f8 a3 3d
       -0.17552902 -0.097199365 -0.1500417 0.080063224
0001d0 ac ef 96 3c 57 47 1d bd 0b 08 08 3d 7d 93 b3 bd
       0.018424831 -0.038398113 0.033210795 -0.087683655
0001e0 4b b0 8f 3d f5 56 da 3c 0d e8 12 3e d7 14 e2 3d
       0.07016047 0.026652792 0.14346333 0.11039131
0001f0 ae d8 d0 bc 82 01 e4 bc 85 8d 9c 3c a2 28 15 3e
       -0.025493946 -0.02783275 0.01911045 0.14566281
000200 5a a0 c3 3d 57 ec 9a 3d ca ba 1e bd b5 21 b9 3e
       0.09552069 0.075646095 -0.038752355 0.3615853
000210 d1 17 ce 3e 99 de 2d be 5e e3 3b 3e f3 a3 c1 3c
       0.40252545 -0.16979446 0.18348452 0.023637747
000220 2a 15 04 bd 2c ba 01 be 77 65 f1 bc 4a 89 64 3e
       -0.032246746 -0.12668675 -0.029467328 0.22317997
000230 50 d1 e6 3e 9f 0e c4 3d ea 98 28 3e 80 1a 12 3e
       0.45081568 0.09573101 0.16464582 0.14267921
000240 f7 dd 42 bd b6 d3 ec bc c4 ed 8b 3d ed 62 ad 3d
       -0.047574963 -0.028909545 0.068324596 0.08466134
000250 75 66 9d 3d 4b 55 2d be e2 cf 73 3d f9 9e dc 3c
       0.07685558 -0.16927068 0.059524424 0.026931273
000260 e1 ec af bc 7c b3 22 3e 3e dc 52 bc 6a a6 b7 be
       -0.021475257 0.1588878 -0.012869893 -0.3586915
000270 38 18 ed 3e 9e 33 5a be d4 01 8a be c1 1d c4 bd
       0.4630754 -0.21308753 -0.2695452 -0.095759876
000280 84 ad 59 be 29 1b 5b be 2b 7e 1a be ac 91 9f 3d
       -0.21257597 -0.2139708 -0.15087192 0.077914566
000290 5b 31 1f be 61 68 3b be 3c 4c 05 bd 9d c9 73 3e
       -0.15546171 -0.18301536 -0.032543406 0.23807378
0002a0 bf 8e 3f 3c 4c 24 62 3e 76 c2 0b 3e dd 54 72 be
       0.011691748 0.22084159 0.136484 -0.23665185
0002b0 96 36 4a 3e a5 5a d2 3e 7b c7 97 bd 0e ba f5 bb
       0.19747385 0.4108478 -0.07411095 -0.007498986
0002c0 e2 42 6c 3e a3 bd 04 be 9f df 3a bc fd 4a aa bd
       0.23072389 -0.12962966 -0.0114058545 -0.08315084
0002d0 90 ca 81 3d d3 58 69 be 9e e9 f6 3d 4e 0a d1 3b
       0.06337464 -0.2278779 0.12056278 0.0063794022
0002e0 dc 8c ba 3d 85 94 f9 3d 2f 6e 6b ba 06 78 2a 3d
       0.09108898 0.12186531 -0.0008980957 0.04161837
0002f0 95 a0 33 be 95 11 32 3e 26 71 12 3d 62 20 08 3e
       -0.17541726 0.1738952 0.035752438 0.13293603
000300 b0 07 8d bd 3c 23 4b bd 05 77 39 bd 76 7d 2a 3e
       -0.06886232 -0.04959415 -0.04527952 0.16649422
000310 3c df d4 3e 70 ed ea bc a5 3d 32 3b 65 94 da 3d
       0.41576564 -0.028677672 0.0027197388 0.10672835
000320 9a 89 17 3d 3b 83 02 3d b6 06 88 bc cc 53 c4 3d
       0.03699646 0.031863432 -0.016604763 0.095862955
000330 c8 2b 47 3d a4 51 14 bc f5 2e 1e 3e c0 fc 2f bd
       0.048625737 -0.009052668 0.154476 -0.04296565
000340 62 c6 bb bc ee 5e 19 3b f0 1a 42 bd 83 25 d4 bd
       -0.022921745 0.002340253 -0.04738897 -0.10358717
000350 c2 ff 32 be c0 7d 64 bc b0 6d 73 ba de 33 e8 3d
       -0.17480376 -0.013945997 -0.0009286059 0.11338018
000360 fe de 0e 3d 08 df 57 3d 4e 17 5e 3d f9 de 8a be
       0.03488063 0.052702934 0.054221444 -0.2712324
000370 55 d5 e9 3c 84 e6 2c bd f1 a9 05 be 00 11 6d 3c
       0.028544107 -0.042212024 -0.13053109 0.014469385
000380 a6 e5 48 be 82 67 0b 3e 81 6e 1b be 10 8f 29 3e
       -0.19618854 0.13613704 -0.15178873 0.1655848
000390 b7 fa c6 bd bb 9d 9a 3d 54 56 26 3d a9 06 bb 3d
       -0.09715789 0.07549616 0.040609673 0.0913213
0003a0 ef 95 67 bd 18 36 d8 3c 77 8b 66 3d 9d 68 c2 bd
       -0.056539472 0.026392981 0.056285348 -0.0949261
0003b0 af bd 1a 3e e2 1c 14 3d e6 e4 e8 3d 80 52 d8 3c
       0.15111421 0.036160357 0.11371784 0.026406527
0003c0 ba 82 98 bd 8e 3b 1b be 54 41 cb 3d 08 55 9f 3d
       -0.07446809 -0.15159437 0.0992457 0.0777989
0003d0 fe 7c 9d bd ab 08 89 3c da e7 8f 3d 70 10 3b 3e
       -0.07689856 0.016727766 0.07026644 0.18267989
0003e0 7b 64 1a 3e 01 9c 4f bd 3c 8f d0 bd 2f 94 d9 3d
       0.15077393 -0.050685886 -0.1018357 0.10623967
0003f0 c1 87 9c bd d3 0b cc 3d ad 89 f4 3b 71 94 1b 3e
       -0.076430805 0.09963193 0.0074627013 0.15193345

lstm.bias_ih_l0 f4 [256]
000000 c6 21 52 3e 55 3e 3f 3d 7a 39 d8 3d 2b 90 8c 3e
       0.20520696 0.046690304 0.10557838 0.2745374
000010 86 15 8e 3e f6 a5 54 bc 7e e4 d4 bd cb 05 90 bd
       0.27750796 -0.012979021 -0.10395144 -0.07032355
000020 a6 3c 0d 3d 70 fb f3 bc 80 b7 c6 3d 6f 8f 26 3e
       0.034481667 -0.02978298 0.097029686 0.16265653
000030 90 2f 9c bb a0 3d 17 3e e4 6e 63 3e 9e cd 22 3e
       -0.004766412 0.14769602 0.2221027 0.15898749
000040 04 14 ae 3d 29 02 88 3d e1 a8 21 bd 06 f2 39 3d
       0.084999114 0.06641037 -0.039467696 0.045396827
000050 bd 3f 57 3e 10 b3 e1 3d 39 49 f8 3d be 7a 11 3e
       0.21020408 0.110204816 0.12123341 0.14206979
000060 66 d8 43 3e 9f ca c3 3d 6a 60 e8 3e 2d d3 b1 bc
       0.19125518 0.09560131 0.45386058 -0.021707142
000070 fe db b0 3c 78 22 2c 3d 03 ac 86 3d a0 dd 0d 3d
       0.021589275 0.04202506 0.065757774 0.034635186
000080 19 d9 9c 3d 4c 83 06 3e 6f 52 5c 3d ee d0 20 3e
       0.076585956 0.13136023 0.053789552 0.157047
000090 48 83 28 3e ba 44 15 3e 3b 9b 28 3e d4 6c 44 3e
       0.1645633 0.14576998 0.16465466 0.1918214
0000a0 58 ba 7e bc 31 4b f0 3c 00 d2 05 be 23 d7 51 3e
       -0.0155473575 0.029332729 -0.1306839 0.20492224
0000b0 48 6f 30 3e 5c 0c 80 3e 8f 1f a1 bd bc db ba 3d
       0.1722995 0.2500943 -0.078673474 0.09123942
0000c0 af 26 80 3b 16 a9 b5 bd 2b e7 e3 3d d4 48 c1 3c
       0.0039108614 -0.08870141 0.11128076 0.023594297
0000d0 5e 45 26 bd bd 6d 04 3e 75 89 05 3e 8c d3 bf 3d
       -0.040593497 0.12932487 0.13040717 0.09366521
0000e0 b8 5b c7 3d cd c7 f6 3d ef cc 22 3e 9a 1f 92 3d
       0.09734291 0.12049828 0.15898488 0.07134934
0000f0 4e 0b aa 3c b5 0a ea 3b 9c 37 68 3e 08 36 40 bb
       0.020757344 0.0071423897 0.22677463 -0.002932908
000100 07 56 c5 bd ee e5 2a bd 11 a4 0b 3d 5d 91 de 3d
       -0.09635549 -0.041723184 0.034092013 0.108675696
000110 6f ce 6c bd bf 51 9b bd 0e ad a7 3d d5 35 36 3d
       -0.057814058 -0.07583951 0.081873044 0.044484932
000120 84 1a 64 bd 8f f5 77 bd 56 ea d1 bd 7d 09 eb bc
       -0.05568935 -0.060536917 -0.10249774 -0.028691048
000130 0e 83 88 3d 3f 04 0a 3e 27 38 86 3d 3c cb 52 3d
       0.06665622 0.13478182 0.06553679 0.05146335
000140 c0 f9 d6 3d 06 e2 dd bd e5 4c 51 3e 3f 9d fd 3d
       0.10496855 -0.10834126 0.20439489 0.12383508
000150 9a f1 5a bd 24 55 11 bc 61 33 94 3d b3 0f bd 3d
       -0.053453065 -0.008870397 0.07236362 0.0923151
000160 1c e5 d8 3c cb 4f 55 3d 07 10 08 bc 7a 49 70 3b
       0.026476435 0.05207805 -0.0083046025 0.003666489
000170 d1 2a ff 3d bd 79 a2 3d b6 07 03 3e a2 c0 c5 bb
       0.124593385 0.07933376 0.1279591 -0.0060349265
000180 45 0d 4b bd 35 55 43 3d a6 b8 42 3e b0 cb 26 3d
       -0.0495732 0.04768868 0.1901575 0.040721595
000190 60 a0 a0 3d f8 e0 6d bc dc fe fb 3d aa ba 3a 3e
       0.07843089 -0.014518969 0.1230447 0.18235269
0001a0 9b 14 0a 3e 93 6f d1 3d 93 2d ff 3d 45 5c 02 3e
       0.13484423 0.10226359 0.124598645 0.1273051
0001b0 c2 ff 38 3e a8 f7 54 3d 14 6a da 3d 60 e1 5d be
       0.18066314 0.051993996 0.10664764 -0.21668005
0001c0 3f a3 7e bd dd c5 ef bd 00 21 ef 3d 24 27 f6 3d
       -0.062167402 -0.11707661 0.11676216 0.12019184
0001d0 3d c3 84 3d 4f 38 4e be ab bd 45 bd 98 c3 a2 3c
       0.06482551 -0.20138668 -0.048276585 0.019868657
0001e0 c5 2d b6 3d 9d b8 e5 3d e3 d5 03 3e 6d c5 d5 3d
       0.088954486 0.11216853 0.1287456 0.104380466
0001f0 c1 43 0b 3e a0 8b 8b 3c 3f de 30 bd 44 30 0a 3a
       0.13600065 0.017034352 -0.0431807 0.00052714744
000200 ee ea 58 bc 63 cd b1 3d 5f 85 b0 bd 49 33 cf bd
       -0.013239605 0.086817525 -0.086191885 -0.10117204
000210 e4 64 75 3d 7a ef 89 3d d0 93 14 3d e9 3f 55 3d
       0.05991067 0.0673513 0.036273777 0.052062903
000220 29 39 a6 3d 6c 34 a3 bd 84 bf 05 be b4 0d 3e be
       0.08116371 -0.07968983 -0.13061339 -0.18559915
000230 de cc 42 be c6 21 06 be 2e 48 df bd 82 4b 54 bc
       -0.19023463 -0.13098821 -0.10902439 -0.012957456
000240 6c 12 8b 3c 66 27 12 3e a6 7e 91 bd 42 7b 4f 3d
       0.016976558 0.14272842 -0.071042344 0.050654657
000250 08 12 b8 3d 8e 3c 6a 3e 2c e7 de 3d 04 0c 32 3e
       0.08987814 0.22874662 0.10883936 0.17387396
000260 0a c3 52 3d eb 6e 52 bd c2 c2 ae bd 32 78 92 bc
       0.051455535 -0.05137531 -0.08533241 -0.01787958
000270 79 dd a4 bd ac 99 b6 3d 8c 8c 5f bd 55 ca 0a 3e
       -0.08050055 0.08916029 -0.054577395 0.13553746
000280 74 63 86 bd b5 60 34 bd 3c 09 43 bc ea b3 3a be
       -0.06561938 -0.04403754 -0.011904057 -0.18232694
000290 7f 42 a9 3d 6e 1c f5 bd da 62 f9 3d fe 30 67 be
       0.08264636 -0.11968313 0.121770576 -0.22577283
0002a0 85 9e e4 3d 9b dc d3 3d 4f af da bd 08 37 15 b9
       0.11163048 0.103448115 -0.10677969 -0.00014230248
0002b0 3b 5e 7d ba a1 e2 29 3d 1e 3e 3e 3e 90 7a f3 bc
       -0.00096652255 0.041475896 0.18578383 -0.029721528
0002c0 a4 86 e7 3d f7 52 3f 3e 7c e9 26 be a0 05 06 bd
       0.113049775 0.18683992 -0.16300005 -0.03272021
0002d0 b9 c3 c4 3d 9d 8b d2 3d 6c 46 2a be df 9d 1a bd
       0.09607644 0.10280535 -0.16628426 -0.037748214
0002e0 c0 ad 31 3c 63 f1 a6 3c 0e 23 9e 3d e8 88 bc 3d
       0.010844648 0.020378774 0.0772153 0.092058
0002f0 aa 34 11 3d 18 6a e1 bd 0d 2f 44 3c 6f 13 08 be
       0.035450615 -0.11006564 0.011974108 -0.13288663
000300 d0 ce 25 3e 3d 03 3a 3d 6a e8 2b 3e d9 4c 42 3e
       0.16192174 0.045413245 0.16787878 0.18974628
000310 b1 f9 b4 bb 24 fc 68 be b2 f8 0b 3e 2f 29 de bb
       -0.0055229296 -0.22752434 0.13669088 -0.006779812
000320 c3 5b 0e be 17 60 f7 bd b8 5c 05 bc 88 df c4 3d
       -0.13902192 -0.120788746 -0.008139782 0.09612948
000330 51 55 3d 3e f1 37 1f be 3f 1a db bc b7 86 69 bd
       0.18489577 -0.15548684 -0.026745914 -0.05701324
000340 0f 8f 22 bd d8 c0 db bd ab d0 3e be ae 7a cc bd
       -0.039687213 -0.107301414 -0.18634288 -0.09984337
000350 2d a7 9c 3d 7f 75 d2 ba 0f c8 91 bd 9d ed 3a bd
       0.07649074 -0.0016056745 -0.07118236 -0.045636762
000360 fc 2c 5d 3e 64 c5 15 3d 79 2e ce bd d4 71 3f 3e
       0.21599191 0.0365652 -0.10067458 0.18695766
000370 13 ea 9a bd 15 8a 23 be 24 d8 b0 bd d4 b0 f1 3d
       -0.07564177 -0.15970643 -0.086349756 0.118013054
000380 35 ce d3 3d 64 a0 41 be 49 1a d1 bc 41 83 a8 be
       0.10342065 -0.1890884 -0.025525229 -0.3291264
000390 96 50 92 3c 75 bd e5 bc d4 b0 31 3c e1 b3 f7 3d
       0.017860692 -0.028044442 0.010845382 0.12094856
0003a0 92 bb 14 bd ac 09 29 be c2 92 3e be 7b 0c cf bd
       -0.036311693 -0.16507596 -0.18610671 -0.10109802
0003b0 48 9a 40 be de 90 c0 3d 67 51 9e 3b b8 a5 8b bd
       -0.18808854 0.09402631 0.0048314813 -0.06818718
0003c0 5b 1d 01 be 10 ed a9 bd 60 fd 0b 3e 00 d3 c1 bd
       -0.12608854 -0.08297169 0.13670874 -0.09464073
0003d0 5c c3 bb bd 82 21 32 3d 65 30 e8 bd 6c 73 af 3c
       -0.09168121 0.043488987 -0.113373555 0.021417342
0003e0 e3 12 5d bd 01 68 f7 3c 89 a4 5d 3e 13 b0 02 be
       -0.05397309 0.03020096 0.21644796 -0.1276248
0003f0 da 60 92 bd f4 e3 80 bd d8 fb 29 3d 88 80 db 3c
       -0.07147379 -0.062934786 0.041499943 0.026794687

lstm.bias_hh_l0 f4 [256]
000000 13 39 e2 3c cb 06 f2 bd 60 eb 0d 3c 7c 48 3c 3e
       0.027615106 -0.11817702 0.008662075 0.18387026
000010 96 de c3 3d e3 ee 8e bd 54 eb e6 3d c0 f8 96 bd
       0.09563939 -0.06979158 0.11275354 -0.07371664
000020 b7 31 43 3d a8 50 09 3e 29 7d 9b 3d b1 51 7d 3e
       0.047654834 0.13409674 0.07592232 0.24738194
000030 71 c2 be ba a8 61 8b 3d f4 34 22 3e 85 42 2f 3c
       -0.0014553798 0.06805736 0.15840513 0.010697012
000040 8a ee 7d bd 63 d3 2c 3d 94 d6 31 3d dd d1 17 3e
       -0.061995067 0.04219378 0.04341753 0.1482615
000050 94 7f af 3d 0a 2a 37 3e 05 e8 19 3c d8 fd d0 bc
       0.085692555 0.1788713 0.009393697 -0.025511667
000060 80 2b 35 3e d7 79 55 3e 07 1a e7 3e da f5 1a 3e
       0.17692375 0.2084726 0.45137045 0.15132847
000070 db bc 02 bd b6 69 cf 3c 21 99 09 3e de 78 73 3e
       -0.031918388 0.025318962 0.1343732 0.23776576
000080 ec 95 62 3e 2e 40 7f 3d 49 37 40 3d 8f f3 51 3e
       0.22127503 0.062317066 0.046927724 0.20503066
000090 51 dc 22 3e b3 81 42 bc 91 82 56 3e d2 42 0f 3e
       0.15904357 -0.011871743 0.20948245 0.13990334
0000a0 32 3b 01 3e 05 49 fd 3d ae 91 84 bd 6d 20 d6 3c
       0.12620237 0.12367443 -0.06473099 0.026138509
0000b0 b3 aa 90 bd c0 d0 9b 3d a1 57 40 3d d7 43 4e 3d
       -0.07063808 0.07608175 0.04695857 0.050357666
0000c0 8c 90 b5 3d 5d da 8d bd 82 59 99 3d b5 36 88 bd
       0.08865461 -0.06926415 0.074877754 -0.066510595
0000d0 68 68 05 3e 67 53 70 3a 10 a4 91 3c c3 28 25 3e
       0.13028109 0.00091677014 0.017778426 0.1612883
0000e0 44 43 e6 3d 3a 6e 77 bd 06 8f 4f 3e d3 91 12 bd
       0.11243299 -0.060407855 0.20269403 -0.0357836
0000f0 c6 49 ea bd e8 ef bf bc 6f d9 60 3d 7c 63 17 3e
       -0.114398524 -0.023429826 0.05489486 0.14784044
000100 60 42 65 bd 61 e3 2c 3e 64 f0 d3 3d 82 66 1b 3c
       -0.055971503 0.16883613 0.10348585 0.009484889
000110 d3 49 0c 3d 89 37 fe b9 f2 15 e2 b9 cd 2c cf 3d
       0.03425009 -0.00048488032 -0.0004312243 0.10115967
000120 ef 6c ad bb f1 8a e2 3d bd ae 7e 3d 4f da 24 bd
       -0.005292527 0.11061657 0.062178362 -0.040247258
000130 02 be d5 3d 0a ef 3d 3e 40 74 25 3e 43 6d ac bc
       0.10436632 0.18548217 0.16157627 -0.021048194
000140 3f ac 60 3e f3 48 12 be b0 0a b2 3d eb fc dd 3d
       0.21940707 -0.1428564 0.08693445 0.10839256
000150 d5 c1 1d bb bc 24 ea bd dc 7a 5b 3d 3d 2c e9 bb
       -0.0024071832 -0.11432788 0.053583965 -0.0071158693
000160 5a 78 93 bd ed 02 2b 3e 4b 09 a8 bd a2 57 ad bc
       -0.072006896 0.16700335 -0.082048975 -0.02115995
000170 09 3e b6 3d 05 45 b8 3d ee bf cb 3d a4 c7 fa 3c
       0.08898551 0.089975394 0.09948717 0.030612774
000180 e2 6c ea 3c 08 92 7e 3d 0a 28 4c 3e 49 88 29 3e
       0.028616372 0.062150985 0.19937149 0.16555895
000190 e7 62 2d 3d e0 dc 28 3d 32 d9 cd 3d 57 4d 1c 3e
       0.04233065 0.041226268 0.10051192 0.15263878
0001a0 13 c7 e5 3b 5e c3 da bc ee 58 ef 3d dc a8 21 3e
       0.007012257 -0.026704486 0.11686884 0.15787071
0001b0 1d fe 98 ba b9 b7 83 3d 9e e4 2a 3e 8b c7 02 be
       -0.0011672411 0.06431527 0.16688773 -0.12771432
0001c0 6c ed de 3d 43 4d 16 3d b6 69 14 3e 3c ad 90 3d
       0.108851284 0.036694776 0.1449345 0.07064292
0001d0 c2 b7 94 3c a2 48 f3 bd 2a 9a 5e bd 80 c6 19 bd
       0.018154029 -0.11879088 -0.05434624 -0.03754282
0001e0 c5 27 7d 3d 49 21 f0 3d b9 fa 2b bd 01 73 9e bc
       0.061805505 0.11725099 -0.041987155 -0.019341948
0001f0 23 e1 74 3d ab e5 f0 3d a0 40 13 3e c2 7c 12 3e
       0.05978502 0.11762556 0.14380121 0.14305404
000200 72 65 17 bc dd 46 8c 3e 10 34 cd bd c3 19 e8 bc
       -0.009240495 0.27397814 -0.10019696 -0.028332597
000210 7c 1d a8 bc 2e e5 20 bd d1 78 63 3c db 13 69 3e
       -0.020521872 -0.039281063 0.013883785 0.2276148
000220 35 fe e9 3d 8c 33 f5 3d d5 0f 9a bc b4 79 57 be
       0.11425439 0.119727224 -0.018806377 -0.2104252
000230 cc 0f 85 3c 0a b6 ad bd e2 c9 1b 3c 53 dd d6 bd
       0.016242884 -0.08481987 0.009508582 -0.10491433
000240 8f fb 33 3d 25 7b 4d 3e e5 86 1b be 78 e5 c5 bd
       0.043941077 0.20066507 -0.15188177 -0.09662908
000250 c1 00 6b 3d 91 8d 66 3d 33 0a 2a 3d 10 e0 29 bd
       0.057373766 0.056287352 0.041513633 -0.04147345
000260 01 62 11 3e cb ad 46 3d f4 11 c7 bd 3f 92 d0 3d
       0.14197542 0.048505586 -0.09720221 0.10184144
000270 fa 19 83 bb a9 24 8d bc 79 23 97 bb 77 17 16 3e
       -0.0040008994 -0.017229395 -0.004612383 0.14657389
000280 9e df 0f 3d 2b 3f 10 bd e6 7d 4e bc e0 95 1c bd
       0.035125367 -0.03521649 -0.012603259 -0.03822887
000290 a0 b5 c5 bd 11 e7 09 bc ae 92 91 bc 6e 98 25 bd
       -0.09653783 -0.008416907 -0.017770138 -0.04042857
0002a0 15 67 dd 3c 79 25 b5 bd 0a 26 24 be fb 40 20 bb
       0.027026692 -0.08845038 -0.16030136 -0.0024452794
0002b0 15 e8 3f 3c 54 35 39 3d 15 b9 1c 3e 78 87 83 bd
       0.0117130475 0.045216873 0.15304978 -0.06422323
0002c0 69 94 f2 bd 71 4c af 3d 97 69 4e bd 70 fe ad bd
       -0.11844713 0.08559502 -0.050393667 -0.08495796
0002d0 e3 87 56 ba a4 03 83 3e 26 2f 6c 3c a9 ea 2d bd
       -0.0008183701 0.25588715 0.014415538 -0.042460117
0002e0 09 9a d9 bd 8d 68 4a 3e 62 6a 88 bd 84 ab 1f 3d
       -0.10625083 0.19766445 -0.06660916 0.03898193
0002f0 57 45 10 bd 5a d9 56 bb f5 d6 a2 bd 82 37 bd bd
       -0.035222378 -0.003278336 -0.07951156 -0.09239103
000300 6a 84 a8 3c a6 20 dc 3d 2c 90 e3 3c 37 0e 91 3d
       0.020570952 0.10748415 0.027778707 0.070827894
000310 79 ff 95 3b 74 6b 13 bd df 80 ae 3d 54 2d 0c 3d
       0.004577574 -0.035991147 0.08520674 0.034222916
000320 8a 2a ff bd b9 11 77 bd f2 94 42 bc 33 2f 3d 3e
       -0.124592856 -0.060319636 -0.011876332 0.18475036
000330 25 92 1f 3e f9 72 be bd 66 ae 11 3d 1d 67 76 be
       0.15583093 -0.09299273 0.03556671 -0.24062772
000340 6c f6 1d be 14 ad 85 bc 13 26 3d be f4 df 83 be
       -0.15426034 -0.016317882 -0.18471555 -0.257568
000350 ab 9c 23 3c d9 94 fc 3d 3a b1 a3 bd be 3e 88 bb
       0.009986083 0.12333078 -0.07992788 -0.00415787
000360 6d ce f9 3d 1b d4 27 bc 19 07 51 be 43 44 ad 3d
       0.12197576 -0.010243441 -0.20412864 0.084602855
000370 45 e5 25 bd 94 81 95 bd 27 4b 6e be 2c 44 11 3d
       -0.04050185 -0.07300106 -0.23270856 0.035465404
000380 cc be c6 3d 65 e2 06 be 86 64 5a 3c 41 2b 11 be
       0.0970436 -0.131723 0.013329631 -0.14176656
000390 1c 1e 35 bc 6a 87 4a 3c 43 8c 52 be 7d 93 9a 3d
       -0.011054542 0.012361387 -0.20561318 0.075476624
0003a0 7d 5b 68 be 0a cc 93 bd 4b 9c 86 be 11 8c 36 3b
       -0.2269115 -0.07216652 -0.26291117 0.0027854482
0003b0 c5 04 73 be 13 67 2a 3e 20 65 82 3d c6 29 42 be
       -0.23732288 0.16640882 0.06366944 -0.18961248
0003c0 66 4c e0 bd 20 d3 69 be 36 10 63 3d a6 64 b5 bc
       -0.10952072 -0.22834444 0.05543538 -0.02214272
0003d0 68 cd fe bd 51 85 56 3d ce 4e c0 3c 18 7c ab 3d
       -0.12441522 0.052373234 0.023475077 0.083732784
0003e0 b2 be 72 3d 9a af db 3c 75 60 b0 bc 0f 96 8a be
       0.059263892 0.026817132 -0.02153037 -0.2706761
0003f0 48 6d 04 be ad 5a 49 3c 9d 27 34 3d cb b9 d0 bc
       -0.12932312 0.012289685 0.04398309 -0.025479218

fc_layer.weight f4 [64, 64]
000000 07 d6 1b bf cd 2c 55 bf 39 88 69 bf f1 84 46 3f
       -0.60873455 -0.83271486 -0.91223484 0.775466
000010 e1 8b 3e 3f cf 91 3f bf 49 80 25 3f 4c 0e 25 bf
       0.7443219 -0.7483186 0.6464887 -0.6447494
000020 12 6c 51 3f 9c 18 05 bf 1e d2 49 3f 51 7c 60 3f
       0.8180553 -0.51990676 0.7883624 0.8768969
000030 bb a5 4e 3f 25 41 43 3f ba 11 55 3f c2 ed 29 3f
       0.80721635 0.7627128 0.83230174 0.66378415
000040 1d 1b 15 bf c5 c8 29 bf c0 9b 3d 3f d8 c7 3c bf
       -0.58244497 -0.66321975 0.7406578 -0.7374244
000050 74 10 43 bf 33 f5 1f bf cf 87 28 bf 8c 37 3a bf
       -0.7619698 -0.6248352 -0.6583223 -0.7274101
000060 8b 80 43 bf b7 d5 29 3f 51 a0 2c 3f eb d4 4f bf
       -0.76368016 0.6634173 0.67432123 -0.8118426
000070 bc 74 38 3f 3a f0 28 bf 93 e9 2f bf 53 2e 0d bf
       0.7205312 -0.65991557 -0.6871578 -0.5514881
000080 23 aa 65 bf a8 3d 2c bf 45 8c 30 bf 40 5e 3c bf
       -0.89712733 -0.6728158 -0.68964034 -0.73581314
000090 91 b6 58 bf 65 19 31 bf be be 66 bf f7 d0 10 3f
       -0.84653574 -0.69179374 -0.901348 0.56568855
0000a0 be 60 45 bf 35 5c 42 3f 0d 30 30 3f 41 15 4e bf
       -0.7710074 0.75921947 0.6882332 -0.8050118
0000b0 7c 64 4d 3f dc dd 2d 3f 74 30 14 bf 2e 40 1d 3f
       0.8023145 0.67916656 -0.57886434 0.61426055
0000c0 5f ef 1a bf c2 a6 21 bf ff 29 26 3f 5c 14 53 bf
       -0.605215 -0.6314508 0.6490783 -0.8245294
0000d0 7e b8 33 3f 1f 32 30 bf a7 84 06 3f 59 f9 30 3f
       0.7020339 -0.6882648 0.5254616 0.69130474
0000e0 5a e5 43 3f 85 65 2f 3f 06 d9 6a bf f8 d2 12 bf
       0.7652184 0.6851428 -0.917374 -0.5735316
0000f0 02 d7 2b bf 12 a8 37 3f 18 cf 54 3f 49 34 26 3f
       -0.6712495 0.7174083 0.831285 0.6492353
000100 76 81 43 be 76 2b 18 3f 3c 7c 25 3f 6d 23 9c 3e
       -0.19092354 0.59441316 0.6464269 0.30495778
000110 ca bd 98 bd cb 01 61 be aa ba 5e 3d ec 6d d6 bd
       -0.074580744 -0.2197334 0.054377235 -0.10470185
000120 de 2f d8 be 55 ed c4 be 35 54 58 3e e0 d5 25 3c
       -0.4222402 -0.3846232 0.21125872 0.010121793
000130 0c 59 6c 3d 80 51 03 3f fc 55 1a 3e 58 02 90 be
       0.05770211 0.51296234 0.15071863 -0.28126788
000140 d0 94 7c be ff 67 2a be ea 24 d7 bd d8 8f 6c 3f
       -0.24666142 -0.16641234 -0.10505088 0.9240699
000150 7f e6 b8 bd 97 60 63 be 9b 0e 9e bc 44 95 03 3b
       -0.09028339 -0.22204815 -0.019294074 0.0020077983
000160 43 f4 e7 3d ea f2 34 3e 22 72 75 3e 10 7c 43 be
       0.11325886 0.1767079 0.2396932 -0.19090295
000170 f7 6e d8 3d 53 29 84 be 83 c9 06 bf 78 87 ab be
       0.1056804 -0.25812778 -0.5265123 -0.33501792
000180 8a 1f a1 bd f3 d5 a4 3d 5a df 0d be bf a6 e6 3e
       -0.07867344 0.0804862 -0.13854733 0.45049092
000190 7e ea 40 3f 75 5d cf 3d 14 70 de 3e e7 e2 a4 be
       0.75357807 0.101252474 0.43444884 -0.32204363
0001a0 8b 47 4f be 18 3e 20 bc 91 dd c9 3e b1 16 b9 3e
       -0.20242135 -0.009780429 0.39426854 0.36150125
0001b0 b4 9a 36 3e 87 d4 84 3e ae 63 27 be df 69 96 3e
       0.17832452 0.25943395 -0.16346619 0.29377648
0001c0 d4 5a 64 3e 50 6c a5 be bc 45 7e be 9a e1 7e 3e
       0.22300273 -0.32309198 -0.24831289 0.24890748
0001d0 ec 9b 97 be 67 8d 35 be 5c 28 cb 3e db aa 3e 3e
       -0.29611146 -0.17729722 0.3967923 0.18619864
0001e0 1f 1b 55 bf 22 04 9f be 49 64 75 3f c1 33 5e be
       -0.8324451 -0.3105784 0.9585615 -0.2169943
0001f0 fc 7f 8c be 1e fb b6 3d 7f d3 33 be 0a 4d 8c 3e
       -0.27441394 0.089346156 -0.17561148 0.27402526
000200 db fb db be bb c9 43 3f 7f fc 70 3f bd e0 77 be
       -0.42965588 0.7647969 0.9413528 -0.24206825
000210 31 75 04 bf ab 82 c2 be 9a 6d e5 3d 4c 02 48 be
       -0.5174132 -0.37990317 0.112025455 -0.19532126
000220 52 98 9d be 6d 20 c0 be 12 e9 83 3e 15 de c2 3d
       -0.30780274 -0.3752474 0.25763756 0.09515015
000230 ae 7e 21 3e c7 7d 0a 3e c4 02 50 3e 91 ed 80 be
       0.1577098 0.13524543 0.20313555 -0.2518125
000240 76 fc 5e be bf 4e de be 12 a0 7f 3b f9 ca 63 3e
       -0.21775994 -0.43419454 0.0039005321 0.22245397
000250 a7 1c bf be 64 60 1a bd f5 5b 2e be 23 f5 30 3e
       -0.37326548 -0.03768958 -0.17027266 0.17281012
000260 ae 5c de 3b 5a 63 0a 3e 46 d3 65 3e f5 fa 86 3e
       0.0067859506 0.13514462 0.22443876 0.2636334
000270 53 61 05 3e 1b cd a6 be e3 b5 6c be 7a 8a aa be
       0.13025407 -0.32578358 -0.2311626 -0.33308774
000280 f0 10 3e be f4 84 36 3e 2b d4 d6 bc 90 78 b8 3e
       -0.18561149 0.17824155 -0.026224216 0.36029482
000290 2c 87 81 3f 96 c9 96 3d e5 39 e4 3e 8e 0d f6 be
       1.0119376 0.07362668 0.4457542 -0.48057216
0002a0 6d de 25 be 66 7b 95 3d a3 ee af 3e 6a 3d ea 3e
       -0.1619813 0.07298927 0.34361753 0.4574998
0002b0 19 90 44 bc ee f3 14 be 75 26 a2 be 48 a4 d0 3e
       -0.011997246 -0.14546177 -0.31669965 0.40750337
0002c0 7b d9 cd be 6c e7 9a be 6f 18 da be a8 14 91 3e
       -0.40204987 -0.30254686 -0.42596766 0.28336072
0002d0 a3 66 06 3b bb 9b 33 be 1c 7d 3d 3e fe 99 85 3e
       0.0020507954 -0.17539875 0.18504757 0.2609405
0002e0 69 c2 56 bf fd ac 06 be 94 e1 cf 3e ef 49 55 be
       -0.83890396 -0.13151927 0.4060179 -0.20828985
0002f0 4a 02 f7 bd 2d a1 d4 3d 98 27 21 3e 1d fa a4 3d
       -0.120609835 0.10382304 0.1573776 0.08055518
000300 0c 38 5c bf cd 96 3f bf d6 ad 81 bf 8d 27 47 3f
       -0.8602302 -0.7483948 -1.0131176 0.77794725
000310 3f 1b 6f 3f 93 6b 47 bf 50 95 66 3f f2 2e 2f bf
       0.9340095 -0.7789852 0.9007158 -0.6843101
000320 8f 2e 5d 3f 35 f6 1f bf ae 4a 35 3f 5d 0e 3e 3f
       0.8639917 -0.6248506 0.7081708 0.74240667
000330 9e 4e 2f 3f 2a bc 58 3f 4e 74 37 3f b7 68 66 3f
       0.68479335 0.84662116 0.7166184 0.9000353
000340 8b e6 31 bf 66 9e 34 bf 5e 0b 64 3f e6 1a 4a bf
       -0.69492406 -0.70554197 0.89079845 -0.78947294
000350 4e ae 25 bf 95 22 46 bf 31 e3 2d bf 3e 0c 61 bf
       -0.6471909 -0.7739652 -0.6792479 -0.87909305
000360 2e ae 41 bf 81 0a 40 3f 9c c0 1c 3f c4 e1 5b bf
       -0.756564 0.7501603 0.612314 -0.85891366
000370 98 ba 49 3f 24 4e 1a bf eb 54 38 bf af 17 43 bf
       0.78800344 -0.60275483 -0.72004575 -0.76208013
000380 e1 ee 5d bf 49 0a 4c bf 83 d1 57 bf de ca 64 bf
       -0.86692625 -0.79703194 -0.84304065 -0.8937205
000390 69 11 84 bf 97 37 51 bf d4 43 6d bf bb 01 3a 3f
       -1.0317813 -0.8172545 -0.9268162 0.7265889
0003a0 01 d2 20 bf 12 14 1f 3f cc a4 42 3f 2e 57 84 bf
       -0.6282044 0.6214 0.7603271 -1.0339105
0003b0 88 42 20 3f b4 0a 64 3f 90 6e 4d bf 9c 60 47 3f
       0.6260152 0.8907883 -0.8024683 0.7788179
0003c0 34 6f 0f bf 13 2e 22 bf aa 7a 2d 3f 91 fd 48 bf
       -0.5602906 -0.63351554 0.67765296 -0.7851191
0003d0 04 b6 43 3f a5 ff 45 bf d2 56 2f 3f 50 47 69 3f
       0.7644961 -0.7734321 0.6849185 0.9112444
0003e0 4a 07 63 3f 5b 24 6a 3f cb f1 7c bf 39 08 33 bf
       0.88683 0.91461724 -0.98806447 -0.6993442
0003f0 9f da 1f bf 7a 65 3e 3f 31 2c 59 3f 47 93 3a 3f
       -0.62442964 0.7437359 0.84833056 0.7288098

fc_layer.bias f4 [64]
000000 c1 7f 4a 3f 8a c0 b9 bd 7a 6a 1b be 3f 25 63 3f
       0.79101187 -0.09069927 -0.15177336 0.8872871
000010 66 f1 19 3f 95 35 57 3f 59 c3 4f 3f 01 89 62 bd
       0.6013397 0.84066135 0.8115745 -0.05530644
000020 f1 40 bb 3e 95 06 50 3f 1c 6c 62 3f ae b8 52 3f
       0.36572984 0.81260043 0.8844621 0.8231305
000030 92 db 12 3f d3 10 9c 3d 7b 75 8b 3d a1 9a bc bd
       0.5736629 0.076203965 0.06809517 -0.092091806
000040 3c 13 3b 3e 6f 11 9b bd 5e 3b 17 3f 6a bd 75 3d
       0.18269056 -0.075716846 0.5907496 0.059995092
000050 0f e2 28 3b 08 af 35 bd e6 f8 e8 3d 13 ba 46 3c
       0.0025769507 -0.044356376 0.113755986 0.0121293245
000060 21 07 44 3f b5 d3 32 3f e8 d4 38 bd c1 fe 44 3f
       0.7657338 0.6985429 -0.04512492 0.76951224
000070 67 ef 8d 3d cf c7 c5 3e db 43 99 3e e4 3d 09 3d
       0.06930428 0.38629004 0.29934582 0.03350629
000080 c2 16 43 3f 54 d8 88 3e 07 7c 6e 3d e9 fb b5 3e
       0.762066 0.26727545 0.05822375 0.35543755
000090 e1 a2 23 3a 79 96 40 3f 64 b2 be bd f4 42 35 bc
       0.00062422274 0.75229603 -0.09311369 -0.011063326
0000a0 15 91 d7 3e 9e 82 47 3f a7 57 5d 3f 55 d6 8a 3e
       0.42102876 0.7793368 0.8646187 0.27116647
0000b0 49 31 bc 3d 78 af 68 3c 3c 2f e1 bd 44 72 5a 3f
       0.09189088 0.014201991 -0.10995337 0.85330606
0000c0 bb 1b ad 3d d6 34 1a 3f 33 50 55 3f e2 87 21 3f
       0.08452555 0.6023687 0.833255 0.63097966
0000d0 11 8c 2b 3f 92 fa 2a 3b b5 82 47 3f 40 6c 48 3f
       0.670106 0.0026089293 0.7793382 0.78290176
0000e0 76 2f 39 3f 07 24 5d 3f 9c 9a 53 3f 36 7c ae 3e
       0.72338045 0.863831 0.8265779 0.3407914
0000f0 d3 59 09 bd 14 2a fe bc 34 04 2c 3f df dd 55 bd
       -0.03353293 -0.031025924 0.67193913 -0.052213546

output_layer.weight f4 [1, 64]
000000 ba 6b 5e 3f f8 10 61 bf fc 8b 92 bf 65 f7 45 3f
       0.8688313 -0.8791652 -1.144897 0.7733062
000010 da a8 59 3f 9b 32 4e 3f 9a f2 57 3f ed 30 62 bf
       0.8502327 0.8054597 0.84354556 -0.88355905
000020 60 e0 b0 bf f8 b0 53 3f a7 a2 47 3f a2 25 5b 3f
       -1.3818474 0.8269191 0.7798256 0.856043
000030 4d 4c 5a 3f d7 86 8a bf ba 25 86 bf 1b af 90 bd
       0.85272676 -1.08224 -1.0480263 -0.07064649
000040 28 c4 b3 bf 37 d6 90 bf c6 cc 60 3f fb 08 c6 bf
       -1.4044237 -1.1315373 0.8781246 -1.5471491
000050 68 c7 c2 bf a1 93 68 bd 5e 3e c7 bf 9c 1a 4c bf
       -1.5217104 -0.056781415 -1.5565908 -0.797281
000060 89 46 4d 3f 0c 1d 5e 3f e9 4a a1 bf a4 6e 51 3f
       0.80185753 0.8676307 -1.2600986 0.8180945
000070 63 f3 b8 bf c5 dd b3 bf ae 13 ab bf 43 99 70 bf
       -1.4449276 -1.4052054 -1.3365381 -0.9398386
000080 1c 09 5a 3f ce 5d a4 bf 4b 0e 7c bf e0 40 a2 bf
       0.8517015 -1.2841127 -0.9845931 -1.2676048
000090 25 74 46 bf 37 d8 5e 3f 2a 3a 95 bf f9 48 9f bf
       -0.7752097 0.8704867 -1.1658375 -1.2444144
0000a0 c8 fb 5f 3f 25 ee 5c 3f 18 88 47 3f f6 58 a0 bf
       0.8749356 0.8630088 0.7794204 -1.2527149
0000b0 84 dc bd bf 08 38 56 bf ab 17 ee 3d 18 75 4a 3f
       -1.4832921 -0.83679247 0.11625608 0.7908492
0000c0 b9 ad 83 bf a9 0e 59 3f a4 e9 57 3f d7 8c 49 3f
       -1.0287391 0.84787995 0.8434088 0.7873053
0000d0 6c 57 58 3f a9 9a ab bf 8c f8 4b 3f 06 e0 5f 3f
       0.84508395 -1.3406574 0.7967613 0.8745121
0000e0 b9 56 50 3f 1a 5c 48 3f f8 ef 4f 3f f9 77 ad bf
       0.8138233 0.78265536 0.8122554 -1.3552238
0000f0 2e 63 a9 bf 50 be a8 bf db ff 61 3f fc 75 4f bf
       -1.3233392 -1.3183079 0.8828103 -0.81039405
