Conditional_TimeGAN/result/original/model/KC_lag1_total1/torch_best_model.pt (torch, 87834 bytes, 7 tensors)

lstm.weight_ih_l0 f4 [256, 1]
000000 23 5d 8c 3d 24 40 86 3d db 2a 6a bd 20 78 ab bd
       0.06853702 0.065552026 -0.057169776 -0.083725214
000010 58 0c bf bc 07 ec e7 3c d4 f3 0a 3d 30 99 10 3e
       -0.023321316 0.028310789 0.03392394 0.14120936
000020 59 38 07 3d 62 47 60 3d 7b 78 0a bc 35 ea fa 3b
       0.03301272 0.054755576 -0.008451576 0.007657314
000030 2a 2c cf bd c9 d4 c8 bc 13 99 02 bd 64 f7 e8 3b
       -0.101158455 -0.024515526 -0.031884264 0.0071095694
000040 49 a7 9b 3d ba 1d bb 3d 82 f4 24 bd 81 01 a2 3c
       0.076002665 0.09136529 -0.040272243 0.019776108
000050 e8 86 e3 3d d4 dd f4 3d f9 4b b4 3c 1d fd 14 3e
       0.11109716 0.11956373 0.022008883 0.1454968
000060 a0 ee a8 3b 19 95 c7 3c 26 f4 0a 3e 34 48 8f bd
       0.0051553994 0.024363087 0.13569698 -0.069961935
000070 be bb 33 bd 89 35 9c 3d df 2a ee bc 8a 9b 56 3e
       -0.043880217 0.076273985 -0.029073177 0.20957771
000080 de f7 21 bd cf cd 3c bd f2 31 d9 bc bc 27 81 bd
       -0.039543025 -0.046094712 -0.026513074 -0.06306407
000090 7f 07 10 bd 06 60 f0 3d 75 f3 96 3d a5 5d cb 3d
       -0.0351634 0.11737065 0.073706545 0.09929971
0000a0 b1 09 25 3d 61 43 ba bb 37 10 58 3d 11 c7 65 bd
       0.040292446 -0.0056843017 0.05274984 -0.056098048
0000b0 33 77 4a bd ea 2f 27 bd dc 44 b7 3d 39 8c 10 3e
       -0.049430083 -0.04081718 0.08948681 0.1411599
0000c0 c9 f6 be bc 6a f9 9d bc f9 68 cf 3d f6 af 56 3e
       -0.023311036 -0.019283969 0.10127444 0.20965561
0000d0 5a 23 6b 3d d0 33 6b 3d 89 c4 9e 3d ce 98 91 bd
       0.05740676 0.05742246 0.0775233 -0.07109223
0000e0 06 7c 8e 3d 79 7c 52 bd c1 1d 05 bd a7 9c 31 bd
       0.06957249 -0.051388238 -0.03249908 -0.043362286
0000f0 21 30 e0 3d 16 47 cc 3d 34 3d f0 bc e8 52 e1 3c
       0.1094668 0.09974496 -0.029326059 0.027505353
000100 28 f7 ad 3d a8 78 72 3d ee 08 e1 3d 57 3c 86 3d
       0.08494407 0.059197098 0.10988031 0.06554478
000110 2e f7 e7 3d 80 71 f0 3d b0 61 91 bc fb ee 39 bc
       0.11326443 0.117403984 -0.017746776 -0.011348481
000120 a6 7b 13 3c fd ed 49 3e 8d 18 ee 3d 2a 9f ed 3d
       0.009001648 0.19719692 0.116257764 0.11602624
000130 3c 61 9e 3d 17 7d a5 bc 6c a5 18 3d ef 96 19 bd
       0.0773339 -0.020201249 0.037267134 -0.037497457
000140 95 1c c2 bb 5a 50 92 3d 18 fc e8 3d 50 20 41 bd
       -0.0059238174 0.07144232 0.11376208 -0.047149956
000150 5d 7a d1 3c ff 4f 87 bc 57 e1 35 3c 67 ad 9e bc
       0.025571043 -0.016517637 0.0111010885 -0.019369794
000160 3b ee 6b 3d dc 39 b3 3a f6 a3 7c 3d b1 60 90 3d
       0.05760024 0.001367386 0.061679803 0.070496924
000170 76 cf e0 3d de 8a 7a 3d 3b d8 26 bd 9f f2 2e 3b
       0.1097707 0.06116759 -0.040733557 0.0026694906
000180 6c 87 de 3d 08 73 83 3d ae 12 19 bc e4 88 0c bd
       0.108656734 0.06418425 -0.0093428325 -0.034310237
000190 7c 9f ff 3d 51 ce fe 3d 91 e0 f6 bc 03 ee 43 bc
       0.12481591 0.124416955 -0.030136378 -0.011958602
0001a0 96 97 43 bd 2d f6 4c 3d 61 7e 1f bd 35 9a 1b bd
       -0.047751985 0.05003946 -0.038938884 -0.03798886
0001b0 0e dd a3 3d 89 0e 2b 3d e9 71 50 bc 3a 32 5e 3d
       0.08001147 0.04176191 -0.012722471 0.05424712
0001c0 f5 2e b9 bc ea c9 22 3e b3 26 a9 3d b7 28 ce bc
       -0.022605399 0.15897337 0.082593344 -0.025165899
0001d0 62 df a4 bc bd 17 e1 ba e9 e2 4a 3c f3 60 87 3d
       -0.020126048 -0.0017173212 0.012383201 0.066102885
0001e0 16 31 96 bc db 9a 10 3d f8 8b 7a 3b c1 6b 90 3d
       -0.018333953 0.03530393 0.00382304 0.070518024
0001f0 43 1d 39 bd 43 af 0b bd 7f c1 ec 3c 0d e2 0b bd
       -0.04519392 -0.03410269 0.02890086 -0.034151126
000200 65 3d ab bb 5d 47 89 bd 05 a2 29 bc cb 38 78 3c
       -0.0052258247 -0.067030646 -0.01035357 0.015150259
000210 6d 07 18 bd ca 1c 8f b9 56 ec 05 3e fa c2 e2 3b
       -0.037116457 -0.00027296535 0.13078436 0.0069202157
000220 2c 1d 81 3c 58 d3 2c bc 03 62 b3 ba 72 c1 b1 3d
       0.01576098 -0.010548435 -0.0013685826 0.08679475
000230 39 8d 3c 3e 31 6b de 3d ce 84 0e 3e 03 5f 29 bc
       0.18413247 0.10860289 0.13917848 -0.010337594
000240 1f b5 af bd c1 f1 46 bc f8 ef 0c 3e b6 09 a1 bc
       -0.08579468 -0.0121426 0.13763416 -0.01965795
000250 c7 fb 2a bb b1 3c ac bd ce 60 95 bd 4e 77 7f bd
       -0.0026090012 -0.084100135 -0.07293855 -0.062369637
000260 86 05 f8 3b 56 38 f7 3d 5a 33 fe 3c ef b2 15 be
       0.007569018 0.12071292 0.031030346 -0.14619039
000270 aa 4a 94 3d 19 b3 61 bc 6b 2c 6b bd a5 b9 51 bc
       0.072408035 -0.01377561 -0.057415407 -0.012800609
000280 3a 5c 2b 3b 33 27 f3 bc fd 68 bb bd 2f b6 0f be
       0.00261475 -0.029681778 -0.09150884 -0.14034341
000290 f3 ec 08 bd 84 81 0a 3b fe 5b 55 bd 03 a9 7c 3d
       -0.033429097 0.0021134326 -0.052089684 0.06168462
0002a0 3b 12 ed bd 32 0d cf 3a 44 1a 04 3e 90 09 7c bd
       -0.11575743 0.0015796779 0.12900645 -0.061532557
0002b0 11 33 0d 3d 40 9e 8a 3d 9a 66 cf bd 8c 6e 69 3d
       0.03447253 0.06768465 -0.101269916 0.05699019
0002c0 e7 33 85 bc 1f 85 96 bd 53 b3 72 3e b2 06 32 be
       -0.0162601 -0.073496096 0.2370122 -0.17385367
0002d0 90 8b 3c 3c 87 a9 b0 bc 50 09 24 3d f7 32 62 3c
       0.011507884 -0.021565212 0.040047944 0.013806096
0002e0 71 2b 6d 3d 26 ad 84 3b 1c 6c b2 bd 47 8e ca bc
       0.057902757 0.004048961 -0.087120265 -0.024726046
0002f0 ed 20 72 bd 7a 8d 89 3d 57 26 19 3e 12 5d a3 3d
       -0.05911343 0.06716438 0.14956032 0.07976736
000300 e1 e4 20 3d 2f 52 b6 3c 22 89 e0 3b 62 12 3d 3c
       0.039280776 0.022255985 0.006852285 0.011540027
000310 1a 10 44 3c 97 c2 84 3d 7f 70 12 3b 73 da 12 3d
       0.01196673 0.064824276 0.0022344885 0.03585286
000320 80 65 06 3e ae 75 77 3e 7f ac 76 3c a1 60 4a 3c
       0.13124657 0.24165985 0.015055775 0.01235214
000330 15 38 26 bc bf 95 72 3d df 79 c9 3c bb 98 6f 3d
       -0.010145207 0.05922484 0.024594245 0.058495265
000340 37 82 46 3d 50 03 d9 3d 5e 0d 40 3d ff b3 86 3b
       0.048464026 0.10596335 0.046887748 0.0041108127
000350 c7 e2 8b 3d ad 2c cb 3c bc af eb 3c 52 59 4b 3d
       0.06830364 0.024801577 0.02877032 0.04964573
000360 63 1c 1e 3c 58 f1 90 3c dd 64 0f 3e 00 83 d5 bc
       0.009650323 0.017693207 0.1400332 -0.026063442
000370 69 fe 32 3d 9f df 06 3e 63 5c 65 3d f7 16 8a 3d
       0.043699656 0.13171242 0.05599631 0.067426614
000380 c3 6a a4 bc 61 a4 5c 3d 28 ed 7b 3b 44 c0 57 bc
       -0.02007044 0.0538677 0.0038440917 -0.013168398
000390 35 78 bc 3b 40 f7 1e 3d 7b 09 29 3d 44 3f 8e 3d
       0.0057516345 0.038810015 0.041268807 0.06945661
0003a0 5b 65 b9 3c 81 2e dc 3d 4c 97 88 3d 95 48 a1 3c
       0.022631338 0.107510574 0.066694826 0.01968793
0003b0 b0 8a 9a 3d 79 de 02 3c e9 b4 48 3c 89 61 71 3d
       0.07545984 0.007987612 0.012250164 0.058930907
0003c0 6e a0 47 3d ab e0 8f 3d af e3 f9 3b ff ba d1 3c
       0.048736982 0.07025274 0.007626019 0.025601862
0003d0 80 70 68 3d 8e 64 f0 3c be 4e 00 3e b3 17 0e bd
       0.056747913 0.029344823 0.12530038 -0.03469057
0003e0 f9 30 9f 3d 49 91 59 bc b2 44 e2 3b d5 d3 16 3d
       0.07773013 -0.013279268 0.006905162 0.036823113
0003f0 86 c7 9d 3d 1e 3e 0d 3d 17 75 f4 3b 5c c2 84 3c
       0.07704072 0.034483068 0.0074602473 0.016205959

lstm.weight_hh_l0 f4 [256, 64]
000000 7f 8b 4d 3c ce 5c 3e 3d 9b a3 a3 3b ea 33 c0 bd
       0.0125454655 0.046475224 0.0049938685 -0.09384902
000010 bf 65 8e bd 15 cc 9a 3d f7 39 68 3d c6 05 86 3d
       -0.06953 0.07558457 0.056695905 0.0654407
000020 99 b1 1d 3d 14 c8 04 3d b9 1d 45 bd 00 2b 1e 3d
       0.03849945 0.032417372 -0.04812405 0.038615227
000030 6e 44 bd 3d 37 50 9b 3c 7d 1b b8 bd 05 e9 c9 bc
       0.092415676 0.018959148 -0.08989618 -0.024647245
000040 d6 b3 e3 bd 8c 67 ce 3c c1 2a da bd 58 22 cd bd
       -0.11118285 0.02519586 -0.10652686 -0.10016316
000050 17 fc b1 3d 38 e9 8b bd af 2e 92 3a d4 d9 4a 3d
       0.086906604 -0.06831592 0.0011152829 0.049524143
000060 92 cd ae 3c e9 77 9f bd 5d 45 06 be 64 8e 39 3e
       0.021338258 -0.07786543 -0.13112397 0.18120724
000070 8d 11 e3 bc 42 6b 04 3e 0b 73 23 bd 51 37 32 3d
       -0.02771833 0.1293154 -0.039904635 0.043509785
000080 61 ec de 3a 8c f6 bd 3c 0e 41 4e bd 85 f1 a4 3d
       0.0017007702 0.023188852 -0.05035501 0.08053879
000090 5e e1 7b 3d a8 b2 af 3d 17 e7 42 bc 3a 41 9f bd
       0.061494224 0.08578998 -0.011895916 -0.07776113
0000a0 2e f3 c3 3d 23 cf 00 be 53 5c 36 3d cd 4c 14 3d
       0.09567867 -0.12579016 0.04452164 0.036206055
0000b0 a6 7e e3 bd df 0a 39 bd dd ff 95 bd 8c e1 b3 3c
       -0.11108141 -0.045176383 -0.07324193 0.021958135
0000c0 48 4d 1c 3d 07 60 b8 bd 58 23 0a 3d 39 f7 86 3d
       0.03815964 -0.09002691 0.033725113 0.06590123
0000d0 f8 b4 55 3d 12 7c 67 3d bb 81 fd bd 5a 2e a9 bd
       0.05217454 0.056514807 -0.1237826 -0.08260794
0000e0 9b 99 62 3d f5 56 d5 bd 59 bd 98 3d 17 72 05 3e
       0.05532227 -0.10416976 0.0745799 0.13031803
0000f0 ed 97 81 bd 45 d6 89 3c 92 fa 0c 3c 98 98 1b 3c
       -0.06327806 0.016825804 0.0086046625 0.00949683
000100 6a 8b 27 bd 75 1a 97 3b 86 52 22 be 34 02 62 3b
       -0.04090444 0.004611308 -0.15851793 0.0034486176
000110 50 40 8b 3d 02 b0 fa 3d b3 0a 54 3d 74 3d 50 bc
       0.06799376 0.12240602 0.051768016 -0.012709964
000120 10 d3 8b 3b 40 11 a5 bd 12 af 8d bd 99 4c f0 bd
       0.004267104 -0.08059931 -0.06918158 -0.1173336
000130 94 8f fe 3d 10 48 65 3d 2d 05 b1 bd d2 66 a0 3c
       0.12429729 0.055976927 -0.08643565 0.019580279
000140 cc 3c e6 3d 0d ae 26 3e 2c 2b d5 3d 90 ef 9b 3d
       0.11242065 0.16277333 0.10408625 0.07614052
000150 5a 9a 4e 3d e3 b0 f3 bc fe 90 0a 3e 08 8d a7 3d
       0.05044017 -0.029747432 0.13531873 0.081811965
000160 08 3a ad bc e7 ec cd 3d 4a 95 18 3e 87 d1 d4 3d
       -0.021145836 0.10054951 0.149007 0.10391527
000170 db 22 ad bd d8 d0 47 3b c4 c3 df bc 97 59 cf 3d
       -0.08453914 0.003048947 -0.027315028 0.1012451
000180 9e b6 5d bc b4 d0 a2 3d 8c 6c 01 3d f1 96 b7 3d
       -0.013532309 0.07949963 0.03159766 0.08964337
000190 94 cf 2c bd c8 1a 34 3e a5 27 9f bd 96 16 a5 3c
       -0.04219015 0.17588341 -0.077712335 0.020152371
0001a0 20 4d 8c bd 13 49 08 be 13 bb e9 bd 55 4e fb 3d
       -0.06850648 -0.13309126 -0.11412635 0.122708
0001b0 c9 4c f4 3c dc 9e bb 3d ef fd d3 3d ea c9 09 be
       0.02982177 0.091611594 0.10351168 -0.1345593
0001c0 70 17 4e bd df b6 dd bb 03 c0 a3 bd 62 a3 b6 3d
       -0.05031532 -0.0067661847 -0.07995608 0.089178815
0001d0 a4 c6 ef bd 89 5e 1a 3d 1d 64 21 be 83 a1 cf bd
       -0.117078096 0.037687812 -0.15760846 -0.10138228
0001e0 b4 2c 4c 3d fb 61 a3 3d 6f 0a c0 3d 7b 52 de 3d
       0.04984732 0.07977673 0.0937699 0.10855576
0001f0 35 d7 f4 3d 7f 46 0f bd bf e3 58 3d df 66 bd 3d
       0.1195511 -0.03497934 0.05295157 0.09248137
000200 cc fd 8b bd a4 75 c9 3d 5a d8 9d bd 60 a4 e8 3d
       -0.06835517 0.09836891 -0.077072814 0.11359477
000210 06 05 e2 bd 63 01 10 bc bb ff d3 3d 59 96 54 3d
       -0.110361144 -0.008789393 0.10351511 0.051901195
000220 4f 7a 53 bd 65 00 1a be 50 7e 80 bc 3b 53 16 3e
       -0.051630314 -0.15039213 -0.01568523 0.14680187
000230 43 cf 06 3e de 50 df 3c b4 79 26 bb 42 86 e5 3d
       0.13165002 0.02726024 -0.002540213 0.11207248
000240 9b 89 29 3d 0e ef fc 3a 8e 74 39 bb 2b bd 74 3d
       0.041390996 0.0019297318 -0.0028298232 0.059750717
000250 34 87 24 3d dd 1d 17 be bc 31 c5 3d 90 63 3a 3d
       0.040168002 -0.14757486 0.09628627 0.045505106
000260 fa aa 99 bd 0b fd 0b 3e 13 dd 7a bd 2f 89 5a be
       -0.07503314 0.13670747 -0.06124599 -0.21341394
000270 6e 0e 3b 3e 5b 80 6b bd 29 87 0f be fb 4a 9c bd
       0.18267223 -0.057495456 -0.14016403 -0.07631489
000280 0a 58 d4 bd c1 fd ce bd 73 fe 7b bd 62 48 f0 3c
       -0.103683546 -0.101069935 -0.06152196 0.02933139
000290 31 0f 7a bd 87 50 12 3e fa 59 14 bd de c9 cf 3d
       -0.061049644 0.14288531 -0.03621862 0.10145925
0002a0 29 a8 8e 3c 32 da 8a bd 58 bd c3 3c 6f 97 74 be
       0.01741417 -0.06779899 0.023893997 -0.23885892
0002b0 29 c5 1a 3c 22 fa 1e 3e 84 a1 17 be 99 55 c4 3d
       0.009446421 0.15525106 -0.14807707 0.09586639
0002c0 d1 4d 79 3d 05 2e 54 bd 2e 72 be bc 1e 25 c7 bd
       0.060865227 -0.0518017 -0.023247804 -0.097238764
0002d0 6b 37 94 3d e0 cb 25 be 04 2f aa 3d 8f 27 99 3d
       0.07237133 -0.16191053 0.08309749 0.07478248
0002e0 d8 46 df bd 53 8d fb bc 52 94 c8 bd 62 af b0 3c
       -0.10902184 -0.030707037 -0.09793915 0.021568004
0002f0 0a 06 1f be 66 17 2c 3e e5 68 d8 3c 4b 09 e8 3d
       -0.15529647 0.16805801 0.026417205 0.113298975
000300 c7 00 81 bd b9 60 82 3d 3d 86 50 3d fd f6 9f 3e
       -0.062989764 0.06366105 0.05090927 0.31243125
000310 bf b5 ba 3e 90 5d 03 3e 87 ca bc bb b9 01 0d 3e
       0.36466786 0.1282866 -0.005761448 0.13770188
000320 ea 9a 23 3c 5b e3 83 3d bb df 6a bd e0 2d 05 3d
       0.009985665 0.06439849 -0.057342272 0.032514453
000330 5f 1d c6 3d 90 f6 8c bd fc 33 7f 3d 2e 47 f9 bd
       0.09673571 -0.068829656 0.062305436 -0.121717796
000340 cc f6 41 3d a9 b3 8f 3d cc f5 2f 3b dc 17 85 bd
       0.047354504 0.07016689 0.0026849387 -0.064986914
000350 08 1e 59 bd 8e 43 c0 bd a8 a3 ae 3a 6f ff 0b 3e
       -0.053007156 -0.09387885 0.001332392 0.13671659
000360 61 38 1d be e0 a6 49 3d 46 44 9b bd 32 05 b9 be
       -0.15353538 0.04923141 -0.075813815 -0.36136776
000370 f4 b1 e9 3c c4 a1 ab 3d b1 19 fa bc ef 0f aa 3c
       0.028527237 0.08380464 -0.030529829 0.02075955
000380 64 31 3d be 1e cb d4 bc d7 73 3e be 3e 7b 9c bc
       -0.18475872 -0.02597576 -0.18598877 -0.019101735
000390 2c 42 3f bd cd e8 bb 3d a1 19 be 3d 45 58 28 3d
       -0.046693966 0.091752626 0.09282232 0.041099805
0003a0 c9 35 d7 3c e2 c3 e7 bd 77 bd 58 bd cb a8 f7 bd
       0.026270764 -0.113166586 -0.052915063 -0.120927416
0003b0 45 dd e5 ba 31 5e c3 bc dd d3 3d 3d 31 a8 d1 bc
       -0.0017537257 -0.023848625 0.046344627 -0.025592895
0003c0 1b 4b 93 bd f3 5f d8 bc cf c3 26 3e 0b ce 07 3e
       -0.071920596 -0.02641294 0.16285633 0.13262193
0003d0 17 bd 05 be d8 af 60 3e 70 e7 a7 bd 08 b4 c9 3e
       -0.13060413 0.21942079 -0.0819844 0.39395165
0003e0 f5 e6 53 3e d1 41 44 3d 4d 2b 14 bd 64 d2 d2 3d
       0.20693572 0.04791433 -0.036174107 0.10294035
0003f0 44 04 bc bc 94 f8 d2 3d a4 fe 3b bb 82 22 10 3e
       -0.022951253 0.10301319 -0.0028685713 0.14075664

lstm.bias_ih_l0 f4 [256]
000000 13 c6 01 3e 3b d7 6f 3d 4c fb 52 3d 29 50 01 3e
       0.12673216 0.05855487 0.051509187 0.12628235
000010 4e ff 2c 3e f1 48 89 bd 87 23 5f bd c0 7b b5 bd
       0.16894266 -0.067033656 -0.05447724 -0.08861494
000020 15 1a 4d 3a b9 22 b1 bd 90 b9 da bc 2a f2 49 bd
       0.0007824016 -0.08649201 -0.026699811 -0.04930321
000030 c9 50 49 bd 9e 22 08 3e 22 83 09 3e 25 6e f3 3d
       -0.04914931 0.13294455 0.1342893 0.11886243
000040 69 5a a6 3d 16 dd 9f 3c 9c 25 76 bd 45 a6 8b 3d
       0.08122713 0.019514602 -0.06009446 0.06818823
000050 52 00 14 3e af d4 f7 3c 4d ba b7 3d 47 c1 04 3e
       0.14453247 0.030252783 0.08971081 0.12964354
000060 ab 67 1a 3d 61 3c 26 bd 86 e2 a7 3d a6 be 2e bd
       0.03769652 -0.040584926 0.08197503 -0.042662285
000070 d9 e2 22 3d 7b e9 b4 3d 57 54 58 3d 50 57 38 3c
       0.03976712 0.08833595 0.052814808 0.011251286
000080 da 9e 96 bc ea 68 1a 3e 7b 8e 49 3d 55 79 c7 3d
       -0.018386293 0.15079084 0.049208146 0.09739939
000090 f0 b5 97 3d 61 a1 c3 3d 99 33 c4 3d a0 ae 82 3d
       0.07407749 0.09552265 0.09580154 0.06380963
0000a0 0b 0f 4e bb b5 47 2e 3d 14 d1 5c bd b6 9e 08 3e
       -0.0031442072 0.042548854 -0.05391033 0.13341793
0000b0 8c d1 38 3e a1 74 0b 3e 81 81 77 bd c9 c1 cb 3d
       0.18048686 0.13618709 -0.06042624 0.09949071
0000c0 c5 39 27 bd bf 70 01 be fd ea 3f 3e 7b 49 53 3e
       -0.040826578 -0.12640665 0.18741985 0.206335
0000d0 3a 26 a9 bd 88 c6 84 3d 41 1d 0f 3e 91 f1 56 3d
       -0.08259244 0.06483179 0.13976003 0.05247647
0000e0 31 76 40 3d d7 50 ce 3d a9 cb e1 3d fc af 39 3d
       0.046987716 0.10074013 0.11025173 0.045333847
0000f0 4e d9 e8 3c f5 68 d1 bc 99 0d d5 3d 0b 99 e0 bd
       0.028423931 -0.025562743 0.10402984 -0.10966691
000100 5e 2c 28 bb 77 ac 49 be 4b 53 3f 3d 4c 78 db 3d
       -0.002566121 -0.19694696 0.046710294 0.10716304
000110 cb bf f9 bc dc d7 fb bc 0a c4 c3 3c 04 2e 94 bc
       -0.030486962 -0.030742578 0.02389719 -0.018088348
000120 08 0e a1 3d 68 d8 c1 3b a5 f2 d1 bd b7 57 78 bc
       0.078640044 0.00591569 -0.10251359 -0.015157632
000130 f6 70 9c 3c 31 26 dd 3d 61 3d ed 3c c5 f9 92 3d
       0.019096833 0.107983 0.028959932 0.07176546
000140 f6 fa b6 3d 45 f0 57 bb 3b af ac 3d ce 5e b8 3d
       0.08934586 -0.0032949608 0.0843186 0.090024576
000150 93 ac b0 3d 17 6f 77 3d 0a b0 56 3d 34 c5 9d 3d
       0.08626666 0.060408678 0.052413978 0.07703629
000160 fa 22 6e 3d cd 34 fe 3c c7 e7 aa 3d df 9a a2 bc
       0.058138825 0.031031037 0.08344989 -0.019849239
000170 dd b3 cd 3d 64 cb 6f 3d 14 41 c8 3d 10 af 3b 3c
       0.10044072 0.058543578 0.09778038 0.011455312
000180 48 ad 0a bd ed 49 d7 3b d2 52 46 3e e7 81 82 bb
       -0.03385666 0.006570092 0.19367531 -0.0039827707
000190 99 ab 93 3d 69 0a 97 3d eb 1b b6 3d 6e 09 4d 3d
       0.07210464 0.073750325 0.08892044 0.05005782
0001a0 32 35 e3 3d 26 66 f8 3d bd ba d3 3d a5 ea a8 3d
       0.110941306 0.12128858 0.10338352 0.0824788
0001b0 b8 dc 38 3e b6 82 7e bd 36 08 3a 3d 4c 95 2f be
       0.18052948 -0.062136374 0.045417987 -0.17146796
0001c0 2a f6 27 bd b4 d3 a9 bd 44 83 56 3c 17 98 d7 3d
       -0.041006245 -0.08292332 0.01309282 0.10527056
0001d0 44 46 90 3c 6e fc fc ba 3c bb 96 3c 31 71 fd 3c
       0.01761163 -0.0019301304 0.018399827 0.030937763
0001e0 e2 28 c4 3d d6 6d a4 3c c9 0c 27 3e e0 ff 99 3d
       0.0957811 0.020071905 0.16313471 0.075195074
0001f0 a0 58 e1 3d e9 92 c7 3b be 90 91 bd 78 a5 af bc
       0.11003232 0.006090511 -0.071076855 -0.021441206
000200 76 21 06 3d 40 bd 61 3d eb 2b 5a bd 46 1d a6 bd
       0.032746755 0.055112123 -0.05326454 -0.08111052
000210 9b 09 32 3e 3e 60 0a bb 07 a2 23 3e ee 81 85 bd
       0.17386477 -0.0021114494 0.15979777 -0.06518923
000220 2c 28 92 3d 5a 8e e8 bd b0 40 8e bd 09 45 6f bd
       0.071365684 -0.113552764 -0.06945932 -0.058415446
000230 b1 0f 7e bd a9 db ac bd 42 fa bb bd 3d 71 46 bb
       -0.062026683 -0.08440334 -0.09178592 -0.0030279898
000240 24 6e 0f bd 64 61 a1 bd f8 1e 06 3e a5 b1 58 3d
       -0.035017148 -0.07879904 0.13097751 0.05290379
000250 b7 65 e2 3c 69 3a d2 3d cf 0f 8a 3d 49 15 3e 3e
       0.027636392 0.10265047 0.067412965 0.18562807
000260 2c b2 91 bc 58 de 5a 3d 3a a3 a0 bd b0 5a 8d bd
       -0.017785154 0.0534347 -0.07843633 -0.06902063
000270 37 7b ea bd d2 68 75 3d 1d 23 40 bd 22 9b 2f 3d
       -0.114492826 0.059914418 -0.046908487 0.042872556
000280 a4 a0 82 bd 9c 73 69 bb a3 d6 eb 3c 71 02 a6 bd
       -0.06378296 -0.0035621887 0.02878887 -0.081059344
000290 ee 72 af 3d 73 8b d1 bd 34 7a 81 3d 51 9b fe bd
       0.08566843 -0.10231676 0.063221365 -0.12431968
0002a0 ec e1 14 ba 19 8d 1d 3e 3a ef 18 3d 3b b7 18 3d
       -0.0005679417 0.15385856 0.03733752 0.037284117
0002b0 95 62 e1 bc 87 1f f6 3d 94 fa 19 3d b4 96 76 bd
       -0.027512828 0.12017732 0.037592486 -0.060202315
0002c0 9c 62 db 3d 3a 77 f4 3d 77 19 b4 3d 21 56 1a be
       0.107121676 0.11936803 0.087939195 -0.15071918
0002d0 20 fb 8c 3d 5d f1 a1 bc 8b 7e 13 be 24 d5 89 bd
       0.06883836 -0.019768411 -0.14403741 -0.067301065
0002e0 9f 81 a0 bd 06 a9 cc bd a3 61 c2 3d 73 3b e0 3d
       -0.07837223 -0.09993176 0.09491279 0.10948839
0002f0 46 a4 b5 3c 41 da b1 bd 70 4f 2d 3e 93 93 2e bd
       0.022173058 -0.08684207 0.16924834 -0.042621206
000300 a1 9f 48 3e f3 b7 02 bd 03 b2 4b 3e c1 59 13 3e
       0.19592144 -0.03191371 0.19892125 0.14389707
000310 d7 6b 6c 3c c0 f1 46 be 98 94 06 3e c7 d7 88 bc
       0.014430008 -0.19428158 0.13142622 -0.016704453
000320 61 ad b4 3d 4f 2e 88 3c 99 18 d5 ba 28 0f 88 3d
       0.08822132 0.016623644 -0.0016257941 0.06643516
000330 70 2c 20 3e 05 34 00 be 85 76 4c bc 27 2b 74 bd
       0.15641952 -0.12519844 -0.012479429 -0.059611466
000340 b2 64 cd bc 26 28 8d 3d 03 0b bf bd e1 20 d6 3c
       -0.02507243 0.06892423 -0.09328272 0.026138725
000350 79 32 f8 3c 06 7e a3 bc 3e fd 89 bd 38 81 fd bd
       0.030297505 -0.019957554 -0.06737755 -0.12378162
000360 bc a5 5e 3e 6e c3 aa 3d 9f c5 af bd dc 52 03 3e
       0.2174291 0.083380565 -0.08582615 0.12824577
000370 e9 93 06 bc a8 65 22 be 28 72 ea bd 08 14 3b 3e
       -0.0082139755 -0.15859091 -0.11447555 0.1826936
000380 19 70 a7 3d 70 35 ba bd eb 20 5a bc 1b 42 e2 bd
       0.08175678 -0.09092224 -0.013313512 -0.11047765
000390 2b f6 91 3d bf 22 67 3d 4b d3 3a 3d 1f cb 04 be
       0.07127031 0.05642962 0.04561166 -0.1296811
0003a0 04 8c 28 3d b9 32 14 be 70 77 30 be b7 f2 aa 3d
       0.041149154 -0.14472474 -0.17233062 0.083470754
0003b0 38 05 1c be 00 7f bd 3d 90 62 23 bd 0f a3 c8 bd
       -0.15236366 0.09252739 -0.03988892 -0.09796726
0003c0 5d 01 f8 bd 9b c1 ea bd 60 9d 2b 3e 97 ef 00 bd
       -0.12109635 -0.114627086 0.16759253 -0.03147849
0003d0 97 18 e9 bd 2a 1f 31 3d 0c 2c 68 bc d4 6f 0b 3d
       -0.11381643 0.04324261 -0.014170658 0.034042194
0003e0 d6 a7 ec bc a3 79 bc 3d 59 40 43 3e fa 43 43 3b
       -0.028888624 0.09202888 0.19067515 0.0029795156
0003f0 a9 50 81 bd 7c b8 f8 39 d9 e2 b4 3c c6 f7 be 3c
       -0.06314213 0.00047439698 0.022080826 0.023311507

lstm.bias_hh_l0 f4 [256]
000000 02 52 50 bd 55 ba d9 bd 08 fd 39 bd 35 e1 11 3d
       -0.05085946 -0.10631243 -0.045407325 0.035615165
000010 b2 cb 53 bc d3 a2 fd bd 4e 1e 26 3e b6 6e bc bd
       -0.012926983 -0.12384572 0.16222498 -0.09200804
000020 5e a6 64 3c 4d 7d 9e 3d 9c d1 43 bd fb 16 11 3d
       0.013955681 0.07738743 -0.04780732 0.035422307
000030 e3 c0 3b bd e7 50 5a 3d b9 92 90 3d b5 0f f1 bc
       -0.045838248 0.05329981 0.07059235 -0.029426435
000040 40 b1 86 bd 51 11 9a bb a2 b2 ba 3c e3 26 2f 3e
       -0.065767765 -0.0047017713 0.022790257 0.17104678
000050 a8 03 a4 3c 7a 95 ca 3d 33 46 b5 bc 0b 64 1b bd
       0.020021275 0.09891792 -0.0221282 -0.037937205
000060 9c 68 bf 3c 93 0a 94 3d ff c8 a2 3d 6a 80 05 3e
       0.023365311 0.07228579 0.07948493 0.13037267
000070 53 1f 61 bc a9 b2 92 3d df b1 f8 3d 5a 87 5b 3e
       -0.013740378 0.07162983 0.12143301 0.21438351
000080 a0 55 01 3e 66 6a a7 3d ef 72 2d 3d 71 dd 14 3e
       0.1263032 0.08174591 0.042345937 0.14537598
000090 12 68 8c 3d bd 70 7e bd cb 00 10 3e 24 d4 42 3c
       0.06855787 -0.062119234 0.14062802 0.011891399
0000a0 56 ee 0d 3e a1 2c 0c 3e 47 50 45 3c 79 d2 39 bd
       0.13860449 0.136889 0.012043065 -0.045366738
0000b0 b9 c3 7f bd ef ee 1a bd 40 8a 85 3d a3 10 70 3d
       -0.062442515 -0.03782552 0.0652051 0.058609616
0000c0 46 e2 33 3d f3 12 db bd 42 a4 1a 3e 52 09 ee 3d
       0.043916963 -0.10696974 0.15101722 0.116228715
0000d0 28 cd b4 3d d4 33 82 bd 68 41 de 3c 0b f7 f5 3d
       0.08828193 -0.06357542 0.027130798 0.1201001
0000e0 86 45 7e 3d 3d 2e a4 bd 69 a7 1d 3e ba 21 7d bd
       0.06207802 -0.08016632 0.15395893 -0.061799742
0000f0 09 98 da bd a4 ed 65 bd 41 f4 8a bd 1e 60 28 3d
       -0.1067353 -0.056134835 -0.06784869 0.04110729
000100 75 e6 1a 3d d7 06 5f 3c 3b c8 ed 3d 6c 97 02 3c
       0.037817437 0.013612471 0.116104566 0.007970672
000110 fe 37 7c 3d 7c bb 36 3d 3d 3c 6f bd a4 0c 1e 3d
       0.061576836 0.044612393 -0.058407057 0.038586274
000120 f9 21 04 3e 24 51 35 3e bf 9d 7e 3d 3f d7 da bc
       0.12903585 0.17706734 0.062162157 -0.026713965
000130 51 ae 68 3d d6 7d 22 3e e6 fe ff 3d ab b3 43 ba
       0.056806866 0.15868315 0.1249979 -0.0007465432
000140 26 ad 50 3e 37 de 1a bd d3 c0 07 bd b8 be 98 3d
       0.20378551 -0.037809577 -0.033142876 0.07458252
000150 5e 9b 0c 3e ba 84 38 bd 61 c5 09 3d 14 74 b7 bc
       0.13731143 -0.045048453 0.0336355 -0.022394218
000160 16 40 25 bd 94 75 15 3e 63 04 1f 3c f9 fd 36 bd
       -0.04034432 0.14595634 0.009705636 -0.0446758
000170 27 c7 84 3d 82 b0 8d 3d 5f f2 8d 3d 95 07 45 3d
       0.06483298 0.06918432 0.06930994 0.048102934
000180 59 98 35 3d 52 4b ac 3c 38 c2 4f 3e b8 82 f7 3d
       0.044334743 0.02103201 0.20288932 0.120854795
000190 a0 78 13 3d 29 9a 04 3e 36 f6 87 3d c3 a7 a6 3c
       0.03600371 0.12949432 0.06638758 0.020343667
0001a0 1d 5e 8a bc 85 9f fb bb 4a e6 c3 3d 10 84 e7 3d
       -0.01689058 -0.0076789283 0.095654085 0.11304486
0001b0 a0 30 aa ba 07 0b 4c bd c5 63 d8 3d ed f6 a8 bd
       -0.0012984462 -0.049815204 0.105659045 -0.08250222
0001c0 78 21 05 3e 13 19 91 3d 40 05 29 3d 11 3c 64 3d
       0.13001049 0.07084861 0.041264772 0.055721346
0001d0 e9 0e ee bc c7 34 a5 3d 85 04 4a 3c ca df d8 bc
       -0.029059844 0.08066707 0.012330179 -0.026473898
0001e0 08 8f 8c 3d d5 10 ce 3c e1 c4 f8 bb 34 c4 46 bd
       0.068632185 0.02515451 -0.007591829 -0.048526958
0001f0 93 82 0a 3d e1 7e da 3d c6 5f ed 3d 57 f9 f7 3d
       0.03381593 0.106687315 0.11590533 0.12108105
000200 ce 82 16 3d 7d 16 78 3e 72 c4 89 bd d5 83 07 bc
       0.03674584 0.24227329 -0.06726922 -0.008271177
000210 ed 58 bf 3d f4 b3 de bd ab b4 0c 3e b7 05 e2 3d
       0.09343133 -0.10874167 0.13740794 0.11036246
000220 3a ed d5 3d 88 d9 af 3d 2e 74 2d 3d 5f 7a aa bd
       0.10445638 0.08586413 0.042347126 -0.08324122
000230 99 ea 13 3e 50 9d 1c bd 91 1c db 3c ae 88 c2 bd
       0.1444496 -0.038235962 0.02674702 -0.09498726
000240 25 ea 03 bc ae e7 aa bc 07 5d 4d 3d 5d 4a c1 bd
       -0.00805143 -0.020862427 0.050137546 -0.09438012
000250 15 83 9f bb d4 f7 8e bd b8 52 b7 38 cc 78 f3 bc
       -0.004867921 -0.06980863 8.7415276e-05 -0.029720686
000260 5e f6 94 3d 43 fe 1c 3e 7b f2 b8 bd a4 aa 4f 3d
       0.07273553 0.15331368 -0.090306245 0.050699845
000270 3c 9f 1b bd 8a 5c 3e bd 89 32 48 3b 0d d0 5c 3d
       -0.037993655 -0.04647497 0.00305477 0.05390935
000280 7b 64 17 3d ed 51 ac 3b 4b 1c e6 3c 14 1b 81 3d
       0.03696106 0.0052587898 0.028089663 0.06303993
000290 3b 85 bf bd 2a a3 12 3c f6 4c 9c bd 79 f4 79 3d
       -0.093515836 0.008950034 -0.07631867 0.061024163
0002a0 fe 6d ae bd 13 cd 1b bd f9 96 84 bc 43 48 0f 3d
       -0.08517073 -0.03803737 -0.01618527 0.034981024
0002b0 79 0c 73 bc df c8 fd 3d 22 36 9f 3b 1a f4 c1 bd
       -0.014834517 0.12391829 0.004858748 -0.09470387
0002c0 42 b7 fe bd 9d 75 94 3c 5d 5c 4d 3e 46 d3 4f be
       -0.124372974 0.018122489 0.20054765 -0.20295438
0002d0 f4 d6 e5 bc a3 82 08 3e e3 2b 16 3d ad 7b 93 bd
       -0.0280566 0.13331084 0.036662947 -0.07201324
0002e0 c8 28 48 be 09 6b 9e 3d 47 57 48 bd 2a 10 67 3d
       -0.19546807 0.07735259 -0.04891136 0.0564119
0002f0 7d af 46 bd 3f 63 a3 3c 1b 42 9f 3d 7f 33 0b bb
       -0.048507202 0.019944785 0.077762805 -0.002124041
000300 b4 85 5f 3d 9c 0b f7 3c 10 ee 70 3d f2 9f cc 3c
       0.05457087 0.030156903 0.058820784 0.024978612
000310 58 f4 c8 3c a2 29 34 bb 38 b8 a3 3d a5 0d c7 3c
       0.024530575 -0.0027490635 0.07994121 0.024298498
000320 71 3a d2 3d ee e2 9d 3d 13 b6 af bb fe c6 1e 3e
       0.10265053 0.07709299 -0.005362281 0.15505597
000330 2c 69 02 3e 14 6b 80 bd b8 1d 4c 3d f9 0f 79 be
       0.12735432 -0.062704235 0.04983303 -0.243225
000340 7b ff 0e be 86 be 23 3e d4 b5 bb bd 6f bf 06 be
       -0.13964646 0.15990648 -0.0916554 -0.13158964
000350 f8 4d 14 bd 0a ff d6 3d 87 e6 9b bd 6f 8e a8 bd
       -0.03620717 0.104978636 -0.07612329 -0.08230292
000360 4c c0 fc 3d cf cc 15 3d d0 d2 41 be 0e 18 d4 3c
       0.12341365 0.036572274 -0.18928075 0.025890376
000370 5c 93 dc 3c 26 39 93 bd 2b 8c 85 be df 18 cd 3d
       0.026925735 -0.071886346 -0.26083502 0.100145094
000380 a8 60 9a 3d 34 73 09 bd 35 3c d1 3c 0a 75 9d 3d
       0.07537967 -0.033557132 0.025541404 0.07688339
000390 bd 7c 2d 3d 5e 51 c6 3d 41 f2 2e be 56 5b 33 be
       0.042355288 0.09683488 -0.170846 -0.1751531
0003a0 a2 09 19 be 09 3d 54 bd f8 1c 7f be e5 d9 3f 3e
       -0.14945081 -0.05181602 -0.24913394 0.18735464
0003b0 cc 6f 4e be 05 de 28 3e 35 3c 9b 3c 61 a8 60 be
       -0.20159835 0.16490944 0.018949607 -0.21939231
0003c0 12 13 d6 bd c9 1e 85 be f9 c7 b0 3d 04 04 28 3d
       -0.10452856 -0.2600005 0.08631892 0.041019455
0003d0 87 11 16 be f2 82 55 3d c3 3e fb 3d f2 56 c5 3d
       -0.14655124 0.052126832 0.1226783 0.09635724
0003e0 2a bf ac 3d 8f 8b b5 3d 49 bf 41 bd ba 6e 0f be
       0.08434899 0.08864509 -0.047301564 -0.14007083
0003f0 52 cb f7 bd 16 08 9b 3d 41 3a c9 3c eb 42 ed bc
       -0.12099327 0.07569902 0.02456391 -0.028962573

fc_layer.weight f4 [64, 64]
000000 a9 a0 b4 be 87 5d 10 3e 38 fd 9a be db 1d a6 3e
       -0.35278824 0.14098178 -0.30271316 0.32444653
000010 f1 0f 1c 3e b1 a8 4b be 76 1d 1a 3e ad a1 6c 3e
       0.15240456 -0.1988857 0.15050301 0.2310855
000020 64 9b 87 3e 21 70 ee bd 66 af c4 3e 0f 5b c7 3e
       0.2648574 -0.11642481 0.38415068 0.3893666
000030 67 94 a4 3e 99 5b a2 3e 28 2a b4 3e 5b 4d a3 3e
       0.32144472 0.31710508 0.35188413 0.31894955
000040 97 e1 3b be 81 5b 0c bf bb 65 03 3e 1d 2b 82 be
       -0.18347774 -0.54827124 0.12831776 -0.25423518
000050 d3 0c 22 bf 3d c2 46 be 3e 5a bd bd 0c 0b f6 bd
       -0.6330082 -0.19410034 -0.09245728 -0.12013826
000060 e1 8c d8 be 8f c5 59 3e c4 84 d4 3e 03 7c 9c be
       -0.42294982 0.21266769 0.41507542 -0.30563363
000070 d3 ff 88 3e 54 b2 d3 be 72 b2 ef be 54 0a 5e be
       0.26757678 -0.4134699 -0.4681583 -0.21683627
000080 08 f3 c6 be 58 0b 92 bd 7d d3 49 be ba cb d3 be
       -0.38857293 -0.0713107 -0.19709583 -0.4136637
000090 b4 37 42 be 58 95 b9 3e ae 80 72 be 75 63 97 3d
       -0.18966562 0.36246753 -0.236819 0.07392017
0000a0 e8 79 c2 be 16 3e c4 3e 35 36 70 3e 29 c4 b9 be
       -0.37983632 0.38328618 0.23458178 -0.3628247
0000b0 50 08 63 3e 2a f5 72 3e d3 af 08 be cd e1 16 3e
       0.2217114 0.23726335 -0.13348322 0.14734574
0000c0 e3 e5 df be 41 42 5e be 49 65 45 3e 63 81 8c be
       -0.43730077 -0.21704961 0.19276918 -0.27442464
0000d0 c5 f3 88 3e 01 06 bc be 96 a8 1a 3e 16 20 a1 3e
       0.2674848 -0.3672333 0.15103373 0.31469792
0000e0 97 e6 ac 3e 77 e5 05 3e 6f ed 8f be 2e 0e 0d be
       0.33769676 0.13075815 -0.28110835 -0.1377494
0000f0 5b 4e 59 be ed 6f 91 3e 10 c2 ab 3e 66 df 59 3e
       -0.21221296 0.28405705 0.33546495 0.21276626
000100 a4 56 0a bd c7 a7 70 bc a6 55 7e 3d 14 c4 d6 3c
       -0.033774033 -0.014688439 0.0620934 0.026216544
000110 99 12 d1 bd ac d5 b6 37 88 35 d3 bd b7 14 bb bd
       -0.10208625 2.179559e-05 -0.10312945 -0.091348104
000120 2b 06 ab 3a 24 3c 81 bd 29 1c bc 3d 98 f0 97 bd
       0.0013048103 -0.06310299 0.091850586 -0.074189365
000130 fa e3 11 bd f3 4f 45 3d 8c 9d cd 3c 7c b1 cb 3c
       -0.035617806 0.04817195 0.025099538 0.024864905
000140 bf 42 d8 3b c7 c3 6a bc ce df 8c bd 56 09 0e 3e
       0.0065997536 -0.0143289035 -0.06878625 0.13870749
000150 4c 4c d8 3d 5c 50 5e bd c9 2f a8 3d 15 14 54 3d
       0.105614275 -0.054275855 0.08212239 0.051776964
000160 96 b0 9f bd 5c bc 88 bd 51 80 32 bc a2 12 8b bd
       -0.07797353 -0.06676552 -0.010894851 -0.06790663
000170 a8 ba b0 bd 84 41 02 3c 6f b6 c7 bd e1 e0 8f bd
       -0.08629352 0.00795019 -0.09751593 -0.07025314
000180 9e 38 eb 3c ae 25 15 3b a3 2d 89 3d 8c 40 c2 3d
       0.02871352 0.0022758055 0.06698158 0.094849676
000190 f3 80 be 3d e9 1e 8d bd f0 71 d4 3c a1 9b 55 bd
       0.09301939 -0.06890661 0.025933236 -0.052150372
0001a0 3c 2f 2c 3d 5f 6a 01 be 14 9d ba 3d 3c 0d b3 3d
       0.042037234 -0.12638234 0.091119915 0.08742759
0001b0 ef 50 20 bd 88 6b 71 bd 17 bb e9 3d 74 c6 6e 3d
       -0.039139684 -0.05894044 0.11412638 0.05829473
0001c0 ba 43 09 3e 33 fd 81 bd 02 6a ca bd 31 cc ce bd
       0.13404742 -0.06347122 -0.09883501 -0.1009754
0001d0 96 98 fa bc 10 f5 b0 3b 19 84 bb 3d c0 2d 8f bd
       -0.030590337 0.0054003075 0.09156055 -0.06991148
0001e0 e5 6c f7 bd 91 5b 29 ba ab 69 f5 3c e0 4e 44 3d
       -0.12081317 -0.0006460483 0.029957613 0.047926784
0001f0 ab a4 1f bd 4b e3 e0 bd a6 ef fe bd 72 91 f0 3d
       -0.0389754 -0.10980853 -0.12448053 0.117464915
000200 5e 88 d6 bc 24 81 9d bc 0d 84 88 3d c6 65 96 bd
       -0.026188072 -0.019226618 0.06665812 -0.073436305
000210 c8 b1 ec bd a5 ce f0 bd 16 86 54 bc 73 a7 2e 3d
       -0.115573466 -0.11758164 -0.012971422 0.04264016
000220 7b 98 5b 3d 7d e8 54 bd 37 34 28 3c 3b 95 90 ba
       0.053612214 -0.05197953 0.010266355 -0.0011030802
000230 df db 8e 3d bb 78 a6 bd 46 e9 ae 3d ce ba c8 bc
       0.06975531 -0.08128496 0.08540587 -0.024503138
000240 b7 2d 6d 3d b3 ab ca bd 2a df 49 bd e3 7f 8b bd
       0.057904925 -0.0989603 -0.04928509 -0.06811502
000250 db 0a 66 bd 48 83 bc bd 71 02 08 3d dd 75 01 3e
       -0.056162696 -0.092047274 0.033205453 0.12642618
000260 94 7a cd 3d 9d 3d ad bd a1 d2 87 bc ff 6c e0 bc
       0.100331455 -0.084590174 -0.016579928 -0.027395723
000270 a4 86 70 bd 75 24 4f bd fb f4 18 3d 0e 73 4b bd
       -0.058722153 -0.050571878 0.037343007 -0.04967027
000280 65 a0 a5 bd c2 83 b0 3c 69 b6 ff 3d 3c b8 c6 3a
       -0.080872335 0.021547202 0.12485964 0.0015161107
000290 ad 85 02 3e 7f 6c ab bd 65 0f e0 3d a3 50 e8 bb
       0.12746306 -0.08370303 0.10940436 -0.007089691
0002a0 f2 54 bf 3d 74 74 85 3c 71 2e e1 3c d8 af cb bd
       0.09342374 0.01629088 0.027487965 -0.09945649
0002b0 d7 63 f1 bc 8b a1 ee bb f9 6c 5d bc 20 5a 9e 3d
       -0.029466553 -0.007282441 -0.013514751 0.07732034
0002c0 5a 71 28 bd 43 c7 3c bd b5 74 c4 bd d8 2d 3b 3d
       -0.041123725 -0.04608847 -0.095925726 0.045698017
0002d0 67 1e ca 3d 5d c3 a8 3c 1f 88 a5 bd b2 da 2a 3d
       0.0986908 0.020600969 -0.08082604 0.04171247
0002e0 ae 86 53 3c 10 8e 95 3d 3a 07 c9 3b 32 77 f8 3d
       0.012910528 0.07302487 0.0061348947 0.1213211
0002f0 89 0e e6 3d 52 db af bd 89 2e b6 3d 73 a1 46 bd
       0.11233241 -0.08586754 0.088955946 -0.048493814
000300 21 72 16 bf b2 44 90 3e 7a 84 bc be 0e 65 8e 3e
       -0.58767897 0.2817741 -0.36819822 0.27811474
000310 c0 5a b4 3e c2 38 42 be b5 4c bd 3e c3 59 a3 3e
       0.35225487 -0.18966964 0.36972585 0.3190442
000320 9e ea 93 3e 26 ef 53 be be 1c 8f 3e 75 4a 66 3e
       0.28889936 -0.20696697 0.27951616 0.2248934
000330 9f e8 2a 3e 9a 35 b6 3e 75 ad 5b 3e 39 4d 0a 3f
       0.166903 0.3558777 0.21452887 0.5402408
000340 ed fe 87 be a2 fd 16 bf 65 f5 76 3e d8 85 8a be
       -0.2656168 -0.5898076 0.24117048 -0.2705524
000350 86 6d 04 bf 2a 26 a9 be 68 88 9e bd 2e e5 6f be
       -0.5172962 -0.3303693 -0.07740861 -0.23427269
000360 9d a3 c9 be 2f 2d 8a 3e 28 54 b3 3e a2 0a b9 be
       -0.3938264 0.26987597 0.35025144 -0.36140925
000370 03 d3 9e 3e ec 3a b8 be 2e f0 fb be da 2a d3 be
       0.31020364 -0.35982454 -0.4920668 -0.4124363
000380 84 0f a9 be 99 30 19 be 64 bc a4 be 04 e9 10 bf
       -0.3301965 -0.14959945 -0.3217498 -0.56605554
000390 fa 52 b0 be 5a f6 ae 3e 9b 80 69 be 4a 09 48 3e
       -0.34438306 0.34172326 -0.22802965 0.19534793
0003a0 3a cd 58 be eb ad 74 3e 8f e3 89 3e ce 65 14 bf
       -0.21172038 0.2389447 0.26931426 -0.5796784
0003b0 1f e3 b7 3c 47 2e d1 3e f2 0c a9 be dd f9 8d 3e
       0.022447167 0.4085562 -0.3301769 0.27729693
0003c0 2a 85 c6 be f2 57 3c be 5c 62 4d 3e 0e 93 50 be
       -0.3877347 -0.18392923 0.20057052 -0.20368597
0003d0 d3 e7 97 3e 52 4f e6 be 26 4e 9a 3e c0 a1 08 3f
       0.29669055 -0.44982392 0.30137748 0.5337181
0003e0 cb 12 dd 3e 1f e0 a9 3e d5 74 a4 be 8a f0 6f be
       0.431784 0.33178803 -0.32120386 -0.23431602
0003f0 22 78 09 be 37 62 94 3e af 83 a6 3e 4f 8e 89 3e
       -0.13424733 0.28981182 0.32522342 0.26866385

fc_layer.bias f4 [64]
000000 35 f9 a1 3e 48 5b 23 bd 9a 0e ee bd a8 54 cb 3e
       0.31635442 -0.039881974 -0.11623879 0.39713025
000010 bc 98 f6 3d af 1b b5 3e 12 07 aa 3e 8f d4 72 3c
       0.120408505 0.35372683 0.3320852 0.014821186
000020 01 f4 f7 3c ef 63 a8 3e e0 5c c9 3e b1 05 af 3e
       0.030267717 0.32888743 0.3932867 0.3418403
000030 ec 3b c8 3d e5 6d 5a 3d 4c d8 02 3e d4 e6 b2 bd
       0.09777054 0.05332746 0.12777823 -0.08735433
000040 42 ab 12 3c 1b 54 db bd 16 19 f2 3d c5 63 b4 bc
       0.008951964 -0.10709401 0.11821191 -0.02202023
000050 20 6a a2 3b f9 48 de 3c 12 3c 7e 3d ee fd 04 3d
       0.0049564987 0.027134405 0.062069006 0.03246873
000060 dd b3 8d 3e d7 98 6c 3e 01 ba 68 bd 2b cb 91 3e
       0.27676287 0.23105179 -0.056818012 0.28475317
000070 42 71 fa 3d b7 a9 6c 3e 54 75 6f bd 47 df 6b 3d
       0.122286335 0.23111616 -0.058461502 0.05758598
000080 b6 eb 91 3e aa 0c e3 3d e6 52 20 3d 75 26 2a 3d
       0.28500146 0.110864 0.039141558 0.04154058
000090 2d 95 74 3d ea 5d 8f 3e 90 9a 07 bd 2d 78 fb bc
       0.059712578 0.28001338 -0.033106387 -0.030696953
0000a0 fa f6 01 be b7 cc 9c 3e 1c 0e be 3e ff 2c 88 3e
       -0.1269187 0.30624935 0.3712014 0.2659683
0000b0 48 b8 51 ba 88 31 97 3d b6 84 d7 bd 3a 9d b8 3e
       -0.00080001773 0.07382494 -0.105233595 0.36057454
0000c0 0a e2 00 3e 97 e6 e1 bd ed 23 b5 3e e6 b3 0e 3e
       0.12586227 -0.1103031 0.35378972 0.13935813
0000d0 99 e9 43 3e bb bc 47 bd 2d f9 93 3e 8a b0 9e 3e
       0.19132079 -0.04876397 0.28901044 0.30994064
0000e0 6e 5a 74 3e 53 c3 be 3e d0 d1 7a 3e 34 a6 31 3e
       0.23862621 0.37258396 0.244941 0.17348558
0000f0 3f 90 06 bb 49 27 11 3d 52 ca 47 3e f4 75 6f bc
       -0.0020532755 0.035437856 0.19510773 -0.014615525

output_layer.weight f4 [1, 64]
000000 d2 2f dc 3e 0b ad b5 bc 4f bb ae bc 62 18 ae 3e
       0.43005234 -0.02217724 -0.02132955 0.34002978
000010 a4 2c d2 3e 9d 34 bf 3e c8 54 d6 3e 9f d1 fb be
       0.41049683 0.37344828 0.41861558 -0.49183366
000020 55 36 47 bf 7e b9 c4 3e cf f5 b4 3e 66 e3 d1 3e
       -0.7781728 0.3842277 0.35343787 0.40993804
000030 46 b6 dc 3e 12 ae d2 be 50 99 ea be 8e f8 95 bd
       0.43107814 -0.4114843 -0.45820093 -0.07322799
000040 6e 62 47 bf c5 49 3d bf 87 5c e5 3e 47 91 4e bf
       -0.77884567 -0.7394069 0.44797155 -0.80690426
000050 45 ea 3e bf a9 66 33 bf 8a dc 49 bf 71 7c 30 bf
       -0.74576217 -0.7007852 -0.7885214 -0.6893988
000060 af 01 bf 3e 5b bc dc 3e ce 8b 3b bf 1c 40 c8 3e
       0.37305972 0.43112454 -0.732602 0.39111412
000070 b3 fe 4d bf ab 3a 2c bf ac 7c 49 bf db 07 ea be
       -0.80466765 -0.6727702 -0.7870586 -0.45709118
000080 91 af d4 3e 47 82 28 bf 72 12 1b bf 91 b5 2d bf
       0.41540197 -0.6582379 -0.6057502 -0.67855173
000090 9c 48 9c bd 99 9d e3 3e 21 65 38 bf e6 6d 98 bd
       -0.07631037 0.44456175 -0.7202931 -0.074428365
0000a0 3b e2 70 3c 63 96 da 3e 79 c3 b5 3e 55 71 c1 3e
       0.014702375 0.4269286 0.35500696 0.37781778
0000b0 b5 1f 38 bf a8 e8 2c bf 18 2b 2f 3d e0 8e b6 3e
       -0.7192338 -0.67542505 0.042765707 0.3565588
0000c0 a6 0b cb be 75 c0 ec 3e 2c 05 cf 3e 5d c3 ba 3e
       -0.39657325 0.46240583 0.40433633 0.36477175
0000d0 04 5c d1 3e 18 ea f4 be 58 36 b8 3e 56 a9 e3 3e
       0.40890515 -0.4783485 0.3597896 0.4446513
0000e0 f9 ca cb 3e 05 4a b8 3e fb 2d 78 3f 55 a0 2f bf
       0.39803293 0.35993972 0.9694516 -0.6860402
0000f0 de 27 3f bf de ee 41 bf e5 5c ea 3e a8 66 37 bf
       -0.7467021 -0.7575511 0.45773998 -0.71641016
