Conditional_TimeGAN/result/original/model/VT_lag1_total1/torch_best_model.pt (torch, 87834 bytes, 7 tensors)

lstm.weight_ih_l0 f4 [256, 1]
000000 b2 cf 98 3d 4e f3 06 3e f0 52 ac bb 3d f8 1f 3b
       0.0746149 0.13178751 -0.0052589104 0.0024409436
000010 fc 42 7b 3c cd 9b 80 3d 7a c3 4f 3a cc 71 65 3e
       0.015335795 0.06279717 0.00079255516 0.22406691
000020 68 24 44 3d de fc e7 3d 15 44 fd 3c 2d a7 40 3c
       0.047886282 0.113275275 0.030916253 0.011758608
000030 22 2b ba bd c2 ec c1 bb bd 3f 70 bd 10 fb 81 3d
       -0.09090258 -0.0059181163 -0.058654536 0.063467145
000040 ac 8e 85 3d 00 5c 9b 3e af aa 8e bd 2c 45 b6 3c
       0.06521353 0.30343628 -0.06966149 0.02224978
000050 0f f4 22 3e 25 50 75 3e fa a2 9a 3c 2c d8 04 3e
       0.15913413 0.23956354 0.018876541 0.12973088
000060 c3 51 bc 3d f0 78 03 3e 7d 05 80 3e 1d 4c a5 bd
       0.09195282 0.12839103 0.25004187 -0.08071158
000070 5f ea ec bd 66 91 3e 3d c9 3d 3c 3c 9b 8f 15 3e
       -0.1156814 0.04652538 0.01148934 0.14605562
000080 29 ae a7 bc a7 5b c5 3b b2 de 49 bd 18 94 98 bd
       -0.020468788 0.0060228887 -0.049284644 -0.07450122
000090 9f 1d fa 39 4b 2d 40 3e 85 af 37 3e a0 65 d5 3d
       0.00047705785 0.18767278 0.17938049 0.10419774
0000a0 cd 3f 9b 3c c2 71 15 bd d3 39 00 3e d4 34 97 bd
       0.018951321 -0.03648544 0.12522058 -0.07383123
0000b0 03 44 cb bd 4b 07 21 3d 51 b0 5c 3e 47 9f 5e 3e
       -0.099250816 0.039313596 0.21551634 0.21740447
0000c0 3d ed bc 3b 39 5c 5a 3d 63 cc 54 3e fc 28 7a 3e
       0.0057655857 0.053310607 0.20781092 0.24429697
0000d0 1b 61 f6 3d 35 4f 12 3e d9 ec 26 3e 67 52 1f 3d
       0.1203024 0.14288028 0.16301288 0.038896944
0000e0 1d 18 80 3d fb fd dd bd e7 74 94 bd 67 06 7f bd
       0.06254599 -0.108394586 -0.0724886 -0.062261965
0000f0 92 52 1f 3e ab 39 fd 3d 4b 5b 70 3c a1 ab 60 3d
       0.15558842 0.12364515 0.014670203 0.054851178
000100 0f b7 16 3e aa 4d 11 3d cf 0a 48 3d b5 02 38 3e
       0.14718269 0.035474457 0.048838433 0.17969783
000110 24 bb cb 3d dc 35 10 3e d9 dd cf bc 9d 8b 25 bb
       0.099478036 0.14083046 -0.02537434 -0.0025260218
000120 33 20 2d 3e 7a 72 5d 3e fb b2 1e 3e 58 02 56 3e
       0.16906814 0.216257 0.15497963 0.20899332
000130 9d 89 2d 3e e4 01 8c bc 17 76 e7 bb 6f d9 c5 bc
       0.16947027 -0.017090745 -0.007063638 -0.024151532
000140 c5 91 03 bd 02 b3 fa 3c 86 10 10 3e a4 27 1a bd
       -0.03212144 0.030602936 0.14068803 -0.03763546
000150 cb 03 2b 3c 94 36 a2 3c d0 af fa 3c 7f 2d ab 39
       0.010437916 0.019801416 0.030601412 0.0003264956
000160 0d f5 26 3e a9 1f ee 3c 2e 8b ac 3c d0 85 18 3e
       0.16304417 0.029067831 0.02106246 0.14894795
000170 26 fd 03 3e f9 72 95 3d c2 2e b4 bc d7 0a a6 bc
       0.12889537 0.0729732 -0.021994952 -0.02026884
000180 2a 73 13 3e 90 f5 4d 3d a3 cf 0e bc 8e f1 c1 bc
       0.143994 0.050283015 -0.008716497 -0.023674753
000190 94 2b 4c 3e 8c 9a f7 3d 78 66 66 bc a8 4b 88 3d
       0.19938499 0.12090024 -0.014062516 0.06655055
0001a0 20 66 d7 bc 78 12 8a 3c 81 fa d1 bc 79 2c 9f 3c
       -0.026293814 0.01685451 -0.025632145 0.019430386
0001b0 de 3c 96 3d 80 3c af 3d 1c 2b 8c bb 47 22 e7 3d
       0.07335828 0.08556461 -0.0042776 0.11285835
0001c0 d6 b5 93 bc 00 1d 91 3d 1b bb d2 3d f5 ee c5 3c
       -0.018031042 0.070856094 0.10289594 0.024161795
0001d0 10 04 f5 3c 3c 36 53 3d 34 a9 9f 3c b0 5d e8 3d
       0.029909164 0.051565394 0.019489862 0.113459945
0001e0 ba f4 ea 3d 24 04 09 3d 58 a5 c4 3c 8c 54 f7 3d
       0.11472459 0.033451214 0.024004623 0.12076673
0001f0 f4 f7 c9 bc 63 6a ee bc c8 5c 8e 3d c3 7d 16 3c
       -0.024654366 -0.029103464 0.0695129 0.009185257
000200 22 f8 5d bd 4a 3c b1 bd 57 04 95 bd 28 bd 41 3d
       -0.054191716 -0.08654077 -0.072762184 0.047299534
000210 7c 8c 27 bc 5f 07 a5 bc cf 44 27 3d 75 ff d7 bc
       -0.010226365 -0.020145116 0.040837105 -0.026366929
000220 b3 f3 ce 3a 09 09 cc bd bc 30 36 3d 9f 4f 48 39
       0.0015789181 -0.09962661 0.04448007 0.00019103147
000230 33 5b a0 3d 7d 2c f7 3d 87 82 e0 3d d9 5f 5e bc
       0.07829895 0.12069032 0.10962396 -0.013572657
000240 69 5c 04 be 72 3f 5a bd 60 f8 c9 3d 48 f6 f9 bb
       -0.12925877 -0.053283162 0.09861827 -0.007628236
000250 00 82 76 bd 76 d9 c6 bd d4 19 1a bd c4 d3 ab bd
       -0.06018257 -0.09709446 -0.037622288 -0.083900005
000260 f6 ed af bd c0 53 8d 3d 62 dc 0b 3e f7 d4 02 be
       -0.08590309 0.0690074 0.13658288 -0.12776552
000270 4f 72 97 3d 72 7a fd bd 4f e0 b5 bc 7b b8 40 bd
       0.073948495 -0.1237687 -0.022201685 -0.047050934
000280 9a 60 57 3c b7 06 9f bd ca c8 13 be 9a cc 0b be
       0.01314559 -0.07764953 -0.14432064 -0.13652268
000290 eb 5c a8 bd 7d d4 57 3d c8 39 b8 bb 31 d2 22 3d
       -0.08220848 0.05269288 -0.0056221224 0.039751235
0002a0 59 d2 aa bc 57 77 ae bd e9 ff ea 3d d9 03 50 bd
       -0.020852255 -0.08518856 0.11474592 -0.05078492
0002b0 1a 5d d2 3d 64 5b df 3d 45 fc 92 bd 59 93 15 3e
       0.10271664 0.10906103 -0.07177023 0.1460699
0002c0 eb dc fb bb 92 8d 0a bd 35 86 0f 3e 8e 48 87 bd
       -0.0076862476 -0.03382642 0.1401604 -0.066056356
0002d0 b2 62 8a 3d 84 01 80 3d a6 0e 97 3d e4 c8 27 3c
       0.06757106 0.06250289 0.07375841 0.010240767
0002e0 c1 96 cc 3d 6a 6d b4 bb b5 15 d3 bc c0 99 a6 bd
       0.099896915 -0.0055062072 -0.025767187 -0.08134794
0002f0 11 81 55 bb 8b b5 c8 3d 5e 7c 42 3d 16 47 6b 3d
       -0.003257815 0.098002516 0.047481887 0.05744084
000300 27 ab 55 3b 4f ec ff 3d 39 78 29 3c fd 59 9e 3c
       0.0032603235 0.12496244 0.010343605 0.01933002
000310 18 be 5d 3c 88 cd 02 3d 0e 18 20 3c ce f4 c3 3d
       0.013534091 0.03193429 0.00977136 0.09568177
000320 a2 55 fa 3c 75 2e 51 3d e5 22 66 3b 12 dc 81 3d
       0.030558411 0.051069696 0.0035116014 0.06340803
000330 b7 58 8b 3a bc 5c 86 3d 0c 80 83 3d 58 93 76 3d
       0.0010631297 0.065606564 0.064209074 0.06019911
000340 da 32 24 3d a5 36 3b 3e 5b 99 97 3d 9d 8b 41 3c
       0.04008756 0.18282564 0.07402297 0.011813072
000350 f3 cf 31 3e bc fd 85 3d f2 a4 f3 3d a0 0e 18 3d
       0.17364483 0.065425366 0.11896695 0.037123322
000360 02 3d b2 3b 59 7d 20 3d 49 59 88 3e 2f 3d 44 bb
       0.0054394016 0.03918204 0.2663062 -0.0029943695
000370 26 3e b1 3d 21 b7 30 3d 31 38 37 3d 87 a0 15 3d
       0.08654432 0.043143395 0.044731323 0.036530044
000380 40 83 b8 3c 86 ad 3f 3d ed 7a 09 3d 15 14 5c 3d
       0.022523522 0.046796344 0.033564497 0.05373009
000390 c4 cf 30 3c a4 41 7e 3d fb 8f 12 3d 78 86 8e 3e
       0.010791723 0.06207432 0.03578184 0.27836967
0003a0 fe 21 ab 3c ce f0 49 3d 09 51 62 3d 27 c5 f0 3c
       0.020890232 0.049301915 0.055253062 0.029390885
0003b0 73 a1 25 3d a1 9b 21 3b 5e aa 16 3c 67 30 20 3d
       0.040437173 0.0024659412 0.009195892 0.03910866
0003c0 76 b7 25 3d ca 69 fb 3d 6a a3 5b 3d 2e 3f 9d 3c
       0.040458165 0.12276037 0.05362264 0.019195165
0003d0 d4 53 3b 3d 42 3d 79 bb 76 7b 67 3e ad 5d 65 3d
       0.04573424 -0.0038030897 0.2260569 0.05599754
0003e0 23 38 0b 3d 4d b7 49 3d 09 c4 43 3c 1e af 04 3d
       0.033989083 0.049247075 0.011948594 0.032393567
0003f0 45 44 40 3d ae 88 07 3d 16 a6 10 bc 64 62 d2 3b
       0.046940107 0.033089332 -0.0088286605 0.0064204205

lstm.weight_hh_l0 f4 [256, 64]
000000 6e ac ec bd a0 80 36 3e 7d 41 5d be 9d 43 74 bc
       -0.11556326 0.17822504 -0.21607013 -0.014908698
000010 a4 a5 a9 3d db d7 c1 bd 1b 69 77 3e 26 30 89 bd
       0.082835466 -0.09464999 0.24161188 -0.06698637
000020 ed 1b 25 3e 5e 15 59 be 8b 33 ba bc f9 92 72 3e
       0.16123934 -0.21199557 -0.022729656 0.23688878
000030 e4 ce 47 3e 95 10 4c 3e 12 65 0f 3e 50 9c 8c 3d
       0.19512516 0.199282 0.14003399 0.06865752
000040 a7 25 a1 be da 62 dd bd b8 30 1b bd 29 a9 9f be
       -0.3147404 -0.1080987 -0.03788826 -0.31183746
000050 df d5 cc bb 99 3a e5 3d 0e 81 d9 3d 08 2d 8d 3d
       -0.0062510814 0.11192817 0.10620318 0.06893355
000060 f8 f3 0d be c2 92 8c 3d 7a d0 52 bd da 17 9f bc
       -0.13862598 0.06863929 -0.05146835 -0.019420553
000070 a0 8f 32 3e b8 5a 09 3e f7 5b 3d be 8c 99 2c be
       0.17437601 0.13413513 -0.18492113 -0.16855448
000080 ff da 6f be 54 e4 b2 3d c9 c6 87 be 09 9d 2c be
       -0.23423384 0.087349564 -0.2651885 -0.16856779
000090 b7 c8 be bd c6 ed 27 3d 79 bd 02 be e7 fd 8b 3d
       -0.09315627 0.040998243 -0.1276759 0.068355374
0000a0 fd 10 ef bd de 8c ac bd 19 2f e3 3d fc 44 38 be
       -0.11673162 -0.08425306 0.110929675 -0.17995065
0000b0 0b ed 19 be ee 62 1c bd df c7 55 bc 04 1b bc 3c
       -0.15031831 -0.038180284 -0.013048141 0.0229621
0000c0 86 e4 09 be 60 b5 44 be 27 a5 53 3e 53 f1 aa bd
       -0.13466081 -0.19209814 0.2066847 -0.0834681
0000d0 3b 1e 52 3e 88 98 07 3e 0c 85 58 bd a5 8e 2b 3c
       0.20519345 0.1324178 -0.05286126 0.010471021
0000e0 8f 09 68 3e 9e 96 21 3e 2b 93 24 be ff ae 2e 3d
       0.22659896 0.15780112 -0.16071765 0.042647358
0000f0 8c 72 ae bd a5 34 45 3e 5c 09 83 3d 8e 11 3e 3e
       -0.08517942 0.19258364 0.063982695 0.18561384
000100 a9 92 6c ba 53 60 a2 bd ac 21 06 be 49 38 69 3d
       -0.00090245396 -0.07928529 -0.13098782 0.056938443
000110 ee f3 a0 3d 23 aa a4 3d c6 cc 06 3e 8b 10 07 be
       0.07859026 0.080402635 0.13164052 -0.13189904
000120 3f 62 a4 3d 88 72 e5 bd ef a0 8a bd dd 6e 41 be
       0.080265515 -0.11203486 -0.06768977 -0.18889947
000130 09 14 42 3e 65 bf 25 3e cc 0a 0d bd 0a 77 35 3d
       0.18952955 0.16186292 -0.034434125 0.044302978
000140 8d 9c 4d 3d e7 3b 34 3c 86 ee 90 3e 1c 5b 64 3d
       0.050198127 0.01100061 0.2830698 0.05575095
000150 1c ad 1a be bf 9c 65 be ff ac e0 bd 19 c0 14 3d
       -0.15105098 -0.22423075 -0.109704964 0.03631601
000160 da 01 97 bd 6d 74 02 3e b8 7a 6d 3e b0 0a 7c 3d
       -0.073734 0.12739725 0.23191345 0.06153363
000170 50 0e 5c bd e6 1b e7 bd 8d 1d 59 bd 80 2c 81 3d
       -0.053724587 -0.11284618 -0.053006697 0.06307316
000180 d4 d2 6f bd 60 39 a7 3d b5 12 af bc dc f6 1a 3c
       -0.05855067 0.0816524 -0.021371225 0.00945827
000190 ef fc d6 bd 0b 94 92 3e 00 cf d6 bd 33 ac 17 3e
       -0.10497462 0.28628573 -0.10488701 0.14811783
0001a0 1b 34 b5 bd fa 0c e1 bd 32 5f d2 bd b9 4c b7 3d
       -0.08847829 -0.10988803 -0.10272063 0.089501806
0001b0 95 6f 57 3c c6 1b b8 3d 95 39 90 3d 40 88 9b bd
       0.013149162 0.08989672 0.07042233 -0.07594347
0001c0 24 16 ea bd c0 e1 1a be 1d c1 87 bd de 9e ad 3d
       -0.11430004 -0.1512518 -0.0662863 0.08477567
0001d0 f3 71 c6 3b 9a 99 9e bd aa 59 39 bc 25 b1 e2 bd
       0.0060560643 -0.07744141 -0.0113128815 -0.11068944
0001e0 c2 7d c6 3d 02 d3 18 3e 16 8e 82 3d f6 9c 88 3d
       0.09691955 0.14924243 0.06374757 0.06670563
0001f0 3e 67 06 3e af dc 94 3b db 36 11 3e 7a 42 0f 3e
       0.13125321 0.004542909 0.14181082 0.13990203
000200 82 f7 96 bd 19 8d f7 3d 0d 63 44 bd 6b 0a 23 3e
       -0.07371427 0.12087459 -0.047946025 0.15921943
000210 f9 39 30 bd f5 9c b7 bd 43 e2 36 3e 60 d6 41 be
       -0.043024037 -0.08965484 0.1785975 -0.18929434
000220 cd f7 98 3c b2 5c 5d be a9 f0 2d 3d 9e 90 2b 3e
       0.018672848 -0.21617392 0.04246584 0.16754386
000230 76 54 cf 3d 12 69 19 3e 3c c5 e6 3d 13 39 18 3e
       0.101235315 0.14981487 0.11268088 0.14865522
000240 5b 53 91 bd 96 f7 13 be 50 fa bf 3d d6 11 da bc
       -0.07095977 -0.14449915 0.09373915 -0.026619833
000250 83 15 c3 bd 85 56 ea bd db 68 12 3e 5d 9b 99 3d
       -0.095255874 -0.114422835 0.14297812 0.07500336
000260 c6 3d 2c be 6b ac 36 3e 75 b3 9c 3d 5c a1 43 be
       -0.1682044 0.1783921 0.07651416 -0.19104522
000270 31 05 55 3e dd 65 74 bd 94 f5 4b be 29 7b 42 be
       0.20802762 -0.059667457 -0.199179 -0.18992294
000280 47 70 6b be 1e 4d 28 bd 73 46 3e be f1 bd b5 bd
       -0.22992049 -0.04108917 -0.18581562 -0.08874119
000290 49 7a bb bd 1b b1 6e 3d a3 bf a7 bd d9 5e 54 3e
       -0.091541834 0.05827437 -0.08190849 0.20739307
0002a0 72 de 81 bd 6b 09 be bd bc 0d 00 3d a3 2c 1f be
       -0.06341256 -0.0927914 0.031263098 -0.15544371
0002b0 1e ac 06 be 1b 65 1f 3e d4 56 df bd 1e 30 c7 3d
       -0.13151595 0.15565912 -0.10905233 0.097259745
0002c0 81 fd f9 ba 99 7e 03 be 41 1f 90 3d d7 21 26 be
       -0.0019072742 -0.12841262 0.07037211 -0.16223846
0002d0 c2 18 35 3e 2e 88 1d 3c 1f 7c 4a 3e 6e 43 10 be
       0.17685226 0.009614987 0.19773911 -0.14088222
0002e0 05 55 1c 3d 5c 7a e6 3d fc ab 3f be 00 39 24 3d
       0.03816702 0.11253807 -0.1871795 0.040093422
0002f0 5e 8a 12 be 2d 2f 7e 3e 53 ca d7 3d 21 c8 55 3e
       -0.14310595 0.24822684 0.10536637 0.20877124
000300 8b 44 06 be e0 ff f8 bd 8d 8e 37 bc 18 50 30 3e
       -0.13112085 -0.12158179 -0.01120342 0.17218053
000310 3a 76 47 3e d4 6d 91 bd 80 d2 8b 3d dd 9a 7c bd
       0.19478694 -0.07101026 0.06827259 -0.061671127
000320 4f 8d a8 3d 71 1f 89 bd f7 da 83 3d b1 02 e2 3d
       0.082300775 -0.0669545 0.064382486 0.110356696
000330 7c 5d 81 bd 4e 6d bc 3d 69 e9 0d 3e 6c fc 3d bd
       -0.06316659 0.09200536 0.1385857 -0.046383306
000340 01 86 ae bd db c5 79 bd d0 24 30 3e 64 db 4a be
       -0.08521653 -0.060979705 0.17201543 -0.19810253
000350 5f f2 5e be 0e 1e e3 bc 55 51 33 3c 57 38 99 3d
       -0.21772145 -0.027724292 0.010944684 0.07481449
000360 07 6d 80 bd 6c 57 99 3d 29 f1 fe 3d 39 30 8a be
       -0.06270795 0.074873775 0.124483414 -0.26989916
000370 db db 48 bd 18 e1 e5 3b f3 a9 12 be d6 56 8b bd
       -0.049037796 0.0070153587 -0.14322643 -0.06803672
000380 d2 d1 60 be 9a 32 02 bd d0 cb 78 be f5 f1 3d bd
       -0.2195504 -0.03178654 -0.24296498 -0.046373326
000390 d8 f9 04 be dd 3f 5a 3e b5 59 06 3b 65 19 4e 3e
       -0.12985933 0.21313424 0.0020500247 0.20126875
0003a0 af 2b a4 bd 65 c4 04 bd 57 d3 34 3d 32 c7 9c bd
       -0.080161445 -0.03241386 0.044146862 -0.07655181
0003b0 04 1e 98 bb fb e9 ff bc 82 dd 1e 3d f4 8f 02 3d
       -0.00464225 -0.0312395 0.038785465 0.031875566
0003c0 f8 ee 3b be be f8 4b be 36 b8 79 3e d8 f2 1f 3d
       -0.18352878 -0.19919106 0.24386677 0.039049953
0003d0 f1 55 ac 3c 6d 7e 19 3e b2 d1 1c 3e 7a ce 2f bd
       0.021037074 0.14989634 0.15314367 -0.04292152
0003e0 0f 75 82 3e 55 2f 3a 3d 26 b0 82 bd 57 88 74 3b
       0.25479934 0.045455296 -0.06381254 0.003731271
0003f0 53 2c 9b bd 8c 3d 14 3e 68 25 12 3e 19 eb 71 3e
       -0.075768135 0.14476603 0.14272082 0.23624839

lstm.bias_ih_l0 f4 [256]
000000 63 d7 69 3e 74 bd b8 3d 85 fd fb 3d 04 1d 4e 3e
       0.2283607 0.0902051 0.123042144 0.20128256
000010 5c e7 49 3e 50 c7 07 bc 8f dd 32 bd 0f fa 79 3b
       0.19717163 -0.008287266 -0.043668326 0.0038143431
000020 f9 92 59 3d f8 63 9f 3c 32 cc 89 3d 55 c1 6e 3c
       0.05311868 0.019456849 0.067284 0.014572461
000030 ea 5c 53 ba c5 08 1f 3e e0 85 e5 3d 57 ca 5d 3e
       -0.00080628565 0.15530689 0.11207175 0.21659218
000040 a9 0c be 3d 5d eb 8f 3e 2c d7 2d bd 50 f4 c7 3d
       0.092797585 0.28109255 -0.042441532 0.09763396
000050 70 32 51 3e 71 cf ad 3d 74 12 ef 3d 4a bb 15 3e
       0.20429397 0.08486832 0.116734415 0.14622226
000060 13 21 09 3e d2 10 8f 3d 25 5b 4b 3e 05 f1 7d bc
       0.13391523 0.0698563 0.19858988 -0.015499358
000070 91 f7 5d 3c 9c 39 18 3e 97 bc c2 3d c4 e7 2f bd
       0.013547794 0.14865726 0.09508627 -0.04294564
000080 61 5f 12 bc 68 bb 40 3e 7f aa 0e 3d e0 e7 9a 3d
       -0.008933873 0.1882149 0.034830566 0.07563758
000090 b2 8e 0f 3e 7f 41 12 3e 23 64 86 3e 99 7f ec 3d
       0.14019278 0.14282797 0.26248273 0.11547775
0000a0 c1 79 78 3b b3 5c 68 3d 58 a6 55 3d b2 70 40 3e
       0.0037914368 0.05672903 0.05216059 0.1879299
0000b0 d9 6a 68 3e 41 dd 62 3e bb 38 67 3c 3c 2a 2b 3e
       0.22697009 0.22154714 0.014112647 0.1671533
0000c0 b5 20 8b 3c 89 11 28 bd 0f 18 6a 3e ec 6d fc 3d
       0.01698337 -0.041032348 0.2286074 0.123256534
0000d0 35 fe 43 3c 62 bf 20 3e 52 e7 57 3e bd bf 1b 3e
       0.011962463 0.15698007 0.21084335 0.15209861
0000e0 1b b7 b2 3d 6b 78 ba 3d 44 4a 2f 3e 7d ea c7 3d
       0.08726331 0.09104999 0.17118174 0.09761522
0000f0 b3 72 04 3e 46 7e db 3c c6 3e 29 3e cb b1 5b bd
       0.1293438 0.02679361 0.16527852 -0.053636353
000100 71 35 ee 3d 0b a8 a0 bd 60 19 07 3d 8f 4a 3e 3e
       0.11631287 -0.07844552 0.032983184 0.1858313
000110 3f 06 5c bd 38 cb 39 3d 04 b5 85 3c ce 53 96 3c
       -0.053716894 0.04535982 0.016321667 0.018350508
000120 b1 cc 91 3d 11 fb 5b 3c 4e 48 db bc 18 be 4b 3d
       0.0711912 0.013426558 -0.026767876 0.049741834
000130 df 98 f1 3d e4 45 10 3e 50 5e 3f 3d a8 4a 15 3d
       0.11796736 0.14089161 0.046720803 0.03644815
000140 32 65 db 3d 2f d5 0e 3e 3e 70 af 3d 83 0a f6 3d
       0.10712661 0.1394851 0.085663304 0.12013724
000150 99 98 c7 3d ed 9b a9 3d 0d 2e d5 3c 47 7a 38 3d
       0.097459026 0.082816936 0.026022935 0.045038488
000160 9f 20 18 3e 98 d7 cb 3d d2 79 a7 3d 6e fe 32 3d
       0.14856194 0.099532306 0.08177532 0.043699674
000170 a1 3d ed 3d 53 9f fb 3d 40 34 29 3e 9e 84 09 3b
       0.115840204 0.12286248 0.16523838 0.0020983587
000180 9d 21 19 bc af cc c0 3d e9 88 4d 3e 81 55 55 bc
       -0.009346393 0.0941404 0.20071758 -0.013020874
000190 27 f0 1d 3e 7b 84 ed bc 4e f6 84 3d ae 18 81 3d
       0.15423642 -0.028993836 0.064922914 0.063035354
0001a0 94 54 1a 3e c6 30 87 3d 3b c9 1d 3e df 78 16 3e
       0.15071326 0.066011 0.15408795 0.14694546
0001b0 87 e1 6a 3e 5b 22 01 bc 48 fe 85 3d 6b 6f b9 bd
       0.22937594 -0.007881726 0.06542641 -0.090544544
0001c0 59 7e cf bc a8 89 11 be 7d 83 bf 3d 97 63 48 3e
       -0.025328802 -0.14212668 0.09351251 0.1956924
0001d0 81 81 81 3d 0e 5c ed 3c 3b 99 89 bb 11 39 03 3d
       0.06323529 0.02897456 -0.0041991747 0.032036845
0001e0 55 06 e8 3c cf 4e 53 3d db 49 70 3e e5 a6 32 3e
       0.028323332 0.05158883 0.23465674 0.17446478
0001f0 80 db 9a 3d 2c 26 a0 3c da 36 cf bb 6c d2 3e 3c
       0.075613976 0.019549452 -0.0063236775 0.011646848
000200 1a bf 00 3c ca 6b e2 3c f2 e0 63 bd a9 23 f8 bd
       0.007858062 0.027639288 -0.055634446 -0.12116177
000210 a9 99 bf 3d ad eb 6a 3b bd 33 a3 3d 1e d9 c6 bd
       0.0935548 0.003584604 0.07968853 -0.097093806
000220 8d 44 1b bb 09 9c ff bd 2f 34 a2 bd 12 38 d7 bd
       -0.0023691982 -0.12480933 -0.079201095 -0.105087414
000230 e6 ea 47 be f0 e4 38 bd 9c 09 cc bd e2 07 0c bd
       -0.195232 -0.045140207 -0.0996277 -0.034187205
000240 f1 3d b3 bd af 3c 05 be a8 2e e3 bc 16 68 b4 3d
       -0.08752049 -0.1301143 -0.027732208 0.08808915
000250 5d b5 76 3d 51 96 5c 3e 54 df 88 3d 1e 1c 3f 3e
       0.060231555 0.21541716 0.066832215 0.1866307
000260 ab b8 4d 3d 09 40 a6 bc 1c 31 43 bd 02 93 aa 3c
       0.05022494 -0.020294206 -0.047654256 0.020822052
000270 e0 f0 b4 bd a7 61 c9 3d a3 27 8c bd 87 69 e9 3c
       -0.08835006 0.09833079 -0.068434976 0.028492702
000280 da 88 d2 bd 7f 92 14 3d 94 f5 0b bd 52 88 b3 bd
       -0.102800086 0.036272522 -0.03416975 -0.087662354
000290 25 8d 0e 3e 4f b7 03 be bf c4 eb 3d 25 8c f7 bd
       0.1392103 -0.12862895 0.11512136 -0.12087277
0002a0 77 53 c6 3d 2e 4e f5 3d 74 4b f4 bc 76 e8 0c bd
       0.096838884 0.11977802 -0.029821135 -0.03440138
0002b0 ab e1 85 bd 8d 3c 0d 3a a5 f9 a5 3d 8d d2 d3 bd
       -0.065371834 0.0005387746 0.081042565 -0.10342894
0002c0 fb 09 d5 3d 33 33 42 3e c0 08 94 3c da f9 a0 bc
       0.10402294 0.18964843 0.018070579 -0.019650389
0002d0 82 24 23 3e 45 66 86 bd 41 c4 02 be 4c 2e 36 bc
       0.15931895 -0.06562475 -0.12770177 -0.0111194365
0002e0 82 9b 21 3d 21 ec 25 bd 2b a5 72 3d 96 3f 0b 3e
       0.039454944 -0.040508393 0.059239548 0.13598475
0002f0 42 d4 61 3d bf f0 75 bc 00 05 15 3d c1 54 5e bd
       0.055134065 -0.015011012 0.03638172 -0.054280046
000300 a5 c0 1a 3e 79 1d 7b 3d 9e d6 06 3e 11 21 0b 3e
       0.1511255 0.061307404 0.13167807 0.13586833
000310 75 ee ac bc 6d bf 1a be 7f 67 e3 3d 19 ad 2a 3b
       -0.021109799 -0.15112086 0.11103725 0.0026043116
000320 e9 88 06 bd a4 27 a6 bd f1 3d 2a bd 3e 14 01 3e
       -0.03284541 -0.081130296 -0.04156298 0.12605378
000330 de 97 f2 3d 1e 2f 97 bd 28 cf 5a bd 42 9a af 3c
       0.118453726 -0.07382034 -0.053420216 0.02143586
000340 e9 a6 20 3d d5 eb 69 3e eb f9 3d bd a2 81 75 3d
       0.039221678 0.22843869 -0.04638092 0.05993808
000350 df b4 61 3e 04 bc bb 3c 0a f6 39 bc 85 35 e4 bd
       0.22041653 0.022916801 -0.011350164 -0.111430205
000360 98 70 53 3e fa 53 9a 3d 29 9d 31 3e 25 40 15 3e
       0.2064842 0.075355485 0.17345108 0.1457525
000370 f1 ae be bd 74 4b be bd 85 3c 46 bd f2 5b b9 3d
       -0.09310711 -0.09291735 -0.04839756 0.0905074
000380 40 4a bf 3d 50 d9 6e bd 07 4e 1e bd 53 32 a9 bd
       0.09340334 -0.058312714 -0.03864863 -0.08261552
000390 de 84 8e 3c 13 00 97 3d 40 33 03 3d 10 d6 5e 3e
       0.01739734 0.07373061 0.032031298 0.21761346
0003a0 5d b9 83 3d 1a ec f8 bd 09 66 f5 bd 09 82 13 3d
       0.064318396 -0.12154408 -0.11982352 0.036012683
0003b0 95 a0 05 be c7 f9 93 3d 0f fd ba bd e2 8f 02 bd
       -0.13049538 0.072253756 -0.09130298 -0.0318755
0003c0 f6 d7 87 bd 5e 1e a5 3d d5 76 24 3e 51 e4 c8 bc
       -0.06632988 0.08062433 0.16060956 -0.024522932
0003d0 ad 63 c7 bd a4 1f e2 3c bb de b8 3d 09 5b 91 3d
       -0.097358085 0.027602978 0.090268575 0.07097442
0003e0 e2 f4 ee bd f7 13 ab 3d 7c 29 1b 3e 21 c4 06 3d
       -0.116678014 0.08353417 0.15152544 0.032901887
0003f0 2b d7 9e bc fb dd 91 bc 24 93 c4 bc a5 c1 15 bd
       -0.01938971 -0.017806044 -0.023995943 -0.036561627

lstm.bias_hh_l0 f4 [256]
000000 ba f3 4f 3d 10 e8 98 bd 10 09 d6 3c cc 8a e2 3d
       0.050769545 -0.074661374 0.026127368 0.1106163
000010 3e ba 7a 3c c2 52 85 bd ae 30 31 3e 5f d0 dc 39
       0.015303193 -0.065099254 0.17303726 0.00042116918
000020 33 c4 87 3d 87 bc 3b 3e f4 23 3d 3d ba 5c cb 3d
       0.06629219 0.18333636 0.046176866 0.099297956
000030 51 25 24 3b ce f9 9a 3d e3 1f 46 3d 69 e1 8b 3d
       0.0025046656 0.07567178 0.048370253 0.06830103
000040 68 fe 5d bd 53 85 83 3e 34 a8 25 3d 6a 4f 4d 3e
       -0.0541977 0.25687656 0.040443614 0.20049825
000050 57 65 a3 3d d3 37 1d 3e 98 80 a0 3b f0 fa ae bc
       0.079783134 0.15353326 0.004898142 -0.02135989
000060 a0 e8 f4 3d 1d 1d 3b 3e 63 ce 48 3e 88 50 21 3e
       0.11958432 0.18272825 0.1960998 0.15753376
000070 31 ad 23 bd 16 1e 07 3e a1 a1 27 3e 9b 07 24 3e
       -0.03996009 0.1319507 0.1637025 0.16018526
000080 bd 03 0b 3e df 0d f4 3d d6 1d e5 3c df 2e fd 3d
       0.13575645 0.11916708 0.027968328 0.123624556
000090 c9 e7 09 3e 3d ba 72 bc e0 58 9d 3e 92 2b 82 3d
       0.13467325 -0.0148149105 0.3073187 0.06355967
0000a0 26 09 15 3e 3b b3 1a 3e b6 e5 f1 3d b0 ed 15 3c
       0.14554271 0.15107433 0.11811392 0.009150907
0000b0 1e cc 82 bc 82 b2 42 3d 86 19 0f 3e 31 4d 01 3e
       -0.015966471 0.04753352 0.1397458 0.12627102
0000c0 77 56 d0 3d bd e8 b0 bc 10 d1 44 3e e4 c9 07 3d
       0.10172742 -0.021595353 0.19220376 0.033151522
0000d0 c9 39 3b 3e 64 0d ea 3c 1a 24 c9 3d b6 fe 60 3e
       0.18283762 0.028570838 0.09821339 0.21972165
0000e0 aa 9e d1 3d 89 06 b8 bd 52 0c 5c 3e a8 ee 1b bc
       0.10235341 -0.089856215 0.21489075 -0.009517349
0000f0 e9 72 be bb 1c 9e 77 bb 38 39 d8 bb e2 ef c6 3d
       -0.005812038 -0.003778345 -0.006598618 0.09713723
000100 24 75 20 3e c0 48 07 3e 82 ab d1 3d c5 70 b1 3d
       0.15669686 0.13211346 0.10237791 0.08664087
000110 dc 11 1d 3d 88 38 f7 3d 27 22 87 bd d4 a6 99 3d
       0.03834711 0.12071329 -0.06598311 0.07502523
000120 4a 03 f9 3d 98 02 3d 3e 09 38 0d 3e 2d 68 1c 3d
       0.121588305 0.1845802 0.13790907 0.038185287
000130 d3 69 1f 3e 08 31 44 3e f4 2f 12 3e 9a b7 13 bd
       0.15567712 0.19159329 0.14276105 -0.036063768
000140 29 e2 62 3e a2 fa d6 3d b0 3f 02 bd 63 6a d6 3d
       0.22156586 0.10497023 -0.03179902 0.104695104
000150 de 11 18 3e 0e 78 b9 bc cc 5a ed 3b 17 cb 5e bd
       0.14850566 -0.022640254 0.00724349 -0.0543929
000160 fa 1f 4d 3d 91 9b 5b 3e d8 94 03 3c f7 9a 9a 3c
       0.050079323 0.21446063 0.008031093 0.018872721
000170 c7 50 a4 3d 1d b5 08 3e e5 0c 0c 3e 73 b4 1e 3d
       0.080232196 0.13350339 0.13676794 0.03874631
000180 43 fd 8c 3d d7 6a de 3d 4a f8 56 3e 6f fd e4 3d
       0.06884243 0.10860222 0.20993152 0.11181151
000190 23 f1 f1 3d b2 25 db 3c af a0 2d 3d d2 7b 08 3d
       0.11813571 0.026751373 0.042389568 0.03332121
0001a0 af 6f bb 3c db ef 80 bd eb de 15 3e a5 c5 35 3e
       0.022880403 -0.06295749 0.14635818 0.17751177
0001b0 c9 be 42 3d fe 78 91 3b c0 ae 00 3e 09 bf ce ba
       0.04754523 0.004439472 0.12566662 -0.0015773486
0001c0 61 30 15 3e 16 cc 3e 3c a8 35 f9 3d 60 a6 15 3e
       0.14569236 0.011645338 0.12168437 0.14614248
0001d0 64 b1 87 3c dc 7f e4 3d 9f 3e 28 bc 98 de cf bc
       0.016564079 0.111572 -0.010268836 -0.025374696
0001e0 99 fe 99 3a 39 20 68 3d 6d eb 82 3d bc d5 4f 3d
       0.001174885 0.056671355 0.0639256 0.050740942
0001f0 b4 24 1e ba f9 0b f6 3d 8a fe 38 3e 35 e1 1d 3e
       -0.0006032691 0.12014002 0.18065849 0.15417941
000200 75 44 42 3c ae f4 5b 3e 48 9f 8e bd f1 ed 45 bd
       0.011857142 0.21480057 -0.06963974 -0.04832262
000210 b9 fc 56 3c 9f 0b d3 bd 53 b1 6a 3d bd ae a0 3d
       0.013121777 -0.10304951 0.057298016 0.07845829
000220 af ab fb 3c 3b cc 98 3d 81 8e 05 3d 0d 07 05 be
       0.030721514 0.07460829 0.032606605 -0.12990971
000230 c0 3d 38 3c 82 ab 86 3a 7c e0 9a 3c 04 2c 01 be
       0.011245191 0.0010274502 0.01890587 -0.12614447
000240 5f 0a 78 bd f9 d1 93 bd af 5a de bd 50 75 72 bd
       -0.060556766 -0.072177835 -0.1085714 -0.05919391
000250 83 24 e3 3c 56 f4 2f 3d d4 65 01 ba c5 42 eb bc
       0.027727371 0.042957626 -0.0004936133 -0.028718362
000260 65 1f 10 3e b0 ff a2 3d d8 cf 73 bd 32 ea 0f 3e
       0.14074476 0.07958925 -0.059524387 0.14054182
000270 a6 29 42 bc 6e 06 04 bc 16 4c 97 bc 1e e9 21 3d
       -0.01185075 -0.008058174 -0.018468898 0.03952896
000280 08 c7 06 bb 12 b4 38 3d ca d2 0e bd 02 29 67 3d
       -0.002056541 0.045093603 -0.034868993 0.056435592
000290 05 bc 23 bd 35 3c 8e bc a6 0e c8 bc 1b 09 84 3d
       -0.03997423 -0.017362693 -0.024421047 0.06447049
0002a0 35 76 48 3c e7 b3 93 bd 72 af aa bd 47 57 16 bd
       0.012235214 -0.07212048 -0.08334245 -0.036704328
0002b0 81 d4 57 bd 12 3c 8c 3b 80 df 45 3d 8d 3d 0d be
       -0.052692894 0.004279622 0.04830885 -0.13793011
0002c0 cf 89 02 be 3e 0d b5 3d 8c d0 05 3e 10 39 93 bd
       -0.12747882 0.08840416 0.13067836 -0.07188618
0002d0 3e b3 7f 3d 16 1b b3 3d 48 14 59 3d 07 b1 81 bc
       0.062426798 0.087454006 0.052997857 -0.015831484
0002e0 cc 01 9f bd 00 0e 0c 3e b0 3a ad bd c1 cc a9 3d
       -0.077640146 0.13677216 -0.084584594 0.08291007
0002f0 52 96 7e bc 20 f6 bb 3d 39 b7 61 bd f1 d3 61 bc
       -0.015538769 0.09177804 -0.055106375 -0.013783441
000300 3f 24 20 3c b6 ad fc 3d d2 f7 09 bc 99 db 8a 3c
       0.009774267 0.1233782 -0.008420901 0.016950415
000310 db 5f 34 bc d4 88 25 3d 7f ec 73 3d 84 9d 32 3d
       -0.011009182 0.040413693 0.059551712 0.04360725
000320 eb dc 96 bc c4 41 a9 bc fe 8b 39 bd c7 d3 5b 3e
       -0.018415889 -0.020661242 -0.045299523 0.21467505
000330 24 11 b7 3d 40 93 39 bc 26 b1 11 3c 02 12 26 be
       0.08938816 -0.011326611 0.008892333 -0.16217807
000340 d8 52 9a bd 50 8b a3 3e 8a 4f 37 bd 97 45 c8 bd
       -0.075353324 0.31942225 -0.04475359 -0.09778898
000350 5c 9b 1d 3e ee 66 17 3e 31 9f a4 bc 9a 42 8f bd
       0.15391296 0.14785358 -0.02009544 -0.06995125
000360 1e 55 e6 3d 27 dc e9 3c 6c 5a 8f 3d af c2 31 3d
       0.112467036 0.02854736 0.069996685 0.043398555
000370 b7 6e 6d bd 57 92 cb bb e8 6e 47 be f9 6a 02 3c
       -0.057966914 -0.0062125134 -0.19475901 0.007960075
000380 d4 3a b2 3d cc 60 78 ba 68 4d 58 39 c0 84 d6 3d
       0.08702627 -0.0009474873 0.00020628201 0.10474539
000390 44 b6 3c bc 67 c0 e9 3d 71 da 3c be cf 45 30 3e
       -0.011518065 0.11413651 -0.18442704 0.1721413
0003a0 20 50 01 be 10 94 ea bc e8 58 49 be db 40 0f 3e
       -0.12628222 -0.028635055 -0.19662821 0.13989584
0003b0 16 0b 38 be ba 1b 14 3e bf f9 04 bd d5 fa 1c be
       -0.17972979 0.14463702 -0.03246474 -0.1533006
0003c0 3f d4 4b bd b0 9a 84 bd 9b 7a a2 3d 9b 81 44 3d
       -0.04976296 -0.06474817 0.079335414 0.047975164
0003d0 0d 37 05 be 96 73 15 3d 55 91 68 3e 41 7d 08 3e
       -0.13009281 0.036487184 0.2271169 0.1332903
0003e0 3c 78 61 bb ed 25 a4 3d 58 0d b1 bd 23 95 e1 bd
       -0.003440394 0.08015046 -0.08645123 -0.11014774
0003f0 f6 30 9e bd 1b 30 6b 3d 7b 3b b0 bc 2c ef b5 bd
       -0.07724182 0.057418924 -0.021512737 -0.08883509

fc_layer.weight f4 [64, 64]
000000 73 8b 07 be 03 31 89 be 9c 67 64 be 40 15 93 3e
       -0.1323679 -0.26795205 -0.22305149 0.2872715
000010 51 b1 44 3e 15 db 81 be f1 75 a9 3d 89 4d ac be
       0.19208266 -0.2536246 0.08274449 -0.33652905
000020 1f 55 dc 3d f2 ac b7 bd 41 44 91 3e ac 3f 69 3e
       0.10758423 -0.089685336 0.28372386 0.22778195
000030 39 ce 8b 3e fb 61 02 3e c0 31 f4 3e d7 91 4a bc
       0.27305773 0.12732689 0.47694206 -0.0123638725
000040 e7 ec 37 bc 82 79 bc be 73 ff 9e 3e df c3 7d bd
       -0.0112259155 -0.36811453 0.31054267 -0.061954375
000050 ba 4c c1 be f5 5f 81 ba a6 7a e9 3c 7b 08 c7 bd
       -0.3775385 -0.0009870516 0.028500866 -0.097184144
000060 1e 0e 8e be aa 4c 11 3e ed 5a b1 3e c8 78 7a be
       -0.27745146 0.14189401 0.34639683 -0.24460137
000070 89 95 10 3e 52 81 ec bd f1 e8 cf bd d6 0e 60 3d
       0.14119543 -0.115481034 -0.10151852 0.05470165
000080 15 75 ae be 6b fa b9 be 22 62 13 be 29 98 a8 be
       -0.34073702 -0.36323866 -0.14392903 -0.3292859
000090 ae ac bb bd 68 f1 67 3e 01 a8 ef be c6 5d 1b 3e
       -0.091637954 0.22650683 -0.46807864 0.1517249
0000a0 1d 3a 61 be cc f9 73 bc 2e 69 0f 3e 16 9b b3 bd
       -0.21994825 -0.014891099 0.14004967 -0.08769815
0000b0 28 b7 c4 3e 67 87 43 3e 90 2e 15 bd e6 e3 71 3d
       0.38420987 0.1909462 -0.03642136 0.05905523
0000c0 53 d9 3e bd 2d 9b c7 be bf 96 0f 3e 5a 0c ca be
       -0.046593975 -0.38985577 0.14022349 -0.39462548
0000d0 96 f6 c1 3e 65 03 9b 3e 6a 6b 86 3c 68 6a 98 be
       0.37883443 0.30276027 0.01640864 -0.29768682
0000e0 40 68 80 3d 0e 9a cc 3d 4e 94 41 be 54 57 64 bd
       0.06269884 0.09990321 -0.1890423 -0.055747345
0000f0 ef 82 a7 be df 32 44 3e 1a 1b a8 3e ca 59 8a 3e
       -0.32717082 0.19160031 0.32833177 0.2702163
000100 ab 5c 11 bd 21 ab b2 bc d2 63 4b 3d 3c 61 20 3d
       -0.035488766 -0.021810116 0.049655743 0.03915523
000110 dc e9 b7 bd bb 7e e1 3b 77 b5 ef bd 01 48 a1 bd
       -0.08980152 0.0068815625 -0.117045335 -0.07875062
000120 df 14 de 3b 49 1d 69 bd 72 7b a1 3d f9 41 7c bd
       0.0067773904 -0.056912694 0.078848734 -0.061586354
000130 b8 08 99 bc 45 69 0c 3d c1 de 69 3c 49 94 08 3d
       -0.018680915 0.03428008 0.0142743 0.03334454
000140 7a 92 59 3c c9 2e f3 bb 1d c6 9a bd 55 6f 02 3e
       0.013279552 -0.0074213487 -0.07557318 0.12737782
000150 f9 ef e5 3d dc 8f 88 bd 62 b2 95 3d eb a0 33 3d
       0.11227412 -0.06668064 0.073094144 0.043854635
000160 2a 48 bb bd 4b ee a5 bd 3a 81 8f bc 60 43 85 bd
       -0.091446236 -0.081020914 -0.017517675 -0.065069914
000170 35 85 a1 bd ae bb 58 3b bc 6b af bd f7 b6 81 bd
       -0.07886735 0.003307085 -0.085654706 -0.06333726
000180 f9 3b 30 3d db 8d ec bb 2a 80 a4 3d 9c 9b d9 3d
       0.043025944 -0.007219059 0.08032258 0.10625383
000190 42 ed a7 3d a9 a3 a0 bd fb 45 94 3c 13 1a 71 bd
       0.0819955 -0.07843716 0.018099776 -0.058862757
0001a0 7f f5 31 3d 60 f8 d2 bd 48 22 c9 3d 5a 5d 94 3d
       0.043447014 -0.1030128 0.09820992 0.07244368
0001b0 c2 69 e5 bc 9c 14 84 bd d1 ee cf 3d a1 4b 84 3d
       -0.02800453 -0.064492434 0.101529725 0.064597376
0001c0 d3 7e fb 3d 10 f9 6e bd 60 8c de bd 6a 49 be bd
       0.12280049 -0.058342993 -0.10866618 -0.09291346
0001d0 8b df 1d bd b4 7e 1e bc 0f ba af 3d 2f f3 ab bd
       -0.038543265 -0.009673763 0.0858041 -0.08395993
0001e0 75 1a 04 be df a4 64 bc 9b ce 34 3d 07 24 21 3d
       -0.12900718 -0.013955324 0.044142347 0.039341
0001f0 6b 48 3c bd 15 aa d8 bd 90 d9 09 be 70 99 d5 3d
       -0.0459675 -0.105793156 -0.134619 0.104296565
000200 68 39 1d 3d f8 12 9f 3d b4 6b 07 3e 37 13 21 be
       0.038384825 0.0776729 0.13224679 -0.15729986
000210 b9 9e 33 be d9 97 8a be c5 3c 68 3d 6e 4f 98 bd
       -0.17541017 -0.27068976 0.05669858 -0.07437025
000220 dd 82 f1 bc 18 4e 4c be 8f 22 7a bd 45 e1 38 3d
       -0.029481346 -0.19951665 -0.061068114 0.04513671
000230 5d eb 82 3c 59 9b 47 3d bd 02 7d 3e e9 2b 5a be
       0.01598137 0.048732135 0.24708076 -0.21305813
000240 0b 61 a2 bd 96 72 4c be 44 7c 76 bc 7c aa b1 bd
       -0.07928666 -0.19965586 -0.015044276 -0.086750954
000250 4f 17 47 be 2d 81 9b 3c 4e 21 16 3e b3 18 97 3e
       -0.19442485 0.018982494 0.14661142 0.29511032
000260 61 9e 35 3e 76 98 69 be b7 27 ee 3d dd 85 94 3c
       0.17736198 -0.22812065 0.11628669 0.018130237
000270 d4 b9 2d be 69 dd c9 3d 7f 71 9d bd 63 02 3b be
       -0.16965419 0.09856684 -0.07687663 -0.18262629
000280 eb a7 2c be a7 29 49 3e ff 05 0e 3d a0 17 c4 bd
       -0.1686093 0.19644795 0.034673687 -0.095748186
000290 a5 d9 28 3e ea 90 82 3c 83 2b 96 3e e5 18 cb 3d
       0.16489275 0.015938241 0.29330072 0.09916858
0002a0 9f 6c 3c 3d cd 67 41 3e a3 ae d3 bd bb 12 f2 bc
       0.046002027 0.18887253 -0.10336044 -0.029549947
0002b0 b6 b8 2f be 6a 0b 67 3d 06 a6 ff 3d 93 6d b9 bd
       -0.17160305 0.05640737 0.12482838 -0.09054103
0002c0 98 26 75 3d 79 c5 46 be af 48 c7 3b bd a6 18 bd
       0.05985126 -0.19411267 0.0060816626 -0.03726839
0002d0 ae c3 78 3e c4 2a e8 bd bc a4 f6 3c 0a 29 1c 3e
       0.24293396 -0.11336282 0.030107848 0.1525003
0002e0 9d c8 01 3e 36 f7 f6 3d 51 8f 68 bd 6b c7 82 3e
       0.12674184 0.120588705 -0.056777302 0.2554277
0002f0 e6 73 9e 3e cf ef 74 be 82 6c 07 bc 92 e5 99 3d
       0.30947798 -0.23919605 -0.008265616 0.0751449
000300 4d 59 b7 be 63 8e 05 be c9 44 95 be 15 e2 7c 3e
       -0.3581032 -0.13042597 -0.2915404 0.24695618
000310 a6 76 a3 3e d9 8e 6d be 97 cf 9a 3e 5f b5 ac be
       0.3192646 -0.23199023 0.30236503 -0.33732125
000320 c1 e8 c2 3d 8c 82 14 be de f9 33 3e e1 09 81 3d
       0.095170505 -0.14502925 0.17575786 0.063007124
000330 82 3d fb 3d 26 c7 39 3e 74 ce a8 3e fb 64 1e 3e
       0.12267591 0.18142375 0.3297001 0.15468208
000340 84 b8 9a bd 9f 5a b8 be 6f b6 d6 3e 86 77 97 bd
       -0.07554725 -0.36006638 0.4193606 -0.07395844
000350 e6 7e 58 be 1f 44 ea bd 42 5e 37 3d d5 d1 4b be
       -0.21142158 -0.11438774 0.044767626 -0.19904263
000360 f8 8c 7c be 46 4e 4c 3e 2b a3 6f 3e 02 00 8b be
       -0.2466315 0.19951734 0.23402087 -0.27148443
000370 68 bf 2c 3e 52 87 0d bc e5 9b d6 bd 5c b1 db bd
       0.1686989 -0.00863822 -0.10478953 -0.10727188
000380 89 2b 92 be fd 12 e4 be c9 63 8a be 09 2b ea be
       -0.2854884 -0.44545737 -0.27029255 -0.45735958
000390 6a 77 75 be 89 7f 39 3e aa 6a e4 be cc 24 87 3e
       -0.23971334 0.18115057 -0.44612628 0.2639526
0003a0 4d ab e3 bc 0b 8d 60 be 51 5b 28 3e cb 4b 92 be
       -0.027791644 -0.21928804 0.16441084 -0.2857345
0003b0 7c 8a 32 3e 10 66 ba 3e 42 8a 69 be be ea 30 3e
       0.1743564 0.36405993 -0.22806647 0.17277047
0003c0 7e 01 d5 3c e6 8f af be d8 2a 09 3e 40 0a 9e be
       0.026001688 -0.34289473 0.1339525 -0.30867195
0003d0 aa 7a c6 3e 4a 3e 8e 3e 37 f3 00 3e da 5c 05 be
       0.3876546 0.27781898 0.12592779 -0.13023701
0003e0 22 a1 f5 3d 51 11 96 3e 87 bf 67 be b9 34 0f be
       0.11993624 0.29310086 -0.22631656 -0.13984956
0003f0 33 32 6e be 28 02 3e 3e 17 92 a1 3e cb 89 a3 3e
       -0.23261337 0.1855551 0.3155677 0.31941065

fc_layer.bias f4 [64]
000000 e1 a3 98 3e 89 63 3f bd d7 29 53 bb 0e fc ae 3e
       0.2981253 -0.046725783 -0.0032220983 0.34176677
000010 aa e8 ac 3d d6 44 a4 3e 54 11 9d 3e 56 8d ec 3d
       0.08442815 0.32083768 0.30677283 0.11550395
000020 42 f1 5b 3d 93 59 98 3e 23 ab ae 3e 44 7f a1 3e
       0.05369688 0.2975584 0.34114942 0.31542408
000030 d7 37 9f 3d 74 f3 13 3e 96 84 1c 3e 17 63 f5 3c
       0.077743225 0.14448339 0.15284953 0.029954476
000040 cd c3 12 3d 14 a2 60 bd f7 42 cc 3d 5f c9 cc bb
       0.03583126 -0.05484207 0.0997371 -0.0062495912
000050 b2 95 17 3c 60 6e dd bc b2 12 07 bd 2d ea 04 3e
       0.009251999 -0.02703017 -0.032976814 0.12979956
000060 fe 9c 71 3e 19 5d 4e 3e 8d 62 1a bc df aa 81 3e
       0.23595044 0.20152701 -0.00942291 0.25325677
000070 03 48 1a 3e 2d 14 60 3e 70 8c 87 bc 8a 6b e4 3d
       0.15066533 0.21882696 -0.016546458 0.11153324
000080 e9 72 82 3e ef b8 1f bd 25 38 85 3c c6 cb 1a 3e
       0.25478294 -0.038994726 0.016262123 0.15116796
000090 12 6d 2d 3e 38 7a 86 3e a1 34 91 3c a8 df 81 3d
       0.16936138 0.2626512 0.01772529 0.06341487
0000a0 01 b9 dd bd a6 b9 90 3e 54 4c a3 3e 7e 9c 64 3e
       -0.10826302 0.2826664 0.3189417 0.22325322
0000b0 54 cd c9 bb fa 6e 30 3e 93 d1 d8 bd 0b 0a a0 3e
       -0.00615851 0.17229834 -0.10586848 0.31257662
0000c0 ea 06 23 3e f1 f6 02 be 33 e5 a5 3e d3 be bb 3d
       0.15920606 -0.12789513 0.32401428 0.09167256
0000d0 7c 0e 27 3e 6c a2 ba 3d c3 b5 7c 3e 78 52 94 3e
       0.16314119 0.09113011 0.24678712 0.2896917
0000e0 0c 0a 51 3e 8f c6 a5 3e ed 9a 9b 3e 18 86 32 3e
       0.20413989 0.3237805 0.30391636 0.17433965
0000f0 10 03 ee bc f5 1c 31 3d 55 9b 19 3e 51 39 c8 3c
       -0.029054195 0.043240506 0.1500066 0.024441393

output_layer.weight f4 [1, 64]
000000 a8 b0 d3 3e 9f 0b b9 bc 5f 44 7c be 19 9a 99 3e
       0.41345716 -0.02258855 -0.24635457 0.3000038
000010 54 f7 bb 3e c4 ec a7 3e 88 ff b8 3e 4c 6d b4 be
       0.36712134 0.32797825 0.36132455 -0.35239637
000020 e8 86 ed be 0a 7e bd 3e 37 08 9c 3e 33 b7 c8 3e
       -0.46391988 0.37010223 0.30475017 0.3920227
000030 42 7a cd 3e 1a 83 b5 be f6 0d c9 be 5b 83 ad be
       0.40132338 -0.35451585 -0.39268464 -0.3388928
000040 c4 6b ec be e9 ee bd be 87 a4 cd 3e c8 89 ec be
       -0.4617597 -0.37096336 0.40164587 -0.4619887
000050 a8 39 d3 be 56 8c 93 bd ee 5b 6a be 2b 7c c0 be
       -0.41254926 -0.07204501 -0.22886631 -0.37594733
000060 e2 52 aa 3e 7a 03 cb 3e 15 5b c9 be d3 6d ba 3e
       0.3326636 0.3965109 -0.39327303 0.36411914
000070 4f e8 f6 be 46 dd c8 be a7 0a eb be f6 f5 b1 be
       -0.48224112 -0.39231318 -0.45906565 -0.34757966
000080 eb 33 c3 3e 6e ed 7f be 47 4e 97 be ff d6 9d 3e
       0.38125548 -0.24992916 -0.29551908 0.30828092
000090 bb 7f ac be d1 ae d2 3e bc a8 e0 be b7 56 df be
       -0.336912 0.41149 -0.43878734 -0.43620846
0000a0 85 70 24 3e 4a 63 cf 3e 95 b8 a0 3e b7 2c a9 3e
       0.16058548 0.4050544 0.31390825 0.33041927
0000b0 2b 72 d9 be 3d 9c a3 be c5 d7 2c 3d 08 89 a2 3e
       -0.42469916 -0.31955138 0.04219796 0.31745172
0000c0 60 48 b5 be 27 3a 73 3d d2 20 bc 3e b9 dd a4 3e
       -0.3540678 0.05938163 0.3674379 0.3220041
0000d0 e9 cc c1 3e 6b ad f3 be 26 92 a8 3e be 82 c9 3e
       0.37851647 -0.47593245 0.32924002 0.3935756
0000e0 e3 58 a9 3e 14 5b 9d 3e 89 2a a5 3e 85 3b c3 be
       0.33075628 0.3073355 0.32259014 -0.38131347
0000f0 2a 97 c1 be 13 be e1 be 4f 46 cf 3e 27 93 c0 be
       -0.37810642 -0.44090328 0.4048333 -0.37612268
