TimeGAN4paper/result/iter6000/model/JK_lag1_total1/torch_best_model.pt (torch, 87834 bytes, 7 tensors)

lstm.weight_ih_l0 f4 [256, 1]
00000000: ea52 243e 7198 c03d 1a03 8ebd 2048 1f3d
00000010: 32a3 fbbb f210 a13d b88f 993d b871 093e
00000020: 8668 3bbc 63d2 0e3e b078 88bc 84d1 f83a
00000030: 4d16 cbbd 9736 653c 2c5a cdbb e3ff 3a3d
00000040: 3f7b de3d 8ac2 b33d 96f3 c6bd aff5 79bc
00000050: d57b 823d 7941 9c3d 56b9 e4bb 94f4 123e
00000060: 3339 c6bb 4d4c 833d 694f 8b3d b397 7a3b
00000070: bcf5 99bd 9b64 913d 19f2 87bc 11a0 b63d
00000080: ad00 4d3c 4fef c4bc 48c1 aabc 578b 19bb
00000090: 3c8e 4dbd 22bb d63d a1d5 f93c fdd3 393e
000000a0: 9650 d23a 9b4f 12bd 83a0 a43c 1de6 3cbd
000000b0: 5441 3fbd ab61 99bd 4158 8f3d 9e60 633d
000000c0: 610d 4ebc 4e36 fe3c e488 603e bfa7 803e
000000d0: 1b98 af3d e36a 2f3e b895 de3d 28c5 aabd
000000e0: d17c ae3d cc01 dabc d0b9 043d 42c1 a2bc
000000f0: 75ec 283e c6db a63d 56c5 16bd d0c6 e83d
00000100: 1014 d43d 068b 763c ae45 e23d 3356 773d
00000110: a916 383e bc81 403e 0646 3f3b 7294 5b3c
00000120: 385a 8a3d c3cd 993d b879 953d 025e 863d
00000130: 6624 3d3d 2d66 77bc 1b6e b73d 1981 82bb
00000140: 8266 b6bc 16c8 ce3d 444c b43d b1ca d0bc
00000150: 8798 473c 285c 8d3b 52c8 083c 5aaa a93c
00000160: b100 e53c dccc a5bc 7ef8 8b3e 00c0 1f3e
00000170: 8fcf a93d 503e 713d 7773 edbc 8fd3 733b
00000180: 2fed 823d ecae f53c 5da0 893b bd9d 7d3c
00000190: c1b9 e63d 43a8 0f3e a7be e03c 7b62 b03c
000001a0: f37c d2bc d044 0e3c 3dac 3b3c 9fdb 72bc
000001b0: 6d25 173d 4e69 d23d 5e05 5abc ec1a ab3d
000001c0: ba0d 073c 6103 a93d f054 dd3d c9e4 c4bc
000001d0: 39df e93b 5818 5a3c ad93 173c 0853 003d
000001e0: 50a2 8fbb 6e28 273c 6e77 773c b0a2 593d
000001f0: 1ad5 c1bc af40 0fbc bca1 43bb ecd9 983b
00000200: 400e aabd 875a a9bc 27fa 7fbd a366 4b3d
00000210: 7a90 af3d 693f 82bc e314 0a3c ef53 163a
00000220: 604b 4a3d d1a0 25bd 090e 8a3c 4c38 4a3d
00000230: 7097 fb3d 8709 193e d73b 233e 52e8 ec3b
00000240: b47e 17be bc4c b7bb 6f93 f83d 803a 52be
00000250: f3c7 babc 8843 d7bc cd8b 45be 3c55 27bd
00000260: 0d8d 07bd f63e 7bbc 16d4 d43c 992f 0bbe
00000270: 883a 763d 902f 2fbd 4152 17be 52d3 08bd
00000280: 7e38 72bc 2b6e 473b 418e 8abd cf09 0ebf
00000290: 31aa 69bc 66c2 8d3b 8ae2 f9bb 88a5 c53d
000002a0: 0b63 e3bd dfae c73d 521e c43c 2aff 39bd
000002b0: ff20 7d3e 427c c23c 6a88 30bd adb8 3e3e
000002c0: 2838 18bd 9933 71bd 9faa 963c c35e ccbd
000002d0: 9e13 8c3c 111e 25bb 515c 6e3e 00ad 543e
000002e0: fc8f 153c 6d20 72bc cc3e a2bc 2698 82bc
000002f0: 3442 82bd 3c47 983d 22a2 fb3d 1f55 463d
00000300: c51f 92bc 55a0 0f3c ec9e e738 f310 c33c
00000310: 4485 7dbb 3959 203e f32e 4ebc 1d57 093d
00000320: 6bdf 223c 9a29 e43c 4042 ca3b eb40 13bc
00000330: 8306 62bc 888f c53c 11a0 76bc 8c17 143d
00000340: d7b5 d33d ce19 903d 8b51 273d 63e8 c63c
00000350: f8d0 2d3d ad71 b93c 415c 8b3c 7142 ef3d
00000360: 640b 43bc 49a3 3c3b e1ab 5f3d 7bbd 23bc
00000370: 0382 893c adc2 fd3c 47b1 023d f1cf 903d
00000380: 08a5 77bc 62f2 463d ee6a a0bc 83b4 bf3a
00000390: dff6 54bc bdba 073c 6121 603c 0f26 4e3d
000003a0: 3f91 513d fe66 773d 3095 fa3c 706e 49bb
000003b0: c1d5 923d f02a ccbb 7eb8 203b 302f 923d
000003c0: dffb 873d 6c01 d73c c1e7 64bc 5e17 5b3c
000003d0: ffd0 fe3c 3425 5f3b 6762 e53d f53d d0bc
000003e0: 453b 393b cb1c a23c 4c4f 1b3d 5e4f 213d
000003f0: f120 5a3d f48a 393c 05b6 ca3b 6fe8 f5bb
0.16047254 0.09404076 -0.06934185 0.038887143 -0.0076793665 0.0786456 0.07498115 0.13422287
-0.011438495 0.13947444 -0.01665911 0.0018983339 -0.09916363 0.013990066 -0.006266853 0.04565419
0.10863351 0.0877734 -0.09714429 -0.015256329 0.06371275 0.076296754 -0.0069801016 0.14351112
-0.006049299 0.064110376 0.06802256 0.0038237392 -0.07517573 0.07099267 -0.016594933 0.08917249
0.012512368 -0.024039892 -0.020844117 -0.0023429 -0.050184473 0.104849115 0.030497374 0.18147273
0.0016045745 -0.03572045 0.02009607 -0.04611789 -0.04669316 -0.07489332 0.06999255 0.055512063
-0.012576432 0.031031754 0.2192722 0.2512798 0.08573934 0.17130618 0.108684 -0.08338386
0.085199006 -0.026612185 0.032403767 -0.019867543 0.16496451 0.08147387 -0.036809288 0.113660455
0.10355389 0.015047794 0.110484466 0.06038494 0.17977394 0.1879949 0.0029186024 0.013402091
0.06755489 0.07509949 0.07298607 0.06560899 0.04617729 -0.015100044 0.08956548 -0.003982675
-0.022265676 0.10096757 0.08803609 -0.025487276 0.012182361 0.0043139644 0.008348541 0.020711113
0.027954431 -0.020239286 0.27338022 0.15600586 0.08291542 0.058897316 -0.028985722 0.0037204956
0.063928954 0.029990636 0.004200025 0.015479502 0.112658985 0.1402903 0.02743466 0.021531334
-0.025694346 0.008683398 0.011454639 -0.01482287 0.036900926 0.102739915 -0.013306944 0.08354744
0.008243019 0.082525976 0.10807216 -0.024034875 0.007137206 0.013311468 0.009251517 0.031329185
-0.004383363 0.01020251 0.015104158 0.053133667 -0.023661185 -0.008743449 -0.002985104 0.00466465
-0.08303499 -0.02067305 -0.062494423 0.04965843 0.085724786 -0.015899377 0.008427831 0.0005734553
0.04938829 -0.04043657 0.016852396 0.049370095 0.12284744 0.1494504 0.15940796 0.007229843
-0.14794427 -0.0055938642 0.12137496 -0.20530128 -0.022800421 -0.026277319 -0.19291611 -0.04085277
-0.0330935 -0.015334835 0.025980037 -0.13592376 0.060114413 -0.04276997 -0.14777471 -0.033404656
-0.014783977 0.0030430655 -0.06765414 -0.55483717 -0.014261768 0.0043261526 -0.0076258825 0.09650713
-0.11102875 0.09750151 0.02394024 -0.04540936 0.24719618 0.023740891 -0.043098845 0.18625136
-0.03716293 -0.058887098 0.018391905 -0.09979012 0.017099198 -0.0025194923 0.23277403 0.2076912
0.009128567 -0.014778239 -0.019805335 -0.01594169 -0.063602835 0.07435462 0.12286784 0.04842102
-0.017837415 0.0087662535 0.0001104454 0.023811793 -0.0038684169 0.15659036 -0.012584436 0.033530343
0.009940962 0.027851868 0.0061724484 -0.008987646 -0.013795498 0.024116293 -0.015052811 0.03615527
0.103374176 0.07036172 0.04084925 0.024280732 0.042435616 0.022637213 0.017011764 0.116825946
-0.011904571 0.002878385 0.054607276 -0.009993906 0.016785627 0.030976618 0.031907346 0.07070912
-0.01511503 0.048570998 -0.019582238 0.001462594 -0.012998312 0.008284268 0.013679833 0.050329264
0.051163908 0.060400955 0.030588716 -0.0030735992 0.071696766 -0.0062307045 0.0024524028 0.071379066
0.066398375 0.026245795 -0.01397127 0.01337227 0.031105516 0.0034049274 0.112004094 -0.025420168
0.0028264087 0.01978912 0.03791742 0.03938233 0.05325407 0.011324633 0.006186249 -0.007504515

lstm.weight_hh_l0 f4 [256, 64]
00000000: 904f 89be 0abc 27bd 1190 48be 9189 b13d
00000010: f812 9738 b910 1ebd 696e 293e 276b 8eba
00000020: 5753 343e 54b6 1abe f5b9 eb3b f137 503e
00000030: 11b3 b0bb 33dc 003e 9d3b e03d eb2a 25bc
00000040: 6aff 74be 0313 adbd 0ec7 8f3d abe5 91be
00000050: d86b 153d 5790 14be 6151 10be fe51 90bd
00000060: 3354 e7bd 11c7 e6bc aeb3 a1bc c6aa debd
00000070: 42e7 163e 5b79 903b e080 33be c694 ebbd
00000080: 5e5d 37be 4ea4 8abd e656 91be d386 39be
00000090: c5d3 8dbe 0325 233e a416 f8bd ce01 023d
000000a0: be5c 10bc 6463 ec3d 9838 e93d 40ce b7be
000000b0: 6ec1 223e 5bda 303e 04bc bfbd 2bd9 283e
000000c0: 70a4 05be dae0 50be 7b43 5c3d 06f1 75bd
000000d0: deea f03d 09a8 68be dd29 403d 7bcd 273e
000000e0: 8afb d03d f674 c83c 5c81 4fbd f730 95bd
000000f0: 9795 23be 8818 0b3e c3e5 703e 2742 623e
00000100: b033 06bc 0f76 f53d fd03 2fbe 5ebe 893d
00000110: be91 c83d 4841 ac3c a27c c23d dd76 99bd
00000120: f24e 943d 1cd5 18be 4065 403c 970c 273d
00000130: d802 313e 30de 003e 47d6 5cbd 0433 413e
00000140: 27ad fc3c fc5a b8bd 0855 3a3e 61a3 893d
00000150: ab80 603c d6c9 9bbd f237 883d b6f9 66bd
00000160: b515 f0be 334e 193e 0377 193e 9ad0 583d
00000170: 7f68 f83b b509 efbc c4f7 cdbd e978 3e3d
00000180: 3932 c0bd 30ce 33be c3e1 c8bb 0f7a 9e3d
00000190: 79f8 0bbe 7e91 f43d ba54 07be f9cb b13d
000001a0: 0bf2 3abe 0293 ac3c b22e 04bd e8ba 853d
000001b0: cd65 6d3e e0b6 2d3e b351 37bc f133 0abd
000001c0: 3d92 33be 385c dfbd eeeb 27bd d56f 873d
000001d0: f337 383d 0cb2 86bd 4862 53bd 7a5e 34bd
000001e0: bddb 783e 1f4c 173e c770 1a3d 36b8 063d
000001f0: 3b1e e63c d0e8 f43c 47ef d83d cb4c 1a3e
00000200: 1524 33bb 5973 193e 106f b0bd 375b 1d3e
00000210: e9e2 1c3e 2227 013c 841d cb3d 43b5 e3bd
00000220: ca29 ccbd b3dc 9dbd 7dcc 99bc ae01 0b3e
00000230: c2cb 6a3e 869c c23b 4d5d 1fbd 3632 213e
00000240: ad76 0f3d 3f28 a4bd 397a 5a3d 7713 b43d
00000250: 8cfc e13d 4269 0a3e 065c ba3d e50e 063d
00000260: ea0a c5bd 5ca1 db3d 493c 9fbd 2165 91be
00000270: a8da 793e de77 2fbd 6b1f b3bd 6680 a4bd
00000280: 7b08 debd 024f d9bd aecd 75bd 36c5 753d
00000290: 3f63 ef3c 5a2d 4fbd 71b5 5abb 8116 8b3d
000002a0: 066a f23c 63c4 afbd 6dcc efbc c849 59be
000002b0: 8a1d 94ba 1f2b 843e 78b6 f3bd f531 b03d
000002c0: 2161 9d3d c580 0c3c 4087 19bd 7ca8 8abd
000002d0: cc42 3d3d 2bc0 e13d b2f2 d93d a6fb 8f3c
000002e0: eff2 f13d 60a4 ffbd 7718 eabd 38ee c43d
000002f0: 4b17 08be 2372 2b3e fc42 183d b71e 693d
00000300: 11a8 89be 5b8c 24be 2d75 5fbe 8d35 843e
00000310: 8e7b c23e 6121 10be 4050 6b3e dfb5 183e
00000320: 37ba 463e b073 e2bd 95d7 2a3e db98 ca3d
00000330: 3e02 db3d 4b10 ce3d 70cf 183e 9538 3bbe
00000340: f6f0 0dbe 4252 bfbd 97bf a5bd 6bfd c1be
00000350: d5a5 9abe 7453 6bbe 1b34 8abd 2277 babd
00000360: 27cf 73bd a305 543e 9b30 5c3e 2c92 cebe
00000370: 9012 f43c cc85 ccbd 1c48 7dbe a8a9 1ebe
00000380: 7459 73be 14f0 63bb 99a3 70be 119f 9fbe
00000390: 23c6 8b3e 956c 323e 4721 23bd 83ba 783e
000003a0: 14ef 2ebe 8cdb 153e 711c 013e 6ce5 c9bd
000003b0: 5742 0c3e af3a 9f3e bd8d 0dbe fbf1 003e
000003c0: 8973 a0be 2bea 4dbe 5618 8b3e b04f 6bbd
000003d0: c287 9d3d d4e8 953e 35fe 553e c70d bc3e
000003e0: 444f adbd e8a7 0d3e 1cb5 39be 5a13 cabd
000003f0: 59eb 6abe 5115 733e a2f9 c93d 3848 8f3e
-0.26818514 -0.040950812 -0.19586207 0.08668817 7.203774e-05 -0.038590167 0.16546024 -0.0010865674
0.17609917 -0.15108615 0.0071937987 0.2033384 -0.00539244 0.12584 0.1094887 -0.010081033
-0.23925558 -0.08450892 0.070203885 -0.28495535 0.0364798 -0.14508186 -0.14093544 -0.07046889
-0.112953566 -0.028171094 -0.019738998 -0.10872416 0.14736655 0.004408998 -0.1752963 -0.11502986
-0.1790671 -0.0676962 -0.2838661 -0.18117838 -0.2770063 0.15932088 -0.12113693 0.031740002
-0.008811174 0.11542395 0.113877475 -0.35899544 0.158941 0.17270796 -0.09362033 0.16489093
-0.13051009 -0.20398274 0.053775292 -0.06004431 0.11763547 -0.2272035 0.046914924 0.16386978
0.10204227 0.024469834 -0.050660476 -0.0728473 -0.15975033 0.13583577 0.23525147 0.22095548
-0.008191034 0.119854085 -0.17091365 0.06725763 0.09793423 0.021027222 0.09496428 -0.074933745
0.0724162 -0.14925045 0.01174289 0.04078349 0.17286241 0.12584758 -0.05391529 0.18867117
0.030844284 -0.09001729 0.181965 0.06720615 0.013702552 -0.076068565 0.06651296 -0.056390487
-0.4689156 0.14971237 0.14986806 0.052933313 0.0075808163 -0.029179433 -0.10057023 0.046502028
-0.09384579 -0.17559123 -0.0061304285 0.077381246 -0.13669004 0.11941813 -0.13215914 0.08681483
-0.18256395 0.021066193 -0.032271095 0.0652979 0.23183365 0.16964293 -0.011188912 -0.03374094
-0.17536254 -0.10906261 -0.040996484 0.06613127 0.044975232 -0.065769285 -0.0516074 -0.044035412
0.24302574 0.14775132 0.03770521 0.03289052 0.028090587 0.02989617 0.105925135 0.15068357
-0.002733474 0.14985408 -0.086149335 0.15366827 0.15320934 0.007882865 0.09917739 -0.11118557
-0.09968908 -0.07708111 -0.018774265 0.1357486 0.2292929 0.005939069 -0.038907338 0.1574181
0.035025287 -0.08015489 0.053339217 0.08792775 0.110344976 0.13516715 0.09099583 0.03272905
-0.09621222 0.10724136 -0.0777517 -0.28397468 0.24399817 -0.042838924 -0.08746227 -0.080323026
-0.10841461 -0.10610773 -0.060010605 0.060002528 0.029222129 -0.05058036 -0.0033372308 0.06791402
0.029591572 -0.0858238 -0.029272282 -0.21219552 -0.0011300307 0.2581415 -0.119000375 0.086032785
0.076845415 0.008575623 -0.0374825 -0.06770417 0.04620628 0.11022981 0.106419936 0.01757605
0.11813914 -0.12482524 -0.114304475 0.09615749 -0.13290136 0.16742758 0.037173256 0.056914058
-0.26886037 -0.16069166 -0.21822043 0.25822106 0.3798489 -0.14075233 0.22979832 0.14913128
0.19406973 -0.11057222 0.166838 0.09892436 0.10693787 0.100617014 0.14922881 -0.18283303
-0.1386145 -0.09341861 -0.080931835 -0.37888655 -0.30204645 -0.22981054 -0.067482196 -0.09104754
-0.059523728 0.20705275 0.21502917 -0.40345895 0.029794008 -0.09986457 -0.24734539 -0.15494406
-0.23764592 -0.003478055 -0.23499908 -0.31176046 0.27299604 0.17424233 -0.039826658 0.24289899
-0.17083389 0.14634532 0.12608506 -0.09858212 0.13697182 0.3109946 -0.138236 0.12592308
-0.31338146 -0.20108859 0.27167004 -0.057449043 0.076919094 0.29279196 0.20897754 0.3672926
-0.08462384 0.13833582 -0.18135494 -0.09866972 -0.2294134 0.237386 0.09862067 0.27984786

lstm.bias_ih_l0 f4 [256]
00000000: 0b63 363e 72b8 da3d 817b 453d f995 293e
00000010: cc83 5a3e ab61 083e 7a26 d5bd e086 44be
00000020: 60fc c7bb 5b7a 883c 3340 02bc 7081 0cbe
00000030: 48aa 123c b1e4 463e 5c82 3b3e 0bbd 1e3e
00000040: 84e6 243e 944f 9fba ec48 8ebd d0d9 9d3d
00000050: 69a1 fc3d 786c 81bd c0d6 db3d c162 ba3e
00000060: 83e0 63bc 6431 e73c 7ebe 8e3d b4ee 6fbd
00000070: fdd1 d63c bf08 0e3e eac7 023e f2f5 f5bd
00000080: 7ead 04be 1370 063e 5671 ff3c 12f9 093e
00000090: 453f 0a3e d027 223d cae0 c73d 55b0 813e
000000a0: 2548 0d3d 9c52 603d 9c26 a7bd a5e2 333e
000000b0: cfb0 4e3e 0b85 123e bbf3 2abe dec8 683d
000000c0: 7a1c 463b 7844 c2bd 9bf3 863e e879 1ebd
000000d0: 790e d0bd ba27 1d3e bb3b 633e cdb8 b93d
000000e0: 9e51 b33c 0423 d13d 519f 253e a28d a53c
000000f0: d1dc 393e 4e3b 41bd 7d2b b03d b539 45bc
00000100: 9956 1dbc 1ec7 0abe 2ce7 e63d 9b19 a63d
00000110: 891c 85be 13ee 7abd a60d b73c 2979 a2bc
00000120: 3f32 263d dbf5 13be 8191 29be 4629 73bd
00000130: 2db3 b23a cdbc d93d 2442 a53d aa6e d03d
00000140: 3f8b c33d 4fea 22bd 2667 063e db82 113e
00000150: c4ee c13d 2845 283e dac7 fa3c d514 bc3d
00000160: 6dbd a63d 80c7 003d 0263 be3d e4f8 07bd
00000170: 0453 a13c 7986 d33b 46e5 4c3e dfd1 6e3b
00000180: 6954 1fbd 6468 90bc 735d 3b3e 54f5 f03c
00000190: e281 933d 2498 8c3d f18b e73d 3bf1 eb3c
000001a0: 0af5 1b3e 671b c23d b6c3 1a3e e999 043e
000001b0: 6ac5 443e b0bb 0abd 351c 103e ac1a 47be
000001c0: 5d99 b5bc e07b 4dbe 959b 2fbd b845 fc3d
000001d0: 70e2 0f3d 02d8 8b3d 96c0 bdbd 3093 2b3d
000001e0: 5b4f a93d 7998 893d 8a7b 273e 2a74 bd3d
000001f0: d7ee dd3d 282e 7bbb ef64 ecbc ab2d 13bc
00000200: 5cbd 2e3e 230f 8a3b bade e3bd f4f0 9bbd
00000210: 1984 af3d 7cf6 173c 29f3 3cbd e5ca b1bc
00000220: dd27 cf3d 74f9 0cbe d594 d2bd 537c 07be
00000230: 6bce 60be 6341 83be 82b1 a0bd 44eb 06bd
00000240: 9d72 093e a6a1 56bd fd3e 04be 3300 d9be
00000250: 2b8d a93d 4b1e 6d3e c8cc 8a3e 6228 0d3e
00000260: 6623 2d3c 6bf4 2bbd 8c35 95bd 0a47 d9bd
00000270: e986 5dbd 3845 2e3e 8e28 0f3e 262e a63d
00000280: 7acb 8ebd 45e4 0b3d 6a80 883c 3401 5cbf
00000290: cb76 fc3d 643d d6bd e225 b23d 898e 9abd
000002a0: 1ec8 1b3e 506d 3c3e de06 e5bd 3138 b93d
000002b0: 0704 51be d316 193d 3a32 383d 00e4 8abe
000002c0: add5 ef3d 5a26 223e 5f4b 52be 7274 c7bc
000002d0: 4a54 983d c9fb 963c 2379 8abe 5c1f 3e3e
000002e0: 4f95 6cbd 822a d3bd a536 283e eb2b b53d
000002f0: 40b5 b5bc 3201 83bd 4d2f 3d3e f460 16be
00000300: 4522 123e ac64 e3ba 9816 223e e43a 343e
00000310: 1e5d 9abc 406e 8cbe 38da e13d 3c58 9fbd
00000320: f450 19be d9aa 3dbe 2d9a 963b c23e 6c3d
00000330: c37a 013e 553f 65be ea69 f8bd 4b94 e4bd
00000340: bfd3 97bd a903 fabd fb8f 3fbe fa98 8abd
00000350: 30fa 2dbd f8a7 983c 979f 6bbe 4ffb 32be
00000360: 059a 583e bafe 843d 97a8 6fbe 3b82 193e
00000370: 693e 96bd 397a 94be b6fe 33be add1 083d
00000380: 6917 f53d 580a 6ebe 07c4 15bd 60d2 6fbe
00000390: 28f8 0a3d 23b9 ebbb ed1e 21bd db37 43be
000003a0: 9fa3 16bd 1d89 8abe 5f8a 88be c986 103d
000003b0: 4f43 8ebe 1078 423d a0f8 fcbb 93f6 f6bd
000003c0: e174 45be a0f0 53be 232f 053e 4c9b efbd
000003d0: 1b78 e4bd f692 01bd 7876 7dbe 3e25 823d
000003e0: 60c1 9bbd d738 853b 562b 813e bd82 e3bd
000003f0: aa34 13be 9f88 afbd b917 ce3b 92c8 08bd
0.1781122 0.106797114 0.048213486 0.16561116 0.21339339 0.13318507 -0.104077294 -0.19192076
-0.0061030835 0.016659906 -0.007949877 -0.13721251 0.008951731 0.19423176 0.18311447 0.15501802
0.1610356 -0.0012154453 -0.069475025 0.0770756 0.12335474 -0.06319517 0.1073432 0.36403468
-0.013908508 0.028221793 0.06969927 -0.058577254 0.026223177 0.13870524 0.12771574 -0.12009801
-0.12956807 0.1312869 0.031181972 0.13473919 0.13500698 0.03958875 0.09759672 0.25329843
0.03449263 0.054766282 -0.08161661 0.17566927 0.20184635 0.14308564 -0.16694538 0.056832187
0.0030229376 -0.09485716 0.2635773 -0.038690478 -0.101590104 0.15347186 0.22190754 0.09068451
0.021889504 0.10211757 0.16174056 0.020209137 0.18150641 -0.047175698 0.08602045 -0.012037684
-0.009603166 -0.1355252 0.11274561 0.081103526 -0.25998333 -0.0612622 0.022345375 -0.019833164
0.040575262 -0.14449255 -0.16559412 -0.059365533 0.0013633721 0.10631714 0.08069256 0.101773575
0.095480435 -0.039774235 0.13125286 0.14210074 0.09469369 0.16432631 0.030612875 0.09183661
0.08141599 0.031440258 0.09296228 -0.033196345 0.019692905 0.0064552394 0.20009336 0.003644101
-0.03889886 -0.017627902 0.18297367 0.029413857 0.072025076 0.06864956 0.113059886 0.028801551
0.15230194 0.09477883 0.1511372 0.12949337 0.19215932 -0.0338704 0.1407326 -0.19443768
-0.022167856 -0.20066786 -0.042872984 0.12317985 0.035128057 0.068283096 -0.092652485 0.041888416
0.08267089 0.06718535 0.1635572 0.09250672 0.10836571 -0.0038327072 -0.028856723 -0.008983056
0.17064422 0.00421323 -0.11126466 -0.076143175 0.085701175 0.009275075 -0.046130333 -0.021703193
0.10115025 -0.13767034 -0.10282294 -0.1323102 -0.21953742 -0.25635824 -0.07846357 -0.03293921
0.13422628 -0.052400254 -0.12914653 -0.42382964 0.08278879 0.23156087 0.2710936 0.13784936
0.010567522 -0.041981142 -0.07285604 -0.10609253 -0.05408374 0.17018592 0.13980314 0.08114271
-0.06972404 0.03415324 0.016662795 -0.85939336 0.123273455 -0.10460928 0.08698632 -0.07546718
0.15213057 0.18401074 -0.111829504 0.09043921 -0.20411693 0.037375282 0.044969775 -0.27127075
0.11710677 0.15834942 -0.20536564 -0.024347518 0.07437952 0.018430607 -0.27045545 0.1856665
-0.05775958 -0.10310842 0.16427095 0.08846267 -0.022181153 -0.06396712 0.18475075 -0.14685422
0.14270885 -0.0017348728 0.15828931 0.1760059 -0.01884323 -0.27427864 0.1102795 -0.07780501
-0.14972287 -0.18522204 0.004596016 0.057677038 0.12644486 -0.2238744 -0.121295765 -0.11161097
-0.07413434 -0.12207729 -0.18707268 -0.06767459 -0.042474926 0.018634781 -0.23010097 -0.17478679
0.21152504 0.06493898 -0.23404156 0.14991085 -0.073361225 -0.28999498 -0.17577633 0.033403087
0.11967356 -0.23246133 -0.0365639 -0.23420095 0.033928066 -0.007193701 -0.039336134 -0.19064276
-0.036777135 -0.27057734 -0.2666807 0.03528479 -0.27785727 0.04747778 -0.007720068 -0.12058749
-0.19282867 -0.2069726 0.13006262 -0.116995424 -0.11155721 -0.031634293 -0.24752223 0.0635476
-0.07605243 0.0040656137 0.25228375 -0.11108921 -0.14375558 -0.0857098 0.006289449 -0.033394404

lstm.bias_hh_l0 f4 [256]
00000000: be91 083a 02dc 6dbd e07c 47bd 2c7c 993d
00000010: 331f 013d a069 9c3d 88a9 e63d 5800 48be
00000020: 6dab e73b 91df 383e 8609 eebc d5fc 56bd
00000030: cbe9 483c 0bb0 ea3d fe90 f43d 6975 dc3b
00000040: fc06 663c 4e56 d0bc 0db7 5b3c 8d42 383e
00000050: 2684 97ba c546 b33b 7c55 93bb 952a 493e
00000060: d557 e7bc ba7a 103e 23a5 893d c668 ea3d
00000070: 9f83 dfbc c6da f93d cc0a 493e e80c aa3d
00000080: d5bd 773c 85f2 7e3d 113b c73c e21b 3b3e
00000090: 4398 043e 5cc5 f1bd 1bd8 113e 4236 4e3e
000000a0: 1a78 343e 45b0 183e da4f 80bc d134 4cbb
000000b0: 544e 28bd 795c fdbc 1a37 29bd 31ab 823c
000000c0: 87bf b33d e875 9abd 61a0 683e 0ce3 03be
000000d0: e2e4 8d3d 9b54 cd3c 33cd df3d 6b1b 223e
000000e0: f677 173d f45b a1bd 1e61 523e 1705 b2bd
000000f0: 33da 3d3d 963a 9fbd 62d6 afbd 0211 0e3e
00000100: 6027 fc3c 67ab 993d cb82 3a3e 552a 94bc
00000110: def2 2bbe 03e5 663c cd97 75bd e6e6 163d
00000120: 034f ba3d 9267 da3c bd9b 70ba 793f 91bd
00000130: 550b 203d 1cc9 203e 49f9 343e fcb5 ef3c
00000140: 46f5 563e a424 98bd 8ef6 613c ddb2 013e
00000150: a03c 153e b221 713d b1e2 413c 01d9 f8bb
00000160: 0bd1 8bbc b4e0 153e 506c 9d3c a5a9 6dbd
00000170: 1560 82bc 6d0f 8c3c e4bd 2f3e 5f08 253d
00000180: 83ef 203d 5e7b 4fbb d2cc 443e 5ff3 1d3e
00000190: 0a27 133d 6dc2 fe3d 4466 b93d 8c41 6fba
000001a0: a472 c83c 1d09 0cbd 78d9 123e 53e6 233e
000001b0: 9332 293c 0788 b0bc f5cb 4d3e 2702 d8bd
000001c0: 216c 183e a216 40bd 04dd 70bc e1cb 963d
000001d0: e81f 3dbc 7880 1a3e dc2e cabd 6554 7ebc
000001e0: f36a 633d 3f01 943d c718 ebbb c2b7 ffbc
000001f0: 2eaf 033d ca28 c63d d6eb 213e 03c0 083e
00000200: b9d5 323e 74f7 433e cd46 00be 5a75 58bb
00000210: 02af ac3b e562 c7bd 9654 8cbd a98a 1d3e
00000220: 7f76 093e eae9 7c3d ad30 133c 7be8 20be
00000230: 52f7 55bc 463c 57be 1620 243d 8fc9 ffbd
00000240: 320f 253e 306c b53b a906 57be 5034 12bf
00000250: c4f6 4d3d f313 723d c4a8 503e 42b7 9ebd
00000260: fb06 cf3d 5128 6d3d cb84 adbd 664b 5f3c
00000270: 15a0 b73c 19a7 823d c752 423e 4dc8 bc3d
00000280: 671d fe3c cc05 303d 0dc6 823c 671d 37bf
00000290: 7602 65bd 4d24 da3b 5243 57bd d606 e13d
000002a0: 174c 8a3d aa3d 01bc 0d52 29be c980 b43d
000002b0: 5b08 44be 6e69 283d 6578 483c 868e 9cbe
000002c0: 2846 eabd 1ae7 693d aaf8 bdbd fad7 9cbd
000002d0: ca72 b8bc 4ea0 2f3e c9d1 b7bd 284c 393e
000002e0: 490d 33be 79ea 973d 5e7e a73c 28f2 103d
000002f0: 1b2a bebd b464 2f3d fa00 bf3d 98d1 d9bd
00000300: fa23 b23a 0e22 773d bc02 953c d0d4 693d
00000310: bd3d 0fbc 5b76 a9bd 7dd2 703d fbbd 16bd
00000320: 668a 0abe 7a7e ffbd 4054 613a 22cf 153e
00000330: c06e c73d fb40 25be cf97 71bd 4627 97be
00000340: 9d3c 41be 91b9 febc 66e5 3dbe 90cf 66be
00000350: ba30 dfbd 4f04 133e 2494 74be bd81 08be
00000360: 10a9 f03d 1286 943c 56cc acbe 36ca 423d
00000370: 428e 1cbd 992a 50be 1aef a4be 104b 49bd
00000380: fd07 e83d 874c 33be 8a21 163b e4da 3fbd
00000390: 2843 a43b a009 083d 52f7 82be 23c8 71be
000003a0: 85d5 68be 73ef 35be 25dd afbe 5582 0e3e
000003b0: 8d78 a7be 1379 f53d 4061 513d 87d2 77be
000003c0: c27d 34be f766 b4be 7ed7 473d d942 36bd
000003d0: 0fc1 13be 285e babc 98a8 e2bd 52e2 003e
000003e0: e84e 183d c8bb 323a d561 6a3c 741e 82be
000003f0: ec71 4ebe abc8 2bbc 07bb 0f3c cb72 afbd
0.00052097056 -0.058071144 -0.048703074 0.07494387 0.031523895 0.07637334 0.11262804 -0.19531381
0.007069996 0.18054034 -0.029057276 -0.052487213 0.012262772 0.11459359 0.119417176 0.0067278636
0.014039751 -0.025431778 0.013410342 0.17994137 -0.0011559769 0.005471083 -0.0044962745 0.1964515
-0.028240124 0.14109316 0.067209505 0.11445765 -0.027284442 0.12199931 0.19633025 0.08303243
0.015120943 0.062243003 0.024320157 0.18272355 0.12948708 -0.118052214 0.14242594 0.20137885
0.1762394 0.14910991 -0.015663076 -0.003115941 -0.041090325 -0.030927883 -0.041312315 0.015950771
0.08776765 -0.0754202 0.2271743 -0.1287958 0.069284216 0.025064757 0.109278105 0.15830772
0.036979638 -0.07878867 0.2054486 -0.08692377 0.04635067 -0.07774846 -0.08585812 0.13873675
0.030780494 0.075033955 0.18213956 -0.018086592 -0.16791865 0.014092687 -0.05995922 0.036841296
0.090971015 0.026660714 -0.000917848 -0.070921846 0.039073307 0.15701717 0.1767322 0.029261582
0.20992002 -0.07428864 0.013791693 0.12665887 0.14573908 0.058870025 0.011833833 -0.0075942283
-0.017067453 0.14636499 0.019216686 -0.058023114 -0.015914956 0.0170972 0.17162281 0.040291186
0.039290916 -0.0031659226 0.19218758 0.1542487 0.035925902 0.124394275 0.09052709 -0.0009126894
0.024468727 -0.03418838 0.1434077 0.1600583 0.010326999 -0.021549238 0.20097335 -0.105472855
0.14884998 -0.046896584 -0.014701132 0.073631056 -0.011543252 0.1508807 -0.09872219 -0.015523051
0.055521917 0.072268 -0.0071745845 -0.031215552 0.032149486 0.09675749 0.1581262 0.13354497
0.17464341 0.19137365 -0.12527008 -0.0033028931 0.005269886 -0.097356595 -0.06852071 0.15384926
0.13424109 0.061746515 0.008983773 -0.15713684 -0.013059454 -0.21019086 0.040069662 -0.12489616
0.16119078 0.0055365786 -0.20998634 -0.5711107 0.050284162 0.059101056 0.20376879 -0.077497974
0.10108753 0.057899777 -0.08472594 0.013628816 0.0224152 0.063795276 0.1897689 0.09217892
0.03101988 0.04297428 0.015963579 -0.7152924 -0.05591055 0.0066571594 -0.052554436 0.10987632
0.06752794 -0.007888237 -0.16535206 0.08813626 -0.19143812 0.04111617 0.012235736 -0.30577487
-0.114391625 0.05710516 -0.092759445 -0.07658382 -0.022515673 0.17150995 -0.0897556 0.18095458
-0.17485537 0.07417769 0.020445999 0.03538719 -0.09285375 0.042820647 0.09326358 -0.1063568
0.0013591044 0.06033521 0.01818978 0.05708772 -0.008742747 -0.08274528 0.058794487 -0.036802273
-0.13529357 -0.12475295 0.0008595623 0.14629796 0.09737921 -0.1613807 -0.058982667 -0.2952215
-0.18870778 -0.031094344 -0.1854454 -0.22540116 -0.10897966 0.14357112 -0.23884636 -0.13330741
0.11750996 0.018130336 -0.33749646 0.047556125 -0.038221605 -0.2032875 -0.3221367 -0.04914385
0.11329649 -0.17509662 0.0022908174 -0.04683961 0.0050128885 0.033212304 -0.25579315 -0.23611502
-0.22737701 -0.17767124 -0.34348407 0.13916905 -0.3270916 0.11985984 0.051118135 -0.24201404
-0.17626098 -0.35234806 0.048789494 -0.044497345 -0.14429115 -0.022749975 -0.11067313 0.12586334
0.037184626 0.0006818143 0.014305552 -0.2541386 -0.20160645 -0.010484855 0.008772618 -0.08566817

fc_layer.weight f4 [64, 64]
00000000: 455d a8be b409 f0be b194 b4be 134d d33e
00000010: b5af 973e 8969 e7be 68b0 633e 6ae9 cfbe
00000020: 49e5 b83d 55a7 e6be 3ea9 b83e 7199 3c3f
00000030: 743e dd3e a138 793e 3be1 f53e b992 b13e
00000040: f7e9 a8be 47ff 83be f49f d43e aeaa fcbe
00000050: 0f02 3bbf b14c 8cbe 0a12 5bbe 69f5 01bf
00000060: 2c38 fbbe d8f2 b73e 9fab c73e 5fc0 c4be
00000070: 7c22 b73e 543f 28bf 80cb 3cbf a524 80be
00000080: 6c4b f9be 819f 70be 0543 c0be 90da 7ebd
00000090: a43e 0dbf c7de e53e 526d 92be 1f58 343e
000000a0: 6b97 0cbf a1eb c43e 32eb e13d 5299 9ebe
000000b0: 248e e03e bedb a13e b050 a2be 7d16 a83e
000000c0: 9bf9 9dbe 0285 6dbe 782b e83e acf9 90be
000000d0: d605 ca3e 1137 34be 3862 9f3e 8db4 163f
000000e0: 6474 2c3e 33f5 9b3e af3a bebe 3f5b 9fbe
000000f0: f297 8cbe 5167 ab3e a890 c83e 006e a23e
00000100: 75a6 08bd a443 4fbc 2ccc 743d 72b4 d73c
00000110: 39fe cfbd b595 e33a d212 d4bd 0ead babd
00000120: f354 053a c1de 7abd 2eb5 bc3d d674 98bd
00000130: 8b09 10bd 344b 473d 9da0 d43c ec58 c03c
00000140: b54b 0a3c 8a40 4fbc 793e 96bd e383 0d3e
00000150: bbb7 db3d 9619 5cbd 6351 a93d 7890 5a3d
00000160: 1b0a 9ebd e406 8abd 6efe 50bc 08c6 89bd
00000170: 7dbe b1bd 23dd 213c 052e c6bd dee4 8bbd
00000180: fead ec3c 0431 893b a0d5 893d 7b61 c33d
00000190: c906 c23d 5beb 96bd 9127 e53c 6abe 5cbd
000001a0: 4369 323d 3413 05be 351a b73d 42e6 b33d
000001b0: d06b 38bd f164 73bd db9e ea3d 83be 673d
000001c0: 2e2e 093e 415f 7cbd 0b44 cdbd 8229 cabd
000001d0: cb64 01bd f4a8 cc3b 81ad b73d b278 90bd
000001e0: 4fca f7bd b7e4 b2ba d9dc f73c 7961 4c3d
000001f0: f62c 18bd daad e4bd 0bdd febd bb4e ef3d
00000200: 8a2f efbc 987f 92bc 5cdd 903d 79e4 90bd
00000210: 5079 e3bd 134e eebd 121b 23bc 49b6 343d
00000220: 22b9 583d 8519 50bd 3c91 c13b d419 f43a
00000230: 155c 933d d50a a1bd 318b b33d 5416 bfbc
00000240: ad43 723d f568 c8bd 8042 4fbd 5b16 82bd
00000250: 6453 61bd 3dab bdbd c7dc 053d 08a7 023e
00000260: ff41 c73d 9b54 a7bd 8c9b 92bc 4d38 f8bc
00000270: 163f 72bd dfd9 49bd 7f4b 1b3d 20c2 47bd
00000280: 32e0 abbd abed ba3c 8557 f93d f90d c9ba
00000290: 07f6 003e 5738 afbd 0c33 e23d 98b0 08bc
000002a0: 4ddd c13d 7240 a53c ac3e d73c 9a15 d2bd
000002b0: e13d e0bc 5b68 8bbb 30e9 7fbc 94db 9b3d
000002c0: d3c8 2cbd 3da2 37bd 8dac c3bd c475 403d
000002d0: 58e4 c73d 5b9e cd3c bc46 a8bd 3840 373d
000002e0: 05e3 3f3c a152 9b3d eee3 493b 20c6 fa3d
000002f0: 1399 e83d c33d adbd 03e6 bc3d 17c0 3cbd
00000300: 3c5b 16bf daa6 cdbe c644 e6be 1244 ce3e
00000310: c176 e83e af8b fbbe 6306 f33e 9a77 ecbe
00000320: 5503 ea3d 9711 14bf fcf4 8c3e c9d9 1c3f
00000330: 67da a03e 7c31 a13e 6ede bc3e 7727 133f
00000340: e357 e5be 139f 97be 0961 123f 1a7a 0cbf
00000350: 2bcd 23bf e551 d8be 8d0e 70be 14e7 2bbf
00000360: 3be8 fabe e420 e63e 4091 aa3e 20bb e1be
00000370: c794 db3e f60f 22bf e13a 4abf 3afb edbe
00000380: ce8b eabe 6f14 b2be f0b1 09bf e0dc 57be
00000390: ecf9 3fbf 25b1 e63e 01ed 9abe d78e ae3e
000003a0: 4174 d3be 43c3 7f3e ebf3 2a3e 689e 0abf
000003b0: 9f46 883e f2fe 053f 1204 0cbf d6fb 003f
000003c0: aec5 8abe d974 6abe 05ca fd3e 2439 70be
000003d0: 67c4 ee3e 9706 87be 2237 f53e e879 543f
000003e0: e8ad 863e c271 0a3f 0ee0 e1be c379 e3be
000003f0: 80e7 6bbe f979 bb3e 0028 d13e f8e7 cf3e
-0.3288366 -0.46882403 -0.35269693 0.4126974 0.2962624 -0.45197704 0.22235262 -0.40607768
0.09028108 -0.4504954 0.36066622 0.73671633 0.4321171 0.24338008 0.480234 0.34682253
-0.32991 -0.257807 0.41528285 -0.49348968 -0.73050016 -0.2740226 -0.213936 -0.5076509
-0.49066293 0.35927463 0.38998124 -0.38428017 0.35768497 -0.6572163 -0.73748016 -0.25027958
-0.48690355 -0.23498346 -0.37551132 -0.062220156 -0.55173707 0.44896528 -0.2859903 0.1761174
-0.54918545 0.3846102 0.11031188 -0.3097635 0.43858445 0.31612962 -0.31702185 0.32829657
-0.30854496 -0.2319527 0.45345664 -0.28315485 0.39457577 -0.17599131 0.31129622 0.5886925
0.16841274 0.3046051 -0.37154147 -0.31124303 -0.27459675 0.33477262 0.39172864 0.31724548
-0.03336187 -0.012650404 0.059765026 0.02633116 -0.10155911 0.0017363342 -0.10355152 -0.09115039
0.0005086206 -0.06124759 0.09214245 -0.0744416 -0.03516535 0.048655704 0.025955493 0.023479901
0.0084409015 -0.012649665 -0.073361345 0.13819842 0.10728403 -0.05373534 0.082674764 0.053360432
-0.07716771 -0.067395955 -0.012755973 -0.067272246 -0.08678911 0.009879383 -0.09676746 -0.06830762
0.02889156 0.0041867513 0.06730199 0.09540077 0.094739504 -0.07369109 0.027972968 -0.05389253
0.043557417 -0.12995607 0.089405455 0.087841526 -0.045024693 -0.059422437 0.114560805 0.05657817
0.13396522 -0.06161428 -0.10022744 -0.09871198 -0.031590264 0.0062457267 0.0896864 -0.07054271
-0.12099134 -0.0013648485 0.030256676 0.049897645 -0.037152253 -0.11165972 -0.12444504 0.116849385
-0.029197473 -0.017883107 0.07073471 -0.07074828 -0.11107123 -0.11635985 -0.0099551845 0.044119153
0.05291093 -0.050805587 0.005907206 0.001862342 0.07195298 -0.07863394 0.08766783 -0.023326077
0.059146572 -0.09785644 -0.05060053 -0.0635192 -0.055011168 -0.09261177 0.032681253 0.1275903
0.09729385 -0.08170434 -0.017896436 -0.030300284 -0.059142195 -0.049280044 0.037913796 -0.048769116
-0.08392371 0.022818407 0.12174896 -0.0015339247 0.12593852 -0.08555668 0.11044893 -0.0083428845
0.09466038 0.020172331 0.026275001 -0.102580264 -0.027373256 -0.0042543835 -0.015619561 0.076102406
-0.04218371 -0.044832457 -0.09554396 0.04698731 0.0976035 0.025099924 -0.082166165 0.04473898
0.0117118405 0.075841196 0.0030806023 0.122448206 0.113573216 -0.08459046 0.09223559 -0.04608163
-0.5873296 -0.4016636 -0.44974345 0.4028631 0.45403102 -0.49130008 0.4746581 -0.46185
0.11426417 -0.5783934 0.27530658 0.61269814 0.31416628 0.31483066 0.3688845 0.57482094
-0.44793615 -0.29613551 0.57179314 -0.5487381 -0.63984936 -0.4224998 -0.2344305 -0.6714947
-0.49005303 0.4494697 0.33313942 -0.44088078 0.42886946 -0.63305604 -0.7899609 -0.46480733
-0.45809788 -0.34781215 -0.53787136 -0.21080351 -0.74990726 0.45057026 -0.30258945 0.34093353
-0.41299632 0.2497683 0.1669461 -0.5414796 0.2661638 0.5234214 -0.5469371 0.5038427
-0.27103943 -0.22896136 0.4956819 -0.23459297 0.46634218 -0.26372215 0.47893625 0.82998514
0.26304555 0.5407983 -0.44116253 -0.44428834 -0.23037529 0.36616495 0.4085083 0.40606666

fc_layer.bias f4 [64]
00000000: 2fce c43e 9105 2bbd 6676 f0bd 3133 f83e
00000010: 0861 473e 0729 dd3e 5604 cf3e 5bfa 9d3d
00000020: 9e05 103e 2ec2 cf3e af61 f53e fff1 d43e
00000030: 048f 2a3e 8757 f23d 307e 1d3e 5858 b4bd
00000040: 77a4 14bc 0623 a3bd b3ec 3d3e 1f2d 5c3d
00000050: d4b3 d03d bd72 f7bc 3096 f23d e3bf fd3d
00000060: bcbb b73e caff 9c3e e58b b43b 536c b93e
00000070: 1e0f 5f3e 4468 b53e 4599 cb3d 22a5 043e
00000080: 762f ba3e 0131 5f3e 1dea fe3d a86d a33e
00000090: d657 963d 7558 b13e 6904 c73c 69e4 04bd
000000a0: c70d 05be 58c7 bf3e f62d ea3e 9261 b23e
000000b0: b93e b43d 7903 1c3e 0589 e0bd 1066 e33e
000000c0: dcf2 2e3e 2e87 edbd 3e81 db3e 4a18 663e
000000d0: 8df7 873e 61b3 bbbd 77b9 bd3e de9f c13e
000000e0: 43cf a13e 254d ea3e ea30 793d fffa a83e
000000f0: 7947 8a3d 4a28 bd3d 3989 8a3e 2f00 9abe
0.38438556 -0.041753355 -0.11741333 0.48476556 0.19470608 0.43195364 0.40432996 0.07713767
0.14064643 0.40577835 0.4792609 0.41590878 0.16656119 0.11833101 0.15380168 -0.08805913
-0.009072415 -0.079656646 0.18547325 0.05375397 0.101905495 -0.030206079 0.11845052 0.12390115
0.35885417 0.30663902 0.005509841 0.36215457 0.2178311 0.3543111 0.09941343 0.12953618
0.36364335 0.21796037 0.12446997 0.319196 0.07340972 0.346378 0.024294095 -0.03244439
-0.12993537 0.37456775 0.4573819 0.34840065 0.08801026 0.152357 -0.109636344 0.44413805
0.17084831 -0.11598049 0.4287204 0.22470203 0.26556054 -0.09165073 0.3705556 0.3781728
0.3160344 0.45761982 0.060837664 0.33003995 0.067519136 0.092362 0.27057818 -0.30078265

output_layer.weight f4 [1, 64]
00000000: e684 063f 599c a3bc c827 a6bc 2480 dc3e
00000010: ed16 033f 7c25 ef3e 1394 013f 8b37 a8bf
00000020: 329b 8ebf 0c29 f83e 4814 e33e 6f5b 023f
00000030: 0960 043f 1483 79bf a6a6 6ebf cbfb 94bd
00000040: 0d4d a2bf cf4a 4fbd f989 0a3f fea8 92bf
00000050: cafe 88bf 010f 8dbd 9b97 8ebf 0305 61bf
00000060: f575 ee3e 4855 063f 810e 82bf 6292 f53e
00000070: 4afb 90bf 1ac9 69bf 7e9f 81bf 7191 74bf
00000080: 9870 023f 0c7e 67bf fec5 48bf 17e8 e03e
00000090: 4f33 b8bf 54ef 073f 4c9c 7bbf d0d7 94bd
000000a0: e482 543c 464c 063f 36b2 e33e 9901 f03e
000000b0: f40a 7dbf 3706 70bf 266f 1f3d 6c60 e83e
000000c0: 235d 7ebf e875 883d 8927 013f c225 eb3e
000000d0: 0d68 023f 5718 bdbf 3390 eb3e efbf 093f
000000e0: e2ad f73e dd82 e53e d923 443c 82c8 67bf
000000f0: 8c59 8bbf 46cb 93bf 8a60 0c3f 9e0c da3f
0.52546537 -0.019972013 -0.020282641 0.43066514 0.51206857 0.46708286 0.5061657 -1.314195
-1.1141112 0.48468816 0.4435141 0.50920767 0.5170904 -0.97465634 -0.93223035 -0.07274588
-1.2679764 -0.050608452 0.5411678 -1.1457822 -1.0702755 -0.068876274 -1.1140016 -0.8789827
0.4657437 0.5247388 -1.0160676 0.47963244 -1.1326687 -0.9132248 -1.0126798 -0.95534426
0.50953054 -0.9042671 -0.7842711 0.4392707 -1.4390658 0.5309956 -0.98285365 -0.072677255
0.01297066 0.52460134 0.44471902 0.4687622 -0.9884484 -0.93759483 0.03892436 0.45386064
-0.99360865 0.06663114 0.5045095 0.45927244 0.5094002 -1.4773053 0.46008453 0.5380849
0.4837485 0.44826403 0.011971437 -0.90540326 -1.0886703 -1.1546409 0.54834807 1.70351
