TimeGAN4paper/result/iter6000/model/TC_lag1_total1/torch_best_model.pt (torch, 87834 bytes, 7 tensors)

lstm.weight_ih_l0 f4 [256, 1]
000000 62 49 18 3c 25 10 a3 3d 8c dd 81 bc 5d 67 ab bd
       0.00929484 0.07962064 -0.015852712 -0.08369324
000010 24 a9 0f bd 7a ee 94 3d 50 a2 f9 3b 42 e7 ea 3d
       -0.035073414 0.07272048 0.007618226 0.1146989
000020 99 33 0f 3d ee 85 20 3d b1 14 a2 bb aa a3 85 bd
       0.034961317 0.039190225 -0.0049463143 -0.06525357
000030 94 2c 31 be d8 c5 1f bd 3d 89 35 3c 75 81 fe 3c
       -0.17302161 -0.039007038 0.011080083 0.03106759
000040 23 7d 8d 3d 69 54 36 3e f6 b0 55 3c e2 dc fb 3b
       0.069086336 0.17805637 0.013042679 0.0076862434
000050 9d 63 e3 3d 13 a4 fb 3d 74 28 e5 3c 78 6f 70 3e
       0.11102984 0.12287154 0.027973391 0.23480022
000060 93 a2 a7 3d 6b 0a 15 3d 0f 4c 87 3e af 89 d2 bd
       0.081853054 0.03638689 0.26425216 -0.10280167
000070 ea f0 d0 3a 05 f2 8f 3c 79 ca 36 bc 6b b6 00 3e
       0.0015940939 0.017571459 -0.011156672 0.12569587
000080 b2 ea ce bc 8b 1c 51 bc e1 a9 57 bc 1e 7c a2 bd
       -0.025258396 -0.012763153 -0.013163061 -0.0793383
000090 86 0b 43 bd 85 d4 03 3e 25 c3 1e 3e cb b1 cb 3d
       -0.04761841 0.12874039 0.15504129 0.09946021
0000a0 fa 86 87 3d 70 5e 0a bd 6b 24 1b 3d 18 8b ff bd
       0.066175416 -0.03378147 0.037876528 -0.12477702
0000b0 71 50 ae bd 15 84 de bc 81 f1 1f 3e bc a3 32 3e
       -0.08511437 -0.027162591 0.1561947 0.17445272
0000c0 c1 74 bc bc cb 53 1d 3d e6 24 8e 3e 87 bc e2 3d
       -0.023004891 0.03840999 0.27762526 0.11071115
0000d0 29 20 91 3d 4d e9 80 3e ac 0b f7 3d 93 1e 01 bd
       0.07086212 0.25177994 0.12062773 -0.0315233
0000e0 4c 05 b7 3d e1 11 5b bd 37 38 58 bd df d7 1e 3d
       0.08936557 -0.053483848 -0.052787986 0.03878009
0000f0 a9 4d ad 3b 10 53 b6 3d fe d8 d1 3c fa af 53 3d
       0.005288799 0.08902562 0.025616165 0.051681496
000100 19 99 8d 3d f5 e8 2c 3d 42 d6 8e 3d 0e 82 39 3d
       0.06913967 0.042214353 0.0697446 0.045290045
000110 1f 5b e5 3d be 29 e6 3d 12 94 ff bc fb 09 39 bd
       0.111990206 0.112384304 -0.031198535 -0.045175534
000120 4b e5 98 3d 57 cd 35 3e 6a 9a 49 3e e0 0e 92 3d
       0.07465609 0.17754112 0.1968781 0.071317434
000130 f9 c3 6f 3d bb 35 5f 3c 57 72 13 3d 06 f0 d7 bd
       0.058536503 0.01362365 0.035997715 -0.10543828
000140 1d ef 86 bd 02 83 8a bc 39 d4 8e 3d 06 20 17 bd
       -0.06588576 -0.016908173 0.06974072 -0.036895774
000150 11 e0 07 3e 53 91 54 3d 08 c7 d4 3d 86 3c 47 bd
       0.13269068 0.051896404 0.10389525 -0.048641704
000160 6e bf 81 3d ff b0 bb 3c 54 6d 11 3e 9c d8 11 3d
       0.063353404 0.022911547 0.14201862 0.035606965
000170 9e f9 f9 3d 95 80 9a 3d ef 24 15 bd 0d 34 6d bc
       0.12205814 0.07544056 -0.036412176 -0.014477742
000180 27 f1 31 3d 36 1a b1 3d cf 59 87 3c b5 6a a9 3c
       0.04344287 0.086475775 0.016522316 0.020680765
000190 3b 82 3f 3e 7d 65 28 3e ce d0 03 3d 88 a2 5a 3d
       0.18702023 0.16444965 0.032181554 0.053377658
0001a0 6c 4e 45 bd 0d 17 dc 3c 8b 22 e3 bc ac 7f 29 bd
       -0.048170492 0.02686646 -0.027726432 -0.041381523
0001b0 59 da 3a 3d 8f 7e c5 3d 98 a8 87 3d 11 ef ec 3d
       0.04561839 0.0964328 0.066239536 0.11569036
0001c0 c4 69 56 bc 78 cf 16 3e 09 c6 81 3e 74 7d 05 bd
       -0.01308674 0.1472758 0.253464 -0.032590345
0001d0 0f c5 cc 3c 85 73 37 3d 30 b7 a7 3d 34 b3 71 3d
       0.024996309 0.044787902 0.08189237 0.059008792
0001e0 ba 5a 99 3d 4d cd 34 3d 57 d3 ec b8 e6 c5 44 3e
       0.07488008 0.044141103 -0.00011292722 0.19216117
0001f0 84 2c ef bc bf 47 91 3c 59 b9 0f 3e c2 23 44 3d
       -0.029196031 0.017734407 0.14035548 0.047885664
000200 5c ee 36 bd 40 0c 54 be 0c 16 89 bd de b8 3f 3d
       -0.04466091 -0.20707798 -0.06693658 0.046807162
000210 87 9f 75 bd c1 90 82 bc 8a 1e 05 3e e1 22 7a bc
       -0.05996659 -0.015938165 0.12999931 -0.015267105
000220 21 6f 7d 3c ce 2c d0 bc 8d 9b 12 3e e3 05 f9 3d
       0.01546839 -0.02541199 0.1431715 0.12159326
000230 55 12 83 3e cd 4d 43 3e 61 2a 96 3d 2b 27 17 3c
       0.25599924 0.19072647 0.07332302 0.009225647
000240 69 24 bf bd ad 9e 0b be f9 92 1c 3e 0b d8 43 bc
       -0.093331166 -0.13634749 0.1529044 -0.011953364
000250 bc 0a e9 bd e8 f5 96 bd 82 42 f1 bd cd cd fb bd
       -0.113790005 -0.07371122 -0.117802635 -0.12295113
000260 68 52 e7 bd b5 6b 77 3d a7 8c c5 3d 6f 93 14 be
       -0.112950146 0.06040545 0.09645968 -0.14509366
000270 f7 73 0b 3e 7e 02 03 be e8 35 aa bc e8 11 72 bd
       0.13618456 -0.1279392 -0.020777658 -0.059099108
000280 98 63 21 bd 56 ae 47 bd 5b b9 8e be eb 04 95 bd
       -0.03940162 -0.048750244 -0.2787579 -0.07276329
000290 3b b0 c2 bd 12 62 c5 3c ac ff 0f bd 1a c9 a8 3d
       -0.095062695 0.024094615 -0.035155937 0.08241482
0002a0 60 2d fe bd 10 19 e7 bc a2 1b 4c 3e 5e 63 53 bd
       -0.12410998 -0.028210193 0.19932416 -0.051608436
0002b0 c9 26 5a 3d 06 b2 7b 3c 4b 4b 26 be 0e 08 f6 3d
       0.053259645 0.015362268 -0.1623966 0.12013255
0002c0 fd a5 94 bc 4d f0 59 bd 76 a8 c6 3d 98 d8 01 be
       -0.018145556 -0.053207684 0.097001 -0.1268028
0002d0 85 ca 49 3c 54 29 d9 bc 03 85 01 3e c8 b4 f4 3c
       0.012316351 -0.026508965 0.12648396 0.02987136
0002e0 04 8e 0d 3e 45 2a 2b 3d ee bc d6 bc a3 1e a3 bd
       0.13823706 0.04178836 -0.026213136 -0.07964828
0002f0 de 4a 53 3d a6 16 22 3d 93 50 00 3e 68 3e e5 3d
       0.05158507 0.03957238 0.12530737 0.11193544
000300 7a cb da bc 6e b7 de 3c 53 ee af 3a 51 a7 6c bc
       -0.026708353 0.027187075 0.0013422467 -0.014444188
000310 e1 7e e0 bd c5 07 c9 3d 81 95 95 bc c3 34 6f 3d
       -0.109617 0.09815935 -0.018259766 0.058399927
000320 69 0b 5a 3d 4a de 04 3e b8 f7 8f 3b c8 f9 31 bd
       0.053233538 0.12975422 0.004393544 -0.0434511
000330 26 d8 a2 ba 27 ab 43 3e 50 23 19 3c 42 f9 f3 3d
       -0.0012424036 0.19108258 0.009346798 0.119127765
000340 11 22 98 3d 9c 50 89 3d a7 b8 64 3d b4 57 88 3d
       0.07428373 0.06704828 0.05584016 0.06657353
000350 a3 7d 71 3d 9b d9 41 3d 60 cd 62 3d 6f 0f 5e bd
       0.058957707 0.047326665 0.055371642 -0.054213937
000360 ce 75 98 bc e8 13 c6 3a 1b b9 94 3e bd c3 59 bb
       -0.018610861 0.0015112134 0.29047474 -0.0033228241
000370 4e 64 9b 3d 7e 0f 64 3e 0b 3e 01 3e 49 9b 62 3d
       0.07587491 0.22271535 0.12621324 0.055323873
000380 b2 64 90 bd 67 61 16 3e 94 eb 7b bc 83 73 31 3d
       -0.07050456 0.14685594 -0.01537599 0.04332305
000390 ae 1a 03 3d 37 6f a3 3d 27 8a 07 bc 1a a8 53 3e
       0.032007866 0.07980197 -0.008272684 0.20669594
0003a0 87 11 48 3d f0 1d 64 3e ea db 42 3e 01 6e 73 3d
       0.04884484 0.22277045 0.19029203 0.05943108
0003b0 2a 3d ba 3d cb 7b fa bc 26 94 65 3c ad 47 82 3d
       0.09093697 -0.030576607 0.014012372 0.06361327
0003c0 2f 9f c4 3d 37 dc 5b 3e a3 00 0e 3d a9 d5 66 3d
       0.09600674 0.21470724 0.034668576 0.056356106
0003d0 a2 6d 65 3e cb 86 2e bd af f4 df 3d 9d c6 23 bd
       0.22405103 -0.042609017 0.109353416 -0.039984334
0003e0 3b 85 5c 3d d2 71 08 3d e3 9a 5d bc 4c d7 64 3d
       0.053837996 0.033311673 -0.013525697 0.055869386
0003f0 96 9f 3e 3e 77 e8 ca 3c 75 3b c7 3d be 9b a5 3d
       0.18615565 0.024769051 0.097281374 0.08086346

lstm.weight_hh_l0 f4 [256, 64]
000000 25 92 36 be e9 d7 87 3d 8b 0c 00 be 7c 7e 99 bd
       -0.17829187 0.066329785 -0.12504785 -0.07494828
000010 90 c4 34 bc c2 52 9b 3c 80 f3 69 3a 30 c6 a6 3d
       -0.011033192 0.01896036 0.0008924529 0.0814327
000020 3a 97 c9 3d 92 93 ae bd b5 0c fa ba 5e 18 27 3d
       0.09843297 -0.085242406 -0.0019077273 0.040794723
000030 e8 17 8d 3d 52 fc 95 bc 35 5b 91 bc fd 2d a9 bc
       0.068893254 -0.018308792 -0.017743686 -0.020651812
000040 d7 57 21 be 31 24 ff 3c 57 78 eb bd 76 67 2b be
       -0.15756164 0.031145187 -0.114975624 -0.16738686
000050 1c 05 d0 3d e4 6e 18 bd ed 51 b8 ba b1 ef b2 3d
       0.101572245 -0.03721513 -0.0014062502 0.08737124
000060 fa 1b e0 3c 13 35 1e bd 88 d9 95 bd f2 74 60 3e
       0.02735709 -0.038624834 -0.073168814 0.21919611
000070 f2 e5 81 ba c3 fb 44 3e 64 41 b2 bd 1d 34 8e bb
       -0.0009910448 0.19236664 -0.087038785 -0.0043397085
000080 b5 a5 94 bd e4 07 79 bd 48 9e 70 bd a6 80 a7 bb
       -0.072581686 -0.06079854 -0.0587447 -0.0051117716
000090 1e a0 06 bd a5 9e 3f bd 49 00 ec bd de 85 9c bc
       -0.032867543 -0.046782155 -0.11523492 -0.019106802
0000a0 09 cd 2f 3e 50 4f 08 be 74 42 fd 3d 44 98 b2 bd
       0.17168058 -0.13311505 0.123661906 -0.087204486
0000b0 a5 69 d1 bc 57 44 90 3d 8d b1 5c bd f6 d2 b1 3c
       -0.02556307 0.07044285 -0.053880263 0.02170704
0000c0 3c 80 cb bc 3c e4 4c be fd db 42 3d 03 ba b7 3c
       -0.02484142 -0.2000894 0.04757308 0.022427564
0000d0 e3 bc c4 3d fb 47 ae 3c 3a 0c 0b be d3 d4 8f bd
       0.0960634 0.021274557 -0.13578883 -0.07023015
0000e0 4b fa 66 3b 3d 88 53 3c 75 a0 25 bc b6 fb ac 3d
       0.00352444 0.0129109 -0.010109057 0.084464476
0000f0 9d f5 c4 bd b1 19 42 3d 6a 72 49 3d a4 98 9d bc
       -0.096171595 0.047387782 0.04918138 -0.019237824
000100 7d f9 26 be 0d 69 04 bd 06 32 52 be ce 25 46 3d
       -0.1630611 -0.032326747 -0.20526895 0.048375897
000110 b6 55 61 3e 85 b1 56 3c 9b 95 90 3e 5b e1 89 be
       0.22005352 0.013103847 0.2823914 -0.26929745
000120 d4 c3 68 3e c6 62 5d be 47 e2 20 bd 53 b8 20 bd
       0.22730953 -0.2161971 -0.039278295 -0.039238285
000130 eb fb f2 3d 65 c9 19 3e 88 31 10 3e 84 a3 79 3c
       0.11864456 0.15018232 0.14081395 0.015236739
000140 0f 96 88 bd 34 fc 01 be 6c 1c 5f 3e e2 d1 43 bd
       -0.066692464 -0.12693864 0.21788186 -0.04780758
000150 17 ef a2 bd b4 b7 3f 3d 79 a6 25 3e 3e ab 91 bd
       -0.07955759 0.046806052 0.16176786 -0.0711274
000160 15 41 38 bd ad cb 84 3e 60 0d 2b 3e b2 b7 55 3e
       -0.044983942 0.25936642 0.16704321 0.20870855
000170 31 2f 02 be 81 f4 8c bd c0 ee 2e be 3c 49 9d bd
       -0.12713315 -0.06882573 -0.17083263 -0.07679984
000180 e4 1a 48 be 72 8a 1c be f1 3b 37 3d f7 e0 c6 bd
       -0.19541508 -0.15287188 0.0447349 -0.097108774
000190 98 f8 19 be c1 e3 86 bd b2 fe 88 be 62 93 a8 3d
       -0.15036237 -0.06586409 -0.26756817 0.08231236
0001a0 2a 7c d5 bd 07 ca 83 be 09 75 cd 3c d8 a8 92 bd
       -0.10424073 -0.25740072 0.02508022 -0.07161111
0001b0 e9 f5 5b 3e 1d bd 8a 3e 38 7f ab 3d 12 64 85 ba
       0.21480526 0.27097407 0.083738744 -0.0010176918
0001c0 76 e9 7a be bf 11 5a be fc 86 fc 3d dd f8 a5 bd
       -0.24503121 -0.21295832 0.12330434 -0.081041075
0001d0 19 59 1e 3d 2e a2 e8 3d 29 cf c2 bd 3c 19 50 be
       0.03865919 0.11359058 -0.09512169 -0.20322126
0001e0 0b 0a 9c 3c 2f 75 5b 3e 83 49 e0 bd ed 46 43 bc
       0.019047758 0.2143142 -0.10951521 -0.0119187655
0001f0 a2 be c4 3c fb 63 f2 3d 15 a8 d4 bd fb ec e0 b9
       0.024016682 0.11835476 -0.103836216 -0.00042901174
000200 13 d3 9f bd 06 7a a5 3d 04 c0 aa bb 59 0e aa 3d
       -0.07803931 0.08079915 -0.0052108783 0.08303518
000210 c1 68 8e 3d 05 01 06 bc 81 4b 13 3e 54 45 1c be
       0.06953574 -0.008178954 0.14384271 -0.15260822
000220 45 f3 44 3d a5 1e 39 be fb 29 35 bd a0 01 0c 3e
       0.048083562 -0.18078096 -0.04422949 0.13672495
000230 cc c2 b5 3d ad 0e 5c 3c 7d 2b 59 3d a0 4f 8f bc
       0.08875045 0.013431233 0.05301999 -0.017494023
000240 15 c3 d1 bc f5 8c 7b bd bf 66 0c bc 9e e1 b9 3c
       -0.025605718 -0.061413724 -0.008569418 0.02269059
000250 c5 d0 8f 3c 1d d4 50 3c 46 da d2 3d 68 4f 14 bd
       0.017555604 0.012745884 0.102955386 -0.03620854
000260 65 e6 f6 bd 6e 94 38 3e fe eb 01 3d 96 bb 18 3e
       -0.12055663 0.18025371 0.0317192 0.14915308
000270 b4 05 07 3e 3b d8 95 bd b2 14 2a be 81 87 0d be
       0.1318577 -0.07316633 -0.16609457 -0.13821222
000280 73 41 28 be 8b dd 1b be 09 f6 ba 3c 14 8f df bb
       -0.16431217 -0.1522123 0.022822397 -0.006822476
000290 36 6e a8 bd 61 43 37 be 27 db 05 be bc 1f 99 3d
       -0.08224146 -0.17896797 -0.13071881 0.07476756
0002a0 cf d3 3b 3d 59 51 39 be 63 9b a4 3d 23 8e 74 be
       0.045856293 -0.18097438 0.0803745 -0.23882346
0002b0 84 f9 5c 3d c0 a2 3e 3e dd 95 b1 bd 51 66 c8 3d
       0.053948894 0.18616772 -0.08671162 0.0978514
0002c0 d5 36 ff ba bc 9b d6 bd ff 81 07 bc 77 4a 13 be
       -0.0019471297 -0.10478923 -0.00827074 -0.14383875
0002d0 13 b1 ef 3d c1 7d ce 3d 29 d5 d6 3d ab f0 5a be
       0.11703696 0.100825794 0.10489876 -0.2138087
0002e0 41 c9 63 be 5e bc d7 bc 06 b3 1f be 95 35 4b bd
       -0.22244741 -0.026334938 -0.15595636 -0.049611647
0002f0 15 3b 32 be 78 a8 5b 3e 18 9f 00 3c b6 43 9e 3c
       -0.1740535 0.21450984 0.007850431 0.019319396
000300 5d 29 fa bd 94 82 e2 bd e1 cf d8 bc 11 df 19 3e
       -0.12214921 -0.11060062 -0.026466312 0.150265
000310 9f e0 76 3e 9b 2d 2b bd 3c 9d a7 3d 96 70 b3 3d
       0.24109124 -0.04179154 0.08184287 0.087617084
000320 c7 19 d7 3d 01 b8 4b bd 6e 5b 79 bb 88 3d 0c 3d
       0.105029635 -0.049736027 -0.003804888 0.03423837
000330 30 f4 10 be cd cb ba bd e0 58 e2 3d 03 97 5f be
       -0.1415565 -0.09120903 0.11052108 -0.2183495
000340 3f 4b a2 bd b9 83 01 3d 2f 5b de 3c b1 f6 48 be
       -0.07924508 0.03161976 0.02714309 -0.19625355
000350 4d c3 d9 bd 6b aa 17 be fb 0a 20 3d 71 4a 02 3e
       -0.10632954 -0.14811103 0.03907297 0.1272371
000360 87 e5 53 3e fe f3 dc 3d 8d 2d f7 3d 63 3c 96 bd
       0.20693026 0.10788725 0.12069235 -0.073357366
000370 61 7f 95 bd b4 dc 27 3c 75 d9 31 be 08 da 2d bd
       -0.07299686 0.010245491 -0.1736811 -0.04244426
000380 d6 08 37 be 83 5f 08 be 80 3a 08 be 1a 94 6b bd
       -0.17874464 -0.13317685 -0.13303566 -0.057514288
000390 94 0a e5 bd 5d 9e 87 bc f4 52 2c be 4d 0b 2f 3e
       -0.11183658 -0.016555006 -0.16828519 0.17094155
0003a0 cb 32 86 3b aa f2 f1 bd 9b 35 e4 3c 53 41 f1 bd
       0.0040954105 -0.118138626 0.027857592 -0.11780038
0003b0 19 e9 35 3e cc ab 66 3d 2f 51 96 3d 85 13 b0 3c
       0.17764701 0.056316182 0.07339703 0.021493683
0003c0 a7 b7 53 be 38 34 22 be 25 26 6c 3e 3d 84 cd 3c
       -0.20675527 -0.15840232 0.23061426 0.02508747
0003d0 74 76 30 bc d5 c2 96 3e 94 6f f0 3d 15 86 6c bd
       -0.010770429 0.2944552 0.11740032 -0.057745058
0003e0 ce 9a 3d bc ae 3f 83 3d 4b 24 72 bd 58 67 90 bc
       -0.011572553 0.0640863 -0.059116643 -0.017627403
0003f0 8d 04 03 be 90 57 22 3e 99 f7 b7 3b 96 62 af 3d
       -0.12794705 0.15853715 0.0056142327 0.08563726

lstm.bias_ih_l0 f4 [256]
000000 1b 46 18 3e 79 46 31 3e 5b fb 88 3d f9 bb 3c 3e
       0.14870493 0.1731204 0.06688567 0.18431081
000010 66 32 1d 3e 26 71 af 3b fb 81 9b bd a6 13 e3 bc
       0.15351257 0.0053540645 -0.07593151 -0.02771933
000020 11 18 d8 bc d0 b3 4b bd 93 b1 84 3c 1c 01 64 3d
       -0.026378663 -0.04973203 0.016197955 0.05566512
000030 58 01 80 bc 14 1d 3c 3e b7 14 0a 3e 52 eb 31 3e
       -0.01562564 0.18370467 0.13484465 0.17374924
000040 ff 2c bb 3d 1d d3 1a 3e cc 42 21 3d 8d c6 80 3d
       0.09139442 0.15119596 0.039370343 0.062878706
000050 c4 45 4b 3e f8 43 47 3e 6a 79 ef 3d af a9 11 3e
       0.19850832 0.19459522 0.1169308 0.14224885
000060 6d 10 1d 3e 74 ad 13 3d a0 97 52 3e 5b 6b a3 bb
       0.15338297 0.03605409 0.20565653 -0.004987163
000070 49 fe 37 3d fb f4 27 3d d0 7a 71 3d 84 f9 98 bd
       0.04492024 0.041005116 0.058955014 -0.07469466
000080 7e 89 09 bd ee 93 15 3e 87 31 a6 3d 05 81 cf 3d
       -0.03357839 0.14607212 0.08114915 0.101320304
000090 28 a0 b5 3d 72 5f f5 3d c7 57 ff 3d f5 89 02 3e
       0.08868438 0.119810954 0.12467914 0.12747939
0000a0 c4 fe 3d 3d ea c4 7c 3c cf a0 ad bc 3e fd ed 3d
       0.04638554 0.015427807 -0.021194844 0.11620568
0000b0 aa b4 33 3e a0 07 38 3e 5d 71 03 3d e7 5f 1b 3e
       0.17549387 0.17971659 0.032090534 0.15173303
0000c0 3c f2 13 bd 23 69 89 bd 83 63 3d 3e 23 15 bc 3d
       -0.036119685 -0.06709506 0.18494992 0.09183719
0000d0 0b 7c 23 bd 4c a8 89 3d 1b f6 52 3e 4e 6c 62 3d
       -0.03991322 0.06721553 0.20601694 0.05527907
0000e0 3c 5b d7 3d 51 38 ae 3d 9f b3 c2 3d ea 39 cf 3d
       0.105154485 0.08506835 0.09506916 0.10118468
0000f0 a9 f0 95 3d f8 56 e2 3c e6 33 2e 3e 74 8e b3 bd
       0.07321293 0.02762936 0.17011985 -0.08767405
000100 d5 46 c7 3d f7 44 d8 bd 6c 39 3f 3c c7 33 f5 3d
       0.09730307 -0.10560029 0.011671405 0.11972766
000110 a7 2c 8b 3b 79 cd 5d bc c8 f8 fb 3c da 3f 83 3b
       0.0042472663 -0.013537758 0.030758277 0.0040054144
000120 8f bc b5 3c 41 5e 36 bd 4f d5 9b bd 71 c3 3e bd
       0.022184638 -0.04452348 -0.07609045 -0.046573106
000130 05 72 4a bd aa 9c c1 3d f3 72 90 3d 69 4f 74 3d
       -0.049425144 0.094537094 0.07053175 0.059646044
000140 6c 35 88 3d a2 82 7d 3a 49 a6 84 3d 68 ef b7 3d
       0.066508144 0.000967065 0.06477029 0.0898121
000150 b6 de 02 3d a4 a1 6e 3d 4f 05 fa 3b ce 90 e5 3d
       0.031950675 0.05825962 0.0076300274 0.1120926
000160 a4 bc 4a 3e 53 11 73 3d 77 ff 09 3c eb 68 f5 3c
       0.19798523 0.059342694 0.008422724 0.029957255
000170 2c 60 a2 3d 72 91 d9 3d d7 74 ba 3d 0e fb 96 bc
       0.079284996 0.106234446 0.09104317 -0.01843026
000180 6b b0 04 bd 5d f3 60 3d db 0a 1e 3e f9 49 f8 bb
       -0.032394808 0.05491959 0.15433829 -0.0075771776
000190 e0 94 bf 3d 35 0b 5a 3d 94 0e 15 3e bf df ef 3d
       0.093545675 0.053233344 0.14556342 0.11712598
0001a0 02 14 bc 3d 13 1f f3 3d a4 fc ce 3d 36 3b 86 3d
       0.09183504 0.11871161 0.10106781 0.06554262
0001b0 78 5f 39 3e af a0 2b bb 08 e8 d1 3c bb 6d f9 bd
       0.18102825 -0.0026188304 0.025623336 -0.121791326
0001c0 78 e0 eb bc fc cc 99 bd c0 6a 2b ba 59 5d 9f 3d
       -0.028793558 -0.07509801 -0.00065390393 0.077814765
0001d0 9c 1e 5b 3d cd 9a b4 3a 20 ff a0 bd 5f a0 72 3d
       0.05349599 0.0013779044 -0.07861161 0.059234973
0001e0 d6 e3 62 bd 9a 24 26 3d 85 24 20 3e fc d0 76 3d
       -0.055393063 0.04056225 0.15638931 0.060257897
0001f0 30 2c 03 3e 84 1c b4 3c a1 ac c5 bc 46 49 c1 bc
       0.12809825 0.021986254 -0.024130167 -0.02359451
000200 c0 44 20 bd a4 f1 88 bd 13 dc 81 bd 43 15 be bc
       -0.039128065 -0.06686714 -0.06340804 -0.023203498
000210 d9 cb 30 3e d7 a7 b9 bc eb 89 cf 3d 7a eb b9 bd
       0.17265262 -0.02266304 0.10133728 -0.09078117
000220 fe a7 9b 3d 11 eb 00 be 6a 7d 98 bc c6 9a f8 bc
       0.07600401 -0.1258967 -0.01861449 -0.03034724
000230 16 8f 13 be 9b a0 bd bd 66 db 8f bd f9 bb a2 bd
       -0.14410052 -0.09259149 -0.07024269 -0.07946009
000240 20 11 db bd c8 d2 e7 bd 64 95 8d 3c 11 86 0b 3c
       -0.10696626 -0.113195 0.017283149 0.008515851
000250 1e c9 da 3b da 32 91 3d 17 17 89 3a 64 dc e7 3d
       0.006676807 0.07089777 0.0010459152 0.11321333
000260 48 a9 1c 3d f4 c3 ab 3d 1a 20 ed 3b 14 70 a4 bd
       0.038247377 0.083869845 0.007236493 -0.0802919
000270 de 56 21 bd 4e 90 3a 3c 69 2e f4 bd f6 26 8e 3c
       -0.039389484 0.011386944 -0.119229145 0.017352562
000280 48 20 fa bd 72 b2 ef bc f5 31 7a bc 0a f9 31 be
       -0.122131884 -0.029259894 -0.0152707 -0.17380157
000290 9e b7 92 3d b6 df 1e be a3 af 70 3d bd d7 6f bd
       0.071639284 -0.15515026 0.05876125 -0.058555353
0002a0 85 c5 b6 3d 87 8b bd 3d ff 48 08 bc df ee 1d bd
       0.089243926 0.09255128 -0.008318185 -0.038557883
0002b0 c0 c6 f3 3d 34 38 10 3e 5b 7c a3 3c 0b 52 cc bc
       0.11903143 0.1408394 0.019956758 -0.024941465
0002c0 00 ce 9a 3d 7f e4 c8 3d f2 af 66 bc 29 a0 9f bd
       0.07558823 0.09809207 -0.014080035 -0.0779422
0002d0 12 4a 04 3e 9a ba 6d bd df cb 4d bd 75 ec 05 be
       0.1291888 -0.058039285 -0.050243255 -0.13078482
0002e0 ff a5 3c 3c 0b 16 1c bd d3 73 4e 3d c9 4f 8f 3d
       0.011514186 -0.03810696 0.050403427 0.0699764
0002f0 7f 0f f4 bd 55 42 2f 3d 60 28 c9 3d aa 10 4b bd
       -0.11917018 0.04278787 0.09822154 -0.04957644
000300 9a 5a 24 3e ce 3c 7f 3d 5a 28 35 3e 60 d0 29 3e
       0.16050187 0.062313847 0.17691174 0.16583395
000310 03 bd 0c 3b 72 b4 32 bd a2 39 12 3e 49 10 28 3d
       0.0021474964 -0.043629117 0.14279798 0.041031156
000320 45 6f 9a 3d 18 c1 9f 3d 26 a1 32 bc 39 bf 85 3d
       0.07540754 0.078005016 -0.010902679 0.065306135
000330 30 19 34 3e d6 cd 58 3d 9e cb c1 bc 88 db 3c 3e
       0.17587733 0.052930675 -0.023656663 0.1844312
000340 bb f3 2b 3e 85 f0 f3 3d 84 b1 09 3d 7f 32 e8 3d
       0.16792195 0.1191111 0.033616558 0.11337756
000350 70 d4 c7 3d 9f 35 8e 3b 10 ec a4 bc c5 e3 61 3d
       0.09757316 0.004339888 -0.020132095 0.05514886
000360 9e 20 58 3e b2 f0 c3 3d b1 ee 6f 3d d8 cd 64 3e
       0.21106192 0.09567393 0.058577243 0.22344148
000370 50 26 b7 bc 52 03 8c 3c ba 32 96 3d da 49 1f 3e
       -0.022357136 0.017091427 0.07333894 0.15555516
000380 3c fc a0 3d a8 9a 88 3d 23 d2 b1 bc 58 1c 30 bd
       0.0786061 0.06670123 -0.021706646 -0.04299578
000390 b4 bd da 3d 48 fe 9d 3d 3e 48 1b 3e 6c 28 b9 3d
       0.10680714 0.07714516 0.15164277 0.09040913
0003a0 b6 49 41 3e 56 f2 83 ba 4d d0 00 3d 36 dd ba 3d
       0.18875775 -0.0010066729 0.03144865 0.09124224
0003b0 7e 74 25 3c 1c 34 bb 3d c9 ab c6 bc 80 eb b0 3d
       0.010098575 0.091407984 -0.024251835 0.08638668
0003c0 60 14 78 3d 73 c9 ab 3d f9 ca 54 3e 3b 93 cd 3d
       0.060566306 0.08388033 0.20780553 0.100378476
0003d0 ef a2 84 3d 3c 3e dc 3c 44 b9 00 3d db 9f 49 3d
       0.064763896 0.026885144 0.031426683 0.049224716
0003e0 e8 80 02 bd 8a f7 09 3e f9 b1 44 3e 4e 7e 2f 3e
       -0.031861216 0.13473335 0.19208516 0.17138025
0003f0 03 f6 01 3e 16 46 59 3a f0 0e 8c 3c 30 62 05 3d
       0.12691502 0.00082883367 0.017096967 0.032564342

lstm.bias_hh_l0 f4 [256]
000000 65 a4 ec bc 24 36 07 3c ae 03 f6 bc 03 c8 bf 3d
       -0.028886983 0.008252654 -0.030031051 0.09364321
000010 ec 4a e8 bc 89 c5 52 bd cf 26 10 3e b5 df fe bc
       -0.028356038 -0.051457915 0.14077304 -0.031112531
000020 d3 5b 58 bc 40 c6 e9 3d 15 e0 a0 bb 76 c2 0f 3e
       -0.013205486 0.11414766 -0.004909525 0.14039025
000030 0f c3 49 bc c2 20 d5 3d 13 b6 91 3d 4e 8e d0 3c
       -0.012314572 0.10406639 0.07114806 0.025458481
000040 c7 bc 63 bd bd 06 02 3e 30 61 fa 3d e9 b8 29 3e
       -0.055599954 0.12697883 0.12225568 0.16574444
000050 06 8c 97 3d 29 ca 86 3e 5c d5 a6 3b eb 83 cf bc
       0.07399754 0.2632611 0.0050913524 -0.025331458
000060 98 63 0e 3e 11 80 18 3e d6 0a 50 3e ec 14 2c 3e
       0.1390518 0.14892603 0.20316634 0.16804856
000070 a8 b2 0c bc fe 0e c7 3c c6 a1 02 3e 80 84 03 3e
       -0.008587517 0.024299141 0.12757024 0.12843513
000080 01 8e e3 3d 60 c0 9d 3d cc 23 98 3d 2b e3 18 3e
       0.111110695 0.07702708 0.07428703 0.14930408
000090 45 52 aa 3d 83 f4 1a bd 5e 93 2d 3e d1 bf 9a 3d
       0.08316473 -0.03783084 0.16950747 0.07556117
0000a0 e1 a6 40 3e f0 ce e0 3d 58 54 37 3d 3e 29 80 bd
       0.18813659 0.1097697 0.04475817 -0.06257866
0000b0 0a 20 8a bd e2 e5 ba 3b 3c 82 21 3e ea 05 e3 3d
       -0.06744392 0.0057036737 0.15772337 0.110851124
0000c0 d3 2a 47 3d ac 34 43 bd b1 1c 18 3e fe 1a e3 3a
       0.048624825 -0.047657654 0.14854695 0.001732677
0000d0 c2 1a 06 3e 59 a4 7a bd 37 42 bf 3d 5d b4 fb 3d
       0.13096145 -0.06119189 0.09338801 0.12290261
0000e0 c4 42 f6 3d ab 46 c4 bd 06 1c 0e 3e 1e ed c2 bb
       0.12024453 -0.09583791 0.13877878 -0.0059486767
0000f0 a2 b8 7d bd cc da 40 bb b8 7d e6 ba 4b 3a 81 3d
       -0.061943658 -0.0029427288 -0.0017585075 0.063099466
000100 ae fd 0c 3e c1 f4 d6 3d bc 05 a6 3d 10 3d a8 3c
       0.13768646 0.10495902 0.081065625 0.02053693
000110 08 3f c5 3d e7 33 7d 3d 5c 22 53 bd 8a 8b 78 3d
       0.09631163 0.061817076 -0.05154644 0.06067995
000120 55 a5 94 3d 63 ab 01 3e 48 6c b5 3d 39 19 6e bd
       0.07258097 0.12663035 0.08858544 -0.058129523
000130 b5 f0 3f bc fe b8 14 3e 4e 91 2a 3e e9 cb 52 bc
       -0.011715104 0.14523694 0.16656992 -0.012865999
000140 19 4a 39 3e 47 69 09 bd 17 d2 57 bd 5a 4f 98 3d
       0.18094672 -0.033547666 -0.05269059 0.0743701
000150 14 fa a9 3d 63 52 41 bd 1a ab 36 bc 72 70 4f 3c
       0.08299652 -0.04719771 -0.011149192 0.012661086
000160 19 c7 cb 3d 39 73 32 3e 48 c7 85 bd 59 1e a8 3b
       0.09950084 0.17426766 -0.065321505 0.005130571
000170 df e6 32 3d d2 5c ef 3d 26 26 80 3d 85 3c 95 3c
       0.043677207 0.11687626 0.06257276 0.018217335
000180 64 93 3b 3d d9 17 8e 3d 40 7a 27 3e e2 24 f0 3d
       0.04579486 0.06938142 0.16355228 0.11725785
000190 80 4c 6b 3d 6a 30 df 3d a7 f7 fb 3d 09 05 b3 3d
       0.057446003 0.10897906 0.12303095 0.08741195
0001a0 1a 72 13 bd 50 0c 28 bc 34 28 bf 3d a4 d4 c4 3d
       -0.035997488 -0.010256842 0.0933384 0.096108705
0001b0 29 3b 52 ba 90 f6 1e 3c 13 d9 af 3d 67 74 06 bd
       -0.000801968 0.00970234 0.085863255 -0.032825854
0001c0 9c a3 11 3e 61 1f a1 3d 3f 6d e1 3c 01 8d e7 3c
       0.14222568 0.07867313 0.027517913 0.028265478
0001d0 13 a0 df 3b 36 fb ab 3d 66 6d ad bd f9 03 ef 3a
       0.0068245023 0.08397524 -0.08468132 0.0018235437
0001e0 cf 0b a9 bd 0f f6 3a 3d db fc 6a bc e5 f9 81 bd
       -0.082542054 0.045644816 -0.014342512 -0.06346492
0001f0 fa 81 54 3d 4d 0a fb 3d cf c2 26 3e 63 93 f3 3d
       0.051881768 0.12257824 0.16285251 0.11893346
000200 56 e3 0f bd c2 5c f6 3d c1 8a 9e bd a9 4f 4b 3d
       -0.035128914 0.12029411 -0.07741309 0.049636517
000210 da dd bc 3d f7 65 04 be 1f af a1 3d 2c 9c ad 3d
       0.09222002 -0.12929522 0.0789473 0.08477053
000220 01 6d df 3d 11 92 96 3d 74 db be 3d 87 fd 61 bd
       0.10909463 0.07352079 0.09319201 -0.055173423
000230 d1 7e 7f 3d 62 27 3e bd 30 cc 45 3d fd 87 2f be
       0.0623768 -0.046424277 0.04829043 -0.17141719
000240 0c d8 a3 bd 90 56 62 bd c7 29 82 bd 2a 19 0e be
       -0.08000192 -0.055258334 -0.06355625 -0.13876787
000250 da 93 d3 bc 72 ff cf bd b5 bd 87 bd fc 2b d1 bd
       -0.025827337 -0.10156144 -0.066279806 -0.102134675
000260 92 db 03 3e 43 29 3c 3e 99 d3 97 bb f5 7f 21 3d
       0.12876728 0.18375115 -0.0046333787 0.03942867
000270 5b 00 18 3d a2 90 c2 bd 73 da 8d bd d1 8f e8 3c
       0.037109714 -0.09500243 -0.069264315 0.02838889
000280 8b 34 af bc 8a 6f a7 bc 41 d3 82 bc 4d 53 f3 bc
       -0.02138736 -0.020438928 -0.015969874 -0.029702807
000290 8a 40 dc bd 7b bf 33 bd dd 6f a5 bd 00 d5 01 3e
       -0.10754497 -0.043883782 -0.08077977 0.1267891
0002a0 db 0e 98 3b c1 76 cb bd 69 4b 7d bd 9d 5d 27 bd
       0.004640443 -0.0993476 -0.061839495 -0.04086076
0002b0 01 df 06 3e dc 0c 14 3e 4a 58 51 bc a9 7a 73 bd
       0.13171007 0.1445803 -0.012777397 -0.05944315
0002c0 a5 a6 1f be 16 9c 4e bb c9 c8 c9 3d d8 4d 05 be
       -0.15590914 -0.003152614 0.0985275 -0.13017976
0002d0 fc 45 04 3d 6c a4 c2 3d 4e 96 05 3e bf bf 0a be
       0.032293305 0.09504017 0.13045618 -0.13549708
0002e0 4a 3b d8 bd ec 84 0e 3e a8 53 bf bd 3e 73 8a 3c
       -0.105581835 0.13917893 -0.09342128 0.016900655
0002f0 70 66 42 be 2d 2a 19 3e 75 b4 dc 3b ba c3 14 bc
       -0.1898439 0.14957495 0.0067353793 -0.009079868
000300 bf e2 9c 3c 10 bd fe 3d 82 c8 16 3d ba 29 40 3d
       0.01915109 0.124384046 0.036812313 0.046914794
000310 ec ab 48 3c 0e 74 17 3e b5 02 bb 3d 42 01 a8 3d
       0.012248021 0.14790365 0.09131376 0.08203365
000320 4f fc b7 3d 2c cc 0d 3e ff d8 6f bc 36 9f 1d 3e
       0.08983671 0.13847417 -0.014639138 0.15392765
000330 00 56 16 3e 5f 63 ec 3d eb 55 1e 3d c6 92 56 3a
       0.14681244 0.11542391 0.038656157 0.0008185323
000340 15 83 5a 3d 09 23 57 3e de 5b 10 3d 54 a7 35 bd
       0.053347666 0.21009459 0.03524386 -0.04434903
000350 5e 83 fe 3c fb 60 04 3e de 90 ec bc 01 e5 c5 3d
       0.0310685 0.1292762 -0.028877672 0.0966282
000360 a3 b5 ef 3d 37 27 48 3d cf d0 37 bd 7a fc f7 3d
       0.11704566 0.048865523 -0.04487687 0.12108703
000370 fd 6e 51 3c f0 92 d4 3d 19 8c 95 bd 3c 85 95 3d
       0.012782809 0.103795886 -0.07302112 0.07300803
000380 c0 ec 93 3d 75 16 fe 3d 57 7a 8c 3c 2a d4 13 3e
       0.07222891 0.12406627 0.01714818 0.14436403
000390 af 85 9f 3d 94 be f0 3d 13 be 84 bd c0 0f 38 3d
       0.0778917 0.117551 -0.06481566 0.044936895
0003a0 e7 73 f1 ba e7 36 bc 3d 16 c6 39 bd f2 ce 47 3e
       -0.0018421382 0.09190159 -0.045354925 0.19512537
0003b0 5f 4d 20 bd ba b8 27 3e 68 aa 0d 3d 1f 85 0f bd
       -0.039136287 0.16379061 0.03458634 -0.035039064
0003c0 73 f8 9d 3d c2 df 7b bd be 91 01 3e 4c 06 31 3e
       0.077134036 -0.06149269 0.12653252 0.17287558
0003d0 f7 30 03 3d e8 82 12 3d 5e 50 2c 3e 13 6f e4 3d
       0.03202912 0.035769373 0.16827533 0.11153998
0003e0 b4 a8 a6 3d 88 80 06 3e 95 fb 3b bd de 14 e8 3c
       0.08137646 0.13134968 -0.045894224 0.028330263
0003f0 7b 71 8d 3d ca c1 9b 3d 35 66 a0 3c 3b 76 a1 bc
       0.0690641 0.07605322 0.019579986 -0.019709697

fc_layer.weight f4 [64, 64]
000000 01 cd aa bd cf e3 21 be 42 4f 3b be 78 24 7e 3e
       -0.08339883 -0.15809558 -0.18291953 0.24818599
000010 da 2a cb 3d 54 9b 22 be fe 61 38 3d 8a 82 07 be
       0.09920283 -0.15879565 0.045015328 -0.1323339
000020 51 21 0b 3e ad b5 b3 3c e1 52 62 3e e1 bc 88 3e
       0.13586928 0.021937216 0.22101928 0.26706603
000030 51 2b 62 3e fd cc 68 3e 70 58 5c 3e d5 2d ef 3d
       0.22086836 0.22734447 0.21518111 0.11678664
000040 48 cd 6a bc 6d 63 02 be 98 d0 f9 3d 6e ae 6b bd
       -0.014331169 -0.1273324 0.12197989 -0.057539396
000050 90 2a 84 be 4a 8e 11 be f4 69 4c bd 50 49 39 be
       -0.25813723 -0.14214435 -0.049905732 -0.18094373
000060 33 99 5f be dc 91 a8 3d 7b a5 08 3e 2b 05 6c be
       -0.21835785 0.082309455 0.13344376 -0.23048846
000070 93 97 3b 3e 5b 86 12 be ee b3 f9 bd 4b 3d 84 3b
       0.1831954 -0.14309065 -0.12192522 0.004035627
000080 87 79 9f be ed fd dd bd 98 7b 87 bd 31 eb 90 bd
       -0.31147406 -0.10839448 -0.066153705 -0.07076109
000090 31 c4 d8 bd 67 64 28 bc 49 87 87 be 44 5d d7 3a
       -0.105842955 -0.010277844 -0.26470402 0.0016430994
0000a0 99 ce 74 be c9 d1 f3 3c 49 4e 42 3e 11 66 95 bd
       -0.23906936 0.02976312 0.18975176 -0.07294858
0000b0 60 d8 5e 3e 1c 08 df 3d ea dd 24 3d 70 7e df 3d
       0.21762228 0.108902186 0.040250696 0.10912788
0000c0 21 28 ab bd 82 77 11 be 85 a5 a3 3d ff b2 3a be
       -0.08357263 -0.14205745 0.07990555 -0.18232344
0000d0 d2 17 06 3e b0 b9 9f 3e c6 38 f4 3c 25 8d 65 be
       0.13095024 0.31196356 0.029812228 -0.22417124
0000e0 ee c4 aa 3d 7a cf 93 39 94 cc 18 be 78 3e 45 bd
       0.083383426 0.00028192607 -0.1492179 -0.048155278
0000f0 7b 23 a3 bd 94 37 f4 3d f5 2c 7e 3e dd e9 85 3d
       -0.07965752 0.11924663 0.24821837 0.065387465
000100 80 75 86 bc 9b 47 02 3d 99 32 a8 3d 58 f6 9f bd
       -0.01641345 0.03180657 0.08212776 -0.07810658
000110 ad 99 8a bd 4e f3 3e be 17 5a 1a be 56 2e fa bd
       -0.067675926 -0.18647501 -0.15073429 -0.12215869
000120 7d ca a8 3d 2a f3 20 be 3c 88 31 3e 2d 35 0b 3d
       0.082417466 -0.1571776 0.17337126 0.03398626
000130 c0 38 75 be 8c 0e 0d be 09 18 9e 3d 95 69 80 bd
       -0.2394743 -0.1377508 0.07719428 -0.06270138
000140 41 64 35 bd 19 bf 10 3d 54 3f 07 3d 16 7c 4a bc
       -0.044285063 0.035338495 0.03301938 -0.012358686
000150 91 a2 a1 3e 50 3a 55 3e c1 29 e6 bd a3 60 7e 3e
       0.3156934 0.20823026 -0.11238433 0.24841551
000160 a9 7c 17 be e1 1a 12 bc bb 53 e3 bd 8d 54 e9 3d
       -0.14793648 -0.008917541 -0.11099955 0.1139308
000170 95 c4 4c be b5 c3 43 3c 06 c5 59 be 5a f6 e7 bd
       -0.19996865 0.011948516 -0.21266565 -0.11326285
000180 25 b9 82 bc 05 5d d0 bd 5b 1a 6e 3d 6d d9 a3 b8
       -0.015957424 -0.10173992 0.058130603 -7.8129444e-05
000190 1c 61 00 be 29 44 b0 bd cf 1c 9f 3e 38 b4 9e bd
       -0.12537044 -0.086067505 0.31076667 -0.07749218
0001a0 ae 84 88 3e 96 76 b3 be 11 c4 96 3d 0a 0a 36 3d
       0.26663727 -0.3505141 0.073616154 0.044443168
0001b0 0f 90 f8 3c fe 76 3c 3b 95 af 34 be d7 a2 b4 3d
       0.03034213 0.0028757448 -0.17645104 0.08820122
0001c0 95 3f 74 3d 6d c0 c5 bd da 18 47 be 6e 7e 4b be
       0.05963095 -0.09655843 -0.19443074 -0.19872448
0001d0 eb 03 4c 3d f8 04 c9 bd a5 cc 85 3d 40 fb e7 bd
       0.049808424 -0.09815401 0.065331735 -0.11327219
0001e0 24 7a 99 3d 17 34 9b 3d ec 64 26 bd 9c 29 96 bc
       0.074939996 0.07578295 -0.04062359 -0.018330388
0001f0 41 2b 0c be 56 99 5d bd 02 e2 d7 be 41 ec e5 3b
       -0.13688375 -0.05410131 -0.42164618 0.007016689
000200 0a 78 36 bd fd b8 c0 3d d4 c2 74 3d fd 86 3c be
       -0.044548072 0.09410284 0.059756115 -0.18410869
000210 19 f0 49 bd 6f c9 bd be cd 34 9f bd ba 40 a7 3d
       -0.04930124 -0.37067744 -0.07773743 0.081666425
000220 b5 63 23 3e 06 e5 7e be 12 79 01 3e 78 5f 6e 3d
       0.15956004 -0.24892053 0.12643841 0.058196515
000230 ed ff af bd 2f 8e 8d be 1f 7e 3a 3e 9f 1c 3a be
       -0.08593736 -0.2764754 0.18212174 -0.1817498
000240 b9 78 75 bd c8 2b d3 3c 98 10 ab bd 39 38 49 be
       -0.059929583 0.025777712 -0.083527744 -0.19650353
000250 68 f1 58 3e b6 00 49 3e de 52 f5 bc 01 8d b7 3e
       0.21185839 0.19629177 -0.02994674 0.35849765
000260 8c 09 1f 3e f2 c2 1f bb 53 39 41 be 89 c4 02 3e
       0.15530986 -0.002437767 -0.18869524 0.12770285
000270 1c 00 5e be c6 c4 29 3d c8 22 28 be d9 32 2e be
       -0.21679729 0.041447423 -0.16419518 -0.17011584
000280 83 dc 09 be ba 7c 19 be 2d d8 d2 3d 8f 78 c4 bd
       -0.13463025 -0.14988986 0.102951385 -0.09593307
000290 87 23 57 bd be a6 2d be 9b 20 c8 3e 89 44 cb bd
       -0.052524116 -0.16958138 0.39087376 -0.099251814
0002a0 5f d6 81 3e c1 32 94 be 32 b8 c6 bd 47 09 20 be
       0.25358865 -0.28944972 -0.09703101 -0.15628539
0002b0 c3 db af 3d 16 bc ae 3d 7c 88 eb bd 4a 84 79 3c
       0.08586838 0.08531968 -0.11500642 0.015229294
0002c0 37 e3 08 be 74 15 1d bd 85 59 61 be 00 61 05 be
       -0.13367926 -0.038350537 -0.22006805 -0.13025284
0002d0 6b 38 83 3e 00 ff 30 bc d7 b9 49 be 98 64 92 bb
       0.2562898 -0.010802984 -0.19699799 -0.004467558
0002e0 67 46 11 3e 5c ab 2b 3e 8f 4a 91 bd 2d ee 10 3e
       0.14187013 0.16764587 -0.07094299 0.14153357
0002f0 ea de 23 be ec 94 6b 3a e3 bb c8 bd 7d 0f 34 be
       -0.16003004 0.00089867297 -0.098014615 -0.17584033
000300 34 22 b6 be ae a1 4a bd e1 81 88 be e1 e9 5f 3e
       -0.3557297 -0.049470596 -0.2666159 0.21866561
000310 24 d0 88 3e a6 51 13 be 04 ae 9e 3e 05 6c 32 be
       0.267213 -0.14386615 0.30992138 -0.17424019
000320 ae 56 27 3e 6a e0 8a bd 18 e3 16 3e 71 31 df 3d
       0.1634166 -0.06781085 0.14735067 0.10898102
000330 c1 ba bf 3d 06 42 a3 3e 82 79 ee 3d 6b ad a4 3e
       0.09361792 0.3188631 0.116442695 0.32163557
000340 0d 23 06 be a3 96 23 be c9 8c 7e 3e c2 28 d0 bd
       -0.13099308 -0.15975432 0.24858393 -0.10164024
000350 ca 85 1f be 84 fc 94 be e6 9b 01 bd 72 eb b3 be
       -0.1557838 -0.29098904 -0.031642817 -0.35140568
000360 ab 97 3b be 40 f9 3f 3e 30 4f 92 3d c0 58 7e be
       -0.18319575 0.18747425 0.0714401 -0.24838543
000370 4e 1d 70 3e a1 79 9a bd 9b 49 22 be 50 67 55 be
       0.23448679 -0.0754273 -0.15848391 -0.20840192
000380 a6 b3 85 be 40 b6 63 be c2 0c 45 be 7f 52 73 be
       -0.26113623 -0.22237492 -0.19243148 -0.23761939
000390 70 07 86 be da 6e 0c be 45 89 9b be b1 12 18 3e
       -0.2617755 -0.13714162 -0.30378166 0.1485088
0003a0 1e ec bc bd 54 bd 43 be ee 4a 7a 3e 46 8f a1 be
       -0.09224723 -0.19115192 0.24442646 -0.3155462
0003b0 05 c8 5d 3d c9 a3 a4 3e 9f f2 10 be a6 1f 85 3e
       0.05414583 0.32156208 -0.14155053 0.26000708
0003c0 a1 0b 6a bd 1f 6c f9 bd ac 35 e5 3d 9d cb f9 bd
       -0.057139996 -0.121788256 0.11191878 -0.12197039
0003d0 01 b2 37 3e 1a c7 92 3e 80 27 3d 3e 42 94 ba bd
       0.17938997 0.28667527 0.184721 -0.09110309
0003e0 e4 d9 0f 3e 74 78 6e 3e 21 d9 6a be af 7d 1a be
       0.14047962 0.23288137 -0.2293439 -0.15087007
0003f0 c7 62 c0 bc c5 46 25 3e c3 48 86 3e c9 a7 05 3e
       -0.0234846 0.16140278 0.26227388 0.13052286

fc_layer.bias f4 [64]
000000 3d 1e 25 3e 3a 3b ee bc 17 c6 53 bd 6e ba 90 3e
       0.16124816 -0.029080976 -0.051702585 0.28267235
000010 d7 75 cf bc c1 fd 42 3e 6d 8f 41 3e 4d ca 3d 3c
       -0.025324745 0.19042112 0.18902369 0.011583877
000020 57 0c d1 3a d4 86 35 3e 76 d0 8a 3e ae d3 52 3e
       0.0015949112 0.17727214 0.27112168 0.20588562
000030 51 54 45 bd 8a 13 71 3d d1 5a e8 3d 22 84 ac bd
       -0.048176114 0.058856525 0.11345447 -0.0842364
000040 2d 98 fb bd 6a 38 89 bd 66 d0 12 bd ab d9 27 bd
       -0.122848846 -0.06700213 -0.035843275 -0.04097907
000050 0a cb 27 bd 49 50 20 3d 8d 35 46 bd 1a 62 89 3d
       -0.040965118 0.039139066 -0.048390914 0.067081645
000060 f8 7a 05 3e 34 31 94 3d ec 32 8a bd 26 8d 0e 3e
       0.1303519 0.07235947 -0.06747994 0.13921031
000070 1e 16 69 3d 77 74 2e 3e 4d bb e2 bd 2a 73 9b 3d
       0.05690586 0.17036615 -0.11070881 0.07590325
000080 ee 7a 05 3e 42 78 3b 3d 68 2c 3c 3c 30 d8 88 3c
       0.13035175 0.045768984 0.011485197 0.016704649
000090 9a e4 85 3d af 00 0e 3e ff 9f 9f bc 30 be 8f 3c
       0.06537743 0.13867448 -0.019485472 0.017546743
0000a0 ab 43 44 3c bb 61 22 3e ff 95 70 3e ab a7 03 3e
       0.011979024 0.15857594 0.23494719 0.12856929
0000b0 0e 0d 76 bd 7e e4 96 3d d1 50 e6 bd dd ff 66 3e
       -0.060071044 0.073678 -0.11245883 0.22558542
0000c0 c8 02 02 3e ee 28 c8 3d 47 02 57 3e 28 5c 51 3b
       0.12696373 0.09773432 0.20996962 0.0031945799
0000d0 37 a2 b3 3d 12 4e a8 3c b8 5b 0c 3e 2c ab 2f 3e
       0.087711744 0.02054504 0.13706863 0.1715514
0000e0 64 7c b9 3d be 0a 79 3e 05 8b 4c 3e b8 ab d0 3d
       0.09056929 0.24320504 0.19974907 0.10189003
0000f0 52 10 52 3c f9 f9 a0 bc ef 9a 9c bd dc 31 f5 bc
       0.012821274 -0.019650446 -0.07646739 -0.029931001

output_layer.weight f4 [1, 64]
000000 92 e3 8b 3e 53 a2 6d be 8e 4a 55 be 4b 95 3e 3e
       0.2732206 -0.23206453 -0.20829222 0.18611638
000010 df 7a 76 3e 4f 62 4b 3e eb 62 77 3e 68 07 81 be
       0.24070309 0.1986172 0.24158828 -0.25200963
000020 fa 19 ad be 81 66 6f 3e 47 bc 41 3e ad 87 81 3e
       -0.3380888 0.23378946 0.18919478 0.25298825
000030 c1 5a 7d 3e 4e 69 34 be dc fb 8a be 03 8b 99 bd
       0.24741651 -0.17618296 -0.27145278 -0.074972175
000040 12 e9 5c bf 7a 09 1a bf 90 71 89 3e 93 b7 8b be
       -0.8629314 -0.6017071 0.26844454 -0.27288494
000050 86 89 79 be 19 f0 81 be a3 68 ee bd c4 da b7 be
       -0.24368867 -0.25378492 -0.116410516 -0.35909092
000060 89 44 54 3e aa 14 7f 3e 84 44 6e be 6a 65 61 3e
       0.20729269 0.24910226 -0.23268324 0.22011343
000070 b6 e1 91 be a2 46 3a be 01 c6 c3 bd a7 2c 2d be
       -0.28492516 -0.18191007 -0.095592506 -0.16911565
000080 de a7 71 3e f3 b0 76 be 8a e7 dc be 19 9d 47 be
       0.23599193 -0.24090938 -0.431454 -0.19493522
000090 a3 47 6d be 02 50 87 3e 98 71 a3 be ac c0 85 be
       -0.23171858 0.2642823 -0.31922603 -0.2612356
0000a0 8c 3e 17 3f 39 99 84 3e f6 31 36 3e b4 2a 55 3e
       0.59079814 0.2589815 0.17792496 0.20817071
0000b0 9a 27 80 be fa 37 e1 bd 03 b0 20 3d c5 18 3c 3e
       -0.25030214 -0.10997005 0.039230358 0.18368824
0000c0 87 e2 4d be 05 1a 77 3f 8a b3 76 3e 9f b1 47 3e
       -0.20105945 0.9652408 0.24091926 0.19501351
0000d0 e3 da 79 3f f7 b6 80 be 12 c4 44 3e db 40 91 3e
       0.9759962 -0.2513959 0.1921542 0.28369793
0000e0 87 71 5c 3e a7 05 45 3e 9e 15 4f 3e 09 d8 51 be
       0.21527682 0.19240437 0.2022309 -0.20492567
0000f0 38 a1 19 be 66 b5 80 be 94 47 3b 3f 26 3d 65 be
       -0.15002906 -0.25138396 0.73156095 -0.22386608
