TimeGAN4paper/result/iter6000/model/BL_lag1_total1/torch_best_model.pt (torch, 87834 bytes, 7 tensors)

lstm.weight_ih_l0 f4 [256, 1]
0	0x3d488fcf	0.04896527
1	0x3e9acbf1	0.3023372
2	0xbb7c2e2d	-0.0038479671
3	0x3d8d9d48	0.06914765
4	0x3d442fd6	0.047897182
5	0x3e71998e	0.23593733
6	0x3daf6192	0.08563532
7	0x3e33a906	0.17544946
8	0x3cd96402	0.026536945
9	0x3e5241d5	0.20532925
10	0x3dd44f35	0.1036667
11	0x3e8c3d0f	0.27390334
12	0xbcdd93f3	-0.027048087
13	0x3b733a88	0.0037113745
14	0x3e3350ff	0.17511366
15	0x3b44d236	0.0030032522
16	0x3db5d52d	0.08878551
17	0x3e2a1d11	0.1661265
18	0xbc5a407d	-0.013321039
19	0x3af5a925	0.0018742426
20	0x3e667662	0.22506097
21	0x3e0f46e9	0.13991894
22	0x3c818d3d	0.015814418
23	0x3e12dd79	0.14342298
24	0x3dc506d3	0.09620442
25	0x3e234ff2	0.15948465
26	0x3e65b6a8	0.22432959
27	0x3ad473bc	0.0016208808
28	0xbc8a74db	-0.016901424
29	0xbc246e36	-0.010036042
30	0x3c90c36a	0.017671306
31	0x3e8e8ede	0.27843374
32	0x3dac05d5	0.0839955
33	0xbd2056d0	-0.03914529
34	0x3abacd13	0.0014251791
35	0xbad75769	-0.0016429248
36	0xbc01c8b6	-0.007921388
37	0x3ddfea6f	0.109333865
38	0x3e7ab1f2	0.24481943
39	0x3e330b46	0.17484769
40	0xbb8d1e26	-0.0043065725
41	0x3b339fff	0.0027408598
42	0x3e279c2e	0.16368172
43	0x3b8a5da1	0.004222587
44	0xbc797548	-0.015225716
45	0x3bf47831	0.007460617
46	0x3e42968e	0.19002745
47	0x3e214675	0.15749533
48	0x3c353b75	0.011061539
49	0xbd13df38	-0.03610155
50	0x3e3fdeb8	0.18737304
51	0x3e67bbfc	0.22630304
52	0x3dad30be	0.084565625
53	0x3e838749	0.25689152
54	0x3e717e25	0.23583277
55	0x3cf9a482	0.030473951
56	0x3e286839	0.16446008
57	0xbbf79292	-0.0075553143
58	0x3d6debec	0.05808632
59	0x39e9da30	0.00044603785
60	0x3e248df7	0.1606978
61	0x3d99b85d	0.07505868
62	0x3dde1333	0.10843506
63	0x3e338af8	0.17533481
64	0x3c1e9306	0.009678608
65	0x3cd49673	0.025950646
66	0x3e26047f	0.16212653
67	0x3e5c1306	0.21491632
68	0x3dbbc515	0.0916845
69	0x3e8d45ba	0.2759226
70	0xba369316	-0.00069646665
71	0x3c06f3c4	0.008236829
72	0x3d335a5b	0.04378734
73	0x3c8d758f	0.01726797
74	0x3c91e8b7	0.017811162
75	0x3c132e81	0.008983255
76	0x3e27169b	0.16317217
77	0xbbd8d296	-0.0066169007
78	0xbad7ac54	-0.0016454556
79	0x3c334a6b	0.010943036
80	0xbbbb8e87	-0.0057237777
81	0x3d21b0a4	0.0394751
82	0x3e2bb16e	0.16766903
83	0x3b0e2db2	0.0021694717
84	0x3c8fe1fa	0.017563809
85	0x3c98aa0e	0.018635776
86	0xbbc6f1c9	-0.0060713035
87	0x3ca5135d	0.020150835
88	0x3e167b36	0.14695439
89	0xbaa5731d	-0.0012622807
90	0xbbf8400e	-0.0075759953
91	0x3dd38850	0.10328734
92	0x3e2c6f06	0.16839227
93	0x3dc686b9	0.09693665
94	0xba745978	-0.0009321193
95	0xbb09afee	-0.0021009403
96	0x3d6d33f5	0.05791088
97	0x3d8655bd	0.06559322
98	0x3b77b071	0.0037794376
99	0x3c23a609	0.009988316
100	0x3e86bc6f	0.26315638
101	0x3c4e9ec5	0.012611096
102	0x3bc02b5c	0.005864544
103	0xbbfdbc65	-0.0077434056
104	0x3c0546e2	0.008134576
105	0x3d24f6a6	0.040274285
106	0xbaafdd78	-0.0013417443
107	0xba88111c	-0.0010381076
108	0x3d82f20b	0.06393822
109	0x3cb365d1	0.021899136
110	0x3a016a80	0.0004936829
111	0x3be3467e	0.0069358936
112	0x39d1a952	0.0003998974
113	0x3e400eb2	0.18755606
114	0x3b9e4afd	0.0048307166
115	0xbb3cc280	-0.0028802454
116	0x3d3d56c5	0.046225328
117	0x3d14372e	0.036185436
118	0x3b859476	0.004076536
119	0x3dcc429c	0.09973642
120	0x3c55499b	0.013018037
121	0x3dc9121f	0.098179094
122	0x3b56c1e2	0.0032769372
123	0x3de92ad8	0.11385125
124	0xbb9112fd	-0.0044273124
125	0xbb90f8a3	-0.004424171
126	0xbb7e17c8	-0.00387715
127	0xbb744cee	-0.00372773
128	0xbcb1d85e	-0.021709617
129	0xbcb66944	-0.022266991
130	0xbd743302	-0.059618957
131	0x3b718cbf	0.0036857573
132	0xbb341ab6	-0.0027481741
133	0xbd1ad35b	-0.03779922
134	0x3d9ce5aa	0.076609924
135	0xbc1902f0	-0.009339079
136	0x39e8666a	0.00044326793
137	0xbd91ce87	-0.0711947
138	0x3dfc3ac2	0.12315895
139	0x3d254041	0.04034448
140	0xbb78fa93	-0.003799115
141	0x3e62fe6a	0.22167364
142	0x3dbb9119	0.091585346
143	0x3a80330f	0.0009780842
144	0xbe0215fa	-0.12703696
145	0xbe471d2f	-0.19444726
146	0x3d9e7fe9	0.07739241
147	0x3df63176	0.12021153
148	0xbcc74fbf	-0.024330018
149	0xbd4fec38	-0.050762385
150	0xbe3f11d3	-0.18659143
151	0xbc913ff6	-0.017730694
152	0xbdacfef6	-0.084470674
153	0x3d6b71b4	0.057481483
154	0x3e0c12f9	0.13679112
155	0xbe49201e	-0.19641158
156	0x3d66048b	0.056156676
157	0xbd9a30a4	-0.07528809
158	0xbaacdd35	-0.0013188483
159	0xbe08d7b6	-0.13363537
160	0x3b99c722	0.004692928
161	0xbca12fd8	-0.019676134
162	0xbd272838	-0.04080984
163	0xbe05bec0	-0.13061047
164	0x3bb12fab	0.005407294
165	0xbc530a81	-0.012880922
166	0xbe194f69	-0.14971699
167	0x3d20bb48	0.039241105
168	0xbe3b7fbe	-0.18310449
169	0xba7fd1d0	-0.00097587425
170	0x3e532aa4	0.20621735
171	0xbe2a5a80	-0.16636086
172	0x3e25e9e7	0.16202508
173	0xba2f275d	-0.0006681586
174	0xbe27a22a	-0.16370454
175	0x3ca86626	0.02055652
176	0xbaeef31e	-0.0018230414
177	0xbbf01c23	-0.007327573
178	0x3c39ebf3	0.011347759
179	0xbe452e1c	-0.1925587
180	0x3b1e0088	0.0024109203
181	0xbd43a423	-0.047763955
182	0x3d26ee94	0.04075487
183	0x3d799b3d	0.060939062
184	0x3c9b7fee	0.0189819
185	0x3de8983c	0.113571614
186	0xbde9b2ec	-0.1141108
187	0xbcad4aa3	-0.021153754
188	0xbe27c9dd	-0.16385598
189	0x3b5d04e5	0.0033724841
190	0x3dc53f65	0.09631232
191	0x3e377313	0.17914991
192	0x3c489987	0.012243635
193	0x3d7a36fc	0.061087593
194	0xbbd8a4be	-0.0066114357
195	0x3c497aff	0.012297391
196	0x3c540175	0.0129398005
197	0x3cb26a7b	0.02177929
198	0x3c1f6568	0.009728767
199	0x3d08f701	0.033438686
200	0x3a662a48	0.0008780104
201	0x3d1bdc29	0.038051758
202	0x3bf888a6	0.007584649
203	0x3d39f3c9	0.045398507
204	0x37781c22	1.4788502e-05
205	0x3d0ccdd5	0.034375984
206	0x3cd437bf	0.025905488
207	0x3c96cda1	0.018408598
208	0x3c9882c4	0.018617041
209	0xbba51181	-0.005037487
210	0x3d2b2302	0.041781433
211	0xbad57a12	-0.001628699
212	0x3d5646e0	0.052313685
213	0x3cde43d4	0.027131952
214	0x3a1d29ec	0.00059953216
215	0x3d0c2b59	0.034221027
216	0x3d0df71c	0.03465949
217	0x3c80748e	0.015680578
218	0xbb4531df	-0.003008954
219	0x3c1b0109	0.009460696
220	0xbaa59316	-0.0012632336
221	0x3d164974	0.036691144
222	0x3d01c4f4	0.03168197
223	0x3da2ece5	0.0795534
224	0x3c083c24	0.00831512
225	0x3c66deca	0.014091203
226	0xbc3bb442	-0.011456551
227	0xbbfc998b	-0.0077087334
228	0xbb5e7b9f	-0.0033948196
229	0x3d175872	0.036949582
230	0x3c852504	0.016253002
231	0x3d006d92	0.031354494
232	0x3ba771ca	0.0051100003
233	0x3d0c1c49	0.034206662
234	0x3d0a8549	0.033818517
235	0xbbd45507	-0.0064798626
236	0x3c894a4b	0.016759058
237	0x3becaa96	0.007222484
238	0x3c32808e	0.010894908
239	0x3e28e555	0.16493733
240	0x3d1489ec	0.036264345
241	0x3d10ade0	0.03532207
242	0x3c90cd69	0.017676072
243	0xbaa27719	-0.0012395113
244	0x3cc30294	0.02380494
245	0x3b8bb234	0.004263187
246	0x3d53c329	0.05169979
247	0x3bc1b6b9	0.005911675
248	0x3c20dc39	0.00981813
249	0x3ae7b445	0.0017677626
250	0x3c0a1140	0.008426964
251	0x3bfa876b	0.0076455376
252	0x3ce6ac21	0.02815825
253	0x3bf23b2d	0.007392308
254	0xbbb6bc5a	-0.0055766525
255	0x3bce7879	0.0063009826

lstm.weight_hh_l0 f4 [256, 64]
0	0xbde7b70f	-0.113142125
1	0x3e119c81	0.14219858
2	0xbe068d23	-0.13139777
3	0xbe05185a	-0.1299757
4	0xbae6bafd	-0.0017603334
5	0xbe3e3134	-0.18573457
6	0x3e023a82	0.12717631
7	0x3ed85158	0.4224956
8	0x3dedb396	0.11606519
9	0xbe85ce41	-0.26133922
10	0x3e0e6733	0.13906555
11	0x3c95cd74	0.018286444
12	0x3e663299	0.22480239
13	0x3d5d3f66	0.05401554
14	0xbe50755b	-0.20357268
15	0x3d7cfc3d	0.06176399
16	0xbe436a50	-0.19083524
17	0xbe06e495	-0.13173135
18	0x3ca97729	0.020686703
19	0x3adce9d0	0.001685435
20	0x3e2fcab3	0.17167167
21	0xbd00357f	-0.031301018
22	0xbd48ec1c	-0.049053296
23	0xbe4879da	-0.19577733
24	0xbe872edb	-0.26402935
25	0x3e0a9899	0.13534774
26	0x3be16d85	0.006879511
27	0xbd8d2f64	-0.06893805
28	0x3e227095	0.15863259
29	0xbd8a79bc	-0.067615
30	0xbe440437	-0.19142233
31	0xbdefb33e	-0.117041096
32	0x3d7a53cb	0.061115067
33	0xbe0d77cd	-0.13815232
34	0xbe201588	-0.15633214
35	0xbd04862c	-0.03235452
36	0xbe02f4eb	-0.12788741
37	0xbd8cd9cf	-0.06877481
38	0xbe473e3d	-0.19457336
39	0x3cabd9ca	0.020977873
40	0xbe1b58c8	-0.15170586
41	0x3c05036b	0.008118491
42	0x3e620291	0.22071292
43	0xbdd24d9c	-0.10268709
44	0x3db9acd1	0.09066165
45	0xbdbcf6e5	-0.09226779
46	0xbe6592c5	-0.2241927
47	0xbe492e41	-0.1964655
48	0xbe03d496	-0.12874064
49	0xbe801de2	-0.250228
50	0x3c4d00ba	0.01251238
51	0x3d7a744d	0.06114607
52	0x3e8dfce9	0.27732018
53	0x3d45a9bb	0.04825757
54	0xbdcd0673	-0.10010996
55	0x3e3ed6dc	0.1863665
56	0x3dcae8ab	0.09907659
57	0x3dc4d4d8	0.09610909
58	0xbe0c4633	-0.13698654
59	0xbdb34c26	-0.087547585
60	0x3c39217f	0.01129949
61	0x3dfc2a15	0.12312714
62	0x3da5d480	0.08097172
63	0x3d3e54a0	0.046467423
64	0x3ddae280	0.10687733
65	0x3ea2d9db	0.31806836
66	0xbe950b74	-0.291103
67	0x3e5de77b	0.21670334
68	0x3e9c9895	0.3058516
69	0x3dc5dc8f	0.09661209
70	0x3ec98f71	0.3936725
71	0xbd3e3fe6	-0.046447657
72	0x3e53e848	0.20694077
73	0xbd02dc23	-0.03194822
74	0x3c6dd870	0.014516935
75	0xbe55dd6c	-0.20885247
76	0x3ea2beda	0.31786233
77	0x3eaa2a1a	0.33235246
78	0xbe3d1e19	-0.18468513
79	0x3e4d00c1	0.20019819
80	0xbd52267d	-0.051306237
81	0x3e2fb0b2	0.17157248
82	0x3e8e20ad	0.27759305
83	0x3e9052a7	0.2818806
84	0x3e47104d	0.19439812
85	0x3e65cb0e	0.2244074
86	0xbd6b6b29	-0.057475243
87	0xbddd1f15	-0.10796944
88	0xbe59e87f	-0.21280096
89	0x3e417d8f	0.18895553
90	0x3d9cb3e7	0.07651501
91	0xbe534839	-0.2063302
92	0x3da8ba81	0.08238698
93	0xbdfed634	-0.124432
94	0xbec4444a	-0.3833335
95	0x3d56f80b	0.052482646
96	0x3e6dcadb	0.23221914
97	0xbd59ee2f	-0.053205665
98	0xbe5ce1a9	-0.21570458
99	0xbd40b161	-0.04704416
100	0xbe6028ed	-0.21890612
101	0x3df56ec4	0.119840175
102	0xbdc23003	-0.09481814
103	0xbc959a4d	-0.018262053
104	0xbe0cbd16	-0.13744006
105	0x3e0ab6f9	0.13546361
106	0xbd4509ef	-0.048105177
107	0xbda3ec36	-0.08004038
108	0x3e2acf65	0.16680677
109	0x3e4829bc	0.1954717
110	0xbdb5e128	-0.08880836
111	0xbe3d063c	-0.1845941
112	0xbe72f57f	-0.23726462
113	0xbe0ef50b	-0.13960664
114	0x3bb023d6	0.0053753657
115	0xbe05c30e	-0.13062689
116	0xbdd0fc6d	-0.102043964
117	0x3c2dab1a	0.010599876
118	0xbe8a40a8	-0.27002454
119	0x3da4cfd9	0.08047456
120	0xbecbf52b	-0.39835486
121	0x3e921955	0.28534952
122	0x3baed27d	0.0053351508
123	0xbc9528ca	-0.018207926
124	0xbde8a336	-0.11359255
125	0x3e5392a6	0.2066141
126	0x3ecae8ea	0.39630824
127	0x3ed88c00	0.42294312
128	0x3d458374	0.048221067
129	0x3e5eef81	0.21771051
130	0xbd9b5ab4	-0.075856596
131	0x3e9c6126	0.30542868
132	0x3edbe1ef	0.4294581
133	0x3d86ea6b	0.065876804
134	0x3e8d4363	0.27590474
135	0xbdf77878	-0.120835245
136	0x3e18d65b	0.1492552
137	0x3d47f2cf	0.048815545
138	0xbdfa6904	-0.122270614
139	0x3d5e408c	0.054260775
140	0x3eb5c307	0.35500357
141	0x3de5c3d5	0.112189926
142	0xbe1cbe55	-0.15306981
143	0x3e8b8bb6	0.27255028
144	0xbd701ef6	-0.058623277
145	0x3d05b32a	0.032641567
146	0x3e94c8cf	0.29059455
147	0x3e2604f6	0.1621283
148	0x3da7e853	0.08198609
149	0x3d1c0cd7	0.038098183
150	0xbd6971b2	-0.056993194
151	0x3d444894	0.04792078
152	0xbd5c01db	-0.053712707
153	0x3c327782	0.010892751
154	0xbd91136d	-0.07083783
155	0xbeafb261	-0.3431578
156	0x3edb6501	0.42850497
157	0xbe1c085a	-0.15237561
158	0xbe98550d	-0.2975239
159	0xbc34ce92	-0.011035578
160	0x3e86529c	0.262349
161	0xbe8dac78	-0.27670646
162	0xbe97d7ad	-0.29656735
163	0xbe6436eb	-0.22286575
164	0xbdee5685	-0.11637596
165	0xbe2905a6	-0.16506061
166	0x3c6b2c76	0.014353862
167	0xbc5ddc6d	-0.013541323
168	0xbe0986d5	-0.1343034
169	0x3e210b45	0.15726955
170	0xbdaf9160	-0.0857265
171	0xbf05a09e	-0.5219821
172	0x3e6907c2	0.22756866
173	0x3e2f5723	0.17123084
174	0xbd819f78	-0.063292444
175	0x3e993e1f	0.29930207
176	0xbd032647	-0.032018926
177	0xbe4da837	-0.200837
178	0x3e94482f	0.28961322
179	0xbda92d1d	-0.08260558
180	0x3d545f5f	0.051848765
181	0xbcd684a1	-0.02618629
182	0xbd8901b8	-0.06689781
183	0xbd015e56	-0.031584106
184	0xbcabf933	-0.02099285
185	0x3e3ef9cb	0.18649976
186	0xbbb9ef6e	-0.005674294
187	0xbde0db23	-0.10979297
188	0xbe49da8c	-0.19712275
189	0x3e94bb8e	0.29049343
190	0x3c312b8f	0.010813608
191	0x3d848ac9	0.06471784
192	0xbd3f9251	-0.046770398
193	0xbe23cedf	-0.15996884
194	0xbd69b754	-0.0570596
195	0x3d22481e	0.039619558
196	0x3eba94c1	0.36441615
197	0xbd801096	-0.062531635
198	0x3dbce78b	0.09223851
199	0xbaccb80f	-0.0015618819
200	0xbbc4cdf4	-0.006005997
201	0x3d53e4e0	0.051731944
202	0x3c9d56c4	0.019206412
203	0x3cc6412e	0.024201002
204	0xbd958983	-0.07301619
205	0x3d637920	0.055535436
206	0x3dd9eec8	0.10641247
207	0xbd472ee2	-0.048628695
208	0x3a8d3b45	0.001077511
209	0x3d07d4dc	0.033161983
210	0x3dc9006f	0.09814536
211	0x3be1e18e	0.0068933433
212	0xbdf6c205	-0.12048725
213	0xbda0e978	-0.07857031
214	0xbe3af3b6	-0.18257031
215	0x3d7d0957	0.061776485
216	0xbd849a5f	-0.064747564
217	0x3dcd76f1	0.10032452
218	0x3ddece3d	0.108791806
219	0xbe51617a	-0.2044734
220	0xbcf0ad64	-0.029379554
221	0xbb7b2bb0	-0.00383256
222	0xbea09281	-0.31361774
223	0xbd7b0e41	-0.06129289
224	0x3da3ecf4	0.080041796
225	0xbdcb9ba3	-0.09941795
226	0xbe9b3602	-0.30314642
227	0xbce2969f	-0.027659712
228	0xbde48d38	-0.11159748
229	0xbbe2767e	-0.006911098
230	0xbd041663	-0.032247912
231	0x3de06918	0.10957545
232	0xbe2e0b37	-0.16996466
233	0x3d198f0a	0.03748993
234	0x3dd28363	0.10278966
235	0xbd825d0a	-0.06365402
236	0x3dc2d659	0.0951354
237	0xbe30e650	-0.17275357
238	0x3d01711f	0.03160202
239	0xbd85ca27	-0.06532698
240	0xbe69f048	-0.22845566
241	0xbdf431cf	-0.11923563
242	0x3e1c3e38	0.1525811
243	0xbe8dc0c9	-0.27686146
244	0xbe41fd09	-0.18944182
245	0x3d5179a7	0.051141407
246	0x3dab87f4	0.083755404
247	0x3e4b165b	0.19832747
248	0x3c919052	0.017769013
249	0x3c147ce1	0.009062977
250	0xbcbb67ad	-0.022876585
251	0x3b87056a	0.0041205185
252	0xbe5834e7	-0.2111393
253	0x3e10c2f2	0.14136866
254	0x3dd72226	0.1050456
255	0x3e23436d	0.1594369

lstm.bias_ih_l0 f4 [256]
0	0x3e88c0b9	0.26709536
1	0x3eb64191	0.35596898
2	0x3e47fc47	0.1952983
3	0x3e2b5b4e	0.16734049
4	0x3e821e7e	0.2541389
5	0x3e557dc7	0.20848761
6	0x3c63a275	0.013893713
7	0xbde28879	-0.11061186
8	0x3bd04ef6	0.006357069
9	0x3e24adc1	0.16081907
10	0x3d76c291	0.060244147
11	0xbda67b38	-0.08128971
12	0xbd430721	-0.04761422
13	0x3e22c1f7	0.15894304
14	0x3d8d1bbd	0.06890056
15	0x3db018c9	0.085984774
16	0x3dc7de30	0.09759176
17	0x3e17b3b2	0.14814642
18	0xbd4a0d6f	-0.049329218
19	0x3da69fb1	0.081359275
20	0x3ea67232	0.32509
21	0x3d30ce4b	0.043165486
22	0x3db7e053	0.08978333
23	0x3e1b13a5	0.15144213
24	0x3e64e8b0	0.22354388
25	0xbce2da62	-0.027692024
26	0x3d509f86	0.050933383
27	0xbd6ab2c4	-0.05729939
28	0xbbb194b3	-0.0054193377
29	0x3dfb0575	0.122569
30	0x3dbdecb6	0.09273665
31	0xbe335adb	-0.17515127
32	0x3d425ca7	0.04745164
33	0x3e001366	0.125074
34	0x3db5ed6e	0.08883177
35	0x3e43bc17	0.1911472
36	0x3e63d564	0.22249371
37	0xbdd1ccc7	-0.10244136
38	0x3c05b8cc	0.008161735
39	0x3dba6992	0.09102167
40	0x3d6bb631	0.0575468
41	0x3c232feb	0.009960155
42	0x3d84a3aa	0.06476529
43	0x3e4f7876	0.20260796
44	0x3e7c36e1	0.2463031
45	0x3e35aed0	0.17742467
46	0xbd5e6d81	-0.05430365
47	0x3e391a45	0.18076427
48	0x3d560908	0.052254707
49	0x3c819138	0.015816316
50	0x3e35337f	0.17695425
51	0x3e24985d	0.16073747
52	0xbdd65c13	-0.104667805
53	0x3e95c43f	0.29251286
54	0x3e870960	0.2637434
55	0x3e24ee66	0.16106567
56	0x3e262877	0.16226374
57	0x3e132cce	0.1437256
58	0x3e3c097c	0.18362993
59	0x3dd19b0e	0.102346525
60	0x3d3910ac	0.045181915
61	0xbb207223	-0.0024482093
62	0x3e0e5372	0.1389902
63	0x3b57d730	0.0032934658
64	0x3d35e2c2	0.044405706
65	0xbce42ac2	-0.02785242
66	0xbd56649d	-0.052342046
67	0x3e016e90	0.12639832
68	0xbcfe0c5b	-0.03101175
69	0xbe466399	-0.19373931
70	0x3cbea479	0.023271786
71	0xbc8d5e28	-0.017256811
72	0xbc9898d3	-0.01862756
73	0x3d513258	0.051073402
74	0xbdee70e3	-0.11642625
75	0x3cd13718	0.025538966
76	0x3de7352d	0.11289439
77	0x3e00e165	0.12585981
78	0xbe0d162f	-0.13777994
79	0x3df4d190	0.119540334
80	0x3da0c36c	0.07849774
81	0xbd2cdad2	-0.04220087
82	0x3e0f6236	0.14002308
83	0x3e010693	0.12600164
84	0x3d9d8720	0.07691789
85	0xbd544de7	-0.051832106
86	0x3d0b4336	0.033999644
87	0x3ddb436f	0.10706221
88	0x3d513325	0.051074166
89	0x3d053193	0.03251798
90	0xbe1b17f0	-0.1514585
91	0xbc91849a	-0.017763425
92	0x3e01dd2e	0.1268203
93	0x3dd11b22	0.10210253
94	0x3e196417	0.14979587
95	0xbba5917e	-0.0050527444
96	0xbd4d6acd	-0.05015068
97	0x3dafec25	0.08589963
98	0x3e2adfaf	0.16686891
99	0x3cbec958	0.023289368
100	0x3e4bf40f	0.1991732
101	0xbd6bc19d	-0.05755769
102	0x3da1cd39	0.07900471
103	0xbd074c49	-0.033031736
104	0x3e2ea825	0.1705633
105	0x3e02b833	0.12765579
106	0x3e161dcc	0.14659804
107	0x3dcb999b	0.09941407
108	0x3e624060	0.2209487
109	0xbd03b46b	-0.03215448
110	0x3d2b9342	0.041888483
111	0xbe176d0a	-0.14787689
112	0x3cb2edab	0.021841845
113	0xbdcffadf	-0.10155272
114	0x3e8be75f	0.2732496
115	0x3e095893	0.13412695
116	0xbd3e7180	-0.04649496
117	0xbe27ac57	-0.16374336
118	0x3c909510	0.017649204
119	0xbd07821c	-0.033083066
120	0xbd592fd1	-0.053024117
121	0x3dea51b9	0.114413686
122	0x3e250c2d	0.16117926
123	0x3dfb4f32	0.12270965
124	0x3e0b46b3	0.13601188
125	0x3bf3da13	0.007441768
126	0xbcdee8a9	-0.02721055
127	0xbc9eae6f	-0.019370286
128	0x3d8a4f10	0.06753361
129	0x3e179221	0.14801838
130	0x3c04036f	0.008057459
131	0xbe109dc5	-0.14122684
132	0x3e17e371	0.14832856
133	0x3da2d2fa	0.07950397
134	0x3d9404e4	0.07227495
135	0xbdd09b01	-0.10185815
136	0x3d8ef79f	0.06980824
137	0x3d323a4a	0.04351262
138	0xbe220d87	-0.15825473
139	0xbe381104	-0.17975241
140	0xbe2b27e9	-0.16714443
141	0xbe337e87	-0.17528735
142	0xbed15959	-0.4088848
143	0xbc2877d6	-0.010282477
144	0xbd34a7e1	-0.044105414
145	0x3e7c6a85	0.24650009
146	0xbc255287	-0.010090477
147	0xbc887726	-0.016658377
148	0x3e857fa0	0.26073933
149	0x3eb9b9b1	0.36274484
150	0x3d6ea6df	0.05826461
151	0x3e31c4fb	0.17360298
152	0x3dfc7d79	0.123286195
153	0xbddd6ecf	-0.10812151
154	0xbe46a4ed	-0.19398852
155	0x3cdf6fa7	0.02727492
156	0xbd13e042	-0.03610254
157	0x3d3540d0	0.044251263
158	0xbcf8c5a8	-0.030367687
159	0x3e1b8429	0.15187134
160	0xbe07e406	-0.13270578
161	0xbcc0a64c	-0.023516797
162	0x3d6dcf4f	0.058059033
163	0xbd8a27c4	-0.06745866
164	0x3d993bb6	0.07482092
165	0xbda741a6	-0.08166818
166	0x3e5a5e31	0.21324994
167	0xbe8bbaf2	-0.27291065
168	0x3dc34964	0.095354825
169	0x3e2442e4	0.16041142
170	0xbe5cba23	-0.2155538
171	0xbdca4ec0	-0.098783016
172	0x3bbd6920	0.005780354
173	0x3dc86e69	0.09786684
174	0x3dfe52f0	0.12418163
175	0xbe01ed00	-0.12688065
176	0x3dd44fff	0.103668205
177	0x3e15c20a	0.14624801
178	0x3e420c89	0.18950094
179	0x3c34dbd5	0.01103874
180	0xb9a1da0d	-0.00030870773
181	0x3e155277	0.14582239
182	0xbe89d37f	-0.2691917
183	0xbe0c057e	-0.1367397
184	0xbd3857c5	-0.04500558
185	0x3cb62049	0.022232192
186	0x3e4f4f85	0.20245178
187	0x3d9a3172	0.07528962
188	0x3d57a207	0.052644756
189	0xbddde3fa	-0.10834499
190	0x3c7e23c7	0.01551146
191	0xbe1669db	-0.14688818
192	0x3e2a3d8a	0.16625038
193	0x3d84868a	0.06470974
194	0x3e59f0cc	0.21283263
195	0x3e203d49	0.15648378
196	0x3cce961d	0.025218064
197	0xbef265fe	-0.4734344
198	0x3e164486	0.14674577
199	0x3db7b47e	0.08969973
200	0xbe72153f	-0.23640917
201	0xbe099322	-0.13435033
202	0x3ca4249a	0.020036984
203	0x3e01df74	0.12682897
204	0x3e0796bc	0.13241094
205	0xbe844a4f	-0.25837943
206	0x3d72cb2e	0.0592758
207	0xbecaf116	-0.3963706
208	0xbdc47547	-0.095926814
209	0x3d9ec40d	0.077522375
210	0xbe49592d	-0.19662924
211	0xbd270f27	-0.040785935
212	0x3cddb59f	0.027064143
213	0x3c9e983d	0.019359702
214	0xbe66c28c	-0.22535151
215	0xbe8f6eda	-0.2801426
216	0x3e8434f5	0.25821653
217	0x3e336fb2	0.17523077
218	0xbe07a8cf	-0.13247989
219	0x3e378ad4	0.17924052
220	0xbdb43bf2	-0.08800496
221	0xbef25dd6	-0.47337216
222	0xbea5ea9c	-0.32405555
223	0x3e89385b	0.26800808
224	0x3e409f63	0.18810801
225	0xbeabe8d6	-0.33576077
226	0x3d5dd89b	0.05416165
227	0xbe73acb2	-0.23796347
228	0x3e561bce	0.20909044
229	0x3e0df475	0.13862784
230	0x3e7f4e57	0.24932228
231	0xbe499492	-0.19685581
232	0xbe47e6fc	-0.19521707
233	0xbea5dc1a	-0.32394487
234	0xbec31bb9	-0.38107088
235	0xbc5afb67	-0.013365603
236	0xbf0ae4f0	-0.5425558
237	0x3e64f47e	0.22358891
238	0xbd870bf4	-0.06594077
239	0x3e44bc00	0.19212341
240	0xbed2278d	-0.410458
241	0xbee0f92c	-0.43940103
242	0x3dbf8cb9	0.093530126
243	0xbbdd9446	-0.0067620603
244	0xbe576a3b	-0.21036617
245	0x3e0e9c8f	0.1392691
246	0xbe579cae	-0.21055862
247	0x3d673564	0.0564474
248	0xbdc2f3fd	-0.09519193
249	0x3d404951	0.04694492
250	0x3e449a50	0.1919949
251	0xbe8fd949	-0.28095463
252	0xbe422da9	-0.1896273
253	0xbcd7fa72	-0.026364539
254	0x3d4287fd	0.04749297
255	0x3d7418de	0.059594028

lstm.bias_hh_l0 f4 [256]
0	0x3db74d79	0.089503236
1	0x3e43b049	0.19110216
2	0x3dc97c0b	0.098381124
3	0x3d9d0732	0.07667388
4	0x3d9402b2	0.072270766
5	0x3e1b50ea	0.15167585
6	0x3e6c21ad	0.23059721
7	0xbde97b6d	-0.11400495
8	0x3c9ffe39	0.019530402
9	0x3ea63ebe	0.32469743
10	0x3d204dfd	0.039136875
11	0x3b612cf3	0.0034359067
12	0xbd357727	-0.044303086
13	0x3da26ad4	0.07930532
14	0x3baa7a13	0.0052025407
15	0xbd7f34a0	-0.062306046
16	0xbd4a5af2	-0.04940314
17	0x3dfdcf03	0.12393
18	0x3d0971b9	0.03355572
19	0x3e3ca4f6	0.18422303
20	0x3e4d648c	0.20057887
21	0x3de507e3	0.11183145
22	0xbcb4b067	-0.022056771
23	0xbc843834	-0.016140081
24	0x3e563bc1	0.20921232
25	0x3dae729a	0.08517952
26	0x3d466c62	0.048443206
27	0x3ded07c8	0.1157375
28	0xbd715d61	-0.058926944
29	0x3dd8ceb1	0.10586298
30	0x3e2538e6	0.16134986
31	0x3ce5378f	0.027980594
32	0x3e44c0a1	0.19214107
33	0x3d658037	0.05603048
34	0x3da7dfb6	0.08196966
35	0x3e74dec4	0.23913103
36	0x3e5e2e6f	0.216974
37	0xbe8529b6	-0.26008385
38	0x3d590bec	0.052989885
39	0x3d202b30	0.039103687
40	0x3e4c1483	0.199297
41	0x3dd59c5c	0.10430214
42	0x3e05dacc	0.13071746
43	0x3cc328a2	0.023823086
44	0x3b5c83dd	0.0033647933
45	0x3b5f86fd	0.003410756
46	0x3d9214d5	0.0713288
47	0x3e0f3d73	0.13988285
48	0x3e0c4982	0.13699916
49	0x3d1065f6	0.035253488
50	0x3e0fecb1	0.14055134
51	0x3d90a858	0.07063359
52	0x3d879732	0.06620635
53	0x3e280b21	0.16410495
54	0x3e1abe68	0.15111697
55	0x3e6a2d89	0.22868933
56	0x3e359c2a	0.17735353
57	0xbd1849a8	-0.03717962
58	0x3e68cbca	0.2273399
59	0xbb9cd7af	-0.0047864537
60	0xbdb84490	-0.08997452
61	0xbd074063	-0.03302039
62	0xbd06b6c0	-0.032889128
63	0x3e1dc3b2	0.15406683
64	0x3dada5e3	0.08478906
65	0x3e3b1774	0.18270665
66	0x3c8bb12b	0.017052254
67	0x3cdee38a	0.027208108
68	0x3d7a11ba	0.06105206
69	0xbdf273a7	-0.11838465
70	0xbd71cbf5	-0.0590324
71	0x3d217492	0.03941781
72	0x3d022026	0.03176894
73	0x3e638f58	0.2222265
74	0x3d45a13a	0.04824946
75	0x3c651675	0.013982405
76	0x3e1a37f7	0.15060411
77	0x3e34cc1d	0.17655988
78	0xbd2af7c7	-0.041740205
79	0x3d40a0c6	0.047028325
80	0x3e459124	0.19293648
81	0xbd9d1d2e	-0.07671581
82	0x3cb8d40c	0.02256205
83	0x3de26d93	0.11056056
84	0x3e0308eb	0.1279637
85	0xbe211065	-0.1572891
86	0x3c795f11	0.0152204195
87	0x3bfa1153	0.0076314597
88	0xbd423021	-0.04740918
89	0x3e16fb33	0.14744262
90	0xbe669b8f	-0.22520278
91	0xbd2e72eb	-0.042590063
92	0x3dbacd99	0.09121246
93	0x3de6e689	0.1127444
94	0x3df879de	0.12132619
95	0x3d0169ba	0.03159497
96	0x3ce5b1bb	0.02803885
97	0x3dcd8a57	0.10036152
98	0x3e344f16	0.17608294
99	0x3e17add3	0.14812402
100	0x3e26fccd	0.16307373
101	0xbaed8b42	-0.0018123167
102	0x3d674f96	0.056472383
103	0xbd8080e2	-0.062745824
104	0x3d2f074c	0.04273157
105	0xbaac00b2	-0.0013122766
106	0x3e0e3388	0.13886845
107	0x3e05195e	0.12997958
108	0x3d203b37	0.03911897
109	0xbca27989	-0.019833343
110	0x3dd128e6	0.10212879
111	0xbd714ca3	-0.058910977
112	0x3e457d3b	0.19286053
113	0x3d55e2f5	0.052218396
114	0x3e9a53e8	0.3014214
115	0x3dad3700	0.08457756
116	0xbdbece04	-0.09316638
117	0xbda62fd9	-0.08114595
118	0x3c3db804	0.011579517
119	0xbdb9553a	-0.09049459
120	0xbda431c6	-0.08017306
121	0x3df4ba74	0.119496256
122	0xbc1c87f1	-0.009553895
123	0xba84bb48	-0.0010126615
124	0x3d74ec5a	0.059795715
125	0x3ddd40c4	0.10803369
126	0x3e239b1c	0.15977138
127	0x3dfc3a0e	0.123157606
128	0x3d927fce	0.07153283
129	0x3eab9ca2	0.3351794
130	0xbbc2e484	-0.0059476513
131	0xbd8c0e87	-0.06838708
132	0x3d8b0ccd	0.06789551
133	0xbcde3c78	-0.027128443
134	0x3d4c5460	0.049885154
135	0x3d96ecc3	0.073693775
136	0x3dd2bc8c	0.10289869
137	0x3e78c297	0.2429298
138	0xbd3e4033	-0.046447944
139	0xbe517d2d	-0.20457907
140	0x3d211a77	0.03933188
141	0xbe043814	-0.12912017
142	0xbe94a90b	-0.2903522
143	0xbdd162e3	-0.10223939
144	0xbc8c6b0f	-0.017140893
145	0x3e9bdf63	0.30443868
146	0xbdba399f	-0.090930216
147	0xbe27e04a	-0.16394153
148	0x3e69b662	0.2282348
149	0x3e42daa2	0.19028714
150	0xbc1474be	-0.009061037
151	0xbd2afd0d	-0.041745234
152	0x3e5aeffa	0.21380606
153	0xbc070442	-0.008240761
154	0xbe52cc8c	-0.20585841
155	0x3e1685f7	0.14699541
156	0x3d257709	0.040396724
157	0xbd7e842c	-0.062137768
158	0x3ca08adb	0.019597461
159	0x3e26d13f	0.16290759
160	0xbd02e983	-0.031960975
161	0xbc70c655	-0.014695724
162	0x3d6af22a	0.057359852
163	0x3d9cf58c	0.07664022
164	0xbdd5bc7c	-0.10436341
165	0x3cf27735	0.029597858
166	0x3d96f45e	0.07370828
167	0xbdb35603	-0.0875664
168	0x3c3025eb	0.010751228
169	0xbd00f9e1	-0.031488303
170	0xbe89c44e	-0.2690758
171	0xbdcf0636	-0.101086065
172	0x3c97375d	0.018459016
173	0x3dd017c0	0.1016078
174	0x3dbb4901	0.09144784
175	0xbe254165	-0.16138227
176	0xbe02e5ac	-0.12782925
177	0x3d3855cf	0.04500371
178	0x3e9aadf7	0.3021085
179	0xbd28bf02	-0.041197784
180	0xbdc712bb	-0.097203694
181	0x3e99098d	0.298901
182	0xbdb53b58	-0.088492095
183	0xbe10d8a2	-0.14145139
184	0xbe25fde3	-0.16210131
185	0x3e4c4e4d	0.19951744
186	0x3d702248	0.058626443
187	0x3cb5f89d	0.022213275
188	0xbc93b02c	-0.018028341
189	0xbacc1843	-0.0015571195
190	0xbd9b989e	-0.07597469
191	0xbdd9e395	-0.10639111
192	0x3ccbfb11	0.024899991
193	0x3e01d2cb	0.12678067
194	0x3d94f42e	0.07273136
195	0x3d19de3b	0.03756545
196	0x3d10aa0a	0.035318412
197	0xbe905556	-0.28190106
198	0x3dc3184f	0.09526121
199	0x3e05d6ed	0.13070269
200	0xbe634ec9	-0.22198023
201	0xbd974f39	-0.073881574
202	0x3c85889c	0.016300492
203	0x3e5c9ecd	0.21544953
204	0x3dd3a710	0.10334599
205	0xbe48960d	-0.1958849
206	0x3df9037b	0.12158867
207	0xbf1479e0	-0.57998466
208	0xbe578d7b	-0.21050064
209	0x3e2c8ccf	0.16850589
210	0xbe47ae94	-0.1950019
211	0xbe4b472b	-0.19851367
212	0xbd218c0d	-0.039440203
213	0x3e13c269	0.1442963
214	0xbe6fb71e	-0.23409697
215	0xbe74649b	-0.23866503
216	0x3e282417	0.16420017
217	0x3e038126	0.12842235
218	0xbe719857	-0.2359327
219	0x3d9d760a	0.0768853
220	0xbd588948	-0.052865297
221	0xbec5f940	-0.38666725
222	0xbef0da40	-0.47041512
223	0x3e3de9d0	0.18546224
224	0x3e3a17ad	0.18173094
225	0xbe8e89ee	-0.27839607
226	0x3dbe7f8b	0.09301671
227	0xbd4f43ac	-0.050601646
228	0x3e387fd0	0.18017507
229	0x3e375484	0.17903334
230	0x3d069cda	0.03286443
231	0xbe7824e5	-0.24232824
232	0xbec589c6	-0.38581675
233	0xbe6c9405	-0.2310334
234	0xbeea6e6d	-0.45787373
235	0x3db96146	0.090517566
236	0xbf177f9e	-0.59179103
237	0x3e97895c	0.29596984
238	0xbbe8bf02	-0.007102848
239	0x3d90ca29	0.07069809
240	0xbec9abf9	-0.39389017
241	0xbf15b3d8	-0.58477545
242	0x3c48cdf9	0.012256139
243	0x3d86a01d	0.06573508
244	0xbe78ef4a	-0.24310032
245	0x3e17b5a3	0.14815383
246	0xbd96f52d	-0.07370982
247	0x3df3396e	0.11876188
248	0x3c93d47e	0.01804566
249	0x3d326d22	0.04356111
250	0xbd3c5947	-0.04598358
251	0xbed91714	-0.4240042
252	0xbe7d6ade	-0.24747798
253	0x3d48215b	0.048859935
254	0x3d4cb3b8	0.04997608
255	0x3befdc09	0.0073199314

fc_layer.weight f4 [64, 64]
0	0xbf1d6368	-0.61479807
1	0xbf303e92	-0.68845475
2	0xbf3cdf71	-0.73778445
3	0x3f47326e	0.77811325
4	0x3f2e7753	0.68150824
5	0xbf3b7b65	-0.7323516
6	0x3f1c9268	0.611609
7	0xbf28bdf0	-0.6591482
8	0x3f2d5ff6	0.6772455
9	0xbf116bed	-0.56805307
10	0x3f4aa990	0.7916498
11	0x3f56c7c6	0.8389858
12	0x3f433c81	0.76264197
13	0x3f480a32	0.78140557
14	0x3f4d3ac1	0.80167776
15	0x3f1a1b51	0.6019793
16	0xbf186b00	-0.5953827
17	0xbf303dab	-0.688441
18	0x3f2b757f	0.6697616
19	0x3f46c02a	0.7763697
20	0xbf42c26e	-0.76077926
21	0xbf1caa34	-0.6119721
22	0xbf284ae9	-0.65739304
23	0xbf31b456	-0.69415796
24	0xbf45e98a	-0.7730948
25	0x3f288162	0.6582242
26	0x3f2c7f4b	0.67381734
27	0xbf3fca72	-0.7491828
28	0x3f340982	0.7032701
29	0xbf2dbf5d	-0.6787012
30	0xbf2eb0b2	-0.68238366
31	0xbf10d963	-0.56581706
32	0x3f172d59	0.5905357
33	0xbf2aa6f9	-0.6666103
34	0xbf2fea34	-0.6871674
35	0xbf2c9bde	-0.67425334
36	0xbf2a73e8	-0.6658311
37	0xbf14cf0c	-0.5812843
38	0xbf49047d	-0.78522474
39	0x3f0c530a	0.5481421
40	0xbf4637b3	-0.7742874
41	0x3f44f3ad	0.7693432
42	0x3f37bf07	0.7177586
43	0xbf25d2dc	-0.6477487
44	0x3f4afd25	0.7929252
45	0x3f4550b1	0.7707625
46	0xbf153228	-0.5827966
47	0x3f25005a	0.6445366
48	0xbf2c426d	-0.6728886
49	0xbf34f546	-0.7068676
50	0x3f2a8100	0.6660309
51	0xbf3d55ac	-0.7395885
52	0x3f313dca	0.6923491
53	0xbf2a9ba0	-0.66643715
54	0x3f15a438	0.584537
55	0x3f2b7bd5	0.6698583
56	0x3f25cb2f	0.6476316
57	0x3f109d71	0.56490237
58	0xbf3ad01c	-0.729738
59	0xbf20d699	-0.6282745
60	0xbf26514d	-0.64967805
61	0x3f32729c	0.6970613
62	0x3f4d4647	0.8018536
63	0x3f1d753d	0.61507016
64	0x3ded11f1	0.11575688
65	0xbe771ad3	-0.24131326
66	0x3d871c3d	0.06597183
67	0x3e1c9231	0.15290143
68	0xbc892fce	-0.016746428
69	0xbe75e36b	-0.24012534
70	0xbcc73c87	-0.024320854
71	0xbe4cd73b	-0.20003979
72	0x3d0dee17	0.03465089
73	0xbd6597e2	-0.05605305
74	0x3e2a7274	0.16645223
75	0x3dbad778	0.09123129
76	0x3debac5b	0.115074836
77	0x3d23105b	0.03981052
78	0x3dd6ce92	0.10488619
79	0xbdc01ed6	-0.093808815
80	0x3ca69750	0.020335823
81	0x3c552ad1	0.0130106965
82	0x3cc8a5ab	0.02449306
83	0x3c4c0dc1	0.012454451
84	0x3bb85aa4	0.0056260396
85	0xbee79d87	-0.4523737
86	0x3e31a2d4	0.1734727
87	0x3ec88006	0.39160174
88	0xbe18432b	-0.14869373
89	0x3bf3c9f8	0.007439848
90	0x3d0158ff	0.031579014
91	0xbe186922	-0.14883855
92	0xbd9cf34b	-0.07663592
93	0xbe373cd2	-0.17894295
94	0xbf23d24c	-0.6399276
95	0xbddaf341	-0.10690928
96	0x3de647b4	0.11244145
97	0xbd98175e	-0.07426332
98	0x3f15a449	0.58453804
99	0x3d958ffc	0.073028535
100	0x3ed7e7a7	0.42168924
101	0xbe0fda57	-0.14048134
102	0xbc81ee49	-0.015860694
103	0x3dbf8db5	0.093532
104	0x3bb8e098	0.005642008
105	0xbd249dfe	-0.040189736
106	0x3e8fff0b	0.2812427
107	0x3eabfeed	0.3359293
108	0xbce2374b	-0.027614256
109	0xbf83785e	-1.0271108
110	0x3d2d3206	0.042284034
111	0x3d5ba1a5	0.053620953
112	0x3dbe2fc7	0.092864566
113	0x3e75e72e	0.2401397
114	0xbeac83bd	-0.33694258
115	0xbdaac013	-0.083374165
116	0x3d70cb33	0.058787536
117	0xbd8e0db8	-0.069362104
118	0xbdc342d6	-0.09534232
119	0x3cb8839d	0.022523696
120	0xbe68f175	-0.22748359
121	0xbdf29484	-0.11844733
122	0xbd4c4bfd	-0.049877156
123	0xbbaf8379	-0.005356249
124	0xbea2f271	-0.31825593
125	0xbd31814f	-0.04333621
126	0xbe1f6340	-0.15565205
127	0x3e478116	0.19482836
128	0xbce1f5ac	-0.027582966
129	0xbc8f4ca0	-0.017492592
130	0x3d93cb2d	0.07216487
131	0xbd908d9c	-0.0705826
132	0xbde15013	-0.11001601
133	0xbded495d	-0.115862586
134	0xbc355e6b	-0.011069874
135	0x3d339a41	0.04384828
136	0x3d54721e	0.051866643
137	0xbd4e064e	-0.05029898
138	0x3b9c0f13	0.004762539
139	0x3a161e16	0.0005726529
140	0x3d9222eb	0.07135566
141	0xbda389b9	-0.07985253
142	0x3db11ac4	0.08647683
143	0xbcbccd2c	-0.023047052
144	0x3d745181	0.05964804
145	0xbdc76cd2	-0.09737553
146	0xbd529463	-0.051411044
147	0xbd947c5f	-0.072502844
148	0xbd5f6d3a	-0.054547526
149	0xbdbb9274	-0.09158793
150	0x3d08b74f	0.03337794
151	0x3e031b84	0.12803465
152	0x3dcad52e	0.09903942
153	0xbdab0fd3	-0.083526276
154	0xbc96c290	-0.018403322
155	0xbce77602	-0.028254513
156	0xbd73217d	-0.05935811
157	0xbd47a38d	-0.04873996
158	0x3d2034e1	0.03911293
159	0xbd45fcd5	-0.048336823
160	0xbdab5e82	-0.08367635
161	0x3cbcf485	0.023065815
162	0x3dfa21fd	0.12213514
163	0x3a26de13	0.0006365489
164	0x3e0155ce	0.12630388
165	0xbd9ebdd7	-0.07751053
166	0x3de238cd	0.1104599
167	0xbc1105a3	-0.008851442
168	0x3dc2bb10	0.095083356
169	0x3bd36609	0.0064513725
170	0x3cd34765	0.02579088
171	0xbdc63c6c	-0.09679493
172	0xbceed9fd	-0.02915668
173	0xbbc4db09	-0.0060075563
174	0xbc72d99d	-0.014822391
175	0x3d9ad987	0.07561021
176	0xbd266c8d	-0.040630866
177	0xbd362981	-0.044473175
178	0xbdc5f1ad	-0.096652366
179	0x3d3ffd4a	0.046872415
180	0x3dc70432	0.09717597
181	0x3cd8e45c	0.026476078
182	0xbda9502c	-0.08267245
183	0x3d33cdce	0.043897443
184	0x3c4b2f4d	0.012401414
185	0x3d981c89	0.07427318
186	0x3b8f3fe7	0.0043716314
187	0x3dfcca78	0.12343305
188	0x3de9a1bd	0.11407802
189	0xbdb0289d	-0.08601496
190	0x3db94c39	0.090477414
191	0xbd411c3e	-0.047146074
192	0xbf5eda1e	-0.8705157
193	0xbf19c510	-0.6006632
194	0xbf568177	-0.837913
195	0x3f48b03e	0.78393924
196	0x3f5e3c88	0.86811113
197	0xbf431bc6	-0.76214254
198	0x3f5ea5dd	0.8697184
199	0xbf337b47	-0.7010998
200	0x3f37ce49	0.7179914
201	0xbf2c51e8	-0.6731248
202	0x3f36d779	0.71422535
203	0x3f346e36	0.7048067
204	0x3f25a52f	0.64705175
205	0x3f5f19ad	0.87148553
206	0x3f2fed4d	0.6872147
207	0x3f557072	0.833747
208	0xbf35ee2f	-0.71066564
209	0xbf3b2794	-0.73107266
210	0x3f534e19	0.8254104
211	0x3f5167b6	0.81798875
212	0xbf2556eb	-0.6458575
213	0xbf43b95c	-0.7645471
214	0xbf2ea423	-0.682192
215	0xbf59034c	-0.84770656
216	0xbf449ddc	-0.76803374
217	0x3f3ee200	0.745636
218	0x3f1ce6b2	0.61289513
219	0xbf4c8d8a	-0.7990347
220	0x3f4637bd	0.774288
221	0xbf1fcfcb	-0.6242644
222	0xbf37f166	-0.7185272
223	0xbf4679e5	-0.77529746
224	0x3f3730bc	0.7155874
225	0xbf4baaf0	-0.79557705
226	0xbf59073f	-0.8477668
227	0xbf5560cc	-0.83350825
228	0xbf59f683	-0.8514177
229	0xbf33f725	-0.7029899
230	0xbf4e5434	-0.80597234
231	0x3f35576e	0.7083653
232	0xbf224948	-0.6339307
233	0x3f223bb0	0.63372326
234	0x3f4a2ca3	0.7897436
235	0xbf612301	-0.87944037
236	0x3f1f1465	0.62140495
237	0x3f7a5a11	0.9779368
238	0xbf4f21c3	-0.8091089
239	0x3f500b03	0.812668
240	0xbf21c752	-0.63194764
241	0xbf3669ed	-0.7125538
242	0x3f33096c	0.6993625
243	0xbf321cf7	-0.69575447
244	0x3f40bb50	0.75285816
245	0xbf4101e8	-0.75393534
246	0x3f3e92b5	0.7444261
247	0x3f63ce29	0.8898645
248	0x3f45d514	0.77278256
249	0x3f4b5f73	0.7944252
250	0xbf4c02fe	-0.79692066
251	0xbf422b37	-0.7584719
252	0xbf1a1789	-0.6019216
253	0x3f3a233e	0.72710025
254	0x3f52802f	0.8222684
255	0x3f319cbc	0.6937978

fc_layer.bias f4 [64]
0	0x3f3e34f5	0.74299556
1	0xbc118a52	-0.008883076
2	0xbdf18036	-0.117920324
3	0x3f57c264	0.8428099
4	0x3f0cd629	0.5501428
5	0x3f4b754d	0.7947586
6	0x3f44104c	0.7658737
7	0xbc2c0732	-0.010499762
8	0x3d9de72e	0.0771011
9	0x3f436863	0.76331156
10	0x3f566d7a	0.837608
11	0x3f46d616	0.7767042
12	0x3f059c2a	0.5219141
13	0x3d8610cd	0.06546173
14	0x3dca0493	0.09864154
15	0xbdb3dcd7	-0.08782356
16	0x3d4ae2e7	0.049532797
17	0xbdb7acc0	-0.08968496
18	0x3f0a7e37	0.5409884
19	0x3e8bdbd8	0.27316165
20	0x3e838d96	0.2569396
21	0x3ea9c608	0.33158898
22	0x3ea122f9	0.31471995
23	0x3d877ab0	0.06615198
24	0x3f37ec32	0.7184478
25	0x3f26d8fa	0.6517483
26	0xbdb4afad	-0.0882257
27	0x3f3926ad	0.7232464
28	0x3d8171ef	0.06320559
29	0x3e9d5cfe	0.3073501
30	0x3e7fcac8	0.24979699
31	0x3d9991d5	0.074985184
32	0x3f370b42	0.71501553
33	0x3eafd43c	0.3434161
34	0x3d0f98c1	0.035057787
35	0x3ec4c210	0.38429308
36	0x3d79031f	0.060793992
37	0x3f343f10	0.70408726
38	0xbd3c5372	-0.045978017
39	0x3ca05536	0.019571882
40	0xbe01ec74	-0.12687856
41	0x3f3b8e84	0.73264337
42	0x3f4fe9e0	0.8121624
43	0x3ebc5ba4	0.36788666
44	0x3e678a5b	0.22611372
45	0x3dc76cee	0.097375736
46	0x3f518242	0.8183938
47	0x3f4cbbe5	0.79974204
48	0x3dce44be	0.10071705
49	0x3f0dc43e	0.55377567
50	0x3f496afa	0.7867886
51	0x3f144b87	0.57927746
52	0x3f1f9f99	0.623529
53	0x3ea2d9a8	0.31806684
54	0x3f3a9ffe	0.7290038
55	0x3f3c9b15	0.73674136
56	0x3f2c7729	0.67369324
57	0x3f4fdf6d	0.81200296
58	0x3f46d687	0.7767109
59	0x3f039346	0.51396596
60	0x3b3b8a93	0.0028616532
61	0x3ea3cf8c	0.31994283
62	0x3f1f73c1	0.62286
63	0xbda4bc3c	-0.08043715

output_layer.weight f4 [1, 64]
0	0x3f55703c	0.8337438
1	0xbf03b4de	-0.51447856
2	0xbca18898	-0.019718453
3	0x3f3c9489	0.73664147
4	0x3f515014	0.81762815
5	0x3f4547a2	0.7706243
6	0x3f4ec025	0.8076194
7	0xbf266ae3	-0.65006846
8	0xbf9d8f18	-1.2309294
9	0x3f4b98d7	0.7953009
10	0x3f3ed40e	0.7454232
11	0x3f523618	0.8211379
12	0x3f51c407	0.8193974
13	0xbf51b682	-0.8191911
14	0xbf1d28af	-0.61390203
15	0xbeaef477	-0.34170887
16	0xbfa798de	-1.3093526
17	0xbf59394e	-0.84853065
18	0x3f58b03c	0.8464391
19	0xbf8b0e90	-1.0863819
20	0xbf7fcff8	-0.9992671
21	0xbf873233	-1.0562195
22	0xbf8a1dec	-1.0790381
23	0xbf125bd2	-0.57171357
24	0x3f446d42	0.76729214
25	0x3f55647a	0.8335644
26	0xbf89705a	-1.0737412
27	0x3f489a96	0.7836088
28	0xbf879a05	-1.0593878
29	0xbf9a6a0a	-1.206361
30	0xbf855a00	-1.0418091
31	0xbf0505c7	-0.5196194
32	0x3f521959	0.8206993
33	0xbf708bea	-0.9396349
34	0xbf3dd379	-0.74150807
35	0xbf77ea10	-0.96841526
36	0xbd9d30c5	-0.07675318
37	0x3f570a5a	0.8400017
38	0xbf43b57d	-0.76448804
39	0xbf4b912b	-0.79518384
40	0x3c70f768	0.014707424
41	0x3f545202	0.82937634
42	0x3f3f2443	0.74664706
43	0xbf7b74d3	-0.98225135
44	0xbf7bac30	-0.9830961
45	0xbefcfa68	-0.49409795
46	0x3fbf4dab	1.4945577
47	0x3f421f1e	0.7582873
48	0xbf3a674c	-0.7281387
49	0x3f4f2708	0.8091893
50	0x3f4f2235	0.8091157
51	0x3f40d735	0.7532838
52	0x3f4fc114	0.8115399
53	0xbf83bf71	-1.0292798
54	0x3f4368ec	0.76331973
55	0x3f56c94f	0.8390092
56	0x3f475141	0.7785836
57	0x3f3f6892	0.74768937
58	0x3f4754e7	0.77863926
59	0xbf74059a	-0.9532105
60	0xbf5f684c	-0.8726852
61	0xbf86d4a0	-1.0533638
62	0x3f596363	0.8491728
63	0xbbf2880f	-0.0074014734
