Conditional_TimeGAN/result/original/model/JK_lag1_total1/torch_best_model.pt (torch, 87834 bytes, 7 tensors)

lstm.weight_ih_l0 f4 [256, 1]
000000 05 71 1c 3c 98 bf ef 3d 13 36 4a bd 19 c1 29 bd
       0.00954843 0.117064655 -0.049367975 -0.041443918
000010 0a c5 be 3d 9f e2 f5 3c 05 4c 82 3d 23 27 9f 3d
       0.09314926 0.030015288 0.06362156 0.077711366
000020 44 92 41 3d 0e e2 aa 3c 70 a7 b7 bc 18 81 6f bc
       0.04725863 0.020859744 -0.022418708 -0.014618181
000030 0d 75 a1 bd 7d 7c b3 bc 2b 79 76 bc 39 9f 38 3d
       -0.07883654 -0.021909947 -0.015043537 0.04507372
000040 57 0c 8f 3d 44 b8 60 3d f7 9b 10 bd cc 69 9e bb
       0.069847755 0.05486323 -0.03530499 -0.0048343893
000050 51 54 ca 3d 0c 89 9a 3d 3d 7f 8f 3c 56 ac 0d 3e
       0.09879363 0.07545671 0.017516727 0.13835272
000060 57 7e 0c 3d f7 e6 9a 3d 6e 06 01 3e 81 c7 23 bd
       0.034300175 0.07563584 0.12600109 -0.039985184
000070 e6 66 32 bd 01 dd 2e bc cb 5a 3d bc 03 64 87 3d
       -0.043555163 -0.010672809 -0.011557291 0.066108726
000080 01 a5 23 bd 04 a4 12 bd 58 b9 d9 bc 9b 60 5b bd
       -0.03995228 -0.03580095 -0.026577637 -0.053558927
000090 02 c3 d7 bc 35 91 a4 3e 7e 15 58 3c 01 51 82 3d
       -0.026338104 0.32142034 0.013188718 0.063631065
0000a0 a0 c0 0b bb 22 b9 21 bd 15 f0 47 3d c2 e0 5d bc
       -0.002132453 -0.039483197 0.048812944 -0.013542356
0000b0 51 28 53 bd d7 0e 05 bd ad 81 ba 3d 16 9d 19 3e
       -0.05155212 -0.032484856 0.09106765 0.1500133
0000c0 52 4c 0a bc cf a0 83 bd 06 e9 bb 3d 60 d0 89 3d
       -0.008441048 -0.06427156 0.09175305 0.067291975
0000d0 a1 0e a3 3d 70 8a 6b 3d f8 d9 1d 3e 88 41 23 bd
       0.079617746 0.05750507 0.1541518 -0.039857417
0000e0 7b e9 8c 3d 55 90 3e bd 37 41 36 3d bf 94 29 bd
       0.0688047 -0.046524365 0.044495787 -0.04140162
0000f0 20 56 74 3d eb 7f c2 3d f9 28 21 bd b4 fb 26 3e
       0.059652448 0.09497055 -0.039345715 0.16306955
000100 3d ec bf 3d 13 c9 e9 3c 00 90 cc 3d a9 bc c5 3d
       0.09371231 0.028538262 0.09988403 0.09655125
000110 aa 2c ab 3d a3 f9 89 3d ba 65 47 bc 86 a8 79 3c
       0.08358128 0.067370676 -0.01217025 0.015237933
000120 67 bf 9c 3d aa 6d 5c 3e ac 57 8f 3e 08 c1 7b 3e
       0.076536946 0.21526209 0.27996576 0.24585354
000130 e9 a5 89 3e 75 c5 6c bc 31 0e 23 3d fc cd 90 3a
       0.26884392 -0.014451374 0.039808456 0.0011047716
000140 da 88 5c bc 5f 6e bc 3d f8 8d d7 3d 74 ec 29 3c
       -0.013460362 0.09200739 0.10525125 0.010371316
000150 3a 09 86 3d 57 0a 4f 3d 30 af fd 3c d0 0b b4 3c
       0.065447286 0.05054697 0.030967325 0.021978289
000160 b7 38 57 3d 7f 33 c6 3b 2e 29 80 3e b5 e3 81 3e
       0.052544322 0.0060486193 0.25031418 0.2536904
000170 aa 5d e8 3d be 6b 8f 3d 17 2a 94 ba ea 7e 99 bc
       0.1134599 0.07002972 -0.0011304048 -0.018737275
000180 e1 f2 99 3d 45 16 0c 3d d8 e1 94 bc 45 aa 4d bc
       0.075170286 0.034200925 -0.018174097 -0.012552802
000190 e2 69 30 3e 94 dd a5 3d ca 97 28 ba 11 47 ab 3c
       0.17227891 0.08098903 -0.000643131 0.02090791
0001a0 96 66 3d bc 99 86 22 3d d0 da 52 bc 9f be c1 3a
       -0.011560103 0.039679144 -0.012869552 0.0014781541
0001b0 85 ce 44 3d cf 5f b4 3d 53 5b cb 3c c4 2b d1 3d
       0.048048515 0.088073365 0.02482382 0.10213426
0001c0 d3 64 17 3c ef d3 a5 3e 39 63 c3 3d d5 21 a1 bc
       0.009240347 0.32388255 0.095404096 -0.019669453
0001d0 d0 be 5e 3c f0 96 27 3c 8b a3 11 3d 82 31 d7 3d
       0.013595298 0.010228857 0.035556357 0.1050749
0001e0 fc 20 20 3d e5 4d 14 3d bf 50 1a 3d 60 5c b4 3d
       0.039093956 0.0362071 0.03767466 0.08806682
0001f0 1a b9 91 bc 0c fc 84 bc 74 6b 20 bc 35 93 d7 3a
       -0.017788459 -0.016233467 -0.009791244 0.0016447069
000200 80 52 8a bc d0 d0 98 bc e4 59 ea bc 3b 01 f6 3c
       -0.016885042 -0.018654257 -0.028607316 0.030029884
000210 3f 00 6d bc 2e 57 38 b9 0e d4 25 3d e8 08 5b 3c
       -0.014465391 -0.00017580084 0.040485434 0.013368823
000220 b9 b7 4d 3b 8d 4b 9c 3b 72 ef b2 3c bf 65 bf 3c
       0.0031390025 0.0047697485 0.021842692 0.023363946
000230 92 e7 5d 3e 2f 1b 8e 3d 0c 2c ec 3a 6a 4c 63 3b
       0.21670368 0.069387786 0.0018018498 0.0034682998
000240 ac 6a ba be 78 91 fe bb 28 b0 7e 3d 8f b4 59 3a
       -0.3640951 -0.007768806 0.062179714 0.00083047984
000250 64 87 47 bb 44 cc 2e bc f2 ed 03 3c e5 d5 03 bd
       -0.003044569 -0.010668818 0.008052336 -0.032186408
000260 d7 28 d0 3b d2 00 cd 3c ff 77 5c 3d 3f 31 0e bd
       0.0063525247 0.025024805 0.053825375 -0.034714933
000270 8a 00 50 bb e0 d6 ed bd cd 09 14 bd 41 93 c4 bc
       -0.0031738603 -0.1161325 -0.03614216 -0.023995997
000280 41 dd 40 bd a9 49 85 bd 97 c9 21 be 98 69 1a be
       -0.047086004 -0.0650819 -0.15799557 -0.15079343
000290 71 9c 1a bc a8 fa 13 3b cb 0a 77 bb ad a9 4a 3a
       -0.009436713 0.0022579823 -0.0037695642 0.0007730972
0002a0 07 9a b2 bc 0e 04 01 3d ce 18 9f 3e 11 fd 48 bc
       -0.021801962 0.031498007 0.31073612 -0.012267367
0002b0 4f 8b de 3c 3a 73 2d 3d 30 be 1f 3c 88 02 01 3c
       0.027166037 0.042346217 0.009749934 0.007874139
0002c0 0d 91 f5 bb 1a 99 4f be 04 a7 94 3b 9c e9 9d bc
       -0.007494098 -0.20273247 0.0045365114 -0.019276433
0002d0 27 ee 21 3c e8 13 c1 bc 76 bb a4 3c c2 8a 05 3d
       0.00988344 -0.023569062 0.02010892 0.032603033
0002e0 30 02 94 3c 8c 16 f3 3c fb c3 c2 bc 88 04 97 bb
       0.01806745 0.029673837 -0.023775091 -0.0046086945
0002f0 b4 77 cc bc d4 82 bb 3d aa 31 76 3d 22 9a 5e 3d
       -0.024959423 0.09155813 0.060105957 0.05434621
000300 2e b1 8b bc 52 a2 14 3d 55 8c 29 bc 65 aa 0f 3d
       -0.01705226 0.036287613 -0.010348399 0.03507461
000310 8f 1f b2 3c 60 aa 4a 3d 3a 1b ba bb a4 94 02 3d
       0.021743564 0.04947889 -0.005679515 0.031880036
000320 51 2c 0e 3d 9c 40 ee 3d 6e a2 62 3d 5b c2 47 3c
       0.034710232 0.11633417 0.055330686 0.012192334
000330 ad 0a 84 3c e7 d8 ca 3c 43 ed 4a 3d 58 72 3b 3d
       0.016118372 0.02476163 0.049542677 0.045763344
000340 7f 12 e0 3b 93 3d 1a 3d 08 ce d9 3c a4 4e e4 bb
       0.0068381424 0.037656378 0.026587501 -0.0069673825
000350 05 b8 0f 3e b6 52 53 3d 62 a6 76 3d 68 a6 ce 3d
       0.14035042 0.05159255 0.06021727 0.10090333
000360 12 0e ad ba 84 87 af bb 13 66 26 3c 23 c7 68 3c
       -0.0013203046 -0.005356731 0.010156172 0.014207634
000370 b8 99 79 3b 55 58 7e 3c f6 7b 55 3c a4 9f 0e bc
       0.0038086008 0.01552399 0.013030043 -0.0087050535
000380 ac 06 60 3c 61 27 54 3b 87 b1 f2 3b 6c ee ee 3c
       0.013673466 0.0032372104 0.007406417 0.029166423
000390 f6 0b 00 3d 65 ee 34 3d 65 78 c9 3c 3e eb c4 3c
       0.031261407 0.044172663 0.024593541 0.024037953
0003a0 fc ec 15 3d ba cd 6f 3c db 18 57 3c fd ca 50 3c
       0.03660296 0.014636451 0.013128485 0.012743709
0003b0 3a 54 5b 3c 52 e1 75 3b a8 7c b7 3c fc 61 9a 3a
       0.01338678 0.0037518335 0.022398308 0.0011778469
0003c0 90 4c 26 3c 1e 05 1d 3c 90 f6 6e 3c 61 b7 6a bc
       0.01015009 0.00958374 0.014585152 -0.0143259475
0003d0 90 8b 09 3c 09 54 f7 3c 24 3c ea 3d e1 07 77 3c
       0.008395091 0.030191438 0.11437252 0.015077562
0003e0 27 8a 6c 3d 5b d8 22 3d e1 ea 1c 3d 3f b9 06 3d
       0.05774894 0.039757114 0.038309935 0.03289151
0003f0 62 ae 80 3c e1 e2 c1 3b 93 ac 9b 3c 6c 24 5b 3c
       0.015708152 0.0059169387 0.019003188 0.013375383

lstm.weight_hh_l0 f4 [256, 64]
000000 94 0d 35 be 63 c8 00 3e 25 c9 17 be cd 11 b6 3c
       -0.17680961 0.12576441 -0.14822824 0.022225285
000010 83 c1 77 bd a6 2e 63 3d 07 48 0c 3e f7 fb 70 bd
       -0.06048728 0.05546441 0.13699351 -0.058834042
000020 12 07 84 3d 1b 75 ed bd f7 30 04 3c bd d6 2f 3e
       0.06446661 -0.11594602 0.008068315 0.1717176
000030 b3 48 59 3e 46 8c 81 3d e5 c9 7d bd e9 0d d9 bc
       0.21219139 0.06325583 -0.06196012 -0.02649589
000040 de 68 1a be 43 09 ed 3b 1f 4c ae 3d 55 71 42 be
       -0.15079066 0.00723377 0.08510613 -0.18988545
000050 9e f7 4e 3e 74 bd e0 3c 04 c3 36 be bc dd 0d 3e
       0.20211646 0.027434088 -0.1784783 0.13854116
000060 e1 fa 42 3d cf 52 fc bc 01 64 70 bd 6c 57 54 3d
       0.047602538 -0.030801205 -0.05868912 0.051841184
000070 0f 26 ff 3d 21 d6 46 3d cd 25 bc bd 94 15 04 bc
       0.12458431 0.048544053 -0.091868974 -0.008061785
000080 9f 29 16 be 4d a5 10 be 0b 9b 3b be 51 ba 84 bd
       -0.14664315 -0.14125557 -0.18320863 -0.064808495
000090 a7 0f b7 bc be 3f 8f 3d 58 69 bd bd 8f 84 c2 bc
       -0.02234633 0.0699458 -0.09248608 -0.02374485
0000a0 b5 08 3f 3d 2d 9f 16 3d 1f 79 c1 3d 99 92 a0 bd
       0.046639163 0.036772896 0.0944693 -0.07840461
0000b0 a7 4d 3f 3d 12 74 b4 3d 20 bb fb bd fe 3a bc 3d
       0.046704914 0.08811201 -0.12291551 0.09190939
0000c0 c8 cb 75 bc fe 47 57 be ef 93 0e 3e 32 1f 00 3c
       -0.0150021985 -0.21023557 0.1392362 0.007819938
0000d0 73 f8 38 3d dc 1c 82 3c 59 e0 01 be ed 61 b2 3d
       0.045158815 0.015882902 -0.12683238 0.08710084
0000e0 93 03 8c 3c ba 46 7d 3d 55 91 b8 3d 39 4a a6 bd
       0.017091548 0.06183503 0.09012095 -0.081196256
0000f0 f5 26 d2 bd 1c 6e cf 3d 15 2f 24 3e b4 70 a9 3d
       -0.10261337 0.101284236 0.16033585 0.082734495
000100 8f 98 d8 3d 86 59 c7 3c 7c 93 b4 3c d6 87 04 be
       0.10575973 0.02433468 0.022042982 -0.12942442
000110 81 f1 c1 bd 86 36 eb bd 7e 7c 9b bc 82 c9 02 3e
       -0.09469891 -0.11485009 -0.018980261 0.12772182
000120 a7 36 6d 3c e6 01 fc 3d 30 8c 83 be 7d 76 ea bd
       0.014478362 0.123050496 -0.25692892 -0.11448381
000130 06 da 28 3c 2a de 52 3e e1 a5 09 bd 55 a8 bc bd
       0.010305887 0.20592561 -0.03360546 -0.09211794
000140 7a 9b d1 3c e4 52 2e 3e 68 bc 62 3d 84 14 04 3e
       0.025586832 0.17023808 0.05535546 0.12898451
000150 01 de 7f bb 9c 7e 87 bc 80 95 62 3e 3b a6 59 3d
       -0.0039042237 -0.016539864 0.22127342 0.053137045
000160 fe 80 0e bd d2 9c 9f 3b 87 51 45 3e 9a c4 5b 3e
       -0.034790985 0.0048709894 0.19269381 0.21461716
000170 ce a5 45 be 08 be 0b be 36 06 41 be cd 72 0f 3e
       -0.1930153 -0.1364671 -0.18850026 0.14008637
000180 87 6a e7 3d 99 28 04 bd 31 2f e7 3d df 54 59 3e
       0.11299615 -0.03226528 0.11288298 0.21223782
000190 a5 a2 89 be 0d f1 01 bd e8 6a 50 bb 1b 0a e6 3d
       -0.268819 -0.031724025 -0.0031802002 0.11232396
0001a0 4e 5d 59 bd 72 8a c9 3d 8d 12 b0 3d b6 d6 09 3e
       -0.053067498 0.098408595 0.08597288 0.13460812
0001b0 5b 6f 28 3e 15 cf 26 bd 00 a4 2c 3e 82 9f 8f bd
       0.16448729 -0.040724833 0.16859436 -0.070128456
0001c0 14 b1 c6 bd e8 19 75 be dc 6c 24 be a1 bd 16 3e
       -0.09701744 -0.23935664 -0.16057152 0.14720775
0001d0 b6 9f ef bd b5 91 0c be ef fc 3e be 95 01 30 be
       -0.11700384 -0.13727458 -0.18651174 -0.17188103
0001e0 51 67 75 3d 3c f0 bb b8 ac 80 50 3e a1 1a 0d 3e
       0.059912983 -8.961602e-05 0.20361584 0.1377969
0001f0 5a e4 24 bd ef 39 f6 bd ab 10 11 3e d6 40 98 3c
       -0.040256836 -0.12022769 0.14166515 0.018585604
000200 68 95 4b bd ca f4 17 3e 1f 70 c6 bd ff dc 38 3e
       -0.04970303 0.14839473 -0.09689354 0.18053053
000210 39 de 8e 3e 62 b1 9a bc 19 3a 19 3e 92 ec ca bd
       0.27903917 -0.01888341 0.14963569 -0.099084035
000220 8c 6c 1b bd 0a e5 1a be 86 80 af 3c f7 a4 3e 3e
       -0.037945315 -0.15126434 0.02142359 0.18617617
000230 2e a7 6a 3e 53 be 3b 3d b0 1c 87 3c f0 d6 f1 3d
       0.22915336 0.045835804 0.016493171 0.11808574
000240 6d 08 23 3d 4e 5b df bc 41 8c c9 bc 0b 2b 42 3d
       0.039802957 -0.027265217 -0.024603011 0.04740433
000250 e8 8e 04 3d d4 ba 26 be f7 6b 16 3d 13 d8 c1 3d
       0.03236285 -0.16282207 0.036724057 0.09465041
000260 a5 d5 18 be 77 b5 18 3e 20 da 11 bd 5f ab bf be
       -0.14925249 0.14912973 -0.03560841 -0.37435433
000270 42 3e 6a 3e 5a a7 2e bd 7c 93 0d be d3 14 d1 bd
       0.22875312 -0.042640068 -0.13825792 -0.1020905
000280 ce ce 31 be 41 c9 d1 bd 38 5c bd bd 5b be c5 bd
       -0.17364046 -0.10243464 -0.09246105 -0.09655448
000290 6c be 50 bd 94 40 9c 3c 11 d1 54 bd 88 c0 94 3d
       -0.05096285 0.019073762 -0.051957194 0.07263285
0002a0 ca 38 b2 3c 68 0d 66 bc 09 89 1a 3c 4e 93 6a be
       0.021755595 -0.014041282 0.009432086 -0.22907755
0002b0 86 0d 1e 3d 78 37 8b 3e 2b 03 3e be 8b 7c e0 3d
       0.038587116 0.27190757 -0.18555896 0.10961255
0002c0 f0 3e c1 3d a5 0f 95 bd 95 a2 1f 3a 29 32 e0 bd
       0.094358325 -0.072783746 0.0006089595 -0.10947067
0002d0 90 33 61 3d 22 6d da bd 74 2b e0 3d 16 a0 41 3d
       0.054980814 -0.10665347 0.10945788 0.04727181
0002e0 a4 91 09 be 43 bd 9c b8 66 d3 eb bd c3 92 9b 3d
       -0.13434464 -7.4739124e-05 -0.115149304 0.07596352
0002f0 31 5f 14 be 58 cd 31 3e aa 35 bb 3c c6 7f f2 3d
       -0.14489438 0.17363489 0.022852737 0.11840777
000300 c4 94 40 bd 05 35 db bd 42 08 1d be 46 e3 9d 3e
       -0.047016874 -0.10703472 -0.15335181 0.30837458
000310 00 1c c0 3e f1 ba 25 ba 1a cd 02 3c fb dc 3a 3d
       0.37521362 -0.0006322107 0.00798347 0.0456209
000320 41 df 08 3d 49 e2 3e bd ff 91 ee 3d c7 48 e4 3c
       0.033416037 -0.04660252 0.1164894 0.027866734
000330 69 d4 bc 3c 73 d6 29 bd 8f 37 e2 3c b8 7d db bd
       0.023050504 -0.04146428 0.027614383 -0.10717338
000340 c1 be 11 3d 11 ec 45 3d 89 f7 0e 3e 5b e6 dc bd
       0.035582308 0.048320834 0.13961615 -0.10786124
000350 65 be 0c be 33 70 68 bd c2 8a 05 bb 26 ac e9 3d
       -0.13744505 -0.056747627 -0.0020376896 0.11409788
000360 a9 11 f9 3b f8 18 2b 3d 04 c4 4c 3d 7f 93 04 bf
       0.007600982 0.04177186 0.049991623 -0.5178756
000370 57 d4 b3 3d f3 b7 26 3d 58 4d a9 bd a7 ab f3 3c
       0.08780735 0.04070277 -0.08266705 0.029744936
000380 e5 43 b4 be 28 e6 04 be 95 32 3f be 1d b3 85 be
       -0.3520805 -0.12978423 -0.1867164 -0.26113215
000390 6e c1 d0 bd 9c f1 15 3e 1d 21 3d 3d 09 66 95 3d
       -0.10193144 0.14642948 0.046174157 0.07294852
0003a0 33 9e 54 bc 28 59 b4 3c 7d 41 03 bd a6 47 a4 be
       -0.012977171 0.02201517 -0.032044876 -0.32085913
0003b0 78 09 2e 3e 28 7c 8b 3e 1b 00 5e 3d f6 5e 1f bc
       0.169958 0.2724316 0.05419932 -0.00972723
0003c0 d6 28 f7 bd 32 db 19 be 93 da 43 3e b9 d8 a6 3d
       -0.12068336 -0.15025023 0.19126348 0.08146805
0003d0 46 31 d7 bd 7a e8 15 3e 09 52 06 3d 47 27 ad 3e
       -0.10507445 0.14639464 0.03279308 0.3381903
0003e0 05 09 8a bc 27 e2 1b 3e b2 5d 50 bd 7f 20 e1 bc
       -0.016850004 0.15222989 -0.050870605 -0.027481316
0003f0 89 f6 1c bd fa e0 bc 3d e2 06 25 3e b4 73 08 3e
       -0.03832105 0.092225984 0.16115907 0.13325387

lstm.bias_ih_l0 f4 [256]
000000 93 03 1c 3e 7c 40 dc bb 7e 4c 50 3d a9 d7 0c 3e
       0.15235738 -0.0067215543 0.0508542 0.13754143
000010 13 54 42 3e 54 79 a7 bd 83 45 b4 bd 2b 7c 7a be
       0.18977384 -0.081774384 -0.08802321 -0.24461429
000020 d1 85 ce ba f8 66 41 be 22 0d ae 3d 5f aa 51 bd
       -0.0015756433 -0.18886936 0.08498599 -0.05118787
000030 81 67 d4 bb 9c bf 05 3e 4a de 62 3e 60 82 0f 3e
       -0.006482065 0.13061374 0.22155109 0.14014578
000040 b7 25 ed 3d f3 3d 0d bd d8 ef 62 bb f0 a5 ff 3d
       0.11579459 -0.034482908 -0.0034627821 0.12482822
000050 da f5 ae 3d f3 6f 6e bd 0c bb cc 3d 87 58 8f 3d
       0.08542986 -0.05821223 0.09996614 0.06999307
000060 e2 74 c2 3d 2b 39 2b bd 13 30 f5 3d a1 1c be bc
       0.0949495 -0.041802566 0.1197206 -0.02320701
000070 72 84 00 3d 15 71 5c 3d 5a fb 87 3d 72 fe 12 be
       0.03137631 0.05381878 0.066397384 -0.14354876
000080 fe 1e 6b 3d 47 b3 1b 3e 87 67 4a 3d a2 41 e6 3d
       0.057402603 0.15205108 0.049415138 0.11242987
000090 e3 4b dd 3d b0 a0 e7 3d d8 2b 26 3d 3d 44 34 3d
       0.1080549 0.113099456 0.040569156 0.04401039
0000a0 88 86 74 bd eb ef b9 3c 07 17 93 bc 25 b9 49 3e
       -0.05969861 0.02269741 -0.017955316 0.19699533
0000b0 3f a6 37 3e 51 6c 4b 3e e6 f4 af bd b2 5d 6e 3c
       0.17934512 0.19865538 -0.085916325 0.014548706
0000c0 70 b6 21 3a 3c 75 0e bd 8b ee ac 3d 1b 1b 33 bd
       0.0006168848 -0.034779772 0.08443936 -0.04372702
0000d0 31 df 48 bd 4d f2 86 3d da f6 b1 3e fa 93 6f 3d
       -0.049040977 0.06589184 0.34758645 0.05849073
0000e0 31 40 c2 3d 7a 39 e5 3d f3 e0 04 3e 65 34 3f 3d
       0.094849 0.111926034 0.12976436 0.046680827
0000f0 e0 d0 e4 3b 0c be 55 bd ae 2f 05 3e 44 8f 4d ba
       0.0069829077 -0.052183196 0.1300647 -0.00078414776
000100 7e 64 9b 3d 85 e1 3a bd f2 46 e6 3c af ca ee 3d
       0.07587527 -0.04562523 0.028110001 0.116597526
000110 0b 86 56 bd 81 d7 01 be e2 9a 10 3d a6 36 83 3c
       -0.052373927 -0.12679864 0.035303958 0.01601727
000120 c0 87 26 bd b6 60 f5 3b 65 0a f3 3b d8 b1 d3 3d
       -0.040656805 0.0074883355 0.0074170106 0.103366554
000130 7d ce be 3d 96 ec ed 3d f2 bd 68 3d 41 3d aa 3d
       0.09316728 0.11617391 0.05682177 0.083124645
000140 ae 6c ac 3d 02 ee d9 bc e5 7c ee 3c 0e a1 ff 3d
       0.084191665 -0.026602749 0.029112289 0.124818906
000150 ef 0e 5f bb 72 40 27 bd be 5a 2c 3d 0c 4b ea 3d
       -0.0034036 -0.040832944 0.042078726 0.11440095
000160 2d 99 6c 3d 61 a9 a9 3d eb eb 80 3e 16 6d a6 3c
       0.057763267 0.082842596 0.2517999 0.020315688
000170 8e da f9 3d 7f 0c 86 3d b5 5c 00 3e 62 b4 42 bc
       0.12199889 0.06545352 0.12535365 -0.011883827
000180 0c 69 12 bb a8 d2 08 3d dc 63 26 3e 58 03 47 bc
       -0.0022340445 0.033404022 0.16249031 -0.012146793
000190 8f 18 e2 3d e6 02 ff bb 15 3b f2 3d 04 49 73 3d
       0.110398404 -0.007782328 0.11827675 0.059395805
0001a0 f9 0e e7 3d e1 80 f0 3d 5d 35 00 3e 47 da f3 3d
       0.11282153 0.11743332 0.12520356 0.119068675
0001b0 52 9f 2e 3e ea 6f ad bd 47 2f 08 bd 49 d0 03 be
       0.17052963 -0.084686115 -0.033248212 -0.12872423
0001c0 53 4a 94 bc e0 e5 b4 bd 98 2c bb bd 7a b1 fc 3d
       -0.018101847 -0.08832908 -0.09139365 0.123385385
0001d0 1b ff 05 3d 81 7e 72 3c 3e 36 03 3d 1a aa 60 3d
       0.03271399 0.014800669 0.03203415 0.05484972
0001e0 34 49 51 3d f6 91 02 3a 75 4a 1f 3e 15 71 d3 3d
       0.051095203 0.00049808563 0.15555747 0.10324303
0001f0 b4 7e d4 3d df 9a af 3c e9 1b 26 bd fb e8 9c 3c
       0.10375729 0.021436153 -0.04055396 0.019154062
000200 1d cc 67 3d f4 d8 b6 3c 3a 6d 28 bd 52 33 b9 bd
       0.056591142 0.022320248 -0.04111979 -0.09042992
000210 ac 66 cc 3d 59 0e 35 3d 05 fb b6 bc 48 bc 29 bd
       0.099805206 0.044203136 -0.022336492 -0.041439325
000220 b4 d7 b2 3d 52 15 f3 bd 53 5d 0e be fc b8 03 be
       0.08732548 -0.11869301 -0.13902788 -0.12863535
000230 74 8f fa bb 69 65 e1 bd e5 c8 2d be db 8a 6c bc
       -0.0076464955 -0.110056706 -0.16971166 -0.014437403
000240 42 20 df be fb 1e 96 bc d7 00 45 3d 5b 33 9a 3d
       -0.43579298 -0.01832532 0.048096504 0.075293265
000250 8e c1 e3 3d 40 c2 56 3e 89 d3 27 3d 32 6e 5c 3e
       0.11120902 0.20972538 0.04097322 0.21526411
000260 18 e3 a5 3c 87 c2 b6 bd 49 ed 20 3b bd 70 6a 3d
       0.020249888 -0.08923822 0.0024555495 0.05723642
000270 ff 66 e0 bd b3 b0 80 3e f9 53 c7 bd 23 20 b7 3d
       -0.10957145 0.2513481 -0.097328134 0.089416765
000280 60 ee 18 bd 4e c7 94 bd 62 26 b7 bd 14 95 a8 bd
       -0.037336707 -0.07264577 -0.08942868 -0.082315594
000290 9c 27 b6 3d 8d 05 f6 bd 2b 36 20 3e dc 53 18 be
       0.08894274 -0.120127775 0.15645663 -0.1487574
0002a0 71 68 f1 3d 34 3c e0 3d b1 ca cf 3e 9d 9e b0 3d
       0.11787499 0.10948983 0.4058433 0.08624003
0002b0 93 4e 80 bd 23 78 f6 bc 50 2a e0 ba 7a be 3c be
       -0.06264987 -0.030086583 -0.0017102454 -0.18432036
0002c0 89 ce ed 3d 4b 1d 41 3e 5a ad d8 bd c4 4f f7 3c
       0.11611659 0.1885883 -0.10579939 0.030189402
0002d0 5d 99 5c 3d c2 2d 70 3d 27 cd 10 be 91 42 c8 bd
       0.053857196 0.058637388 -0.1414076 -0.097783215
0002e0 81 b0 a6 bd b0 59 bb bd 39 10 5f 3e 82 94 fe 3d
       -0.08139134 -0.09147966 0.21783532 0.12430669
0002f0 7f 8b 24 3b 1b 81 eb bd 8c 82 1f 3c 30 e9 00 be
       0.002510756 -0.11499234 0.009735715 -0.12588954
000300 8c 01 2f 3e 99 20 1d 3c 7a 9d 1e 3e 9d da 37 3e
       0.17090434 0.009590291 0.1548976 0.17954488
000310 8d d9 97 3b 8c 41 80 be 89 61 0d 3e 7e 53 c3 bb
       0.0046340884 -0.25050008 0.13806738 -0.005960881
000320 d2 80 ed bd 4d fd 44 be 53 d7 a2 3c 3e 37 b0 3d
       -0.11596836 -0.19237252 0.019878065 0.086042866
000330 94 23 39 3e d9 4e 24 be 8d 43 7f bc 9a 09 55 bd
       0.18079978 -0.16045703 -0.01558007 -0.05201111
000340 43 26 46 bd e2 b1 fd bd b6 27 52 be 49 4f 6c bd
       -0.048376333 -0.12387444 -0.20522961 -0.0576928
000350 e2 09 bb 3c fc 9a aa ba 88 a4 18 be e9 d1 e3 bd
       0.02283186 -0.001301616 -0.14906514 -0.111240216
000360 85 73 3f 3e 51 16 bf 3d 43 0c 39 be d9 57 3d 3e
       0.18696411 0.093304284 -0.18071084 0.18490542
000370 e9 97 47 bd bb 59 67 be 10 45 12 be b0 ac 59 bc
       -0.048728857 -0.22592823 -0.14284158 -0.013285801
000380 0a e8 07 3e 56 0c df bd c0 74 ed bb 22 28 5c be
       0.1327211 -0.10891025 -0.0072465837 -0.21499684
000390 46 64 9a 3d 50 f6 12 3d e0 5c 46 bc d4 52 09 be
       0.07538657 0.035879433 -0.012107104 -0.13410503
0003a0 9b 06 5f bd 08 43 5f be c7 ff 51 be b0 20 88 3d
       -0.05444966 -0.21802914 -0.20507728 0.0664686
0003b0 9a 0c 6a be 3b df cc 3d bf f9 ab bc 66 21 0d be
       -0.2285637 0.10003515 -0.020993112 -0.13782272
0003c0 aa 0b 08 be 67 66 10 be fb 16 3d 3e 1b d6 a6 bd
       -0.132857 -0.14101563 0.18465798 -0.08146306
0003d0 62 45 cf bd 12 48 24 3d 60 42 18 be ee d8 94 3d
       -0.101206556 0.040107794 -0.1486907 0.072679386
0003e0 2f 43 6b 3a 0d 53 1c 3e e1 59 27 3e 3f 65 b2 bd
       0.000897455 0.15266056 0.1634288 -0.087107174
0003f0 cc f7 c3 bd 77 cf 39 bc e9 bd 3e 3d 8e d5 0e 3d
       -0.09568748 -0.011340967 0.04656783 0.03487163

lstm.bias_hh_l0 f4 [256]
000000 98 b8 ce bc 47 b5 2f be e6 ab 3c bd af ff 3f 3d
       -0.025234506 -0.17158996 -0.046062373 0.0468747
000010 d4 7f 01 3c cd e9 0d be 78 c5 03 3e a6 f5 7d be
       0.007904012 -0.13858719 0.12868297 -0.24800739
000020 df 03 3e 3c c4 b8 cc bc ed d2 82 3d bd 5e 09 3d
       0.011597603 -0.024990447 0.06387887 0.033537615
000030 fc cf 4f bb fb cc 50 3d 6d a4 21 3e ca 6f 05 bc
       -0.0031709662 0.050976735 0.1578538 -0.008144328
000040 03 98 ff bc 03 6f 70 bd 1e a8 a2 3d 32 28 69 3e
       -0.031200415 -0.05869962 0.07942222 0.2276924
000050 6f 12 20 bd 0a 45 2b 3c 11 84 42 bc 35 dc c7 bd
       -0.03908008 0.010453472 -0.011872307 -0.09758798
000060 08 1b a5 3d c1 8c 91 3d 7a 16 f0 3d 45 6c 19 3e
       0.080617964 0.07106925 0.11723037 0.14982708
000070 dd 4c b5 bc a9 03 18 3d 7a 40 0a 3e c4 0c 74 3d
       -0.022131378 0.037112866 0.13501158 0.059582487
000080 ea f0 4e 3e f5 00 aa 3d 0b 4c 2e 3d af 43 24 3e
       0.20209089 0.08300964 0.04255299 0.16041444
000090 fe fd d1 3d 19 72 36 bd f7 e4 ae 3d a9 8e 01 bc
       0.10253523 -0.044542406 0.08539765 -0.007907548
0000a0 2e 09 a8 3d b4 b2 ef 3d ab 99 44 3d 62 2e 95 3c
       0.08204876 0.11704007 0.04799811 0.018210594
0000b0 42 3e 82 bd b3 db c9 3c e1 ac 22 3d 57 b8 d7 bc
       -0.06359531 0.024640894 0.03971565 -0.026333017
0000c0 d3 d1 ae 3d ee 60 7b bc e3 c1 44 3d cc 0a 09 be
       0.085361145 -0.015342934 0.048036467 -0.13383025
0000d0 6c 83 f9 3d 4f 08 80 bd 99 98 70 3e 45 24 01 3e
       0.1218327 -0.06251585 0.23495711 0.12611492
0000e0 8a 27 e1 3d 70 45 8d bd c9 a2 31 3e b4 9c 77 bd
       0.109938696 -0.0689801 0.17347254 -0.060452178
0000f0 0a 40 03 be ba 7b a9 bd b0 45 2b bd 11 97 19 3e
       -0.12817398 -0.08275552 -0.041814506 0.14999034
000100 eb 18 ee 3d 81 e4 28 3e 60 b0 c7 3d 62 9a 8e 3c
       0.116258465 0.16493417 0.09750438 0.0174076
000110 e4 91 22 3d 9a b6 52 bd 92 83 40 bd 5d df 94 3d
       0.039689913 -0.051443674 -0.047000475 0.07269166
000120 1a 93 1f 3c 9f ed 36 3e 52 39 30 3e dc 06 bc 3d
       0.009739662 0.17864083 0.17209366 0.09180996
000130 bf 04 06 3e 82 e1 2a 3e 6c 87 1c 3e 50 e1 2d 3c
       0.13087748 0.16687587 0.15286034 0.010612801
000140 b8 65 4b 3e 85 56 7a bd 08 f0 b4 bd 69 01 e0 3d
       0.19863021 -0.061117668 -0.08834845 0.10937769
000150 65 24 43 3d 0f cd 15 be e0 de be 3c 73 44 75 3c
       0.04764213 -0.14629005 0.023299634 0.014969933
000160 41 ca 26 bd 55 83 4a 3e 4d 54 36 3e b7 cf 93 bb
       -0.040720228 0.19776662 0.17805596 -0.0045108455
000170 0b ee b0 3d a5 d7 9b 3d 99 6a c6 3d 0d dd ca 3c
       0.08639153 0.0760949 0.09688301 0.024763608
000180 16 8f 9b 3d 47 0f 44 3d 42 d3 2f 3e d6 c8 e6 3d
       0.07595651 0.047866132 0.17170432 0.11268775
000190 f6 29 98 3d c0 74 44 3d 62 15 c4 3d 71 27 f3 3c
       0.074298784 0.047962904 0.09574391 0.029681893
0001a0 bd ee 75 bc 74 f7 3c bc 2d 96 f0 3d b2 39 19 3e
       -0.015010533 -0.011533607 0.11747394 0.14963415
0001b0 dd 33 39 bc 2b 34 94 bd 31 1f dd 3c 9a d9 22 bd
       -0.011303869 -0.07236513 0.026992412 -0.039758302
0001c0 10 96 1c 3e db 06 86 3d 90 7a 81 bd 97 37 97 3d
       0.1529162 0.06544276 -0.06322205 0.0738365
0001d0 46 ae 64 bc 66 78 c7 3d 7f b3 d4 3c 47 e0 27 bb
       -0.013957566 0.09739761 0.025964497 -0.0025615857
0001e0 d4 2a c4 3c 7b dd b6 3b 8e a3 78 bc 6a c3 a7 bc
       0.023946203 0.0055806017 -0.015175713 -0.020478923
0001f0 16 9d e1 3c b3 e9 f9 3d 38 f1 15 3e 09 90 25 3e
       0.027540725 0.12202778 0.14642799 0.16168226
000200 7f 2d 78 3d 24 82 56 3e aa ca 61 bd 9b 19 90 bc
       0.060590263 0.20948082 -0.055124916 -0.017590335
000210 84 b2 9e 3c 64 b6 7f bd fc 32 37 bd 77 54 09 3e
       0.019372232 -0.0624298 -0.044726357 0.13411127
000220 b3 9c f6 3d 9a 52 a5 3d d1 00 df bc 0f 25 1d be
       0.12041607 0.080723956 -0.027222069 -0.15346168
000230 54 9a 4b 3e 8a d8 82 bd cd 9f 51 bd 14 e6 d9 bd
       0.1988309 -0.06388958 -0.05117779 -0.10639587
000240 06 52 d1 be 84 3f 22 3d b0 1d 06 bd 53 6f 93 bd
       -0.4088289 0.039611354 -0.032743156 -0.07198968
000250 ed 2f a1 3d 0f a5 18 3d 1b e0 d7 bc da 6b ac b8
       0.07870469 0.037266787 -0.026351979 -8.221688e-05
000260 35 db e2 3d c6 5e 2e 3c 3d 3e 1a bc 3c 34 35 3e
       0.11076967 0.010642713 -0.009414253 0.17695707
000270 ef 76 07 bd 31 70 14 3e 51 ff 41 bd 5c ba cd 3d
       -0.03307241 0.14495923 -0.04736263 0.10045311
000280 e3 db 81 3d f6 b6 82 bd f8 94 b8 bd 60 10 7d 3d
       0.06340768 -0.06382553 -0.090127885 0.061783195
000290 8a d0 b8 bd 6e 2d 11 bc da 93 8a 3c 13 db 15 3d
       -0.09024151 -0.008860929 0.016916204 0.03658588
0002a0 ee 47 08 3d be c5 a8 bd 92 63 b4 3e 2d e7 ab 3d
       0.033271722 -0.08240841 0.35232216 0.08393703
0002b0 7f ae 4c bd e7 d2 d7 bc e3 15 0d bd e9 12 60 be
       -0.0499711 -0.026345683 -0.0344447 -0.21882214
0002c0 16 4c ec bd 8b e0 b2 3d 3e 11 df 3b 5d 9a b4 bc
       -0.1153795 0.087342344 0.0068074754 -0.022046262
0002d0 e5 47 30 bd 1d cc 58 3e 18 f2 20 3d f9 e8 d1 bd
       -0.043037314 0.21171613 0.03929338 -0.10249514
0002e0 20 40 4b be b0 ba af 3d f3 91 97 3d 71 e1 91 3d
       -0.1984868 0.0858053 0.074008845 0.07123078
0002f0 8e 98 8b bd ef 6c 06 bc eb 6c a7 bd 5c e2 ae bd
       -0.06816207 -0.008204683 -0.08175071 -0.085392684
000300 af 1a f2 3c 2e c3 92 3d 8e 73 72 3c 50 52 78 3d
       0.02955374 0.07166134 0.014798058 0.060625374
000310 73 69 71 3c 1f 87 71 bd 5a 52 b1 3d 83 88 0f 3d
       0.014734614 -0.058966752 0.086582854 0.035042297
000320 c4 f3 cf bd c4 11 07 be 23 3b 84 3c 23 db 32 3e
       -0.101539165 -0.13190371 0.01614148 0.17466407
000330 69 60 1b 3e 2c a1 c8 bd ad 6a 3f 3d 96 47 71 be
       0.15173496 -0.09796366 0.046732593 -0.23562464
000340 94 dc 26 be 38 b9 06 bd 1f 7d 50 be 17 97 5c be
       -0.16295081 -0.032891482 -0.2036023 -0.21542011
000350 19 e2 32 bd 63 34 fd 3d 18 99 21 be 07 df 8e bd
       -0.043672655 0.123635076 -0.15781057 -0.06976133
000360 55 5b be 3d 4d 72 3e 3d d7 7d 91 be e1 0f a9 3d
       0.09294764 0.046495724 -0.2841632 0.08254982
000370 b1 a4 5e bc 8d 90 0e be fe 11 94 be 2d 44 c4 bd
       -0.01358907 -0.13922329 -0.28919977 -0.09583316
000380 4e 60 01 3e 86 20 53 bd 8e 77 01 3d cc 65 e2 bc
       0.12634394 -0.05154469 0.031608157 -0.027636431
000390 f5 58 3e 3d 6b 3b 9c 3d 32 0d 6a be 13 e3 37 be
       0.046471555 0.076285206 -0.22856596 -0.17957716
0003a0 75 ee 7a be 9b 1f 00 be fc 52 90 be e3 70 2e 3e
       -0.24505027 -0.12512057 -0.28188312 0.1703525
0003b0 bf 3b 8e be 34 8e 30 3e 6a 03 1b 3d ac bc 84 be
       -0.27779958 0.17241746 0.037845053 -0.25925195
0003c0 99 29 ee bd 21 a1 92 be 11 bb d3 3d 9f e4 12 bc
       -0.11629028 -0.28638557 0.103384145 -0.00896564
0003d0 7f 27 09 be ec ab 48 3d 4d 07 42 bc da 3b 0a 3e
       -0.13393973 0.048992082 -0.011842561 0.13499394
0003e0 5c bf e9 3d fe db 18 3e f2 ac 98 bd 9b ae 6b be
       0.11413452 0.1492767 -0.07454862 -0.23015825
0003f0 04 39 1d be 94 d5 82 3d 9e e9 48 3d c2 8e 8e bc
       -0.15353781 0.06388393 0.04905092 -0.017402057

fc_layer.weight f4 [64, 64]
000000 ee 24 e8 be 4c 3d e2 be d2 88 80 be d1 15 d9 3e
       -0.45340675 -0.4418739 -0.25104386 0.42399457
000010 36 1c af 3e 7b 44 ef be e0 fd 86 3e db eb 59 bf
       0.3420121 -0.46731934 0.26365566 -0.8512551
000020 4a c4 df 3e 1c 31 74 be f3 87 27 3f f8 15 03 3e
       0.43704444 -0.23846859 0.6544182 0.12801349
000030 a4 ea cc 3e 1b 6a 2f 3f 2e 51 08 3f fb bd a1 3e
       0.40022767 0.6852128 0.5324887 0.31590256
000040 54 dc 92 be 26 45 c8 be 6a 78 bf 3e c8 e9 dc be
       -0.28683722 -0.39115256 0.37396556 -0.4314711
000050 dc 42 df be 2a dd 17 bf 20 a7 a7 be 50 cf 93 be
       -0.43605697 -0.59321845 -0.32744694 -0.28869104
000060 c9 9d 13 bf a0 c4 b2 3e ab 9a a5 3e 9d fb c8 be
       -0.57662636 0.34915638 0.32344565 -0.39254466
000070 57 7f 36 3f 06 c6 90 be 43 79 90 be fc fd dd be
       0.71288055 -0.2827608 -0.28217515 -0.43357837
000080 90 63 ff be e0 2c c9 be 13 19 0e bf 71 04 3b bf
       -0.49880648 -0.3929205 -0.5550701 -0.7305365
000090 81 66 b3 be cd d5 2c 3f bc cc ab be 75 7e b6 3e
       -0.35039142 0.67513734 -0.33554637 0.35643354
0000a0 d3 e5 e9 be 6d 10 f1 3e 6f a3 c9 3e 24 70 93 be
       -0.45683154 0.47082844 0.39382502 -0.28796494
0000b0 66 65 cb 3e 03 d6 a9 3e 0c 98 d9 be b9 e5 c3 3e
       0.39725798 0.3317109 -0.42498815 0.38261202
0000c0 4a d1 b1 be da f2 b9 be 72 73 90 3e db da 15 bf
       -0.34729987 -0.36318094 0.28213078 -0.5853707
0000d0 a4 fa d2 3e 07 b1 5a bf 95 b5 a5 3e 0f 9b d2 3e
       0.4120685 -0.8542637 0.323651 0.41133925
0000e0 03 31 ef 3e da 1c 1d 3e 49 36 f8 be b3 a7 28 be
       0.4671708 0.15343037 -0.48478916 -0.16470222
0000f0 c6 8b 8e be 93 17 c1 3e c4 eb 70 3f 5d 47 8a 3e
       -0.27841014 0.37713298 0.9410975 0.2700757
000100 8f f8 f0 bc ca 02 4e bc ca ad 81 3d c9 82 b3 3c
       -0.029415397 -0.012573907 0.06331976 0.02191295
000110 4b b4 d8 bd b9 ad f4 3a 59 ac dc bd 93 a4 ba bd
       -0.10581263 0.0018667496 -0.1077506 -0.09113421
000120 6a c5 30 3a 4e 4f 7a bd b0 ba b4 3d 85 a1 90 bd
       0.0006743284 -0.061110787 0.0882467 -0.070620574
000130 12 19 21 bd da 8a 38 3d 84 5e ad 3c cd ff bf 3c
       -0.03933055 0.045054294 0.021163233 0.023437405
000140 7b 4e 0c 3c 2d 31 4d bc 60 0c 97 bd 60 bb 11 3e
       0.008563633 -0.012523931 -0.07375407 0.14231634
000150 9f da db 3d 4b cd 62 bd 25 f4 a6 3d 57 c9 5a 3d
       0.10735058 -0.055371564 0.081520356 0.05341467
000160 97 e9 a6 bd 89 ac 86 bd 71 3d 53 bc 42 0a 82 bd
       -0.081500225 -0.06575877 -0.012893067 -0.06349613
000170 f6 80 b2 bd 3f 7c 24 3c a9 b6 c2 bd ce 97 8b bd
       -0.087160036 0.010039388 -0.09507496 -0.06816064
000180 a1 0a 09 3d 1a 74 90 3b e1 ef 90 3d 84 22 cb 3d
       0.033457402 0.0044083716 0.07077003 0.09918693
000190 f2 72 c1 3d e1 29 97 bd a3 84 e6 3c 93 29 5d bd
       0.09445752 -0.07381035 0.028139418 -0.053994726
0001a0 c7 f0 32 3d 2e 08 06 be 25 d2 b6 3d 4a fd ba 3d
       0.043686654 -0.13089058 0.08926801 0.09130342
0001b0 de 79 40 bd 26 ae 81 bd e3 b6 e7 3d 5f 3d 67 3d
       -0.04699122 -0.06332044 0.1131418 0.056455012
0001c0 d2 36 08 3e 70 c9 7b bd 8b ed d0 bd fc e1 c9 bd
       0.13302162 -0.061471403 -0.10201558 -0.09857556
0001d0 ce ca 01 bd ae d5 27 3c 3c 82 b7 3d 7a c7 9a bd
       -0.03168755 0.010243816 0.08960387 -0.075575784
0001e0 fd cc f7 bd bc 1e b6 bb 16 c8 d4 3c ac 08 4e 3d
       -0.12099645 -0.005557863 0.025974315 0.05030124
0001f0 f7 9a 17 bd 10 7e e9 bd b4 72 03 be 97 00 e7 3d
       -0.03701302 -0.11400998 -0.12836725 0.112794094
000200 06 77 cc 3d bb a4 29 3e 96 1f f1 be 3f 39 8a 3e
       0.099836394 0.16566746 -0.4709441 0.269968
000210 f2 d2 70 3e 72 04 7d be 4f f9 97 3e 10 e6 5c 3f
       0.23517969 -0.24708727 0.29682395 0.8628855
000220 ec 89 87 3e cb 25 aa be 65 01 1a bf 3d 75 84 3f
       0.26472414 -0.3323196 -0.6015838 1.0348278
000230 54 62 ea 3e 01 9d a9 be 94 96 80 3e 35 63 ae bd
       0.45778143 -0.33127597 0.25114882 -0.08515016
000240 78 0f bd 3e ba c3 cd be 24 19 aa 3e 76 d4 68 3e
       0.36925864 -0.4018839 0.33222306 0.22737297
000250 f0 a6 cb 3d b5 db 12 3f d6 35 d8 bd 86 61 40 be
       0.0994395 0.57366496 -0.105571434 -0.18787202
000260 97 55 16 3f cf f0 5d 3e 44 48 40 be 25 98 c4 be
       0.5872435 0.21673892 -0.18777567 -0.38397327
000270 91 51 c8 bd 7f 0c 7c bd ba 55 4b b9 ba 64 f8 3e
       -0.097811826 -0.061535355 -0.00019391524 0.48514348
000280 42 1a e2 be 3c 56 e6 3e b7 db d0 3e 7e dd 3f 3f
       -0.44160658 0.44987667 0.4079263 0.74947345
000290 98 49 3e 3e 01 60 97 be 14 09 ca be 7b ed ae be
       0.18582761 -0.29565433 -0.3946005 -0.34165558
0002a0 ac 77 8a be e1 63 53 be a1 b4 67 be a1 b1 ed be
       -0.27044427 -0.2064357 -0.22627498 -0.46424583
0002b0 e2 22 c0 3d 80 b2 b5 3e 3b 4d c0 3e e8 b1 98 be
       0.09381653 0.35487747 0.37558922 -0.29823232
0002c0 40 9f 93 3e ae d2 97 3e cf f9 71 3e f9 e4 1f 3f
       0.28832436 0.29652923 0.2363045 0.6245876
0002d0 a8 24 a4 be f6 52 7b 3f e1 df 71 3e 9d 23 9c 3e
       -0.32059216 0.98173463 0.2362056 0.3049592
0002e0 85 7b 1d 3e a3 89 ed 3e 1e 15 05 be 34 87 f1 be
       0.1537915 0.4639407 -0.12996337 -0.47173464
0002f0 97 f2 22 3e a2 f0 77 3e 59 e5 3e bf 08 3b a6 3e
       0.15912853 0.24212888 -0.74568707 0.32466912
000300 60 fa 38 bf 5c 69 b9 be 20 00 b3 be 94 00 d6 3e
       -0.7225704 -0.36213195 -0.34961033 0.41797316
000310 39 c9 02 3f 55 30 02 bf 59 aa 05 3f f4 32 6a bf
       0.5108829 -0.50855 0.52213055 -0.91484
000320 a1 68 f9 3e ef f0 b4 be a9 e5 15 3f e6 a3 cd bc
       0.48712638 -0.35340068 0.5855356 -0.025102567
000330 ad 83 90 3e 18 f6 49 3f 0f 43 d7 3e cc 10 0c 3f
       0.2822546 0.78891134 0.4204335 0.5471313
000340 07 df d4 be ca 79 e1 be 4e fb 05 3f 79 30 fd be
       -0.41576406 -0.4403823 0.52336586 -0.49451044
000350 41 14 aa be bc d9 42 bf c6 e6 b8 be 37 76 e3 be
       -0.33218578 -0.76113486 -0.36113566 -0.44426128
000360 67 79 14 bf 72 08 e3 3e 22 ed 8d 3e 72 98 e8 be
       -0.57997745 0.4434238 0.2771998 -0.45428807
000370 40 86 4d 3f 67 a5 73 be 5e 8f a5 be 8e e8 2a bf
       0.80282974 -0.23793565 -0.32335943 -0.667611
000380 ab 39 f2 be 99 cc 09 bf 87 cf 39 bf c2 79 6a bf
       -0.47309622 -0.53827816 -0.72582287 -0.9159204
000390 f0 c2 0a bf 37 ed 2f 3f 4f 54 b8 be e9 29 09 3f
       -0.542037 0.68721336 -0.36001822 0.53579575
0003a0 2b b3 a2 be 60 4f b1 3e e4 c2 f6 3e 42 8a 04 bf
       -0.3177732 0.3463087 0.48195565 -0.51773465
0003b0 86 0b 6b 3e 93 93 0a 3f cf 8d 2b bf f4 0b 12 3f
       0.22953615 0.5413143 -0.6701326 0.5704949
0003c0 c3 d5 a3 be 86 09 c6 be 66 0d a2 3e d8 da 11 bf
       -0.31999025 -0.3867914 0.31650847 -0.56974554
0003d0 c0 b9 fc 3e 06 f8 71 bf e6 cf fd 3e fe e0 24 3f
       0.49360466 -0.9451908 0.49572676 0.6440581
0003e0 df e9 15 3f 84 8c c6 3e f2 92 0f bf 6e e6 96 be
       0.58559984 0.3877908 -0.56083596 -0.2947268
0003f0 81 b5 76 be fb 5d d2 3e 73 ae 7b 3f 81 b1 b6 3e
       -0.24092676 0.41087326 0.98313063 0.356823

fc_layer.bias f4 [64]
000000 62 82 c8 3e d2 b5 2b bd ac f6 d8 3d 59 24 fe 3e
       0.39161974 -0.041921444 0.10593924 0.49637106
000010 27 85 4f 3e 56 42 e2 3e 6d 58 d3 3e e2 8f 0d 3e
       0.20265637 0.44191235 0.412784 0.13824418
000020 64 57 95 3e b4 98 d4 3e 7d 59 fb 3e bb 17 d9 3e
       0.29168236 0.41522753 0.49091712 0.42400917
000030 1f 4c 32 3e f8 dc 7f 3e bb 25 ca 3d 75 ec b4 bd
       0.1741185 0.24986637 0.09870478 -0.08834163
000040 94 10 22 3e 67 36 92 bc ef 14 45 3e d3 9e 5b 3e
       0.15826637 -0.017848207 0.19246267 0.21447305
000050 03 89 5e 3e 6e af 10 bd f9 26 83 3e bb b1 20 3d
       0.21731953 -0.035323553 0.2561567 0.039231997
000060 25 44 bd 3e c0 01 a1 3e 0e 80 0a 3e 19 66 be 3e
       0.36966053 0.31446648 0.13525411 0.3718727
000070 67 bb 8a 3e 39 a7 b5 3e 2b 41 62 3e ce 2d 65 3e
       0.27096102 0.35479143 0.22095172 0.22380754
000080 31 50 be 3e d3 97 c5 3e f9 b5 90 3e 08 9c 0e 3c
       0.37170556 0.38592395 0.28263834 0.008704193
000090 47 00 b3 3d 1e cc b4 3e 6c b4 c2 3d 10 78 05 bd
       0.08740287 0.3531198 0.09507069 -0.032585204
0000a0 ce ce 23 3e cb 76 c3 3e c4 33 f0 3e ab 1e b8 3e
       0.15996858 0.3817657 0.46914494 0.35960898
0000b0 3f e3 5e bd ab 97 4b 3e 7e 1f 53 3e df 3f e9 3e
       -0.054415938 0.19882075 0.20617482 0.45556542
0000c0 f6 3c 54 3e d7 06 69 3d 0a ba df 3e c1 f5 71 3e
       0.2072638 0.05689129 0.43696624 0.23628904
0000d0 06 89 8c 3e cc d9 0b bd 4f 3d c3 3e 16 59 c5 3e
       0.2744829 -0.034143254 0.38132712 0.3854453
0000e0 13 c5 a6 3e 34 09 f0 3e 64 63 47 3e 27 8f f1 3e
       0.3257223 0.4688202 0.19471508 0.4717953
0000f0 94 e5 35 3e 91 55 a8 3e 78 90 8e 3e c0 3a dd 3d
       0.17763358 0.32877782 0.27844596 0.10802221

output_layer.weight f4 [1, 64]
000000 53 81 1c 3f 9f dd a2 bc 89 af 80 bf c7 6a 05 3f
       0.61134833 -0.019881068 -1.0053569 0.52116054
000010 76 ef 17 3f 78 5c 0c 3f 1f 0f 17 3f 82 7d 43 bf
       0.59349763 0.54828596 0.5900745 -0.76363385
000020 50 de 91 bf 3d 50 13 3f f1 90 07 3f 72 2e 1c 3f
       -1.1395969 0.5754431 0.5295554 0.6100837
000030 00 23 1c 3f 73 fa 82 bf 6f 2b e9 bd 50 f8 94 bd
       0.60990906 -1.0232681 -0.113852374 -0.07273924
000040 65 f9 9b bf af 50 9e bf 95 54 1f 3f 44 38 a7 bf
       -1.2185484 -1.2368373 0.62238437 -1.3064046
000050 20 11 96 bf cb 09 88 bd aa 27 9a bf 98 80 f1 be
       -1.1723976 -0.06642493 -1.2043355 -0.47168422
000060 a4 c7 0d 3f 0e 78 1d 3f 0d 8a 93 bf 50 a5 11 3f
       0.5538275 0.61511314 -1.1526505 0.5689287
000070 62 31 a1 bf 14 8a 9b bf 3e 4d 92 bf 13 23 7d bf
       -1.2593195 -1.2151513 -1.1429822 -0.98881644
000080 ff f1 19 3f e0 09 85 bf 28 d1 6b bf 2c c1 8e bf
       0.6013488 -1.0393639 -0.9211602 -1.1152701
000090 a0 44 8e bf ef 05 20 3f 6d 20 8a bf 8b b4 94 bd
       -1.1114693 0.62509054 -1.0791146 -0.07260998
0000a0 ff bf cd 3f a3 47 1d 3f 32 3d 09 3f d4 57 12 3f
       1.6074218 0.61437434 0.53609 0.57165265
0000b0 1a 32 ac bf 2f 9e 7e bf 08 c3 e2 3f b4 d1 0c 3f
       -1.345279 -0.9946012 1.7715769 0.5500748
0000c0 84 ab 48 bf 99 05 de 3f 67 8b 17 3f e2 a4 0a 3f
       -0.7838671 1.7345458 0.59197086 0.5415784
0000d0 32 d1 18 3f cc 57 38 bd 3c 73 0b 3f 9c 71 21 3f
       0.59694207 -0.045005605 0.5447271 0.6306398
0000e0 35 09 11 3f f8 9e 09 3f 21 e6 d4 3f 3d c8 83 bf
       0.56654674 0.5375819 1.663273 -1.0295483
0000f0 7e 15 97 bf 36 d9 92 bf a8 96 26 3f 2a a3 82 bf
       -1.1803434 -1.1472538 0.65073633 -1.0206044
