TimeGAN4paper/result/iter6000/model/VT_lag1_total1/torch_best_model.pt (torch, 87834 bytes, 7 tensors)

lstm.weight_ih_l0 f4 [256, 1]
000000 1e 80 8b 3d 68 eb fb 3d 3a 10 bf bc 4e 0b f3 3c
       0.06811546 0.123007596 -0.023323167 0.029668476
000010 14 4b 0b 3d b4 58 66 3e 59 89 b1 3d bb cd ae 3d
       0.034007147 0.22494775 0.08668775 0.08535334
000020 56 fc 5b 3d f0 c3 94 3e 80 ed 25 3e af 4d 99 bc
       0.053707443 0.29055738 0.1620388 -0.0187138
000030 41 38 0b be fa b6 58 bd d9 b9 87 bd e5 73 5a 3d
       -0.13595678 -0.052908875 -0.066272445 0.053333182
000040 43 74 d9 3c c0 fd 82 3e 24 20 9e bd a6 cd 90 bd
       0.026544696 0.2558422 -0.07720974 -0.07070474
000050 9f 14 9e 3e 01 ff 6b 3e 60 02 be bc 0a 85 8c 3e
       0.30875108 0.23046495 -0.023194492 0.2744525
000060 53 7f 90 3e 1c 42 7a 3d ae 7d b4 3e af 8f d8 bc
       0.2822214 0.061098203 0.35252136 -0.026435701
000070 cd a6 d9 bc 24 87 e8 3a ba 90 ab 3d 21 92 82 3e
       -0.026568795 0.001774047 0.08377214 0.25502113
000080 50 b7 25 bb a3 0f d1 3d 7b 9f d1 bd dd bb d2 bd
       -0.0025286265 0.102080606 -0.102354966 -0.10289738
000090 0d 10 82 3b a6 22 79 3e f1 ab b8 3e 37 da 6c 3e
       0.0039691986 0.24329624 0.3606868 0.23130117
0000a0 17 d9 06 3e 65 2d f5 bc 7e 73 de 3d 54 16 a8 bd
       0.1316875 -0.029928872 0.10861872 -0.08207384
0000b0 8c 42 bd 3d 9e 39 53 3c 64 46 c0 3e 0c fe 83 3e
       0.092412084 0.012892155 0.37553704 0.2577976
0000c0 20 fc ca 3c 96 91 ef 3d a6 9c d4 3d 6c 6b cc 3e
       0.024778426 0.1169769 0.10381441 0.39925706
0000d0 a4 cb 82 3e 54 19 06 3d 38 c1 b8 3e d4 e7 44 bc
       0.2554599 0.032739 0.36084914 -0.012018163
0000e0 85 2d 22 bd d9 c1 b1 bd 54 96 66 bc 62 9a 3c 3e
       -0.039594192 -0.08679552 -0.014073927 0.18418267
0000f0 ab 4f 9b 3e 7a 04 6b 3e 5f ee 84 bd bf 9e c6 3d
       0.3033422 0.22950926 -0.06490778 0.09698247
000100 c1 c3 a5 3d a3 fd ff 3d 47 2c 90 3d 35 70 82 3d
       0.08093978 0.12499549 0.07039695 0.06369058
000110 7e 78 70 3d 62 73 96 3d bd 4f 04 bd df e9 d3 3d
       0.05870866 0.07346226 -0.032302607 0.10347342
000120 e1 b1 84 3d 84 89 0c 3e 7a ea 52 3e 33 c2 94 3e
       0.0647924 0.13724333 0.20597258 0.29054412
000130 4e d2 43 3e 3b 13 ef 3d 54 b1 2b 3e 46 c8 02 3d
       0.19123194 0.1167359 0.16766864 0.031929277
000140 3e 76 22 3d 2d fe d6 3d 67 fb 1b 3e 60 32 5e bd
       0.039663546 0.10497699 0.15232621 -0.05424726
000150 db fe 9a 3d 81 77 94 3d fd df bb 3d 16 04 99 bc
       0.07568141 0.07249356 0.09173582 -0.018678706
000160 59 13 7c 3d ab c6 e4 bc 53 67 81 3d d2 60 a3 3d
       0.06154189 -0.027926764 0.06318536 0.079774514
000170 30 7a 21 3e 82 3d d8 3d ae 80 66 bc 87 9d 03 bd
       0.15769267 0.10558607 -0.014068766 -0.03213265
000180 5c 04 77 3e 35 0f ef 3c d6 aa 46 bd 09 7c 06 3e
       0.24122757 0.029182056 -0.048502766 0.13133253
000190 d3 33 47 3e 6d 5e 17 3e a1 3d 50 3c 3c eb 60 3d
       0.19453363 0.14782114 0.012710006 0.054911837
0001a0 b9 7a 18 3c 13 ba 55 3d f4 d2 09 3c 49 66 c6 3d
       0.009306603 0.052179407 0.008412112 0.09687478
0001b0 ba f0 d0 3d 6b 31 07 3e df 97 90 3b 8d 52 98 3d
       0.10202165 0.13202445 0.0044126357 0.0743762
0001c0 74 94 31 3d a3 e8 02 3e 78 6b 25 3e ff a8 6b ba
       0.043354467 0.12784056 0.16154277 -0.0008989721
0001d0 e7 47 9e bc 06 de 2a 3e 0f e5 4b 3d d7 84 54 3e
       -0.019321395 0.16686258 0.049778994 0.207538
0001e0 22 3e bf 3d e3 4f be 3d 8c 7b bd 3d 18 54 31 3d
       0.09338023 0.09292581 0.0925208 0.04329309
0001f0 d1 7b db bc 74 df b3 bc cc af 84 3d 57 1a 3b 3e
       -0.026792439 -0.021957137 0.06478843 0.18271767
000200 2e 29 28 bd ef fb ed bc 9f eb 1f bd 7f 4c a9 3c
       -0.041054897 -0.029050795 -0.039043065 0.020666359
000210 2c d6 0a bc 45 3a 13 3c 39 6b 9d 3d 54 74 c7 3b
       -0.008473914 0.0089860605 0.07686467 0.0060868654
000220 51 3a 00 3d 71 25 19 bd de cb 4b 3d f3 6f 00 3e
       0.031305615 -0.037389223 0.04975497 0.12542705
000230 42 26 12 3d 1b 51 03 3e 12 e3 c8 3c 93 25 ca bb
       0.035681017 0.12823908 0.024522338 -0.00616903
000240 4c 6a 93 be 44 1f 77 bd c2 9e bc 3d de c1 24 bd
       -0.28792036 -0.06033255 0.09209968 -0.04022395
000250 8e 75 9c bd 00 7f a3 bd 02 df 99 bd 56 68 c1 3a
       -0.07639609 -0.07983208 -0.075132385 0.0014755826
000260 03 ce 8c bd fc 01 be 3d 5d c1 7c 3d dd 35 c3 bd
       -0.06875231 0.09277722 0.061707843 -0.09531758
000270 26 81 57 3d 67 31 55 bd 26 7a 06 3d fa 1c 03 3d
       0.0526134 -0.052049067 0.032831334 0.032010056
000280 94 dd a2 3c cf 0e d8 bd ed f1 ba be 00 7b 0d be
       0.019881047 -0.105496995 -0.365127 -0.13816452
000290 38 45 bd bd 78 af 31 3d 50 68 c8 bd 49 6e 92 3d
       -0.09241718 0.04338023 -0.09785521 0.071499415
0002a0 d7 1e bc bd 42 f6 8d bd 4d b3 6e 3d 7d ef 9f bc
       -0.0918557 -0.069317356 0.058276463 -0.019523377
0002b0 26 cb 45 3d a5 68 61 3d d6 3d 18 be 7d 6d ff 3d
       0.04828944 0.055031437 -0.14867339 0.12472055
0002c0 9c c7 d2 b9 a2 3f ae bd 45 60 76 3d 72 01 61 bc
       -0.00040203042 -0.08508231 0.060150404 -0.013733255
0002d0 0b 9d c3 3d 27 9e 1d bc c3 2d 9f 3d 14 cb 9a 3d
       0.09551438 -0.009620226 0.077724 0.07558265
0002e0 f4 35 d3 3d 54 41 74 bb 15 33 e8 bc 83 a0 88 bd
       0.10313025 -0.0037270384 -0.02834467 -0.0667124
0002f0 9a 3b 8f bd ac 9e b6 3d 8d 04 97 3d 8b b2 56 3e
       -0.0699379 0.08916983 0.07373915 0.20966546
000300 33 c3 30 3d bb 4a d1 3d 4b 0f 60 3d 3a 9e 74 3d
       0.043154906 0.10219332 0.054702085 0.05972121
000310 f6 1f 0e 3e f1 b8 aa 3d d8 02 86 3d 13 ff b1 3d
       0.1387938 0.08336056 0.06543511 0.0869123
000320 15 25 36 3d 94 69 8d 3d 55 ab 3a 3d 6f da 66 bc
       0.044468958 0.06904903 0.04557355 -0.014090165
000330 5c 1d d3 bc 9d 1b ae 3d cb e8 07 3d 73 b0 96 3d
       -0.025770836 0.085013606 0.033180993 0.07357874
000340 49 51 2c 3e a3 22 15 3e d4 84 31 3e a4 41 32 3c
       0.16827883 0.14563994 0.17335826 0.010879908
000350 72 92 02 3e 24 bf 36 3c 0a 59 21 3e 9a 0e 41 3d
       0.12751177 0.01115397 0.15756622 0.047133066
000360 6d e7 ac 3d 0a 76 17 3e 78 03 3f 3e 95 92 b4 3d
       0.084425785 0.14791122 0.18653667 0.08817021
000370 c7 4c 87 3d 1a 9a 37 3e 81 a7 bb 3d dc a2 1b 3e
       0.06606441 0.17929879 0.09162808 0.15198845
000380 5c aa 89 bd 98 0a 58 3e ac f1 2e bd e4 cd e9 3d
       -0.067219466 0.21097791 -0.042710945 0.11416224
000390 dd 63 0f 3e 10 57 0a 3e ed 3a 6e 3e 23 c3 28 3e
       0.14002939 0.13509774 0.23264666 0.16480689
0003a0 71 fc b0 3d 03 85 84 3d d1 63 8d 3d d3 0e c5 3c
       0.086418994 0.064706825 0.06903804 0.02405492
0003b0 bf ca 3b 3e 55 02 26 3d 5c 63 59 3e 99 67 f5 3d
       0.1833906 0.040529568 0.21229309 0.1198265
0003c0 05 83 21 3e e1 b3 8a 3d 36 10 b4 3d 5d ef d8 3c
       0.15772636 0.067725904 0.087921545 0.026481325
0003d0 d0 b5 3c 3d ab b0 d3 3c 99 33 06 3e cd b8 52 bd
       0.046071827 0.025841078 0.1310562 -0.05144577
0003e0 b4 26 54 bc 3e 0f cb 3d 9c 2c 5b 3d 31 37 90 3d
       -0.012948681 0.099150166 0.05350934 0.07041777
0003f0 b1 25 96 3d d3 8a a7 3d fe 40 82 3d 8f b9 05 3e
       0.07331408 0.081807755 0.063600525 0.13059066

lstm.weight_hh_l0 f4 [256, 64]
000000 c0 e0 e4 3d 04 31 55 3e 47 e2 6b be 1b 17 23 be
       0.1117568 0.20819479 -0.23035537 -0.15926783
000010 54 a1 46 3e 8c 0a 17 be 5e 57 86 3e a5 1c 27 be
       0.1939748 -0.14750117 0.2623853 -0.16319521
000020 6e 92 04 3e a6 da 91 be a5 b4 e7 3d 81 6f c2 3e
       0.12946483 -0.28487128 0.11313752 0.37975696
000030 b5 d7 a3 3e 69 05 84 3e 7e 10 be 3c a0 99 9f 3d
       0.3200051 0.25785378 0.023201223 0.077929735
000040 8f cd c9 be 5c 7b ac bd fa 1a 30 3d e1 f7 c4 bd
       -0.3941464 -0.084219664 0.042994477 -0.09617592
000050 0c d7 14 3e 17 7d ed 3d 52 ca 93 bd bb 9b 00 bb
       0.14535159 0.115961246 -0.07216324 -0.0019624073
000060 29 f2 d8 3d 89 23 56 3d f3 0f e6 bd f2 26 1b be
       0.105930634 0.052279983 -0.11233511 -0.15151575
000070 fa e9 0f 3e b3 ca 21 3e ea d2 2e be 05 b6 36 be
       0.14054099 0.1579998 -0.17072645 -0.17842872
000080 54 8b 9a be ac 1f db bd e0 30 ab be 5b d3 ba bd
       -0.30184424 -0.106994 -0.33435726 -0.09122344
000090 99 54 ab bd c0 ee 47 3e 90 5c b3 3b b8 e0 06 be
       -0.08365745 0.1952467 0.005473681 -0.13171661
0000a0 3b be 94 3d ec c8 ff bd 6c 75 e3 3c 6f a2 2f be
       0.07262846 -0.12489495 0.027765952 -0.17151807
0000b0 ef ba 94 bc e4 f3 02 3e 79 8b 40 bd 56 37 63 3d
       -0.018155543 0.1278835 -0.04700801 0.055472694
0000c0 bf 72 87 3b d6 81 f2 bd f1 35 ae 3c 2c 00 ca 3c
       0.004133552 -0.118411705 0.021265956 0.024658285
0000d0 58 d1 7b 3d fd 93 9c 3e 7a f0 7a be 9d 73 15 3e
       0.061478943 0.30581656 -0.24505797 0.14594884
0000e0 f9 f5 b3 3e 94 87 1b 3e 24 bf b5 bd ba 11 ea 3d
       0.351486 0.15188438 -0.08874348 0.11429162
0000f0 67 a0 28 3d 77 48 13 3e 2c bd 21 3e 3c 53 8e 3e
       0.041168597 0.14383112 0.1579482 0.27797878
000100 b0 9a 02 3e ef 56 11 3e aa db a6 be a1 18 f1 bd
       0.12754321 0.14193319 -0.32589465 -0.11772276
000110 04 dd 95 3e a3 a3 49 bd eb ff 9c 3e 7c 8e 2a be
       0.29270184 -0.04922832 0.30664 -0.16655916
000120 d6 8c 75 3d 75 14 53 be 16 d5 00 3e c6 9f b9 3d
       0.059948765 -0.20613272 0.12581286 0.090636775
000130 2e 9e 8d 3e 19 ca 74 3e 27 a3 77 3c 74 1a ec 3d
       0.27659744 0.23905219 0.015114582 0.11528483
000140 6a c4 79 bd a5 27 5e 3d 82 c6 4e 3e 4d e3 cd bd
       -0.06097833 0.054237027 0.20192912 -0.1005312
000150 2a 9d d9 3b 2c 75 d2 3b 0e 16 51 3e bd fd 80 bd
       0.00664105 0.0064226594 0.2041857 -0.06298397
000160 5f 5a 34 3c 51 37 35 3e 7f 09 2c 3d 5c 84 aa 3b
       0.011007874 0.17696883 0.042001244 0.0052037667
000170 a4 bf 2e 3d cd eb f6 3d 62 bd 36 be 54 e5 35 bd
       0.04266323 0.12056694 -0.17845681 -0.044408157
000180 c5 f0 93 be fd fa 02 3e f8 be 1f be b9 0f 90 bd
       -0.2889463 0.12791057 -0.15600193 -0.07034249
000190 2f d1 f2 bd c5 b8 37 3e f0 fb 67 bd 8f cb 83 3c
       -0.11856305 0.17941578 -0.05663675 0.016088275
0001a0 af a3 08 be c4 52 4a be b0 e8 8d bd 2d bb d7 bd
       -0.1334369 -0.19758135 -0.06929147 -0.10533748
0001b0 37 2b 36 3d c3 3c 28 3e 73 b9 99 3d 49 ae a2 bd
       0.044474807 0.16429429 0.07506075 -0.079433985
0001c0 be 6e af bd f4 2e ee bc ba af f2 bd 00 60 1c 3d
       -0.08566044 -0.029075123 -0.118499234 0.03817749
0001d0 a0 79 f0 bd d0 c3 23 3e ee 1e 42 be a2 93 1d bd
       -0.11741948 0.15992665 -0.18957111 -0.03847087
0001e0 fd 53 26 3e 7d 28 59 3e 80 e7 d8 bd c7 ea 2c 3d
       0.16242976 0.21206851 -0.1059103 0.04221609
0001f0 ed 51 0c 3e 3d f5 4b 3d 08 63 31 3e ed 51 53 3e
       0.13703127 0.049794424 0.17322934 0.20636721
000200 bb 66 c6 bc 2d 16 c8 3d 10 ca 91 bd 91 1e 17 3e
       -0.024218908 0.09769855 -0.071186185 0.14757754
000210 3f bc 40 3e 25 31 d6 bd d4 3f 5e 3e 3c 34 83 be
       0.1882181 -0.10458592 0.21704036 -0.2562579
000220 d9 92 e2 3d 45 ba a2 bd 66 e4 f1 3d a5 c4 b9 3e
       0.11063165 -0.07945684 0.11811142 0.3628284
000230 8f 7e a2 3e 35 f5 d7 3d 21 74 03 3e 22 e3 55 3e
       0.31737182 0.105448164 0.12837268 0.20887426
000240 71 2f 28 be 6a d4 62 be f1 49 a2 3d d3 02 43 bd
       -0.16424347 -0.22151342 0.079242595 -0.047610115
000250 ec 38 69 3d d7 a4 df bd 9a 00 6b 3d ec 56 10 be
       0.05693905 -0.109201126 0.05737362 -0.14095658
000260 37 9a d3 bd 90 86 5f 3e 20 8c aa 3c b1 84 82 be
       -0.103321485 0.21828675 0.02081877 -0.2549186
000270 69 3b a1 3d 99 3f a0 3d a8 9c 4d be 07 b0 9c be
       0.0787266 0.0782463 -0.20079291 -0.30603048
000280 44 bb 98 bd d2 cb e4 bc 29 5d 76 be 2f 07 ad bd
       -0.07457593 -0.02792922 -0.24058975 -0.08448636
000290 d4 41 b2 bc 86 33 38 3b 75 32 10 bd d8 18 18 3e
       -0.021759905 0.0028106882 -0.03520437 0.14853227
0002a0 5c 83 90 bc 76 e9 11 be f3 49 64 bd c2 85 92 be
       -0.017640762 -0.14249215 -0.055734586 -0.28617674
0002b0 5f 01 50 3b 04 8f ec 3d bb 3b b7 bd 6d c1 01 3e
       0.0031739098 0.115507156 -0.089469396 0.12671442
0002c0 78 5b 54 bb f3 47 27 3d f1 09 69 3d 9a 4b 15 bd
       -0.0032403152 0.0408401 0.056894246 -0.036449052
0002d0 9a 97 2e 3d 90 39 33 3e 1f 5e 09 3d 55 35 bd 3d
       0.042625047 0.17502427 0.033537026 0.09238688
0002e0 a1 c5 5a 3c fa a2 45 3d ab 8d 89 be 40 0f 05 3e
       0.013352782 0.04825113 -0.26865897 0.12994099
0002f0 98 c8 28 be 2c bc 56 3e ee 4a 51 3e 4c 8b a4 3e
       -0.1648277 0.2097022 0.2043874 0.32137525
000300 45 99 c9 3d 3f ab 15 be b7 2b 3f bc 73 c7 bb 3d
       0.09843687 -0.14616106 -0.011668137 0.09168901
000310 36 4e 50 3e ca 23 96 bc 50 2e 03 3d 0f 9c 16 be
       0.20342335 -0.018327612 0.03202659 -0.14707969
000320 11 cf d4 ba b3 6d 8c bd dd 2a 6a 3d 66 80 5c 3e
       -0.0016236027 -0.06856861 0.057169784 0.21533355
000330 23 2b 02 3e 2e b3 2e 3e 1b cc ab 3d 20 20 da bd
       0.12711768 0.17060539 0.083885394 -0.106506586
000340 e9 b3 3e be 48 d0 62 be 3b 87 30 3e 84 3f 20 be
       -0.18623318 -0.22149765 0.17239086 -0.1564923
000350 59 be 9a bd 5e 39 88 3d 6a 65 3f bd 0d 07 06 3e
       -0.07555837 0.06651567 -0.046727575 0.13088627
000360 c1 f9 ed 3d c0 7b 2a 3e f9 9c c2 3d bc ed f6 be
       0.116199024 0.1664877 0.095025964 -0.48228252
000370 c6 83 b0 bd 47 bd 9a 3d 6c b8 0a be 25 50 a7 b9
       -0.08618884 0.07555633 -0.13546914 -0.00031912434
000380 73 c4 85 be 71 20 a5 be de 3c c9 be 7e 5d 7c bc
       -0.2612644 -0.32251313 -0.3930425 -0.01540315
000390 c5 58 b2 bc 59 a8 4c 3e 4f 6a b1 bd 25 d1 de 3d
       -0.021770844 0.19986095 -0.08662855 0.10879735
0003a0 4a d6 ad bb df 61 07 be 76 1b e9 bb fb 73 1b be
       -0.0053050863 -0.13220929 -0.0071138693 -0.15180962
0003b0 87 58 61 3e 77 df 0d 3e bd 42 ce bd ff a0 49 3d
       0.22006427 0.13854776 -0.10071323 0.049225803
0003c0 d2 23 76 be 2e 71 ed bd 69 f9 39 3e 79 2d db 3d
       -0.24037102 -0.11593853 0.18161549 0.107020326
0003d0 4f 1f 13 be 2c 4a 82 3e f1 4c af 3c 0d 67 b7 3e
       -0.14367412 0.25447214 0.021398993 0.3582081
0003e0 71 8f be 3e 0f ec f8 3d 08 cf e2 bd e9 5e 0f 3e
       0.37218812 0.121543996 -0.11074644 0.14001049
0003f0 d6 3b 47 bd 54 80 0c 3e 59 bb 23 3e ac 69 b4 3e
       -0.04864105 0.13720828 0.15989436 0.3523687

lstm.bias_ih_l0 f4 [256]
000000 51 2a 5d 3e cc 22 13 3e a3 87 1c 3e 3f 79 97 3e
       0.21598174 0.14368743 0.15286116 0.2958469
000010 b0 43 82 3e da f4 25 3e df 21 6b 3d fa 3b 28 be
       0.25442266 0.16206685 0.05740535 -0.16429129
000020 1d a2 2b 3c d6 30 95 3d a9 9c 09 3e c4 20 8d 3d
       0.010475663 0.07284705 0.13438667 0.06891015
000030 9b 34 6c 3d 5f 31 7b 3e 83 d8 5f 3e b2 5f 3a 3e
       0.057667356 0.24530552 0.21859936 0.18200567
000040 8b 43 55 3e 4d 99 9d 3e e6 33 a8 3d d5 37 07 3e
       0.20826547 0.30781022 0.08213024 0.13204892
000050 dc aa 7f 3e a4 5a a1 3d 25 7a 5e 3e 74 3e 9f 3e
       0.24967521 0.078786165 0.21726282 0.31102335
000060 b1 1b 6f 3e 44 fb 0b 3e 6e 24 83 3e d2 c3 92 bc
       0.23350407 0.13670069 0.2561373 -0.01791564
000070 42 14 c4 3d 29 fe 53 3e 7a e9 0d 3e 90 0c 18 bc
       0.09574176 0.20702423 0.13858595 -0.009280339
000080 67 ee e0 3c 58 dd 92 3e ea f8 13 3e f0 09 49 3e
       0.02745743 0.28684497 0.14450422 0.19632697
000090 b2 bf 44 3e 50 77 0f 3e 5d 4f bf 3e 93 76 88 3e
       0.19213751 0.14010358 0.37365237 0.26652965
0000a0 08 7c 42 3e e9 94 20 3e 26 9b 22 3e 29 94 7b 3e
       0.18992627 0.15681805 0.15879497 0.24568237
0000b0 b7 51 c5 3e a4 20 ae 3e a3 2f 6b 3d b3 a7 46 3e
       0.38538906 0.34009278 0.057418477 0.1939991
0000c0 4b bc 29 3d 1f 28 7b 3d 29 36 e6 3d c6 1e 34 3e
       0.041439336 0.06131756 0.11240799 0.17589864
0000d0 48 7d f1 3d e3 d6 86 3d 9a 65 99 3e 98 fc 64 3d
       0.117914736 0.06583955 0.29960328 0.055904955
0000e0 9a 71 34 3e 86 0e 0d 3e 77 e5 51 3e 35 cf 89 3e
       0.1762146 0.13775072 0.2049769 0.269159
0000f0 09 6c 91 3e 74 78 39 3e bd 9f f4 3d 7f 45 b1 3d
       0.28402737 0.18112355 0.1194453 0.086558335
000100 34 61 e5 3b d9 8a fb bd 51 a5 98 3d b4 31 c8 3d
       0.007000113 -0.122823425 0.074534066 0.09775105
000110 b9 06 1c bd 3c 0d 48 bc 06 fe 89 3d ba 8a 8a 3d
       -0.03809235 -0.012210187 0.06737904 0.06764741
000120 62 02 31 3d 11 08 dd 3c 9e 4b fe 3b e4 88 16 3e
       0.043215163 0.026981385 0.007760479 0.14700657
000130 51 bc e6 3d af d7 84 3e 76 cc 6b 3d 29 eb 79 3d
       0.11266387 0.25945804 0.057568036 0.06101528
000140 e8 c9 0f 3e d7 ce 38 3e 5a 99 49 3e 94 25 4e 3e
       0.14041865 0.18047653 0.19687405 0.20131522
000150 06 90 df bd f7 6a 21 be 2c 19 73 3c d4 75 0e 3e
       -0.10916142 -0.1576346 0.014837544 0.13912135
000160 9f 9f 8f 3d e9 ae d4 3d ae 1e 87 bc 25 93 b2 3d
       0.07012867 0.10384924 -0.016494121 0.08719472
000170 86 e7 ff 3d 3f c3 73 bb 7f 6f 0c 3d 71 5d d6 3c
       0.124953315 -0.0037195233 0.03428602 0.026167603
000180 ea 19 c9 bb 70 ba 09 3e d0 ab aa 3e f2 da a0 3d
       -0.0061371224 0.13450027 0.33334208 0.078542605
000190 3d fa 11 3e 06 ea 25 3d 2b ce 03 3e a7 27 1e bc
       0.14255615 0.040506385 0.12871616 -0.009653009
0001a0 4a 22 1f 3e e7 12 08 3e f9 e7 46 3e 8a 5f 4b 3e
       0.15540424 0.1328846 0.19424428 0.19860664
0001b0 94 dd 38 3e 3f 75 b9 3d 8a 8a 00 3e 47 6c d1 bd
       0.18053275 0.09055566 0.12552848 -0.102257304
0001c0 d1 8c c6 bd 0b 43 31 3c 5f 3e 00 3e a9 94 af 3d
       -0.09694827 0.010819207 0.12523793 0.085732765
0001d0 f4 3c 1f 3d f7 39 43 3e 64 3b c7 bd e1 ca 6f 3e
       0.03887649 0.1906508 -0.09728125 0.23417236
0001e0 98 db 7b 3d ef b9 5d 3d 8b 22 63 3e 2e c7 11 bd
       0.061488718 0.0541324 0.22181146 -0.035590343
0001f0 31 58 69 3e 50 15 03 3d 0e 26 46 bd 91 89 cd 3d
       0.22787549 0.032002747 -0.048376136 0.10036004
000200 b7 1b fd 3d 02 3e 44 bd ca d9 aa 3d 9d 8f 43 be
       0.12358802 -0.047910698 0.08342321 -0.19097753
000210 b1 1d 2c 3e 37 2c 3d 3c 49 51 ed 3d 3f a2 e0 bd
       0.16808201 0.011546186 0.115877695 -0.10968446
000220 dc 7d 53 3c 5c 8c d5 bd 2f b9 7d bd 78 fd 82 bc
       0.012908425 -0.10427162 -0.061944183 -0.015990004
000230 1f 03 26 be 4a 7b b0 bd 1b e0 2a be 02 86 d1 bd
       -0.16212128 -0.086172655 -0.16687052 -0.10230638
000240 94 98 ec 3c 28 9c de bd ea fc b1 bd 12 d2 1d bd
       0.028881349 -0.10869628 -0.08690818 -0.038530417
000250 5f 28 9f 3d 0b b9 20 3e 81 97 29 3e 0f 6e bc 3c
       0.07771372 0.15695588 0.165617 0.023001699
000260 31 42 0b 3d 36 b7 85 3c 02 67 0f be f9 0e 2e bb
       0.033998672 0.016322713 -0.14004138 -0.0026559217
000270 ff 3e 51 be 72 28 0f 3e 33 41 83 bc 36 2c e7 bc
       -0.20434187 0.13980272 -0.0160223 -0.028219324
000280 68 82 c7 bd 02 5d b5 3d 59 7f e1 bd 3e 47 a7 bd
       -0.0974167 0.088556305 -0.11010618 -0.08167885
000290 ab cc 5a 3e 3e 57 a4 bd 99 26 50 3e d1 36 d0 bd
       0.21367137 -0.080244526 0.20327224 -0.101667054
0002a0 57 d2 0c 3e 96 fb 65 3e 00 e1 0f be d4 0a c3 bd
       0.13752113 0.22459254 -0.14050674 -0.0952355
0002b0 76 b1 8e bd 4e f1 95 bc a3 59 30 3e f5 5b 0f be
       -0.06967442 -0.01830354 0.17221694 -0.13999923
0002c0 b1 02 3f 3e ab ae 79 3e 5e 5d 2e bd 0c 91 9c 3c
       0.1865337 0.24383037 -0.04256951 0.019112132
0002d0 d3 26 b7 3d 03 46 ad 3c cd 92 0b be 69 98 cb bd
       0.08942952 0.021151548 -0.13630219 -0.09941179
0002e0 31 69 53 bd 44 b4 9c bd 45 1d 30 3d ff 5b ff 3d
       -0.05161399 -0.076515704 0.042996664 0.12468719
0002f0 7e f8 61 3d ab dd 36 3d 5a 40 c6 3d ed c3 0c be
       0.05516862 0.044644993 0.09680243 -0.13746615
000300 78 c4 8a 3e dc 23 d8 3d 45 c3 33 3e d0 7c 48 3e
       0.2710302 0.10553715 0.17554958 0.19578862
000310 fc ff 13 3e 4e 4c 45 be 83 0e 15 3e 5d b0 e7 bd
       0.14453119 -0.19267389 0.14556317 -0.113129355
000320 05 44 c6 bd c4 fb 34 be 04 3b 70 bd aa bd 3a 3e
       -0.096809424 -0.17674166 -0.05865003 0.18236414
000330 bb a2 0c 3e cf 5b 45 be 7b 42 3c be 79 f7 0c bd
       0.13733952 -0.19273303 -0.18384735 -0.034415696
000340 0c 1b db bc 92 69 09 bd 47 ca 30 be 51 36 b0 3c
       -0.026746295 -0.033547945 -0.17264663 0.021510275
000350 61 8b 89 3d 46 ec 77 bd ee 30 f3 bd 6f b0 1d be
       0.067160375 -0.060528062 -0.11874567 -0.15399335
000360 3b ee 43 3e 07 29 d0 bc 42 01 27 bc a5 0c 91 3e
       0.19133846 -0.025410188 -0.010193171 0.2832996
000370 dc 9a 46 be f9 47 39 bd 65 cc 98 bd 2a c0 8c bc
       -0.19395012 -0.045234654 -0.0746086 -0.017181475
000380 a3 5c 9c 3d cc 98 c5 3c b6 e1 aa bc c0 01 18 be
       0.076348566 0.02412071 -0.02085958 -0.14844418
000390 cc 73 7e bd a0 71 a6 bd 9b af 3a 3e 16 f2 7a 3d
       -0.06212215 -0.08127141 0.1823105 0.061266027
0003a0 75 26 34 ba 8f e8 b9 bd df 29 fb bd 09 3e ee 3d
       -0.00068721856 -0.0907756 -0.12263846 0.11632926
0003b0 d7 c8 8f bd f6 bc f4 3d a4 c9 b7 3d a9 de 23 3a
       -0.07020729 0.11950104 0.08974007 0.00062511355
0003c0 bd 02 fc bd 1d 9b 1f bd e7 9b 1a 3e a3 93 0e bd
       -0.1230521 -0.038966287 0.15098535 -0.034808766
0003d0 49 35 20 be b4 b1 e9 3d d5 3c d4 bc 4e cc 90 3d
       -0.15645327 0.11410847 -0.025907913 0.07070218
0003e0 c9 6f dc bd 16 64 4f 3d 3e fa 34 3e 47 06 52 3d
       -0.10763509 0.05063256 0.17673585 0.051275518
0003f0 b8 b2 af bd 49 90 3d be 94 9b 9e bd 95 2b c0 bc
       -0.0857901 -0.18512072 -0.07744518 -0.023458282

lstm.bias_hh_l0 f4 [256]
000000 10 40 1d 3d 88 84 ad bc 8f 26 65 3d 29 1a 52 3e
       0.038391173 -0.02118136 0.055944975 0.20517792
000010 72 96 94 3d 4c 90 d7 3d 6d 58 8c 3e 6f b5 2b be
       0.07255258 0.10525569 0.27411214 -0.1676843
000020 e4 bb c1 3c 43 68 72 3e 0b ff e7 3d 97 52 1d 3e
       0.023649164 0.23672585 0.113279425 0.15363537
000030 39 c4 79 3d 83 a7 29 3e 7d 9d 1e 3e 3d 18 0a 3d
       0.060978148 0.16567807 0.15489765 0.03371452
000040 e8 f6 7a 3d 1a 33 91 3e da f9 28 3e e9 8d 70 3e
       0.061270624 0.283593 0.16501561 0.23491634
000050 6d 2b 00 3e c9 fd 16 3e 50 e9 d7 3d 7e e2 12 3e
       0.12516566 0.14745249 0.10542548 0.14344212
000060 bc 6e 60 3e be 8f 7f 3e 05 de 81 3e 61 d7 1e 3e
       0.21917242 0.24957177 0.253647 0.15511848
000070 c8 fd 2c 3d db e2 42 3e 57 2c 54 3e fd 80 46 3e
       0.042234212 0.19031851 0.2072004 0.19385143
000080 2d 47 30 3e 03 07 5f 3e f9 f1 0c 3e 3a 2c 7a 3e
       0.17214651 0.21780019 0.1376418 0.24430934
000090 bc 18 3f 3e d2 a9 8f bc 13 43 d6 3e ea c2 5b 3e
       0.18661779 -0.017537031 0.4184805 0.21461073
0000a0 9e d1 a9 3e 88 98 80 3e 7b 24 66 3e f6 01 89 3d
       0.33167738 0.25116372 0.22474854 0.06689827
0000b0 ce dd 11 3e 1d 11 2a 3e c4 71 3b 3e e7 ca 1c 3e
       0.14244768 0.1660809 0.18305117 0.15311776
0000c0 23 36 01 3e 8f 62 a5 3d 41 a8 9b 3d bd b4 af 3d
       0.12618308 0.08075439 0.07600451 0.08579395
0000d0 20 dc 93 3e b0 24 80 bd ec 75 3f 3e 12 fc fc 3d
       0.2887888 -0.062569976 0.18697327 0.12352766
0000e0 71 e5 43 3e e0 c3 30 bd c2 a6 7e 3e 78 ea 25 3e
       0.19130494 -0.04315555 0.248683 0.16202724
0000f0 d1 71 18 3e 7c 2a 1a 3e e4 c3 56 bd 42 07 73 3e
       0.14887168 0.15055269 -0.05243291 0.23733237
000100 83 15 42 3d dc ae b3 3d 60 62 13 3e ff be bc ba
       0.047383796 0.08773586 0.14392996 -0.0014400183
000110 ad 11 5d 3d eb 51 81 3d bc 89 74 bc 71 9c fe 3d
       0.053971935 0.06314453 -0.014925417 0.124321826
000120 8d b7 bf 3d 22 e4 4a 3e 08 93 30 3e 6e b3 0a 3e
       0.093611814 0.19813588 0.17243588 0.1354501
000130 8e fb 19 3e 15 cd 9e 3e 43 4a 1d 3e 84 5f 3c bc
       0.15037367 0.3101584 0.1536036 -0.011497382
000140 c2 7c 82 3e 17 77 15 3e 5e a3 a2 3d a1 55 3e 3e
       0.25485808 0.1459621 0.07941316 0.18587352
000150 1d 0b 6e bd f7 b3 86 be 3b 28 81 bb 66 91 22 3d
       -0.058116067 -0.26309177 -0.0039415634 0.039689444
000160 81 48 e8 bc 9a 06 60 3e 28 cf b8 bd 23 76 7f 3d
       -0.028354885 0.21877518 -0.09023887 0.062368523
000170 8c fa b6 3d 47 d4 e2 3b ee 8f be 3b 9e a5 80 3d
       0.08934507 0.006922278 0.0058154976 0.06281589
000180 ea 8f 93 3d 91 89 18 3e 7e 63 af 3e a4 41 50 3e
       0.07205184 0.14896227 0.34255594 0.2033754
000190 8f 05 da 3d 86 1f c5 3d dd 76 d9 3d f6 3e 21 bd
       0.106455915 0.09625153 0.106183745 -0.039366685
0001a0 ea de e1 3c 75 4f 80 3b cf fd 3e 3e 20 ac 6a 3e
       0.027572114 0.003915722 0.18651508 0.22917223
0001b0 85 0b aa ba e0 b0 d2 3d 26 3a 3e 3e 89 c6 59 bc
       -0.0012973404 0.102876425 0.1857687 -0.013291963
0001c0 a9 b2 97 3d 39 8a 28 3e 42 17 1d 3e 40 35 14 3d
       0.074071236 0.16458978 0.15340903 0.036183596
0001d0 77 6b ff bb f5 e6 8b 3e 93 a9 d3 bd ae 00 35 3e
       -0.007794793 0.27324644 -0.10335078 0.1767604
0001e0 31 a8 0c 3d 3d 8b 72 3d 0e 37 51 3d dc 22 23 be
       0.034340087 0.05921482 0.051077895 -0.15931267
0001f0 7b 4c 1b 3e bf c6 07 3e 0e ef 0d 3e 9f b7 78 3e
       0.15165894 0.1325941 0.13860723 0.24288796
000200 2f a6 02 3e 99 97 0e 3e 30 2b 8e 3d b1 f2 f1 bd
       0.12758707 0.13925017 0.06941831 -0.11813868
000210 3b 81 b3 3d cf bb c2 bd d2 76 bf 3d 50 e5 86 3d
       0.08764883 -0.09508478 0.09348835 0.06586707
000220 27 69 3c 3d ac dc c2 3d 1f 3c 4c 3d f9 2e 27 bd
       0.04599872 0.09514746 0.049862023 -0.04081628
000230 a8 ad 35 3d 60 db 23 bd 15 fd 45 bd e2 ec 46 be
       0.044355065 -0.040004134 -0.04833706 -0.19426301
000240 12 be 64 3d 49 e9 4f bd 18 c6 2b be 8e 46 3e be
       0.055845328 -0.050759587 -0.16774786 -0.18581602
000250 b4 2d 39 3d cb 01 7e bc 1a 4e c9 3d 67 f6 44 be
       0.0452096 -0.015503357 0.0982935 -0.1923462
000260 2a 03 ff 3d 0d fc ed 3d 8f 8e 1b be c9 bf ef 3d
       0.12451775 0.116203405 -0.151911 0.11706502
000270 3b e9 02 be fe db 08 3d 63 07 0b 3d 93 c3 8c bc
       -0.12784283 0.033412926 0.03394259 -0.0171831
000280 99 16 5a 3b c1 6d c7 3d f2 ed e2 bd bc ab 7f 3d
       0.003327763 0.09737731 -0.11080541 0.062419638
000290 4c 43 0d 3d 1e 22 fe 3c bf 85 82 3d fc 5e ab 3d
       0.034488007 0.031022128 0.06373166 0.08367726
0002a0 d6 c0 58 3d c3 ea 05 3d 0f af 46 be 3a c2 c7 bd
       0.052918278 0.03269459 -0.19402717 -0.09753843
0002b0 f5 73 69 bd 06 98 6e bc c6 d4 0e 3e 60 b0 32 be
       -0.05699535 -0.014562612 0.13948354 -0.17450094
0002c0 93 2c 38 bd 15 02 12 3e ed 6f 8f 3d b8 ad 07 bd
       -0.044964384 0.14258607 0.0700377 -0.033124655
0002d0 cf 9b f4 bb 99 69 32 3e 5f d9 35 3d ea 3e d5 bd
       -0.007464863 0.17423095 0.044396754 -0.104123905
0002e0 46 c2 2c be aa 60 ce 3d ff 7e ce bd bc a8 92 3d
       -0.16870984 0.10077031 -0.10082816 0.0716109
0002f0 a8 0a 7e bc 10 11 1b 3e 9c 39 ae 3b f4 97 c6 bd
       -0.01550547 0.15143228 0.005316926 -0.096969515
000300 b9 ca 04 3e 56 a1 2b 3e 55 33 11 3d d0 6d 9d 3d
       0.12967958 0.16760764 0.035449345 0.07686961
000310 b3 57 1e 3e 38 6b 95 ba 29 ac c0 3d ae b6 93 bd
       0.15463142 -0.0011399752 0.09407837 -0.07212578
000320 d6 b6 a8 bd 3b 20 ee bd 49 89 7f bd 99 be 8a 3e
       -0.08237998 -0.11627241 -0.062386785 0.2709854
000330 36 bf dd 3d 4d 5d 05 be a6 e7 f8 bd d5 42 5f be
       0.10827486 -0.13023873 -0.121535584 -0.21802838
000340 5d b6 10 be e0 40 6b 3d 99 1f 2f be b3 7c 0b be
       -0.14132066 0.057434916 -0.17101897 -0.13621788
000350 a0 87 2b 3a c2 e8 83 3d 0e 8d 02 be bd 6d e6 bd
       0.0006543342 0.064408794 -0.1274912 -0.112514
000360 bb 51 c7 3d 8f e7 93 bd d8 be e8 bd 1d 4a 39 3e
       0.09732386 -0.07221901 -0.113645256 0.18094678
000370 47 9f 22 be 9c dc 29 3d 08 46 62 be 66 3e cc bd
       -0.15881072 0.041470155 -0.22097027 -0.09972839
000380 4a 4d 8f 3d 29 e2 a6 3d de 6a 93 3c 5f 67 1f 3d
       0.069971636 0.081486054 0.017995294 0.03891694
000390 a5 71 ba bd 98 63 27 bd 26 dd 0b bd f6 62 81 3c
       -0.09103707 -0.040866464 -0.03414645 0.015794259
0003a0 eb e0 43 be 90 bb 0b 3b bc 3a 4c be fc 7f 61 3e
       -0.19128768 0.0021321513 -0.1994428 0.22021478
0003b0 99 9d f4 bd 0e 7d 44 3e fc 24 18 3e 8d 66 f7 bd
       -0.11944122 0.1918833 0.14857858 -0.12080107
0003c0 90 14 da bd b2 c3 3c be ac c6 8e 3d 89 60 1a 3d
       -0.10648453 -0.18434027 0.069714874 0.03768972
0003d0 68 ba 41 be 9a e3 fb 3d 29 34 e3 3d 8e 35 08 3e
       -0.18918765 0.12299271 0.11093933 0.1330168
0003e0 c7 93 b7 3b d1 87 41 3d 46 d8 7a bd e9 f4 bb bd
       0.005602333 0.047248665 -0.06124141 -0.09177572
0003f0 84 16 13 be 7e 11 e1 bd c6 85 99 bd 3a 19 9b bd
       -0.14364058 -0.109896645 -0.074962184 -0.07573171

fc_layer.weight f4 [64, 64]
000000 7a 46 fb bd 7d 91 8d be b0 9f 89 be 39 7e 82 3e
       -0.12269302 -0.2765006 -0.26879644 0.25486925
000010 b6 02 69 3e 9a f4 7d be 78 d3 2f 3e 26 70 8c be
       0.2275494 -0.2480034 0.17170513 -0.27429312
000020 52 c4 47 3e 28 2a 9c bd 52 92 a3 3e cc 83 c5 3e
       0.19508484 -0.07625228 0.3194757 0.38577116
000030 d3 9e c6 3e fb 41 7e 3e 5f a1 a3 3e 96 b8 d5 3d
       0.38793048 0.24829857 0.31959054 0.104355976
000040 17 fd a3 bd f9 db 82 be c8 7a 60 3e f2 1e 93 be
       -0.080072574 -0.2555845 0.21921837 -0.28734547
000050 96 f3 c0 be a5 be 77 be 1d 77 0b be cc ce 4c be
       -0.3768584 -0.24193819 -0.13619657 -0.20000762
000060 20 59 af be 4e 27 4a 3e 8c 64 a7 3e 4d 92 8b be
       -0.34247684 0.19741556 0.326939 -0.27260056
000070 08 41 37 3e 82 6b b4 be 01 2d b2 be 03 67 cf bd
       0.17895901 -0.35238272 -0.3479996 -0.1012707
000080 94 9b f2 be 0f 34 94 be 53 78 96 be 9b 42 40 be
       -0.47384322 -0.28945968 -0.29388675 -0.18775408
000090 c5 e4 1d be cd 6c a5 3e bd 2e af be 1b 50 e3 3d
       -0.154193 0.3230957 -0.34215346 0.11099263
0000a0 66 61 88 be 70 7f 32 bd 2c 20 51 3e 7e 71 3f be
       -0.2663681 -0.043578565 0.20422429 -0.18695638
0000b0 8f 43 dc 3e 98 c3 73 3e 1e 18 42 be b3 ef 5f 3e
       0.43020293 0.23805082 -0.18954512 0.21868782
0000c0 1f 1f d0 bd ed 5a 3c be 66 06 9b 3e 6e 16 a3 be
       -0.10162186 -0.1839406 0.3027832 -0.3185305
0000d0 fa 91 58 3e 95 9e a9 3e a2 18 48 3e 13 4f 9a 3e
       0.21149436 0.331288 0.19540647 0.30138454
0000e0 73 26 9c 3e e0 08 2a 3e 94 96 96 be 31 12 05 be
       0.30498084 0.16604948 -0.29411757 -0.1299522
0000f0 d4 0b 33 be 03 0f 1b 3e 08 0d c3 3e f6 0c 17 3e
       -0.17484981 0.15142445 0.3809588 0.14751038
000100 5e 15 c8 bd 2a 19 ac bc 9d 9d 3d bd d5 5b 2e 3d
       -0.097697005 -0.021008093 -0.04629289 0.042568047
000110 79 48 9f bc 3d a8 f1 3d ff aa 8a bd de ed 83 bc
       -0.019443737 0.11799667 -0.06770896 -0.016104635
000120 e5 3a 1c 3d 95 46 1e be c9 f9 31 3e 22 0a 20 bd
       0.038142104 -0.15456612 0.17380442 -0.039072163
000130 72 fb 39 be 47 65 45 3c 98 62 98 bd 57 74 0f 3e
       -0.18162325 0.012048072 -0.0744068 0.14009224
000140 7a ae 8a bd e1 d8 bb bd c1 07 a0 3c ea 84 66 3e
       -0.0677156 -0.09172226 0.019534947 0.2251164
000150 af 16 31 bc c8 c7 39 be b5 b5 05 3b ec 9a 30 3c
       -0.010808631 -0.18142617 0.0020402495 0.010779124
000160 4b 62 42 bd 8a 39 08 bd 32 bd c6 bd 44 75 08 be
       -0.04745702 -0.033258 -0.09704055 -0.13325983
000170 cc 53 39 be 4c 2b af 3d fb 69 f9 bc e5 14 5a bd
       -0.18098372 0.0855318 -0.030446043 -0.053242583
000180 56 92 01 3e 67 c2 43 bc b2 ae 22 3e f3 e4 60 3e
       0.12653479 -0.011948205 0.15886953 0.21962337
000190 b1 80 31 3e 1a 90 71 3b 6f 49 94 bd 51 84 50 bc
       0.17334248 0.0036859573 -0.07240569 -0.012726859
0001a0 5f 6d 4b bd 80 72 5f be da fb 5c 3e 08 5b 37 3e
       -0.04966485 -0.21821022 0.21580449 0.1790582
0001b0 33 29 3c bd 5b 52 dd 3c 74 70 ec 3c b8 e4 12 3e
       -0.045937728 0.02701681 0.028862216 0.14345062
0001c0 52 43 62 3d 69 da 42 be 08 96 47 be e2 62 22 be
       0.055239983 -0.1902863 -0.19490826 -0.15858033
0001d0 d5 33 f2 bc b9 56 bf 3d 2e 68 4b 3e 66 2c 1a be
       -0.029565731 0.09342713 0.1986396 -0.15055999
0001e0 44 47 30 be 5e 78 ff bd 43 fb bf 3d bd 39 6f 3c
       -0.17214686 -0.1247413 0.09374096 0.014601168
0001f0 34 88 1f be 5e e3 85 bd 5d 07 86 be 24 7c 3c 3e
       -0.15579301 -0.065375075 -0.26177493 0.18406731
000200 c4 fa bc bc 8b 55 cb bd 0d ff dd 3d b3 23 4c bd
       -0.023068793 -0.099284254 0.10839663 -0.049838733
000210 74 6f c1 bd 36 7b 85 bd aa 58 b0 bc c6 a3 8e 3b
       -0.09445086 -0.06517641 -0.021526653 0.0043530194
000220 6d 9c 35 3d 2a 03 bb bd 44 5a 99 bd 8b 3a 46 bc
       0.044338632 -0.09131463 -0.0748792 -0.012098919
000230 56 80 74 3d 5d bd f8 bc f1 c8 c8 3d 24 7a 03 be
       0.059692703 -0.030363733 0.098039515 -0.12839562
000240 e5 7a f2 3c 4a 04 f6 bd 4c cb d3 bd 31 1b 8f bb
       0.029599616 -0.12012537 -0.1034151 -0.004367255
000250 34 5b db bd d7 41 20 be e9 c0 ec 3b 90 30 ae 3d
       -0.10710755 -0.15650116 0.007225145 0.08505356
000260 ef ae c1 3d 4d 3a aa bd 1f 08 9b 39 c0 b4 0c bd
       0.09457194 -0.08311901 0.00029569954 -0.034352064
000270 36 aa f1 bd 17 6e 9e bd 22 95 c5 3d f1 8a da bc
       -0.11800043 -0.07735842 0.096475855 -0.02667758
000280 9f d2 00 be 78 f6 5a 3d b2 77 39 3e c4 31 9c bc
       -0.12580346 0.053457707 0.18112066 -0.019066699
000290 70 07 27 3e e6 a0 e8 bd bc 06 05 3e a3 7d b5 3c
       0.16311431 -0.11358814 0.1299085 0.022154635
0002a0 61 6b 2d 3e 82 b8 e2 3d d6 3a ba 3a 00 59 c4 bd
       0.16935493 0.11070348 0.0014208208 -0.09587288
0002b0 92 47 50 bd df c6 90 3b 07 e9 08 bc bd 19 0b 3d
       -0.050849505 0.0044182385 -0.008356339 0.033960093
0002c0 da cc 80 bc 38 54 d1 bc 58 20 81 bd 58 03 f4 3c
       -0.01572268 -0.025552854 -0.06304997 0.02978675
0002d0 7c b3 55 3c 81 a4 55 3d c0 75 0f bd 39 5c 8a bc
       0.013043281 0.052158836 -0.035024405 -0.016889678
0002e0 7a 5d ab 3d 58 94 8f 3d c4 9d ff ba 13 37 99 3d
       0.083674386 0.07010716 -0.0019501974 0.07481208
0002f0 d0 b9 5a 3e 5e 45 94 bd 6f d4 80 3d af 05 39 bd
       0.21359944 -0.07239793 0.062905185 -0.045171436
000300 8a 33 b2 be 94 7c 0f be c3 0b ad be d7 d9 5a 3e
       -0.34804946 -0.14012367 -0.33798036 0.21372162
000310 0e 4a b5 3e 65 43 67 be e1 c4 c8 3e 25 ec 8c be
       0.35408062 -0.22584303 0.39212707 -0.27523914
000320 21 80 3b 3e 27 2a 06 be d7 0f 59 3e 1e 90 63 3e
       0.18310596 -0.13102017 0.21197449 0.22222945
000330 5d 96 74 3e 0e 51 9b 3e 6f a1 2f 3e 2c 8a 8b 3e
       0.23885484 0.30335277 0.17151426 0.27253854
000340 49 d8 13 be 7a 6e 7d be e5 a9 a7 3e 53 21 9a be
       -0.14437975 -0.24749175 0.32746807 -0.3010355
000350 56 38 58 be c2 c8 b6 be 7b 4c f8 bd 88 f8 9a be
       -0.2111524 -0.3570004 -0.121239625 -0.3026774
000360 84 c6 9f be 43 e7 82 3e aa cb 5b 3e a1 84 99 be
       -0.31206143 0.25567064 0.2146441 -0.29984
000370 7d d6 53 3e e5 e3 7c be 77 8a b4 be b1 2b 87 be
       0.2068729 -0.2469631 -0.3526189 -0.2640052
000380 51 d4 d6 be 54 57 be be 61 86 d7 be 1f 76 a1 be
       -0.4195886 -0.37176 -0.4209471 -0.31535432
000390 ee 83 99 be be 21 8e 3e d9 d2 a3 be f8 27 65 3e
       -0.29983467 0.27760118 -0.31996801 0.22378528
0003a0 be 70 97 bd bb 5e 7e be 9d 3f 6a 3e 46 b8 c5 be
       -0.07394551 -0.24840824 0.22875829 -0.38617152
0003b0 d5 02 62 3e 10 f0 d2 3e c6 e0 c3 be 1a b6 aa 3e
       0.22071393 0.41198778 -0.38257426 0.33342057
0003c0 d7 68 f1 bc 4c 4c 0b be 7d 38 98 3e da 3c 6e be
       -0.029468937 -0.13603324 0.29730597 -0.232654
0003d0 bf f3 60 3e d2 b9 9c 3e 5c d0 9c 3e 15 36 01 3f
       0.21967982 0.3061052 0.30627716 0.5047315
0003e0 84 8a ba 3e 42 6a b8 3e 42 4b aa be c8 86 5b be
       0.36433804 0.36018568 -0.33260542 -0.21438134
0003f0 53 ac a2 bd 0e 96 14 3e 0b 01 bd 3e aa e6 48 3e
       -0.079430245 0.14510366 0.36914858 0.19619241

fc_layer.bias f4 [64]
000000 57 c0 a6 3e 00 3d 19 3d f8 1c e4 bd dd 50 bd 3e
       0.3256862 0.03741169 -0.11138338 0.36975756
000010 09 68 f3 3d 74 8d b2 3e 7f 3c ab 3e a3 2c 5c 3c
       0.118850775 0.34873545 0.33444592 0.013438377
000020 63 9f 0a 3d b4 8b a6 3e 63 00 bd 3e 54 a2 af 3e
       0.03384341 0.3252846 0.36914358 0.34303534
000030 18 b7 d7 3d f9 72 c7 3d 89 5c d4 3d 5b 36 1d bd
       0.10532969 0.09738726 0.10369212 -0.038381916
000040 81 ac 93 3c e8 01 32 bd e6 5d 02 3e 35 a1 e4 bc
       0.018026592 -0.04345885 0.12731132 -0.0279089
000050 19 bc c5 bc 84 7a 17 3b 79 ee 08 3b 85 92 71 3d
       -0.024137544 0.0023113796 0.0020894094 0.058977623
000060 49 0d 87 3e ba e7 6a 3e c5 35 6b bc 63 df 8f 3e
       0.26377323 0.22939959 -0.014356081 0.28100118
000070 8e bb d4 3d e2 a3 6d 3e ae 67 d8 bb 77 54 e4 3c
       0.10387336 0.23207048 -0.0066041565 0.027872307
000080 cc e0 90 3e 01 78 19 bc 9a 2e 89 3d a6 f4 3d 3e
       0.28296506 -0.00936699 0.06698342 0.18550357
000090 6c a1 ac 3d 66 97 94 3e d6 8b 4e bc 24 47 63 3c
       0.08429226 0.29021758 -0.012606582 0.013871942
0000a0 3c db e2 bd 88 e7 9e 3e 8d ad b1 3e a1 c9 80 3e
       -0.11076972 0.3103602 0.3470272 0.2515383
0000b0 c0 24 95 3c ad 0e d0 3d 0e 63 83 3c b6 8c ae 3e
       0.018206 0.10159049 0.016038444 0.3409173
0000c0 9a c0 e8 3d b4 41 37 be 33 37 b4 3e 76 e4 f4 3d
       0.11364861 -0.17896158 0.35198364 0.11957638
0000d0 af 2a 43 3e 20 f5 d7 3d 58 f9 8e 3e b1 6e a2 3e
       0.19059251 0.10544801 0.2792461 0.31725076
0000e0 e0 84 6d 3e a1 1c b4 3e 5e dc a9 3e 3c 70 4a 3e
       0.23195219 0.35178092 0.3317594 0.19769377
0000f0 05 af 5f 3d f1 38 d3 3d bd 37 36 3e 6b 23 d5 3c
       0.05461027 0.10313595 0.177947 0.026017865

output_layer.weight f4 [1, 64]
000000 53 a7 ca 3e 3e a9 30 be 39 e6 2a be 4f 30 98 3e
       0.39580783 -0.17252061 -0.16689385 0.29724357
000010 a5 46 bf 3e b9 82 af 3e 3a a3 be 3e bd 7c 89 be
       0.37358585 0.3427942 0.37233907 -0.2685298
000020 c3 4f ed be a3 a3 b5 3e 70 84 9b 3e 9d b2 bc 3e
       -0.46349916 0.35476407 0.3037448 0.3685502
000030 b1 18 c7 3e 59 ca 9e be ce 47 d6 be 7d dc 9d be
       0.38886026 -0.31013754 -0.41851658 -0.30832282
000040 ff 32 ea be 4f bb ba be a7 f8 d1 3e 51 ed e1 be
       -0.45742032 -0.3647103 0.4101002 -0.4412637
000050 da cf d1 be 9c 2e a7 be 8c 24 ba be cc 1c a3 be
       -0.4097889 -0.32652748 -0.36356008 -0.31857908
000060 22 c7 a8 3e d3 0d ca 3e e5 b8 c6 be 32 89 b0 3e
       0.32964426 0.39463672 -0.38812938 0.34479672
000070 32 d0 f5 be f1 04 c1 be d4 f6 e5 be f3 7e 8a be
       -0.48010403 -0.37699082 -0.44914877 -0.2704998
000080 ae 30 c4 3e dc 17 8c be 38 3a 9e be 39 a5 97 3e
       0.3831839 -0.27361953 -0.30903792 0.29618242
000090 4f 67 95 be c1 d7 cc 3e 7d eb da be d2 5a d8 be
       -0.2918038 0.40008357 -0.42757788 -0.4225679
0000a0 c3 22 8c 3e 9a 20 cc 3e ae ee 9d 3e 3c f9 ae 3e
       0.2737027 0.39868623 0.3084616 0.34174526
0000b0 41 b7 d5 be 37 20 9b be a0 be 86 3e 18 db a0 3e
       -0.41741374 -0.30298015 0.2631731 0.31417155
0000c0 fd 6d 9c be 9f f4 9c 3e d7 f2 bc 3e 3d 31 a0 3e
       -0.30552664 0.3065538 0.36904022 0.31287566
0000d0 e4 15 bc 3e 0b 20 ef be a7 18 a4 3e ac 11 ce 3e
       0.3673545 -0.46704134 0.32050058 0.40247858
0000e0 0a fb b0 3e 5e b2 a1 3e c2 1a ac 3e 12 1d c1 be
       0.34566528 0.31581396 0.33614165 -0.3771749
0000f0 38 fc b6 be bd bc e2 be ad 4c c5 3e a1 d0 bc be
       -0.35739303 -0.4428462 0.3853506 -0.3687792
