Conditional_TimeGAN/result/original/model/PD_lag1_total1/torch_best_model.pt (torch, 87834 bytes, 7 tensors)

lstm.weight_ih_l0 f4 [256, 1]
00000000: 91ef 5b3e 47d7 793e 3a5d a53d bd5b e1bc
00000010: f8ec c0bb f80a 413e 3037 f2bc 48b4 773e
00000020: c59b b83d 2e47 6a3b ce31 2b3e 8450 e43d
00000030: 0a28 4bbd 2e8f d4bc c8e0 bc3c 24cc 6abb
00000040: a14f 3e3d b314 933e 28cd 223b c735 b53b
00000050: 21d0 793e 45ba 6c3e 1c32 683b 910f a13e
00000060: 2fcd 253e f7ed 473d 403b 6a3e c242 6b3d
00000070: e9a9 38bd b9ad 59bb 3be4 703b 1865 673e
00000080: 955e d03d 20fe b3bc aaa0 03bd db73 01bd
00000090: 3320 2ebc 9843 a63e 61fc 913e e294 6c3d
000000a0: 26a4 4c3d 4346 ec3c 707c ab3d bdfc b2bc
000000b0: 5789 13bd 5fb0 98bc b4f9 913e d6ab 653e
000000c0: b231 843a dca5 c83d 5239 1d3e 5d0b 863e
000000d0: 9f8e 323e 2648 123e fd67 713e 8e18 7dbd
000000e0: 303b 1d3e 77c4 10bd 0d26 40bd 9a75 10bc
000000f0: 046c 8d3d b214 ec3d c89e 16bc e927 363c
00000100: 6bb2 d53d 1e41 533d f920 86bb 80ee e63d
00000110: 2a1d 6a3e f8be 043e 725c bdbb 45ec 0c3c
00000120: d2ca ac3d 947f e23d 8c14 b13d cba4 323d
00000130: 0b94 663e a24d 76bb 66f1 573d 38dd 433d
00000140: da68 fdbb 4f01 b63d fcd0 1e3e 3173 15bc
00000150: 9e93 a73d 21bd f83c 97fc 963c b002 c83b
00000160: cffb 543d 1c82 123c be42 433d 7d91 1d3e
00000170: 2088 ff3d 2e6e e93d a667 a33b d4da c4bb
00000180: 4f27 a83d 2a46 a23d 567c 90bb 9b2a 8ebb
00000190: 0344 b33d f4b7 723d 18e3 d23c 5aba 8ab7
000001a0: 5303 66ba ab57 463d 08ed c1bb 95a4 89bb
000001b0: 6920 b23d 2b9c 833d 0dc3 d93c 5cc7 f23d
000001c0: 578b 723b 53b5 3a3e 4ab0 f23c 7f86 5f3c
000001d0: 9e91 913b dfc2 153e e8ed b83d 9556 cc3d
000001e0: 9290 383d 0e79 b63d 3ee6 4aba 814d ef3d
000001f0: 502b 11bc 2b9e 9abb 4f71 123d 0637 033c
00000200: 5a89 08bc 2cd0 8cbc a897 58be 1b02 babc
00000210: f188 84bc 1c87 823b f2ad 523e c3d1 41bd
00000220: 767e 673b 14cd cd3b 579e 153c c79a 5a3e
00000230: b35f ab3c bd35 1d3e 497e 413e 8c45 abbc
00000240: 5563 19be da8e 3cbc 8d70 ea3b 205b 7ebd
00000250: 5f2f 28bc 3e63 34be 7eba 54be 0662 79be
00000260: 39d0 84bd 84df 703e 6aa2 663e cc6d 74be
00000270: 3134 973c a77b 8abc 2651 863b de01 f2bd
00000280: bd13 dabb 8977 c8bc 8c26 67be b45f d3bd
00000290: b93f 113c df88 a43b 7077 27be 8059 333d
000002a0: c3bf 4bbe bdca d73a 1dc5 6c3e 659b 22be
000002b0: 837a 393d 0a87 183e b261 28bd e85d 193c
000002c0: ef7a 67bd 05d8 c53a 1d05 193e c78b 5fbe
000002d0: 3b1d 9c3d 6a64 9d3c 9ba7 123c e2ba a63d
000002e0: 0453 113e d402 caba cd33 6abd d588 8cbb
000002f0: 4c93 acbe 0cc3 0f3e 3e43 323e 9d5b 463e
00000300: c587 053d 00d8 a23d b123 a7bb 54d3 3a3d
00000310: 4991 003a 5b99 8b3d 26bd f13b 9bcc bd3d
00000320: d26d 7c3d 5c7d 693d 0e0a 9a3d 3d12 a43a
00000330: d7b0 863d 28ea 983c a2b2 cb3c b27d e53c
00000340: 22f9 853c a657 b03d 755b aa3d 4e72 0b3b
00000350: 3490 a63d 7881 2b3c d74d 663d b00f 863a
00000360: a2b6 caba 4240 2c3b d85f 543e 7a23 c93a
00000370: 400a 4b3d ef45 c13d 5dd7 9d3d 8abd 283b
00000380: 5587 0f3d a2b0 8d3d 40ae 623c a3e4 cc3a
00000390: 2594 c43c 6b01 fe3c 70b1 a5ba db14 703c
000003a0: cb89 5a39 d5fb c53d 6d0d 633d 599d 9bb9
000003b0: e9fe 653c 078d 253c e255 b63c 3876 ce3d
000003c0: 036d ba3b 9379 b93d a197 0e3d 3f85 523b
000003d0: 07d1 1d3b 49bd cebb c445 e63d 79bd 173c
000003e0: 3793 313d 300f 3d3d 2916 ff3c c7fb 3e3c
000003f0: 5093 b73c c8fa 443c 29db 163b 0c52 6c3b
0.21478106 0.24398528 0.08074422 -0.027509565 -0.005887624 0.1885184 -0.029567331 0.24189866
0.09014086 0.0035747993 0.16718218 0.1114817 -0.04959873 -0.02594718 0.023056403 -0.0035827244
0.04646266 0.2872673 0.002484152 0.0055300924 0.24395801 0.23117931 0.0035430258 0.3145719
0.16191553 0.048810925 0.22874165 0.057436712 -0.045083914 -0.003321512 0.003675713 0.22597158
0.1017429 -0.021971762 -0.032135643 -0.03160463 -0.010627794 0.32473445 0.28512862 0.057759173
0.04996123 0.028842097 0.08373344 -0.02184903 -0.03601965 -0.018638788 0.2851082 0.22428831
0.0010085611 0.0979726 0.15353897 0.26180544 0.17437218 0.14285335 0.23574825 -0.061790995
0.1535461 -0.035343613 -0.046911288 -0.008817101 0.06905368 0.11527385 -0.00919313 0.011117914
0.10434421 0.051575772 -0.004093286 0.11275959 0.22862688 0.12963474 -0.0057788426 0.008601253
0.084371224 0.1105949 0.08646497 0.04361419 0.22517411 -0.0037582894 0.05272045 0.047818393
-0.0077334465 0.08886968 0.15509409 -0.009121702 0.081824526 0.030363621 0.018430991 0.006103836
0.051997956 0.008942153 0.047671072 0.1538753 0.12477136 0.11397968 0.004986721 -0.0060075317
0.082106225 0.07923539 -0.0044093532 -0.004338575 0.087532066 0.059257463 0.025743052 -1.6537659e-05
-0.0008774299 0.04842345 -0.005918149 -0.004200528 0.08697588 0.06426271 0.026582265 0.11854431
0.0037009323 0.18233232 0.029625077 0.013642906 0.0044424077 0.14625119 0.09029752 0.09977452
0.045059748 0.08909808 -0.0007739997 0.116847046 -0.008860424 -0.004718562 0.03575259 0.008008724
-0.008333528 -0.017189108 -0.21151602 -0.022706082 -0.01617858 0.0039833914 0.20574167 -0.047319185
0.003532318 0.0062805507 0.009131989 0.21348105 0.020919656 0.15352531 0.1889583 -0.020907186
-0.14979298 -0.011508668 0.0071545304 -0.062098622 -0.0102652 -0.17615983 -0.20774266 -0.24353799
-0.06485028 0.23522764 0.22522894 -0.23870009 0.018457504 -0.016904665 0.004099029 -0.118167624
-0.006655185 -0.024471061 -0.22573298 -0.10320988 0.00886529 0.005021199 -0.16354156 0.043786526
-0.1989737 0.0016463619 0.23122068 -0.15879591 0.045282852 0.14895263 -0.041108795 0.009360768
-0.056513723 0.0015094286 0.14943357 -0.21830665 0.07622763 0.01921292 0.008951093 0.08141114
0.14191824 -0.001541222 -0.057178307 -0.0042887726 -0.3370613 0.14039248 0.17408463 0.19370885
0.032600183 0.07951355 -0.0051006903 0.045611694 0.00049044617 0.068163596 0.0073772846 0.09267541
0.06162817 0.057004318 0.07521449 0.0012517642 0.06576698 0.018666342 0.024865452 0.028014038
0.016354147 0.086104676 0.08318225 0.0021277848 0.08132973 0.0104678795 0.056226578 0.0010228064
-0.0015465806 0.0026283418 0.20739686 0.0015345656 0.049570322 0.09437167 0.07707093 0.002574774
0.035041172 0.06918456 0.01383549 0.0015632104 0.023996422 0.031006536 -0.0012641381 0.01465341
0.00020841432 0.09667174 0.055432726 -0.00029681137 0.014037826 0.010104424 0.022257749 0.10081142
0.0056892647 0.090563916 0.034812573 0.0032122878 0.0024080889 -0.0063091856 0.112437755 0.009261482
0.043353286 0.046157062 0.031138496 0.011656708 0.022409111 0.0120226815 0.0023018813 0.0036059646

lstm.weight_hh_l0 f4 [256, 64]
00000000: df31 e9bc 6ad6 233e 073b 29be 9310 4a3d
00000010: 6657 413d c3a0 883c bf8c 463e 7019 ee3c
00000020: fc23 b13d 4b8f 28be 55d9 3e3d 89b6 e33d
00000030: cd92 813e f0e5 2d3e 149f bb3d 389b 173d
00000040: 3252 74be 117b 223e 692d 23bc a0a8 71be
00000050: 4521 0c3e bba4 1abd 2a23 d4bd 41cf 24bd
00000060: aadd 583d 1fae 423d 9ad5 83bd f6bc 12bd
00000070: 8873 ef3d e4dd 863d 4cd0 31be e590 8ebd
00000080: b310 abbc 718a 56bd 4df8 61be fc1a 94bd
00000090: 341c a0bd d419 b23c fa21 8abe 29e4 653d
000000a0: f114 37bc 9048 d13c d4fe 003e d86f 41be
000000b0: 1152 0f3c 6bab 19bd a3f7 1bbd 9d02 47bb
000000c0: 94e5 c2bd 2393 20be 2100 593d c450 3cbd
000000d0: c4a0 2b3e 68a8 143d 5443 52be 9685 eb3d
000000e0: 92aa dfbc 95fb 6d3d 8ecc b4bd 8358 e3bb
000000f0: 4ba0 42be cc3e 183e a211 3d3e 9bc0 1a3e
00000100: 78d7 643d 9df3 193e 7ba3 73be 200d 113e
00000110: bc5c 5d3e a63b 093d a992 6d3e 7ebf d7bd
00000120: 50b2 7d3d 7053 2fbe 5ddc 9dbc 865b 00be
00000130: 6651 583e ea44 543e d85c 853d 6757 e43d
00000140: 8ba4 74bc c702 633e c797 1b3e 220a c7bc
00000150: 5f0b 3e3d b243 483c 156b e43d 5118 963d
00000160: 3343 c23d 8049 8c3e c9f2 a93d 5d79 2abd
00000170: 2c39 c5bc 699d 963b 8d0e 26be b234 2cbc
00000180: c4cc 373d 8684 323c 56a4 12be e8dc 2ebd
00000190: ac6a 1bbe 379d 4f3d d09b 22be dd7d 0f3e
000001a0: 06fc 49be 9d9f ecbc 2a99 36bd 3975 88bd
000001b0: 3aff b73d 71b7 493d 87c5 0d3e ba2b 38be
000001c0: f12e 55be 0781 1fbd 3efd 43be 1bc8 21bc
000001d0: e99e 94bc 6de1 cf3d e663 89be c16a a93d
000001e0: 18a7 c83c de65 1d3e 8748 b5bd 8905 3d3d
000001f0: 0681 893a e471 923d bb89 5b3e ed9b 7f3e
00000200: e728 e73d d9eb 623e f384 903d 986b 9f3e
00000210: 1a4f 703e dec7 01bd b5ea 5d3e 5e56 4dbe
00000220: e6ff 12bc 8cf6 71be 7184 70bd 3404 343c
00000230: cab7 973e f6e8 2e3e 6acd 003e 4cfb 783e
00000240: 48b6 aabd 06c0 943b a534 5e3c f5ac 3cbd
00000250: 36e6 f73d c8e3 57bc b961 543e e58f 393e
00000260: b45c 9a3b d501 863e 6669 c9bd 57e6 16be
00000270: 97c2 643e 4567 4abd efa2 81be 7d76 2bbe
00000280: 9f4c 653c 83fd 6bbd 159f 5abe 764e adbd
00000290: a817 babd 0b06 ddbd a86b 46bc c4fe 713e
000002a0: a13c f83c 08a7 043d 1e23 043d 83f7 a6be
000002b0: da8d a5b9 9781 763d c736 5dbd a500 1c3d
000002c0: 69a6 1dbd 45bd 04be b680 04be 4cd1 ebbd
000002d0: d60c 7c3d 955f 6b3d e102 52bc e45a 133e
000002e0: 20c2 2fbe 7a5d f2bc 3f04 7bbe 4762 89bd
000002f0: ba35 85be ac35 3a3e d8eb 413e 7930 943e
00000300: b1ad f23c 2869 1bbe 39cf 0bbe 0d9e f0bc
00000310: fb70 513e 904c f0bd 0a91 283e 3517 74bd
00000320: b58d ca3d e4ef 81bd 5251 42be ab00 c43d
00000330: 2c03 a6bd a058 2e3e b2f6 6d3e fb4e 6e3d
00000340: 201a 0cbe 949b 343d 65a7 123e 9d16 9fbe
00000350: 35c3 b7bd 7bf1 2fbe ec6d a8bd 2e55 cc3b
00000360: 5000 0bbd 88f6 623e 947b 283e e38f a8be
00000370: 5253 59bd 7d37 00bc ab7c 6cbe c076 c1bd
00000380: b201 0dbe 84d1 07be 5ed0 b9be 3974 febc
00000390: 00c2 0d3c fe87 473e e614 c4bc ce93 6a3e
000003a0: a9e0 0abe bde4 043d a834 f13d 718a 70be
000003b0: ea6b 313d a762 913d ac4e 40bd 4f94 b4bc
000003c0: 305f 9bbe 5779 47be 206a 713e 0b9d 9cbc
000003d0: be2d 003c ae0a 8b3e b35c 683d c49a 9d3e
000003e0: 6d67 7d3e 5b4f a73b 1bf6 1cbe 502d 51bd
000003f0: aa8b 4bbe a525 643e de3c 773e a7a4 b73e
-0.028466163 0.15999761 -0.16526423 0.049332213 0.04720249 0.01667822 0.19389628 0.029064864
0.086494416 -0.16460912 0.046593983 0.111188 0.25307313 0.16982245 0.09161201 0.037013263
-0.2385948 0.15867259 -0.009959557 -0.23599482 0.13684566 -0.037754755 -0.103582695 -0.040236715
0.05294577 0.047529336 -0.06437226 -0.03582474 0.11691958 0.06585291 -0.17364615 -0.0696123
-0.020881986 -0.05237812 -0.22067375 -0.07231709 -0.07817879 0.021740831 -0.26979047 0.056125794
-0.011174426 0.025547296 0.12597209 -0.18890321 0.0087475935 -0.037516993 -0.03807796 -0.0030366548
-0.09516445 -0.15681128 0.05297864 -0.04597546 0.16760546 0.036293417 -0.20533496 0.11500089
-0.027303014 0.058101255 -0.08828078 -0.0069380417 -0.1900646 0.14867705 0.18463758 0.15112536
0.05586955 0.15034337 -0.23792832 0.14165163 0.21617407 0.03350415 0.23200478 -0.10534571
0.06193763 -0.17121673 -0.019270116 -0.12534913 0.21124801 0.20729414 0.06511849 0.11149483
-0.014931808 0.22169028 0.15194617 -0.024296824 0.046397563 0.012223171 0.11153237 0.07328857
0.094854735 0.27399826 0.08298261 -0.041619647 -0.024075113 0.0045964015 -0.16216488 -0.01051061
0.044873014 0.010895854 -0.14320502 -0.04269114 -0.15177411 0.05068704 -0.1587975 0.14012857
-0.19725046 -0.028884703 -0.044579662 -0.066629834 0.089842275 0.04924721 0.13844882 -0.1798543
-0.20818688 -0.03894141 -0.19139573 -0.009874369 -0.01814218 0.101504184 -0.2683403 0.08272315
0.024493739 0.1537089 -0.08851724 0.046147857 0.0010490722 0.07150629 0.21439259 0.24961825
0.112870984 0.22160281 0.07056608 0.31136775 0.23467675 -0.03168475 0.21671565 -0.20052478
-0.008972144 -0.23629206 -0.058720056 0.01098733 0.29632407 0.17081055 0.12578359 0.24314612
-0.08335549 0.0045394925 0.013562356 -0.046063382 0.12104456 -0.013176866 0.20740403 0.18121298
0.004710758 0.26173273 -0.09834556 -0.14736305 0.22339855 -0.04941489 -0.2531962 -0.16744418
0.013995319 -0.057614814 -0.21349747 -0.08462231 -0.09086543 -0.10792168 -0.012110628 0.23632342
0.030302348 0.032385856 0.032260053 -0.3261071 -0.0003157694 0.06018218 -0.054007318 0.038086552
-0.03848878 -0.12962826 -0.12939724 -0.115145296 0.06153568 0.0574642 -0.012818069 0.14390141
-0.17163897 -0.029585589 -0.24513339 -0.06708198 -0.26017553 0.18184537 0.18937624 0.28943232
0.029623838 -0.15176833 -0.13653268 -0.02937224 0.20453255 -0.11733353 0.16461578 -0.059592444
0.0989031 -0.06344584 -0.18976334 0.0957044 -0.08106074 0.17025995 0.23238638 0.05818079
-0.13681841 0.044093683 0.14321668 -0.3107194 -0.0897278 -0.17181961 -0.08224091 0.00623574
-0.033935845 0.22164357 0.16453391 -0.32922277 -0.053057976 -0.007825729 -0.23094432 -0.09446478
-0.13770178 -0.13263518 -0.36291784 -0.031061279 0.00865221 0.1948547 -0.023935746 0.22907946
-0.13562264 0.032444704 0.117776215 -0.23490311 0.043315805 0.070988946 -0.046950027 -0.022043375
-0.3034606 -0.19479881 0.2357564 -0.019117853 0.007823406 0.27156585 0.05672903 0.3078214
0.24746485 0.0051058955 -0.15328257 -0.051068604 -0.19877496 0.22279985 0.24144313 0.35867807

lstm.bias_ih_l0 f4 [256]
00000000: 94af 833e 5c47 673e 2c15 353e d89e 8a3e
00000010: 8aff 313e 8ce8 943d e2e6 c03c a70a 543c
00000020: 729a ba3d ae2a 88bc c54e f03d 99b3 193e
00000030: 3036 ed3d 5e4e 1d3e 3b8d 363e b4a8 473e
00000040: cecf 033e 7feb 393e c7d1 14bb 267b 853d
00000050: 8cba a63e 62f3 4a3e 8fc3 173e 77f5 ed3d
00000060: d153 8d3e 682a a83d f55d 773e 7907 893d
00000070: 7cfb fe3d 22fb f63d b8bc 523d c2b7 ee3c
00000080: 668c fb3d e553 4a3e b4c1 6a3d b2df c33c
00000090: 22f4 933e e414 3b3e 903d a33d d4e8 033e
000000a0: 65f3 ca3d 02ba a03d 0446 4f3d 9b96 373e
000000b0: 4b47 623e d869 863e 89ee eb3d f992 373e
000000c0: eefe 8ebc 63f7 8fbd 18ab 803e 3a30 463e
000000d0: b348 013d d4c3 3b3e 8e58 7d3e 417c 1e3d
000000e0: 1033 5b3e 803b 8e3e 5dd2 203e d6b1 c43d
000000f0: 287a 3c3e db06 013e 605e 1a3e 2c44 05ba
00000100: a10e d5bc c76e d6bd 83b6 b53d 8f51 2e3e
00000110: f761 543b 838e 30bd c625 143d 2446 1e3d
00000120: 538a 8abd 161f 8dbc 7495 f4bd a6fa 81bd
00000130: 0660 a3bc fbb4 f83d da82 d13d 4a0a 863d
00000140: 8309 c23d 393e 1e3d f887 223e 93e5 013e
00000150: df25 3f3c 1eea 843d c00e 5d3d 3181 0e3c
00000160: 875a 143e 12cf 5f3d 4527 a03d a307 9b3d
00000170: 7d7e 263e fe0d 093e 6765 c73d dc76 7d3d
00000180: c85c 14be 0d8f d53d 09ce 393e f946 a2bb
00000190: 748d 8e3c 759a fdbd b199 173e 2b87 7c3d
000001a0: ac7d 363e 5d60 203e e07f 2b3e 2024 d53d
000001b0: 517c 6b3e bab3 46bd 8689 733d cd2e a5be
000001c0: 91ee 81bc c4f7 82bc a07c 1a3e 1397 3e3e
000001d0: 2898 0d3d fc18 a73d e744 9cbd 344e 173e
000001e0: 3379 69bd fd14 eb3d a063 3d3e 80ea 303e
000001f0: 3dd7 fd3d 745f 71bb 6945 54bd cb0e 923c
00000200: 7463 83bd 9257 8fbd 3fed 9abc 53ed 9bbd
00000210: 5e6b 1d3e 422e 1ebc 4486 003e 8d89 37bd
00000220: 1aee 083e d047 eabd 99e1 5c3d 7142 18be
00000230: 4860 19be 360e 67bc 0b7c 8fbd bee1 103c
00000240: 11d7 ddbd c1c3 28be fac1 97bc d8ce 58bd
00000250: f0bc 763c b918 2f3d 0e35 c63d 3ebb 6f3e
00000260: 42e1 d93b 6013 403e 48c4 77bd 62d1 bf3c
00000270: c8bf bebd bdbf b03d 05b6 25be 7f6c 6e3c
00000280: 7d57 f6bd 4bd3 ba3c f8c9 c0bd 6237 e8bd
00000290: b71a 053e e55c a6bd e821 d43d ddb6 7dbd
000002a0: 1626 a53d 494f ab3d 5566 20bd 356f f0bd
000002b0: 46ca 81bd 5189 afbc 18c0 b3bc 3592 40bd
000002c0: 6c90 273d dcb2 2b3e f674 4dbd b81b 143a
000002d0: 7abe d73d a21d 3bbd c5d0 a2bc bc2a 943c
000002e0: bf5b 68bc 04ca 0bbe 35d3 2a3d 466e f63d
000002f0: 64ac 81be ad14 94bd b6ce 163e a3c4 2e3d
00000300: 9a1c 3b3e bd3e 613d bc6f 573e 2852 153e
00000310: 5d0f f53b 38fc 67be 672a fe3d ce83 813d
00000320: 007a bc3d f2ca 8ebd 6126 ac3b 7edf d53d
00000330: 5857 2c3e e8c6 f3bd b81b 12bc 7f93 c6bd
00000340: b249 97bc 77e6 363c e731 02be 33f0 26bd
00000350: 28ec 353d ad4a af3c 313a 693d 1974 873d
00000360: 28b2 663e 910a c43d f337 0fbe 2ee5 243e
00000370: a197 243c 5b33 37be 6e02 d9bd 103a 323d
00000380: aa71 f43d 991b 0dbe 1df6 d83c a6ee 50be
00000390: 8ba0 cc3d 42f1 833d 125f 803e b48a f4bd
000003a0: 4687 683d 597a 40be f3ef 45be 4ee7 ef3d
000003b0: 6622 5ebe 5aef e93d 41c6 cd3c aa87 31bd
000003c0: fd60 19be 5647 29be b33f 823e 8d60 233e
000003d0: 66c1 d0bd ed0f ea3d 4ca4 c5bd 8c97 af3d
000003e0: a3b5 23bd cf53 183e ecc2 663e 3cd4 31bd
000003f0: 3d73 62bd 6489 ad3d 95e2 0b3d 56c3 483d
0.25719893 0.22585815 0.17683858 0.27074313 0.17382637 0.07270917 0.023547594 0.012941993
0.09111489 -0.016621914 0.11733774 0.15009917 0.11582601 0.15361926 0.17827313 0.19497949
0.1287224 0.18156241 -0.0022708045 0.06517629 0.325642 0.19819406 0.14820693 0.11619084
0.2760301 0.08211213 0.24156936 0.066908784 0.124503106 0.120596185 0.051449507 0.029140357
0.12282638 0.19758566 0.057313636 0.023910377 0.28897196 0.18269688 0.079707265 0.12881786
0.09909705 0.07847978 0.05060388 0.17928545 0.22097509 0.26252627 0.11520106 0.1792716
-0.017455544 -0.07029607 0.25130534 0.19354334 0.031563472 0.18336421 0.24740812 0.038692717
0.21406198 0.2777977 0.15705247 0.09604232 0.18405974 0.12600271 0.15075064 -0.0005083706
-0.026007952 -0.10470348 0.08872702 0.170233 0.0032407024 -0.04310466 0.036168836 0.03864111
-0.067646645 -0.017226737 -0.119425684 -0.063466355 -0.019943248 0.12143894 0.10230036 0.06544931
0.094744705 0.03863356 0.1587218 0.12685232 0.011666744 0.06489967 0.053969145 0.008697794
0.14487658 0.054640837 0.0781999 0.07569816 0.16259189 0.13384244 0.09736138 0.06188093
-0.14488518 0.104276754 0.18145002 -0.0049523083 0.017401434 -0.12382976 0.14804722 0.061652344
0.17821378 0.1566176 0.16747999 0.10407281 0.22996642 -0.048511244 0.059457324 -0.3226227
-0.015860828 -0.015987284 0.15086603 0.18612318 0.034568936 0.08159062 -0.076303296 0.14775926
-0.05700035 0.114786126 0.18495035 0.17276955 0.12394569 -0.0036830576 -0.051824007 0.01782932
-0.064154536 -0.069991246 -0.018911956 -0.076136254 0.15372989 -0.009654583 0.12551218 -0.044808913
0.13372079 -0.114394784 0.053926084 -0.14869095 -0.14978135 -0.014102509 -0.07006081 0.008842884
-0.10832036 -0.16480924 -0.018525112 -0.052931637 0.015059695 0.042748187 0.09678088 0.23411271
0.0066491673 0.18757391 -0.060489923 0.023415271 -0.09313923 0.08630321 -0.16182716 0.014552235
-0.12028406 0.02280583 -0.094135225 -0.113386884 0.12998472 -0.08123187 0.103580296 -0.06194197
0.08063905 0.08364732 -0.03916009 -0.11739961 -0.06337409 -0.021427782 -0.021942183 -0.047014434
0.040909216 0.16767448 -0.05016037 0.00056498824 0.105343774 -0.045682557 -0.01987494 0.018086784
-0.01418203 -0.13651282 0.04170533 0.12032752 -0.25326836 -0.07230506 0.14727291 0.042667996
0.1827263 0.054991473 0.21038717 0.14582121 0.007478638 -0.22654808 0.12410431 0.06323968
0.09202957 -0.069723025 0.0052535986 0.104430184 0.16830194 -0.11903173 -0.0089177415 -0.096961014
-0.018467758 0.011163346 -0.12714349 -0.040756416 0.04441467 0.021397913 0.05694026 0.06613941
0.22528899 0.09572328 -0.13986187 0.1610305 0.010045917 -0.17890684 -0.105961666 0.043512404
0.11935742 -0.13780059 0.026484543 -0.20403537 0.09991559 0.06442501 0.25072533 -0.11940518
0.05676963 -0.18796672 -0.19329815 0.1171404 -0.2169281 0.11422606 0.025118949 -0.04334227
-0.14978404 -0.16531119 0.25439224 0.159548 -0.10193138 0.11428819 -0.09650478 0.08573827
-0.039968144 0.1487572 0.22535294 -0.043415293 -0.05528568 0.08473471 0.034151632 0.049014412

lstm.bias_hh_l0 f4 [256]
00000000: 0409 a33d e1d0 793d a4ae a33d c065 383e
00000010: 33c7 03bc 7f3a 823c c004 763e b272 1c3c
00000020: f794 d53d aaca 163e 6314 c53d d775 703e
00000030: 1dfe f33d cd82 973d 06a7 ea3d 493d 3f3d
00000040: 72af 95bc 491f 213e 2b19 a53d f512 2c3e
00000050: 78f5 4d3e c6a1 883e 22f5 143d 707f 52bd
00000060: 5efd 853e 06aa 473e 2bd1 743e 0db4 753e
00000070: 1b66 913d 68c4 d43d d4e4 f53d 82d8 6d3e
00000080: f7f7 883e 76a0 033e 29a6 4e3d 593d 933d
00000090: a920 913e ea40 cd3c 950c ff3d 2b7e 9d3d
000000a0: b0a0 763e 2af8 303e 42b5 ee3d ea6c 033a
000000b0: 4dea b3bc 5045 b53d 369d 763e 04b6 0d3e
000000c0: a1ce 893d 3951 50bd 1c0f 5c3e 5ed7 d33d
000000d0: c34b 4f3e 581a 613d 0803 0a3e 2cbc d93d
000000e0: d2a6 6a3e d36e c63d 8d94 4d3e 8fb7 35bc
000000f0: 5c4f 483d 4b71 c33d 8b16 adbc 6bdf 193e
00000100: 3287 6b3c fdca d83d 6aea 213e 9e7e 913d
00000110: da2e c33d c018 043d aff8 3cbd fb34 c33d
00000120: 7a4f 8dbc f39e 1d3e cb58 393d 98a5 99bd
00000130: e48b 913c 6f45 303e 5819 4b3e 8b6a e7bb
00000140: 2834 563e 27f4 863b 9400 293d df2a e43d
00000150: 686f 803d 861f 26bd 7123 103d 71d2 b9bd
00000160: 6f07 3e3d c8a2 2d3e d806 923b d35e 503d
00000170: f007 023e b8f3 133e b016 8d3d 4ac9 c93d
00000180: 9597 88bd 392d f33d 6d3d 433e 3885 f53d
00000190: 932d 99bc c36f 8bbd 1087 003e 55d1 023d
000001a0: 265d 4e3d c37f e23c a195 233e a8de 093e
000001b0: a72a 453d 0e3c 14bd 2d24 f53d fc43 6fbe
000001c0: 5ae1 1e3e 3a17 0d3e b455 373e 1bda 0b3e
000001d0: cc49 46bc 5920 283e 39b3 a8bd 1708 b93d
000001e0: 6356 acbd b27d f53d 03eb 683c 8de6 483d
000001f0: dd7f 433d f677 c63d da66 0a3e 8a34 243e
00000200: 4865 76bd f4f6 ef3d 27d4 06bd d807 58bb
00000210: c71c 963d a427 eebd c931 d33d 7ee1 053e
00000220: aad0 2a3e 4220 ae3d f0b5 293e 77ae 31be
00000230: 6139 683d 5756 033d 508a 463d dc37 aabd
00000240: 1c9e a6bd 3de0 dabd b87f cbbd 2405 4dbe
00000250: 03e8 8ebc 0ed3 04be e44c f13c 9db9 993c
00000260: ac00 c73d 552d 933e 7031 94bd 3e92 123e
00000270: 0d51 88bc 208b a4bc bf17 e5bd e69e d13c
00000280: 4511 a0bc 0f8b 013d 8b38 c2bd 6697 fb3c
00000290: 5284 49bd a50a f63c 8b4a 13bd 54ba fc3d
000002a0: 83e8 81bb 48b3 ddbd 97cf bdbd a926 f5bd
000002b0: a9a5 4fbd d2e3 90bc 37f4 5fbd f8f1 a6bd
000002c0: bb29 43be e20b 883d 34c9 7f3d f7a4 53bd
000002d0: 496c 0a3c 44f3 db3d 64af 243e 0022 5b3c
000002e0: 866d 06be ef00 273d 1b24 d1bd 5dbb 893d
000002f0: a4db a5be 503d 0d3d 4e81 643d 7152 aa3d
00000300: ff79 293d 51be ef3d adf2 8f3d c466 dc3c
00000310: 3c02 903c 946b 0fbd 88b9 943d 227d d53d
00000320: 0d07 da3d a29d 17bc fdda c63a 38af 453e
00000330: 1e94 0e3e b294 67bd dcb4 5a3d 3aa7 8fbe
00000340: 333c 08be 3a32 d13d 6187 00be 1d3f 4bbe
00000350: 10f6 b4bc a7d8 153e f867 453d 2b67 dc3d
00000360: 586c 063e 8f5a 483d 4528 79be ca55 703d
00000370: b314 393d efd3 bcbd 3d30 81be 35e3 1fbd
00000380: 3e62 e73d 68bb a4bd 7dd0 853d be99 88bc
00000390: a168 913d 8cb1 d63d 725a 0c3d b8d5 28be
000003a0: cc0a 09be a1ad c2bd 974a 8abe 1654 623e
000003b0: 1b46 88be a716 3f3e 96f1 ab3d d4b8 28be
000003c0: d869 08be 2212 9fbe 8a45 313e 1d9d 6d3e
000003d0: a0e5 09be cf41 fc3d bb3f 253d 419b 173e
000003e0: 870e 963d bfdc 143e a1d9 4ebc aef0 3ebe
000003f0: 55b4 e7bd 55cc 233e 550e 163d f798 55bb
0.07960704 0.060990218 0.079922944 0.18007565 -0.008043098 0.015897034 0.2402525 0.00954883
0.104288034 0.14725748 0.09623029 0.23482452 0.11913703 0.07397995 0.114576384 0.046689305
-0.018272135 0.1573459 0.08061441 0.16804107 0.2011317 0.26685923 0.03636659 -0.051391065
0.26169866 0.19498453 0.23907916 0.23994465 0.07099553 0.10389024 0.12006536 0.23227122
0.26751682 0.1285418 0.05045143 0.071894355 0.2834523 0.025055367 0.12453572 0.0769008
0.24084735 0.17282167 0.11655666 0.0005013483 -0.02196231 0.08851111 0.24083409 0.13838965
0.067288645 -0.05085871 0.21490139 0.103438124 0.20243745 0.054956764 0.13477719 0.10631594
0.229152 0.09689107 0.20076199 -0.011091127 0.048903808 0.09543093 -0.021128913 0.15026633
0.014375495 0.10585592 0.15812078 0.071042284 0.095304206 0.032250166 -0.0461356 0.095315896
-0.017249811 0.15392666 0.045250695 -0.075022876 0.0177669 0.17213987 0.19833887 -0.0070622615
0.20918334 0.0041184607 0.041260317 0.111409895 0.06271249 -0.040557407 0.03519005 -0.09073342
0.046393808 0.16956627 0.0044563822 0.05087168 0.1269834 0.1444844 0.06889093 0.09852846
-0.06669537 0.1187386 0.19066401 0.119883 -0.01869849 -0.06808426 0.12551522 0.031937916
0.050381802 0.027648812 0.15975048 0.13463843 0.04813638 -0.036190085 0.119697906 -0.23365778
0.15515652 0.13778391 0.17903787 0.1365742 -0.0121025555 0.1641859 -0.08237309 0.09034746
-0.084149145 0.11986865 0.014216187 0.049047995 0.04772936 0.096908495 0.13515797 0.16035667
-0.060155183 0.117170244 -0.032917168 -0.003296366 0.073297076 -0.116286546 0.1031223 0.130743
0.16681162 0.085022464 0.1657331 -0.1735171 0.056695346 0.032064762 0.04847175 -0.083114356
-0.08135626 -0.10687301 -0.0993647 -0.20021492 -0.017444616 -0.12971136 0.02945561 0.018765265
0.09716925 0.28745523 -0.07235992 0.143136 -0.01664021 -0.020085871 -0.1118617 0.025588464
-0.019539485 0.031626757 -0.09483441 0.03071184 -0.049198456 0.030034373 -0.03595976 0.12340227
-0.003964485 -0.10825211 -0.0926811 -0.119702645 -0.050695095 -0.017686758 -0.05467626 -0.081516206
-0.19058888 0.066428915 0.06244774 -0.051670995 0.008448669 0.107397586 0.16082531 0.013374805
-0.13127717 0.040772375 -0.10211965 0.0672519 -0.32394135 0.0344823 0.055787377 0.08316506
0.04137611 0.11706222 0.070287086 0.026904471 0.01757919 -0.035014704 0.0726195 0.10424258
0.10645876 -0.009253891 0.0015171465 0.19305122 0.1392369 -0.05653829 0.053395137 -0.2805727
-0.13304214 0.10214658 -0.12551643 -0.19848295 -0.022089988 0.14633428 0.048194855 0.10761865
0.13127267 0.04891449 -0.24331768 0.058675565 0.045185756 -0.092201106 -0.25232115 -0.03903504
0.11298035 -0.080435574 0.065339066 -0.016674872 0.071000345 0.10483083 0.034265943 -0.16487777
-0.13383025 -0.09505773 -0.27010033 0.22102389 -0.26615986 0.18660985 0.08395688 -0.16476756
-0.13321626 -0.31068522 0.17311683 0.23204465 -0.13466501 0.123172395 0.04034398 0.14805318
0.073269896 0.14537333 -0.012625129 -0.186465 -0.113136925 0.15995915 0.03663476 -0.0032592395

fc_layer.weight f4 [64, 64]
00000000: a1e3 f1be 6da2 09bf 7e32 10bf a317 1e3f
00000010: 2731 063f 2770 16bf 7ca6 ed3e e7d8 febe
00000020: 1251 0a3f 4605 e7be a83c 1e3f 437e 2c3f
00000030: 1780 193f 5f01 223f abc2 1f3f 8ccc fe3e
00000040: c7cd d7be 88bd 07bf 279c 053f 70ae f2be
00000050: 20fc 1dbf a4f0 ddbe c25f 03bf f0ca 0dbf
00000060: e068 1dbf 1aa7 f73e 84a0 f43e 8b3d 10bf
00000070: 3608 143f 3e12 06bf f9e7 0ebf 305c cebe
00000080: b8b4 31bf b09a 03bf f1b7 00bf 44c7 04bf
00000090: 4eb7 0f3f 650d 1a3f b50b 22bf 69e5 c83e
000000a0: 653c 1fbf cf7d 1a3f 5561 093f 81b9 fabe
000000b0: 254e 283f d649 053f 57e1 cdbe 160c 063f
000000c0: 2a10 02bf 1b28 03bf d84f f03e b4ca 0ebf
000000d0: c33f 0b3f 1b82 243f 2061 d73e 33c1 f93e
000000e0: 41aa f33e bf8c e13e c5dc 16bf b650 f4be
000000f0: 9c09 fcbe bd18 083f 1467 1a3f c2ea de3e
00000100: 4b3c 86be 0c09 c1bd 2550 9a3e c8af 88be
00000110: 1033 92be e093 54be 3058 2fbe f1c8 e5be
00000120: 5117 543e 1e3e b03e 837f 073f fc57 afbe
00000130: 30ea 80be db3d 163c c933 e93e 9daa dcbe
00000140: 88d5 7fbe 4908 72be 818f edbe cb1f 80be
00000150: eeac 0dbe 8b77 d7bd 6048 943e 2d0c dd3e
00000160: f1f3 41be 282d c33e cef7 0abc d79b ddbe
00000170: 39fe 1abf 5edc bc3e 543e 9b3e c593 9abe
00000180: 53ab ecbd 7fd4 dd3e 05e3 683e 98b8 023f
00000190: 6158 8b3e b80a 6cbe 450e df3d 8ff4 6b3d
000001a0: 0083 163c ba83 fbbe af6f a63e 4c5c 89bd
000001b0: eac5 0abf 5d5a 03bd 867b 3dbd a7ad 823e
000001c0: 0520 80be 52a2 8c3e ec7a 63be 534b d9be
000001d0: 7cd7 5ebe c86a db3e d47d ad3e b0d4 e83e
000001e0: a572 2a3d e28c 0ebf 204e 9a3e a74b c33e
000001f0: 1917 9bbe 0336 d83d 0801 bc3e c903 173f
00000200: dc86 90be 5d72 84be 0242 933d 11ab ebbe
00000210: 0ca4 07bf dae8 a9be 0aff 6abe fa67 debd
00000220: e05b a03e 3c54 a33e e897 5b3e ff4e 0c3e
00000230: 8b52 89be 0a96 23be 94fb d23e 9219 e5be
00000240: eb70 55be f47d a9be cf02 ecbe 3cbe b5be
00000250: 278d 9fbe 6663 a4be f9c5 01be 6eeb e53e
00000260: 1dfb e2bd ecac 6c3e a313 063e 285c 37be
00000270: 60c4 1dbf bb8a a83e 011f e03e eba2 86be
00000280: b0b1 b8be aea2 f53e 6b1c cc3e 69c9 de3e
00000290: 7baa cc3e 4aa7 d4bd ee32 893e 41fc b03d
000002a0: ee8a 163e 35cc c3be 0964 8d3e b6af 8bbd
000002b0: b07d 06bf be7b 7a3e 421d a1be cd3a 4c3e
000002c0: b747 bcbe 4b65 b33e 24ae 453d 7356 29be
000002d0: 5b94 0fbd 9be9 523e 49e8 f83d a2bd c93e
000002e0: e19a 7b3e 7cd2 f7be 2d42 bc3e 746b 053f
000002f0: fb2f 1fbe 73c2 c63c 8c26 d83e bc4f 723e
00000300: 273d 38bf 7f85 dfbe b08e 27bf 408f 193f
00000310: 74c0 2e3f 1593 1abf 8bc9 353f 9acb 06bf
00000320: 5a0a 113f 521f 0bbf 1e1b 083f 3844 083f
00000330: 12b1 f13e bc01 363f caf1 ff3e 3fc1 343f
00000340: e15e 05bf 09f4 0ebf 09cc 283f fa8a 02bf
00000350: 85d5 f9be b87e 14bf cdac 06bf 590f 31bf
00000360: 8a81 1abf db70 103f e140 cd3e ee71 1bbf
00000370: a7c7 223f 74ba e7be 93e4 15bf 2e72 19bf
00000380: 5c9a 28bf 8390 20bf 5ed4 26bf 3e09 2bbf
00000390: 5a12 ee3e 9a2f 163f 04b6 24bf 8457 0a3f
000003a0: 2e03 eebe c0cd e63e d395 183f 547b 35bf
000003b0: 4325 f23e 98a1 383f e36e 1ebf bdf3 2c3f
000003c0: 6d1c ebbe e82f 00bf 81dd f93e e3b5 00bf
000003d0: fcc6 163f 2b22 223f e844 113f d492 353f
000003e0: 188c 123f 4989 283f c07a 26bf 41a1 18bf
000003f0: 4bf5 dcbe ddd9 0c3f 8868 1d3f 82e5 013f
-0.4724398 -0.5376347 -0.56327045 0.61754817 0.5241875 -0.5876488 0.4641608 -0.49774858
0.54029953 -0.4512121 0.61811304 0.6738016 0.59961075 0.6328334 0.62406415 0.49765432
-0.42149183 -0.53023577 0.52191395 -0.4739871 -0.6171284 -0.43347657 -0.5131799 -0.55387783
-0.6148815 0.48369676 0.47778714 -0.5634391 0.5782503 -0.52371585 -0.5582271 -0.40304708
-0.6941638 -0.5140791 -0.5028067 -0.51866555 0.56139076 0.6017669 -0.63299114 0.39237526
-0.6220153 0.6034822 0.5366414 -0.48969653 0.6574424 0.5206579 -0.40210983 0.5236219
-0.50805914 -0.5123307 0.46935916 -0.5577805 0.5439417 0.64261025 0.42066288 0.48780212
0.4759083 0.44052693 -0.5893062 -0.47717828 -0.4922608 0.5316275 0.60313535 0.4353848
-0.26217875 -0.09425554 0.3013927 -0.2669661 -0.28554583 -0.20759535 -0.17123485 -0.4487987
0.2071202 0.34422392 0.5292894 -0.34246814 -0.2517867 0.009170021 0.4554732 -0.43098918
-0.249838 -0.23635973 -0.46398547 -0.25024256 -0.13835499 -0.10520848 0.28961468 0.43173352
-0.18940713 0.3812039 -0.008481933 -0.4328296 -0.60544163 0.36886877 0.3032099 -0.30190864
-0.11556115 0.43326184 0.22742851 0.5106292 0.27215865 -0.23050964 0.108913936 0.057606276
0.009186506 -0.49123937 0.32507083 -0.06707057 -0.5420824 -0.0320686 -0.04626038 0.2552311
-0.2502443 0.2746759 -0.2221486 -0.4244028 -0.21761888 0.42854905 0.33885062 0.45474768
0.04161324 -0.5568372 0.3013773 0.38143656 -0.3029106 0.10557177 0.36719537 0.5899015
-0.2822789 -0.25868502 0.07190324 -0.4602895 -0.5298469 -0.33185464 -0.22948852 -0.10859676
0.31320095 0.31900203 0.21444666 0.1370201 -0.26820788 -0.15975204 0.41207564 -0.4474607
-0.20843856 -0.33103907 -0.46095893 -0.354967 -0.31162378 -0.32107085 -0.12673177 0.4490618
-0.11083052 0.2311284 0.13093428 -0.17906249 -0.6162777 0.32918343 0.43773654 -0.26296172
-0.36073065 0.47975677 0.3986543 0.4351304 0.39973816 -0.1038347 0.2679667 0.086418636
0.14701435 -0.38241735 0.27615383 -0.068206236 -0.52535534 0.24461266 -0.31467634 0.19944306
-0.36773464 0.35038218 0.048261777 -0.16536884 -0.035053592 0.20596926 0.1215368 0.3940249
0.245708 -0.48402774 0.36769238 0.52117085 -0.15545647 0.024262642 0.4221691 0.23663229
-0.7196831 -0.43656537 -0.654521 0.5998421 0.6826241 -0.6038068 0.71010655 -0.5265442
0.5665642 -0.54344666 0.5316638 0.53229094 0.47205406 0.71096396 0.49989158 0.7060737
-0.520979 -0.5584112 0.6593633 -0.5099331 -0.48795715 -0.5800586 -0.52607423 -0.69164044
-0.6035391 0.56422204 0.4008856 -0.6072072 0.63585895 -0.4525944 -0.585519 -0.5993985
-0.65860534 -0.6272051 -0.65167797 -0.6681098 0.46498376 0.58666384 -0.64340234 0.5403979
-0.464868 0.4507885 0.59603614 -0.7089131 0.47294053 0.7212157 -0.6188795 0.67559415
-0.45920125 -0.500731 0.48801807 -0.5027754 0.58897376 0.63333386 0.5674577 0.70927167
0.57245016 0.6583448 -0.6503105 -0.59621054 -0.43155894 0.55019933 0.6148763 0.50740826

fc_layer.bias f4 [64]
00000000: 06b4 113f 9b70 ac3e 0e2e 4e3e 0a49 263f
00000010: cfa3 c03e d7c3 1b3f 3fdb 153f 6296 773e
00000020: 18cb bb3e 5937 153f 87a0 253f 3877 183f
00000030: 0580 b33e e348 b93e 7fd4 ca3e b144 b03d
00000040: 59ea c73e 702a a23e 239b bd3e a0d6 d33e
00000050: 5165 bc3e 8a61 c23e cf1b 8e3e 5eb5 6b3e
00000060: 43f4 073f 07eb f43e ba9c 9c3e 65ee 093f
00000070: be42 d93e 70d3 293f d108 df3e 76fb b93e
00000080: ffd2 093f b51d 6c3e 1a5f eb3e a2a7 d73e
00000090: a169 8f3e 5b31 083f 22c8 8e3e ad36 7a3e
000000a0: 97e0 9bbc 2191 0e3f 7517 203f d391 043f
000000b0: 02e2 e13e 4ca0 8c3e b75c ca3e 9847 1d3f
000000c0: dd48 c23e 5215 603d e948 1b3f 2d36 c93e
000000d0: 3ad7 e23e 2799 da3e d34d 0b3f dcaa 0f3f
000000e0: e0eb fb3e 8b72 203f 2960 183f 4781 243f
000000f0: dc23 6e3e 63e8 9b3e 5d2d e33e 8439 a93e
0.5691532 0.3367966 0.20134756 0.649552 0.37624976 0.608457 0.5853767 0.2417846
0.36678386 0.5828758 0.6469807 0.59556913 0.3505861 0.3618842 0.39615247 0.08606852
0.3904598 0.31673002 0.37032422 0.41374683 0.36796048 0.3796504 0.2775559 0.23018405
0.5310709 0.47835562 0.30588323 0.53879386 0.42433733 0.66338253 0.43561414 0.36324662
0.5383758 0.23058207 0.45970994 0.4212008 0.28010276 0.5320031 0.27887064 0.2443492
-0.019027991 0.556902 0.6253579 0.5178501 0.44117743 0.27466047 0.3952386 0.6143737
0.37946215 0.054707833 0.6065813 0.39299145 0.4430483 0.4269497 0.54415625 0.56120086
0.49203396 0.6267478 0.5952173 0.6425976 0.23255867 0.30450734 0.44370547 0.33051693

output_layer.weight f4 [1, 64]
00000000: 9771 283f 7406 06bf cb0b 17bf 801f 113f
00000010: d91b 253f b8fa 183f 4dc1 223f 08e2 19bf
00000020: f6ca 53bf 6222 1e3f 5ae8 123f 57f3 233f
00000030: 84e2 253f 15aa 29bf 9228 29bf a342 f5be
00000040: 63b1 4dbf e31b 2abf 7d43 2b3f 9004 4dbf
00000050: 4f45 3fbf 8fc0 43bf 49c4 70bf 8517 0abf
00000060: 953a 183f 87a4 293f ec6b 3dbf 149e 1c3f
00000070: ab71 46bf 2518 36bf e446 4dbf 505b febe
00000080: 41d5 253f 5b98 4dbf eaad 17bf b9cb 36bf
00000090: 8887 10bf 35e0 293f be1f 36bf d220 17bf
000000a0: 10ff 503f a124 283f 694a 123f 4d45 1a3f
000000b0: 5405 41bf 98fb 1bbf ef71 1e3f ed01 153f
000000c0: 717d 20bf b9b3 753f 872e 223f 6ac3 143f
000000d0: 9780 223f 18b1 3fbf 3bd5 163f 60b1 2a3f
000000e0: c2de 1b3f 60ec 133f e621 1c3f b20b 3abf
000000f0: a122 3abf 935b 53bf 9005 2c3f e711 27bf
0.65798324 -0.52353597 -0.5900237 0.5668869 0.6449562 0.59757566 0.63576204 -0.6011052
-0.8273157 0.61771214 0.5738579 0.6404318 0.6479876 -0.6627515 -0.6607753 -0.47902402
-0.80348796 -0.664488 0.66899854 -0.80085087 -0.7471513 -0.76465696 -0.9404951 -0.5394214
0.5946439 0.66266674 -0.739928 0.6117871 -0.77517194 -0.7113059 -0.80186296 -0.4967904
0.64778525 -0.803106 -0.59249747 -0.71404606 -0.56456804 0.6635774 -0.71142185 -0.59034455
0.81639194 0.6568089 0.5714479 0.60261995 -0.75398755 -0.60930777 0.618926 0.58206064
-0.6269141 0.9597736 0.63352245 0.5811068 0.6347746 -0.748796 0.58919114 0.666769
0.60886776 0.57782555 0.60989225 -0.72674096 -0.7270909 -0.82561606 0.6719599 -0.6526169
