TimeGAN4paper/result/iter6000/model/PD_lag1_total1/torch_best_model.pt (torch, 87834 bytes, 7 tensors)

lstm.weight_ih_l0 f4 [256, 1]
0	0x3db48ec7	0.08816295
1	0x3ecc04b8	0.3984735
2	0xbde338a1	-0.110947855
3	0xbd19ccaf	-0.037548717
4	0xbcff1e55	-0.031142393
5	0x3e387d09	0.18016447
6	0x3de4ef96	0.1117851
7	0x3dfde72b	0.123976074
8	0x3c27ead8	0.010248862
9	0x3c650f29	0.013980665
10	0x3dcdabcc	0.10042533
11	0x3e018758	0.12649286
12	0xbdac7ed2	-0.084226266
13	0x3c39e08a	0.011345038
14	0xbd74357d	-0.059621323
15	0x3d64b0ad	0.055832554
16	0x3e14b6e7	0.14522897
17	0x3e9eae3a	0.309923
18	0xbd3ec18b	-0.046571296
19	0x3cc5b9cb	0.024136445
20	0x3e33b16c	0.1754815
21	0x3e73ca5a	0.2380766
22	0xbcaccc6e	-0.021093573
23	0x3da3ee59	0.080044456
24	0x3e01f27a	0.12690154
25	0xbc392cd8	-0.0113021955
26	0x3e7fcd81	0.24980737
27	0xbdf13ec5	-0.117795505
28	0xbd93429d	-0.0719044
29	0x3b68f8a5	0.0035548594
30	0x3a760ded	0.00093862304
31	0x3e925f6a	0.2858842
32	0xbe014309	-0.12623228
33	0xbd18a995	-0.0372711
34	0xbc3d16fa	-0.011541123
35	0xbd90310b	-0.07040604
36	0xbdd69401	-0.10477448
37	0x3e183971	0.14865662
38	0x3e0322a1	0.12806179
39	0x3dffc555	0.1248881
40	0x3bcf08c2	0.0063181827
41	0xbd59f65d	-0.053213466
42	0x3d1f25ca	0.038854398
43	0xbd41aa8b	-0.047281783
44	0xbd70aac6	-0.058756612
45	0x3ca3c1c6	0.01998986
46	0x3e4f79b4	0.2026127
47	0x3e499109	0.19684233
48	0xbc0f38b5	-0.008741547
49	0x3bb8c3d6	0.00563858
50	0x3e56ed8d	0.20989056
51	0x3e30c879	0.17263974
52	0x3e31e066	0.17370757
53	0x3b444cf5	0.0029953097
54	0x3e48c673	0.19606952
55	0xbd918a89	-0.071065016
56	0x3e09527c	0.13410372
57	0xbdb9c39f	-0.09070515
58	0xbd30df53	-0.04318173
59	0xbd303a9f	-0.043024655
60	0x3d9a70d5	0.07541052
61	0x3d91d3de	0.071204886
62	0x3d9edb50	0.07756674
63	0x3c8c4d2a	0.017126638
64	0x3d650179	0.055909608
65	0x3cbf4105	0.023346433
66	0x3d6fc24f	0.058534916
67	0x3d42ddf6	0.04757496
68	0x3e44c443	0.19215493
69	0x3e51bf11	0.20483042
70	0xb941caea	-0.00018481506
71	0xbc192e62	-0.009349437
72	0x3c8ca7d2	0.017169867
73	0x3e6367ac	0.22207516
74	0x3d1749bd	0.036935557
75	0x3a9228d1	0.001115108
76	0x3cc3a36b	0.023881635
77	0x3bed8d7a	0.0072495313
78	0x3e18561e	0.14876601
79	0x3aaede6d	0.0013341435
80	0xb67b611a	-3.7458435e-06
81	0x3cb29d54	0.021803536
82	0x3e51c6c0	0.20485973
83	0x3dc811a1	0.097689874
84	0x3d24d51b	0.040242296
85	0x3c2dcd11	0.010607974
86	0x3b9dc37d	0.004814564
87	0x3b206291	0.0024472813
88	0x3ce0d9a7	0.027447535
89	0x3caba1e2	0.020951215
90	0x3ce21ce4	0.027601667
91	0x3e216892	0.15762547
92	0x3d8dcfbc	0.06924388
93	0x3e1f6ccc	0.15568846
94	0xbc28e250	-0.010307863
95	0x3c6bf7b6	0.014402321
96	0x3e05215b	0.13001005
97	0x3c90aa6b	0.017659387
98	0x3b5dab55	0.0033824046
99	0x3a1af86d	0.0005911652
100	0x3e7dd3e2	0.24787858
101	0x3caac082	0.020843748
102	0xbc8967e6	-0.016773175
103	0x3acbe9c1	0.0015557335
104	0xbb928f15	-0.004472623
105	0x3c7ec124	0.015548978
106	0xbb98a9f0	-0.00465893
107	0xbb3c3872	-0.0028720167
108	0x3ce67a68	0.02813454
109	0x3bf86b00	0.007581115
110	0xbc81e4b4	-0.015856124
111	0x3d2dd7b7	0.04244205
112	0x3bdc585b	0.0067244
113	0x3dba6e7e	0.09103106
114	0x3ca3690c	0.019947551
115	0x3b707b81	0.0036694708
116	0x3cba8e18	0.022772834
117	0x3e6723b8	0.2257222
118	0x3c8f9f4f	0.017532019
119	0x3c8e0382	0.017335657
120	0x3c1b93e3	0.009495708
121	0x3c085269	0.008320429
122	0x3a16c2f7	0.0005751098
123	0x3deeb4c4	0.11655572
124	0xbc21bd5a	-0.009871805
125	0x3c167fbd	0.009185729
126	0x3e425024	0.18975884
127	0x3c73af03	0.014873269
128	0xbe273fd4	-0.16332942
129	0xbd28996a	-0.041161932
130	0xbb9a5dfb	-0.0047109104
131	0xbbbd1beb	-0.0057711503
132	0xbcdc4802	-0.026889805
133	0xbbf92867	-0.0076036933
134	0x3db232a3	0.087010644
135	0xbd6e2e05	-0.058149356
136	0xbba4bfd1	-0.005027749
137	0xbac1620a	-0.0014753949
138	0x3c907506	0.017633926
139	0x3e1fc75d	0.15603395
140	0x3e762fbc	0.24041647
141	0x3d9712ff	0.0737667
142	0x3e25ba2d	0.16184302
143	0x3d18394b	0.037164014
144	0xbe2661b6	-0.16248211
145	0xbd8a1020	-0.06741357
146	0x3dda7798	0.10667342
147	0x3be28155	0.0069123902
148	0xbe3a79d7	-0.1821054
149	0xbbe3c833	-0.006951356
150	0xbdb9fa24	-0.09080914
151	0xbe057379	-0.1303233
152	0xbc6fcb4a	-0.01463587
153	0x3e4f643b	0.20253079
154	0x3dfe16f0	0.12406719
155	0xbe53a50a	-0.20668426
156	0x3cd679a2	0.026181046
157	0xbe3e080b	-0.18557756
158	0x3a05148b	0.00050766085
159	0xbd1389c4	-0.036020055
160	0xbc923da0	-0.01785165
161	0xbd8a4b1f	-0.067526095
162	0xbe89d42c	-0.26919687
163	0xbee1b22a	-0.4408124
164	0xbcb2baaf	-0.021817533
165	0x3bf73df8	0.007545229
166	0xbe1c8386	-0.15284547
167	0x3e39bf73	0.18139438
168	0xbe2ae976	-0.16690621
169	0x3c3309c8	0.010927625
170	0x3e2af5a5	0.16695268
171	0xbe4d50c0	-0.20050335
172	0x3d81e824	0.063431054
173	0x3cd9d814	0.026592292
174	0xbe27a562	-0.16371682
175	0x3cedd759	0.02903335
176	0xbe0992ad	-0.13434859
177	0xb8ff42c1	-0.000121717814
178	0x3c190235	0.009338905
179	0xbce9d4fd	-0.028543944
180	0x3b249aba	0.0025116638
181	0x3cf2f4e8	0.029657796
182	0x3c4a034e	0.012329889
183	0x3e8f3348	0.27968812
184	0x3ce58b57	0.028020544
185	0x3e4dea0c	0.20108813
186	0x3ca9f1eb	0.020745238
187	0x3cba9075	0.02277396
188	0xbdd17fe9	-0.10229475
189	0x3b6596cc	0.003503251
190	0x3e32727e	0.17426488
191	0x3e4aec59	0.19816722
192	0x3c8d5e04	0.017256744
193	0x3d7bf20d	0.061510134
194	0x3cd15852	0.02555481
195	0x3cecbabb	0.028897634
196	0x3ce14266	0.027497482
197	0x3e12e6a5	0.14345796
198	0xbb073f50	-0.0020637102
199	0x3d625bbc	0.055263266
200	0x3c8c07ed	0.017093623
201	0x3e272884	0.16324049
202	0x3cb6a6a0	0.02229625
203	0x3c96e137	0.018417938
204	0x3cbacbf2	0.022802327
205	0x3c58485b	0.013200845
206	0x3d1fb38c	0.03898959
207	0x3dcf2746	0.10114913
208	0x3d5c416f	0.05377334
209	0x3da44a0a	0.08021934
210	0xba119139	-0.0005552951
211	0x3c1ee564	0.009698246
212	0x3bfd420c	0.0077288207
213	0x3c019d9c	0.007911112
214	0x3bb7172c	0.005587479
215	0x3c53f3e1	0.012936563
216	0x3ca90b86	0.020635378
217	0x3d1bf93a	0.038079478
218	0x3d6e826a	0.05822984
219	0x3cae5181	0.021279098
220	0x3ce88d82	0.028387789
221	0x3c92309d	0.017845446
222	0x3c70fe37	0.014709047
223	0x3c499975	0.012304653
224	0x3ca7b347	0.020471228
225	0x3c5f0e63	0.01361427
226	0x3d046673	0.032324266
227	0x3bd8749b	0.0066056973
228	0x3d116887	0.035500076
229	0x3ccb4bf1	0.024816485
230	0xbae28159	-0.001728098
231	0x3dc66b2b	0.096884094
232	0x3d645279	0.055742715
233	0x3c3ecb11	0.0116450945
234	0x3d922e86	0.0713778
235	0x3d366551	0.044530217
236	0x3c936a9b	0.01799517
237	0x3cfedeae	0.031112041
238	0x3cc30e7a	0.023810614
239	0x3d9e081c	0.077163905
240	0x3c50b7e0	0.012739152
241	0x3dc29dca	0.09502752
242	0x3c2d63ea	0.010582903
243	0x3c824d49	0.015905993
244	0x3de2665d	0.110546805
245	0x3d3b4bc8	0.045726568
246	0x3e3bd21b	0.18341868
247	0x3ccc81af	0.024964182
248	0x3d15fbd4	0.036617115
249	0x3d1e07a9	0.038581524
250	0x3d09e102	0.03366185
251	0x3c2fec98	0.010737561
252	0x3db9ea9c	0.09077951
253	0x3d08490a	0.03327278
254	0x3cca36ea	0.024684388
255	0x3d0454a8	0.032307297

lstm.weight_hh_l0 f4 [256, 64]
0	0xbdf54d64	-0.11977652
1	0x3e46dd5f	0.19420384
2	0xbe847f42	-0.2587834
3	0x3deccd38	0.1156258
4	0x3d5d385f	0.054008838
5	0xbba7c8d7	-0.0051203775
6	0x3e88d106	0.26721972
7	0xbdf876bf	-0.12132024
8	0x3e3ac1a3	0.18237929
9	0xbe0d6ab7	-0.1381024
10	0xbda14565	-0.07874564
11	0x3ba4fd64	0.0050350893
12	0x3e9c4bd4	0.30526602
13	0x3e4c8498	0.19972456
14	0x3e0863c6	0.1331931
15	0x3d9b9c2d	0.075981475
16	0xbe89b22a	-0.2689374
17	0x3e290eaa	0.165095
18	0x3da0179d	0.07817004
19	0xbea42dfa	-0.32066327
20	0x3e32c445	0.17457683
21	0x3d39eb31	0.04539031
22	0xbe0e7bd7	-0.13914429
23	0xbd5668ee	-0.052346162
24	0x3d9b77a3	0.07591178
25	0x3e062a1b	0.13102
26	0x3d45a1c9	0.048249993
27	0xbdfdf8d4	-0.12400976
28	0x3e72677e	0.23672292
29	0x3cb72097	0.022354407
30	0xbe4579af	-0.192847
31	0xbd6b3819	-0.057426546
32	0xbe670864	-0.22561795
33	0xbe0bee03	-0.13665013
34	0xbe8f4d32	-0.27988583
35	0xbe26f2a0	-0.16303492
36	0xbe42220a	-0.18958297
37	0xbdb6b093	-0.089203976
38	0xbe12f158	-0.14349878
39	0x3d4b690d	0.04966073
40	0xbd9b40f0	-0.07580745
41	0x3d9ed51e	0.07755493
42	0x3e599641	0.21248724
43	0xbe78a682	-0.24282268
44	0x3d74b085	0.059738655
45	0x3daea07c	0.08526704
46	0xbd055d63	-0.032559764
47	0x3dd8548f	0.10563003
48	0xbe2fb2a3	-0.17157988
49	0xbe71ce0a	-0.23613754
50	0xbc3bb5df	-0.011456936
51	0xbb9c34b3	-0.0047670244
52	0x3ca1312c	0.019676767
53	0x3e53f603	0.20699315
54	0xbe66ee3d	-0.22551818
55	0x3e4ab2e1	0.197948
56	0xbc3def89	-0.011592754
57	0x3e2ddf32	0.16979674
58	0xbe167e18	-0.14696538
59	0xbd9ee2df	-0.07758116
60	0xbe3f5ca4	-0.18687683
61	0x3e47b1b5	0.19501384
62	0x3e894d45	0.26816764
63	0x3e82367d	0.25432196
64	0xbe8a4668	-0.2700684
65	0x3d3182bd	0.043337572
66	0xbdb4144f	-0.08792936
67	0xbc51da3b	-0.012808378
68	0x3e3a352d	0.18184347
69	0x3dde99ff	0.10869216
70	0x3e2aa155	0.16663106
71	0x3dbd91ce	0.09256326
72	0x3cbf292f	0.023335068
73	0xbe0ade7d	-0.13561435
74	0xbec596f9	-0.38591745
75	0x3c0f946f	0.008763417
76	0x3dd8e402	0.10590364
77	0x3ac9c7d8	0.0015394641
78	0xbe01178f	-0.12606643
79	0x3dba6861	0.0910194
80	0xbcbe09a8	-0.023197964
81	0x3e1d7fc3	0.15380768
82	0x3d9d5a67	0.076832585
83	0x3e47fabb	0.1952924
84	0xbe50df7c	-0.20397753
85	0x3da06130	0.07831037
86	0x3e06d60b	0.13167588
87	0x3c9f23f4	0.019426323
88	0x3cd81858	0.026378796
89	0x3d52e216	0.051485144
90	0xbdcbfec3	-0.09960701
91	0x3d9d5577	0.07682317
92	0xbe175c4c	-0.14781302
93	0x3dcc9a23	0.09990337
94	0x3c1d11e6	0.009586787
95	0xbe1aeb78	-0.15128887
96	0xbc4bed7f	-0.01244676
97	0x3dc581bc	0.096438855
98	0x3d88eb1b	0.06685468
99	0x3e2bc2a8	0.16773474
100	0x3c978381	0.018495323
101	0xbe09a32c	-0.13441151
102	0xbe47dc35	-0.19517596
103	0x3d8d34b4	0.06894818
104	0xbe31c748	-0.17361176
105	0xbe4eabdb	-0.20182745
106	0xbd058a5e	-0.03260266
107	0x3dec3010	0.11532605
108	0x3d583faf	0.05279511
109	0xbd92aace	-0.07161485
110	0xbe3e96a8	-0.18612158
111	0xbea362c2	-0.31911284
112	0x3c83438a	0.016023416
113	0xbd5e4c22	-0.054271825
114	0xbeeb584d	-0.45965806
115	0xbeb6ba3d	-0.35688964
116	0x3e5eaea8	0.21746314
117	0xbd3b2a5b	-0.04569469
118	0xbe6900e7	-0.2275425
119	0xbdb19b57	-0.08672207
120	0xbe74f0ce	-0.23919985
121	0x3cacee8b	0.02110984
122	0x3dec3cb5	0.115350164
123	0x3deaf347	0.11472183
124	0x3db20336	0.08692019
125	0xbc78ff93	-0.015197652
126	0x3c7483b6	0.01492398
127	0x3d72c69a	0.059271432
128	0xbb5fb31f	-0.0034133864
129	0x3dde223f	0.10846376
130	0xbdb8bf86	-0.09020905
131	0x3e3644ff	0.17799757
132	0x3e4029a5	0.18765886
133	0x3ca33e9c	0.019927315
134	0x3dc64b21	0.096822985
135	0xbe0585b5	-0.13039286
136	0xbbba169e	-0.0056789657
137	0xbe0b00a5	-0.13574465
138	0xbe1157e6	-0.14193687
139	0x3de1cd1c	0.1102545
140	0x3e4aecbf	0.19816874
141	0x3d83cdc8	0.06435734
142	0xbc8901a2	-0.016724411
143	0x3e049d27	0.12950574
144	0x3b8020a3	0.0039101406
145	0x3d68faa8	0.05687967
146	0x3c87321b	0.016503384
147	0x3d51c671	0.05121464
148	0x3c6db87c	0.0145093165
149	0xbd63b8d1	-0.055596177
150	0x3d997312	0.07492651
151	0x3caaafcb	0.020835778
152	0x3d0a221d	0.03372394
153	0x3e273089	0.16327108
154	0xbc3f5a85	-0.011679296
155	0xbe73cecc	-0.23809355
156	0x3e32ac0e	0.17448446
157	0xbd10e33a	-0.03537295
158	0xbe0c0165	-0.13672407
159	0xbdeded0e	-0.1161748
160	0xbe2e75ce	-0.17037126
161	0xbd882ff8	-0.06649774
162	0xbdabc463	-0.08387067
163	0x3d503231	0.050829116
164	0xbd83dc69	-0.06438524
165	0xbda5e598	-0.08100432
166	0xbd3e6d5b	-0.04649101
167	0x3e081ec3	0.13292985
168	0x3bb08572	0.0053870017
169	0xbdc03abf	-0.09386205
170	0x3d0452bd	0.032305468
171	0xbe3e236a	-0.18568197
172	0xbd353dd3	-0.044248413
173	0xbd2a7918	-0.04161939
174	0xbe12ffd3	-0.14355402
175	0xbb6ac62e	-0.003582369
176	0x3d589d3f	0.052884337
177	0xbd24862a	-0.04016701
178	0xbd829825	-0.063766755
179	0xbdf5b714	-0.1199781
180	0x3da36d0b	0.07979783
181	0x3cb00c0d	0.021490121
182	0x3d9a3d1a	0.075311854
183	0x3c386d4e	0.011256529
184	0xbe11f7dd	-0.14254709
185	0xbd7d4e32	-0.06184215
186	0xbdedae0f	-0.11605465
187	0x3d278ef9	0.040907834
188	0xbe379505	-0.1792794
189	0x3e39ec7f	0.18156622
190	0x3d176dcb	0.03696994
191	0x3e330540	0.17482471
192	0xbdb20f22	-0.086942926
193	0xbe410c71	-0.18852402
194	0x3dbc9b13	0.092092656
195	0x3e765069	0.24054112
196	0x3e8d8efc	0.2764815
197	0xbca3cf95	-0.019996444
198	0x3d29b334	0.041430667
199	0xbd6e0baf	-0.05811661
200	0x3bba268b	0.005680864
201	0xbe3f2353	-0.18665819
202	0xbc84ddc8	-0.016219035
203	0x3d529518	0.051411718
204	0xbcbdc764	-0.023166366
205	0x3e2ab7a0	0.1667161
206	0x3e30dc2b	0.17271487
207	0x3ce24aa1	0.027623476
208	0xbdaeb177	-0.085299425
209	0x3cb4ae98	0.022055909
210	0x3e135fc7	0.14392005
211	0xbe2512a0	-0.16120386
212	0xbe868de0	-0.26280117
213	0x3d217af1	0.039423887
214	0xbe137c9d	-0.14403005
215	0xbd3e4e3a	-0.04646132
216	0xbc4f5000	-0.012653351
217	0x3db5f67c	0.08884904
218	0x3e18f2b7	0.14936338
219	0xbe3a7a82	-0.18210796
220	0xbdd60e2a	-0.1045192
221	0xbd985e65	-0.07439879
222	0xbe539c31	-0.20665051
223	0xbdbeec2f	-0.09322392
224	0xbd432ebf	-0.047652002
225	0xbd82ab8e	-0.06380378
226	0xbe647a75	-0.22312339
227	0xbe12afec	-0.14324921
228	0xbc6a4fd5	-0.01430126
229	0x3ddc9dcb	0.10772284
230	0xbcaa37ad	-0.020778501
231	0x3e2c934f	0.16853069
232	0xbdd3f8e4	-0.103502065
233	0x3e193431	0.14961316
234	0x3d926c8f	0.07149612
235	0xbdd1351a	-0.102152064
236	0x3e4d6856	0.20059332
237	0xbe614b6e	-0.2200143
238	0xbbb4c262	-0.0055163363
239	0x3d9b6c9d	0.07589076
240	0xbe8c29aa	-0.27375537
241	0xbdaf65b3	-0.085643195
242	0x3da961b4	0.082705885
243	0xbccd242f	-0.025041668
244	0xbd084f19	-0.03327856
245	0x3e6f9428	0.23396361
246	0x3cdcb730	0.02694282
247	0x3e17af01	0.14812852
248	0x3ca18769	0.019717889
249	0xbd8491e0	-0.06473136
250	0xbd94d135	-0.072664656
251	0xbd335abd	-0.043787707
252	0xbe09f455	-0.13472112
253	0x3e226be5	0.15861471
254	0x3df3ebe7	0.11910229
255	0x3e879662	0.2648192

lstm.bias_ih_l0 f4 [256]
0	0x3e93a703	0.28838357
1	0x3da2aff6	0.07943718
2	0x3da9c59f	0.08289646
3	0x3e584902	0.211216
4	0x3e52817d	0.20557208
5	0x3d1430a3	0.036179196
6	0x3d005b7e	0.031337254
7	0x3d95e422	0.073189035
8	0xbcdfbb0a	-0.027310867
9	0xbe1046fc	-0.14089578
10	0x3da931fa	0.082614854
11	0x3e060a43	0.13089852
12	0x3cb23037	0.021751506
13	0x3e162007	0.14660655
14	0x3e178511	0.14796855
15	0x3def35a2	0.116801515
16	0x3e2f7314	0.17133743
17	0x3e27d26f	0.16388868
18	0xbd645a17	-0.05574998
19	0x3d882ea3	0.0664952
20	0x3e6bc9a2	0.23026136
21	0x3e9d68fb	0.30744156
22	0x3d28ca29	0.04120842
23	0x3e0f5886	0.13998613
24	0x3e22d67f	0.15902136
25	0xbc541f84	-0.012946967
26	0x3e48240f	0.19545005
27	0x3cd13224	0.025536604
28	0x3d69b6c9	0.057059083
29	0x3c7c93f5	0.015416135
30	0x3d3f3dab	0.04668967
31	0xbc8a8800	-0.016910553
32	0x3cfdbc62	0.030973617
33	0x3e3752c1	0.17902662
34	0x3da71b4e	0.08159505
35	0x3e4445e6	0.19167289
36	0x3e04efce	0.12982103
37	0x3dad67db	0.084670745
38	0x3e81721e	0.25282377
39	0x3e5940dc	0.21216148
40	0x3d1bf3f5	0.038074452
41	0x3d6f2377	0.05838343
42	0xbac6f2cd	-0.0015178561
43	0x3e505334	0.2034424
44	0x3e576ed6	0.21038374
45	0x3e9caec5	0.3060209
46	0x3c15a91d	0.009134558
47	0x3e1da3af	0.15394472
48	0xbc9466c0	-0.018115401
49	0xbdea56ab	-0.11442312
50	0x3eb4cb18	0.35311198
51	0x3e8c8d05	0.2745134
52	0x3cec9840	0.028881192
53	0x3e09bc4d	0.13450737
54	0x3db47ff3	0.08813467
55	0x3dc923d4	0.09821287
56	0x3e8a37aa	0.26995593
57	0x3e0b7de7	0.13622247
58	0x3e171f3d	0.1475801
59	0x3da96752	0.0827166
60	0x3db34ac2	0.08754493
61	0xbca3df8f	-0.020004062
62	0x3e6b8f4e	0.23003885
63	0xbd818b12	-0.06325354
64	0x3dba1eba	0.09087892
65	0x3cd11b80	0.025525808
66	0x3dc02d17	0.093836
67	0x3e2e8254	0.17041904
68	0x3e0613d5	0.13093503
69	0x3d17fc82	0.037106045
70	0x3de71a6a	0.11284335
71	0xbc1c3824	-0.009534869
72	0x3e65aaf5	0.22428496
73	0x3d97edc6	0.074183986
74	0xbdc4dc84	-0.096123725
75	0xbd0635f4	-0.032766297
76	0x3bbcd115	0.005762229
77	0x3e1a922d	0.15094824
78	0x3e50ff41	0.20409872
79	0x3d828467	0.0637291
80	0x3ddc9f0d	0.10772524
81	0x3e1ed779	0.15511884
82	0x3e483b57	0.19553886
83	0x3dd7d5dd	0.10538838
84	0x3dac8d04	0.08425334
85	0x3de51803	0.111862205
86	0x3da525c0	0.08063841
87	0x3d8cdc6e	0.06877981
88	0x3e3d54b1	0.18489338
89	0x3d86e466	0.06586532
90	0x3d5e6761	0.05429781
91	0x3e04ebde	0.12980601
92	0x3e2724a6	0.16322574
93	0x3e89407e	0.26807016
94	0x3df89d5f	0.12139391
95	0x3c8e4f67	0.017371846
96	0x3d003da4	0.031308785
97	0x3ccd1497	0.025034232
98	0x3e4feb23	0.20304541
99	0x3e2e388b	0.17013757
100	0x3e1ca1b6	0.15296063
101	0x3d6718db	0.05642019
102	0x3d6cb778	0.057792157
103	0x3d9592bb	0.07303377
104	0x3dec4c1f	0.115379564
105	0x3dec5cf5	0.11541168
106	0x3dd951d9	0.10611314
107	0x3de7eb9d	0.113242365
108	0x3e5dc784	0.2165814
109	0x3d87ded4	0.06634298
110	0x3c84cc30	0.016210645
111	0xbe2acd8d	-0.16679974
112	0x3c1921a0	0.009346396
113	0xbd0edc1a	-0.034877874
114	0x3e23b75d	0.15987916
115	0x3dd3f62c	0.10349688
116	0x3cee44aa	0.029085476
117	0x3d23648e	0.03989082
118	0x3d0fcb35	0.035105903
119	0x3d0f76a1	0.035025243
120	0x3d9f65d8	0.07783097
121	0x3d39693c	0.045266375
122	0x3e968f92	0.2940641
123	0x3e517588	0.20454991
124	0x3e0d14c4	0.13777453
125	0x3cc1e6b9	0.023669587
126	0x3e0a2d24	0.13493782
127	0x3d630279	0.05542228
128	0xbc567bf8	-0.01309108
129	0x3d32ef85	0.043685455
130	0xbd57d7ad	-0.05269592
131	0xbda5cef1	-0.080961116
132	0x3e2cd80d	0.16879292
133	0x3d3c94e1	0.04604042
134	0x3d94862c	0.07252154
135	0xbe32ab2c	-0.1744811
136	0x3d5e0555	0.054204304
137	0xbdadeae7	-0.0849207
138	0xbb6916ca	-0.0035566562
139	0xbdd08483	-0.101815246
140	0xbdf873b6	-0.12131445
141	0xbd119c0d	-0.035549212
142	0xbe6cd782	-0.23129085
143	0xbcba212b	-0.022720894
144	0xbcd045e7	-0.025423957
145	0xbdd52ef6	-0.10409348
146	0xbd0dbed5	-0.03460582
147	0x3d38c163	0.045106303
148	0x3d1ba54e	0.037999444
149	0x3a86a5dc	0.0010272819
150	0x3d18e020	0.037323117
151	0x3deddb6b	0.11614116
152	0xbce7d217	-0.02829842
153	0x3e359f86	0.17736635
154	0xbcc0f195	-0.023552695
155	0xbe16e97d	-0.14737506
156	0xbd10d9c6	-0.035363935
157	0x3d8e567b	0.069500886
158	0xbdac385c	-0.08409187
159	0x3d8ddac1	0.069264896
160	0xbe08f9d1	-0.13376547
161	0x3d26fa4c	0.040766045
162	0xbdfb28df	-0.12263655
163	0xbe9c74f2	-0.30557972
164	0x3d8796b6	0.06620543
165	0xbd2cde70	-0.04220432
166	0x3d676300	0.056490898
167	0x3c143f14	0.009048242
168	0x3db20d15	0.086939014
169	0x3e1bf359	0.15229549
170	0xbd2b908f	-0.04188591
171	0xbe0cbe7e	-0.13744542
172	0xbd037d83	-0.03210212
173	0x3e75397d	0.23947711
174	0x3d911041	0.07083178
175	0x3d9e8b60	0.077414274
176	0xbd8215d5	-0.063518204
177	0x3e04424a	0.12915912
178	0xbaf797ab	-0.0018889805
179	0xbcd0d92c	-0.02549418
180	0x3d568e21	0.05238164
181	0xbdaf0616	-0.08546083
182	0xbd2c0dac	-0.042005226
183	0xbca54665	-0.020175168
184	0x3dd30f4e	0.103056535
185	0x3e183091	0.14862277
186	0x3d727ca1	0.059200887
187	0x3e0448bb	0.1291837
188	0xbcb3fa96	-0.021970075
189	0xbdb4f0cd	-0.088349916
190	0xbd881c7c	-0.06646058
191	0xbd9fb326	-0.07797842
192	0x3e7a35a0	0.24434519
193	0x3dd5b322	0.104345575
194	0x3e3865f2	0.18007639
195	0x3e67bfbb	0.22631733
196	0x3d9b55d7	0.07584732
197	0xbe6b2ba9	-0.22965874
198	0x3e4c5285	0.19953354
199	0xbdc3eeba	-0.09567018
200	0xbe0f0708	-0.13967526
201	0xbdcf3dd7	-0.10119217
202	0x3cee6670	0.02910158
203	0x3dd008f9	0.101579614
204	0x3e211d96	0.15733942
205	0xbde5a234	-0.112125784
206	0xbe00055f	-0.12502049
207	0xbdb4ca44	-0.088276416
208	0xbd1a0242	-0.03759981
209	0x3e1fb0c5	0.15594776
210	0xbe413b2f	-0.18870233
211	0xbd943d70	-0.07238281
212	0x3dc42e00	0.09579086
213	0xbb83226c	-0.004001906
214	0xbe43fb63	-0.19138865
215	0xbe67e481	-0.22645761
216	0x3e7dae22	0.24773458
217	0x3d8e0ebe	0.069364056
218	0xbdc59f3d	-0.09649513
219	0x3e3e2be9	0.18571438
220	0xbd77b037	-0.060470786
221	0xbe3f3a0c	-0.18674487
222	0xbe220053	-0.15820436
223	0xbce9d345	-0.028543124
224	0x3e0df89c	0.13864368
225	0xbe083da3	-0.13304763
226	0xbd217cc7	-0.039425638
227	0xbe3b135d	-0.18269105
228	0xbc329f70	-0.010902271
229	0x3da1b2f9	0.078954645
230	0x3e2675c6	0.16255865
231	0xbe102ec9	-0.14080347
232	0x3d2553fc	0.040363297
233	0xbe124e4e	-0.14287683
234	0xbde609c9	-0.11232335
235	0x3d5b3a9d	0.053522695
236	0xbe806323	-0.25075635
237	0x3d9297d7	0.071578674
238	0x3bda5920	0.0066634566
239	0x3d9fe7aa	0.07807858
240	0xbde776a9	-0.113019295
241	0xbe27f601	-0.16402437
242	0x3e289a04	0.16465002
243	0xbd8abcbc	-0.067742795
244	0xbd8b8763	-0.06812932
245	0x3e40ba92	0.18821171
246	0xbd2b8f74	-0.041884854
247	0x3d6edfcb	0.058318894
248	0x3c803764	0.015651412
249	0x3d27b051	0.040939633
250	0x3e6f7a5c	0.2338652
251	0xbd6604be	-0.056156866
252	0xbd8aeb86	-0.06783204
253	0xbb8a7438	-0.00422528
254	0x3cf4620e	0.029831912
255	0x3ac4d169	0.0015016022

lstm.bias_hh_l0 f4 [256]
0	0x3de2e6a2	0.11079146
1	0xbdaef61c	-0.085430354
2	0xbc65b454	-0.014020044
3	0x3df6e235	0.12054864
4	0x3cc22cda	0.023703028
5	0xbca90694	-0.02063302
6	0x3e7dfec0	0.2480421
7	0x3d8ef130	0.069795966
8	0xbc67a186	-0.014137631
9	0x3cbc48c5	0.022983918
10	0x3d7bef0b	0.061507266
11	0x3e5ccc87	0.21562396
12	0x3ccd5030	0.02506265
13	0x3d892641	0.066967495
14	0x3dac96d6	0.08427207
15	0xbd00fa56	-0.03148874
16	0x3cc76a33	0.024342632
17	0x3e0f062d	0.139672
18	0x3cde4a93	0.02713517
19	0x3e2d6cbf	0.16936015
20	0x3dd89341	0.105749615
21	0x3ec0913d	0.37610808
22	0xbd90a72e	-0.07063137
23	0xbce2107d	-0.027595753
24	0x3e14297c	0.1446895
25	0x3dcca53c	0.099924535
26	0x3e459747	0.19295989
27	0x3e4b5680	0.19857216
28	0x3b68bea0	0.0035514012
29	0xbaa912f5	-0.0012899326
30	0x3dec2513	0.11530509
31	0x3e3eb06c	0.18621987
32	0x3e33e0df	0.1756625
33	0x3de13f53	0.10998406
34	0x3d990d93	0.07473292
35	0x3e7568d0	0.23965764
36	0x3dfe91c8	0.12430149
37	0xbd95720e	-0.07297145
38	0x3e986585	0.29764953
39	0x3e241718	0.16024435
40	0x3e3823fd	0.17982478
41	0x3e1c6400	0.15272522
42	0x3d83f690	0.064435124
43	0x3cca0105	0.02465869
44	0xbd0556f7	-0.03255364
45	0x3e072ca9	0.1320063
46	0x3e0a006d	0.13476725
47	0x3de78d44	0.11306241
48	0x3d887499	0.06662864
49	0xbdc28814	-0.09498611
50	0x3ea227cb	0.31670985
51	0x3e3cd5b3	0.18440895
52	0x3e4c8ca1	0.1997552
53	0x3bc7dd4e	0.0060993796
54	0xbcc8a673	-0.024493432
55	0x3e29d0e2	0.16583589
56	0x3e91f18b	0.28504595
57	0xbd370553	-0.044682812
58	0x3e43e19f	0.19129036
59	0xbcc8042c	-0.024416052
60	0xbd430468	-0.047611624
61	0xbd4f295f	-0.050576564
62	0x3d6e39e3	0.058160674
63	0x3db33dd2	0.08752026
64	0x3e0669ba	0.13126269
65	0x3e71c02d	0.23608465
66	0x3e2725b3	0.16322975
67	0x3d91e030	0.071228385
68	0x3e6459ed	0.22299929
69	0x3de651e0	0.11246085
70	0x3cfa2dab	0.030539354
71	0x3d4115c9	0.047139917
72	0x3e8ca304	0.2746812
73	0x3e7b39d5	0.2453378
74	0x3d8c650a	0.06855209
75	0xbd358bb5	-0.044322688
76	0x3d32104c	0.043472573
77	0x3e4e7cfc	0.20164865
78	0x3e99ab83	0.30013666
79	0xbc0fe6af	-0.008783027
80	0x3e637f26	0.22216472
81	0x3df6fec6	0.12060313
82	0x3d9fe75a	0.07807799
83	0x3db835b2	0.089946166
84	0x3e0a8bcb	0.1352989
85	0x3bd1e4d1	0.006405451
86	0x3d7d607d	0.061859597
87	0xbcfb18ca	-0.030651469
88	0x3db0f796	0.08640973
89	0x3e392104	0.18079
90	0xbc9f4e0c	-0.019446395
91	0x3dd6ff58	0.10497922
92	0x3e02ae62	0.12761834
93	0x3e8eb35c	0.27871215
94	0x3dbe4e8d	0.09292326
95	0x3d5d4394	0.054019526
96	0x3de04091	0.10949815
97	0x3d21c6b5	0.039496142
98	0x3e595a82	0.21225932
99	0x3e9706bc	0.29497325
100	0x3def54c4	0.1168609
101	0x3de5b710	0.11216557
102	0x3d106bdf	0.035259124
103	0x3d3170a2	0.043320306
104	0xbc4c0704	-0.0124528445
105	0xbc5e1884	-0.01355565
106	0x3dc97d5b	0.09838363
107	0x3e1342bd	0.14380927
108	0x3d0e5730	0.034751117
109	0x3da11abc	0.07866427
110	0x3d9c9234	0.076450735
111	0xbd9f665c	-0.077831954
112	0x3e38b1d5	0.18036588
113	0x3df37e28	0.11889297
114	0x3e40906a	0.1880509
115	0x3d5cf877	0.053947892
116	0xbc901088	-0.017586008
117	0x3dfadb02	0.12248804
118	0x3ceddd5f	0.029036222
119	0xbcb76364	-0.02238626
120	0x3d4f983b	0.050682288
121	0x3d4e3ac5	0.050349016
122	0x3dfc9558	0.123331726
123	0x3da58924	0.08082798
124	0x3d7c24ad	0.061558414
125	0x3dfe7cf9	0.124261804
126	0x3ea4d299	0.32191923
127	0x3e4ab37b	0.19795029
128	0xbc14f622	-0.009091886
129	0x3e6c62f8	0.23084629
130	0xbd889aab	-0.066701256
131	0xbc050cc9	-0.008120724
132	0x3db4f60d	0.08835993
133	0xbd782f34	-0.06059189
134	0x3d4d574f	0.050132092
135	0x3a8c58db	0.0010707633
136	0x3db2c7ea	0.08729537
137	0x3dea7cab	0.1144956
138	0x3dddb20e	0.10824977
139	0xbe01ae4b	-0.12664144
140	0x3dae692a	0.08516152
141	0x3c2df763	0.010618064
142	0xbde6edd2	-0.112758294
143	0xbdeadc34	-0.11467782
144	0x3ac9ed82	0.0015405866
145	0xbd3d0ec8	-0.046156675
146	0xbdec6ed2	-0.11544575
147	0xbdd14266	-0.102177426
148	0x3bb4130b	0.005495434
149	0xbe2f8bbe	-0.17143151
150	0xbcf5c78d	-0.03000238
151	0xbdcb2cef	-0.0992068
152	0x3d7edc06	0.06222155
153	0x3e8df36e	0.27724785
154	0xbd111723	-0.035422456
155	0xbce28d63	-0.027655309
156	0x3d287db3	0.0411355
157	0xbd1717d9	-0.036887977
158	0xbd0bc8ed	-0.034127165
159	0x3da474e5	0.08030108
160	0xbd0741aa	-0.033021607
161	0x3d4b1bd0	0.04958707
162	0xbdfc977a	-0.12333579
163	0xbe255b6c	-0.16148156
164	0xbde76120	-0.11297822
165	0x3d8d703b	0.06906172
166	0xbdaa16bf	-0.0830512
167	0x3e470ec1	0.19439222
168	0x3b191169	0.0023356325
169	0xbd2237c6	-0.03960397
170	0xbdc364a4	-0.0954068
171	0xbe0f1a33	-0.13974838
172	0xbc9f1dfd	-0.01942348
173	0x3e790e26	0.24321803
174	0x3d1c0bac	0.03809707
175	0x3d2fc4cf	0.0429123
176	0xbe970c65	-0.29501644
177	0x3ce4ad12	0.027914558
178	0x3de2c0b3	0.11071911
179	0xbd9f30f3	-0.07773008
180	0xbd365420	-0.04451382
181	0x3d8a7b88	0.06761843
182	0x3e0e0615	0.13869508
183	0xbccbdfff	-0.024887083
184	0xbc660574	-0.014039386
185	0x3ea6dd80	0.32590866
186	0xbdad4f4b	-0.084623896
187	0x3d9bde74	0.07610789
188	0xbdbdbc1a	-0.09264393
189	0x3c970ae9	0.01843782
190	0xbe21bc9a	-0.15794602
191	0xbd198675	-0.037481744
192	0x3dd2eec5	0.10299448
193	0x3e2a68c4	0.16641527
194	0x3d23bea3	0.039976727
195	0x3ddbf40f	0.1073991
196	0x3db00564	0.08594778
197	0xbd1c2923	-0.03812517
198	0x3e179a08	0.14804852
199	0xbd5feab9	-0.05466721
200	0xbe0040a3	-0.12524657
201	0xbd26cdbc	-0.040723547
202	0x3ccfca61	0.025365056
203	0x3e42c40a	0.19020095
204	0x3e035a60	0.12827444
205	0xbd4b4b1f	-0.049632188
206	0xbd806ccc	-0.06270751
207	0xbe8b3547	-0.27189085
208	0xbe1bd38c	-0.15217417
209	0x3e7cdb6b	0.24693076
210	0xbe3f9097	-0.187075
211	0xbe6ba1f7	-0.23011003
212	0x3cefe95a	0.029286075
213	0x3df7acdc	0.12093517
214	0xbe4ceff9	-0.20013417
215	0xbe3d6b11	-0.18497874
216	0x3e1d6891	0.1537192
217	0x3cb8c77d	0.02255606
218	0xbe4cbf82	-0.1999493
219	0x3daab832	0.08335914
220	0xbccf8351	-0.025331171
221	0xbdcce1b5	-0.10003988
222	0xbe9befe8	-0.3045647
223	0xbde38386	-0.111090705
224	0x3e0770e6	0.13226661
225	0xbd9affba	-0.07568307
226	0xba15b1d4	-0.00057103974
227	0x3b98fcc5	0.0046688044
228	0xbd231801	-0.039817814
229	0x3df4736e	0.11936079
230	0xbd5cc56e	-0.05389922
231	0xbe3ebf24	-0.18627602
232	0xbe19d7bb	-0.15023701
233	0xbd4cab83	-0.049968254
234	0xbe41aa4e	-0.18912622
235	0x3e212ee4	0.15740544
236	0xbe999880	-0.2999916
237	0x3e136a73	0.14396076
238	0x3d8625a6	0.065501496
239	0xbd318ccd	-0.04334717
240	0xbdc58862	-0.096451536
241	0xbe9e693a	-0.30939656
242	0x3daac1ce	0.083377466
243	0x3b9bd087	0.004755083
244	0xbdce9174	-0.10086337
245	0x3e49d379	0.19709577
246	0x3dc27c3f	0.09496354
247	0x3df70f12	0.12063421
248	0x3e03fb69	0.12888874
249	0x3d19d41d	0.037555803
250	0xbb86c506	-0.0041128425
251	0xbe4bfc95	-0.19920571
252	0xbe00b2e5	-0.12568243
253	0x3d9167d6	0.07099883
254	0x3d045c94	0.032314852
255	0xbd4ff6c2	-0.050772436

fc_layer.weight f4 [64, 64]
0	0xbee36cb1	-0.44418862
1	0xbf12de1c	-0.5737016
2	0xbf0c5922	-0.54823506
3	0x3f1ae0bd	0.60499173
4	0x3f074851	0.5284472
5	0xbf0e8674	-0.5567391
6	0x3edf7779	0.43645838
7	0xbefd6cf0	-0.49497175
8	0x3f15da37	0.58536094
9	0xbedd94c3	-0.4327756
10	0x3f1b9d4a	0.6078688
11	0x3f26febc	0.65232444
12	0x3f17771b	0.59166116
13	0x3f2228c8	0.6334348
14	0x3f1ef374	0.6209023
15	0x3ee3bed1	0.4448152
16	0xbecbfd20	-0.39841557
17	0xbf07c470	-0.53034115
18	0x3f04820c	0.51760936
19	0xbf004d97	-0.5011839
20	0xbf23686a	-0.638312
21	0xbeebc80b	-0.46051058
22	0xbf04e7b7	-0.5191607
23	0xbf0e6ce2	-0.5563489
24	0xbf007e32	-0.5019256
25	0x3ef4a343	0.4778081
26	0x3efc5056	0.4928004
27	0xbf127737	-0.5721316
28	0x3f05360e	0.52035606
29	0xbf0e8149	-0.55666023
30	0xbf102159	-0.56300884
31	0xbedb51ee	-0.42835945
32	0xbf2d04d8	-0.67585516
33	0xbf0232ee	-0.5085896
34	0xbeefab9b	-0.46810612
35	0xbf0654b8	-0.5247302
36	0xbee74ee7	-0.45177385
37	0x3f1a4e28	0.60275507
38	0xbf2cbcee	-0.67475784
39	0x3ec6dff3	0.38842735
40	0xbf1c6416	-0.6109022
41	0x3f25bcee	0.6474141
42	0x3f124c7a	0.57147944
43	0xbf01798d	-0.50576097
44	0x3f25c053	0.6474659
45	0x3ef901ea	0.48634273
46	0xbee0a70c	-0.43877447
47	0x3eeee48f	0.4665875
48	0xbf0573ed	-0.52130014
49	0xbf049457	-0.5178885
50	0x3ee7656d	0.4519457
51	0xbf0be837	-0.54651207
52	0x3f020e96	0.50803506
53	0x3f21bf91	0.6318293
54	0x3ed526b3	0.41631088
55	0x3efeaede	0.49742788
56	0x3ec95a6b	0.39326796
57	0x3ebceb3a	0.36898214
58	0xbf1e2ab9	-0.6178394
59	0xbeeeca4e	-0.4663872
60	0xbf01cdbf	-0.5070457
61	0x3efe5515	0.49674287
62	0x3f1ae7cb	0.6050994
63	0x3edfc8b5	0.43707815
64	0xbd116aaf	-0.035502132
65	0xbc6d9c12	-0.014502542
66	0x3d7081e6	0.05871763
67	0x3cf247db	0.029575279
68	0xbdd2e919	-0.10298366
69	0x396d9f58	0.00022661441
70	0xbdd123f5	-0.102119364
71	0xbdb99141	-0.09060908
72	0x3acd587b	0.0015666628
73	0xbd80aa6a	-0.06282504
74	0x3dc0ceae	0.09414421
75	0xbd946bf0	-0.0724715
76	0xbcef0039	-0.02917491
77	0x3d4d12d0	0.05006677
78	0x3cdf8bb6	0.027288299
79	0x3cbe0409	0.023195283
80	0x3bdfe418	0.006832611
81	0xbc6b59f9	-0.014364713
82	0xbd93e7dd	-0.07221959
83	0x3e0aa14d	0.13538094
84	0x3dd8493e	0.10560845
85	0xbd61fc21	-0.05517209
86	0x3da85602	0.0821953
87	0x3d536b00	0.051615715
88	0xbda120c9	-0.078675814
89	0xbd874778	-0.066054285
90	0xbc36801c	-0.011138942
91	0xbd8db324	-0.06918934
92	0xbdaf8be3	-0.08571603
93	0x3c0a12d2	0.008427339
94	0xbdcb5a8f	-0.09929382
95	0xbd901e42	-0.07037021
96	0x3cdb7cae	0.02679285
97	0x3ae5e327	0.001753901
98	0x3d8454dd	0.06461499
99	0x3dc022cd	0.09381638
100	0x3dbc5a50	0.09196913
101	0xbd979076	-0.074006006
102	0x3cc0aca0	0.023519814
103	0xbd55e58a	-0.05222086
104	0x3d2a333e	0.041552775
105	0xbe08ecd5	-0.13371594
106	0x3dba7441	0.09104205
107	0x3db016f8	0.08598131
108	0xbd378f06	-0.044814132
109	0xbd6d2664	-0.05789794
110	0x3de521ba	0.111880735
111	0x3d6e6a93	0.058207106
112	0x3e06ebf4	0.13175946
113	0xbd824b11	-0.06361974
114	0xbdc63a52	-0.096790925
115	0xbdccf9ed	-0.10008607
116	0xbcf4594d	-0.029827738
117	0x3bafc3f1	0.005363934
118	0x3dbaf92c	0.09129557
119	0xbd9354f6	-0.071939394
120	0xbdf40255	-0.11914507
121	0xbabc5e6b	-0.00143714
122	0x3ce6389d	0.028103167
123	0x3d455e32	0.048185535
124	0xbd1ed065	-0.03877296
125	0xbddce0c2	-0.10785057
126	0xbdfa7eed	-0.122312404
127	0x3df20dbe	0.11819027
128	0xbf09b1a9	-0.5378671
129	0xbe3a22ad	-0.1817729
130	0xbe41dae6	-0.1893116
131	0x3e1d5ae9	0.1536671
132	0xbe8e255a	-0.27762872
133	0xbf2b6f8e	-0.66967094
134	0xbe741a9e	-0.23838279
135	0xbe8a4113	-0.27002773
136	0xbf094bb9	-0.5363117
137	0xbdadbff6	-0.08483879
138	0xbef313fd	-0.47476187
139	0x3f0c5fa4	0.54833436
140	0x3f0aeb97	0.5426573
141	0xbf470250	-0.77737904
142	0x3f2906e7	0.6602616
143	0x3e130413	0.14357023
144	0xbedd36f7	-0.43205997
145	0xbe903520	-0.2816553
146	0xbe9361ca	-0.28785545
147	0x3f1c0ea3	0.60959834
148	0x3efb1c5b	0.4904507
149	0x3ef8da67	0.48604128
150	0x3f36a809	0.7135015
151	0x3f2297b1	0.6351271
152	0xbdd02f18	-0.101652324
153	0x3f05c54f	0.52254194
154	0x3edd3069	0.43200997
155	0xbe49efc5	-0.19720371
156	0x3f0afbe7	0.5429062
157	0x3ee3c31b	0.4448479
158	0x3f0879de	0.53310955
159	0x3ee91666	0.455249
160	0xbea20df0	-0.31651258
161	0x3ebe8e20	0.37217808
162	0xbeed1200	-0.46302795
163	0x3f30606f	0.68897146
164	0xbeb75697	-0.3580825
165	0xbf24a2bc	-0.6431081
166	0x3f2ad3d0	0.6672945
167	0x3e9b3861	0.3031645
168	0xbe804aaa	-0.25056964
169	0xbf2edd40	-0.6830635
170	0x3daead50	0.085291505
171	0x3e46d72f	0.19418024
172	0xbee6c603	-0.45072946
173	0x3b2ffb5c	0.0026852703
174	0x3ee281e8	0.44239736
175	0x3ef49d6c	0.47776353
176	0x3f21a295	0.63138705
177	0xbeb7dc07	-0.35910055
178	0xbf040e01	-0.5158387
179	0xbef9c6e5	-0.48784557
180	0x3e756272	0.23963335
181	0x3e51af17	0.20476948
182	0xbeff9ed8	-0.49925876
183	0x3f03b6be	0.5145072
184	0x3e19e95e	0.15030429
185	0x3f0816a6	0.5315956
186	0x3ea891ac	0.3292364
187	0x3e9a0ddc	0.300887
188	0xbd84b026	-0.0647891
189	0x3f0bd478	0.54621077
190	0x3f21ffa7	0.6328072
191	0x3f0622e3	0.5239698
192	0xbf310a77	-0.69156593
193	0xbef2edd5	-0.47447076
194	0xbf238fd1	-0.6389132
195	0x3f167007	0.5876469
196	0x3f2feec4	0.687237
197	0xbf129794	-0.5726254
198	0x3f2e36b7	0.6805224
199	0xbf066bbd	-0.52508146
200	0x3f1cac87	0.61200756
201	0xbf06cf4d	-0.52660066
202	0x3f058298	0.52152395
203	0x3f02c461	0.510809
204	0x3eedf350	0.46474695
205	0x3f363d3d	0.7118719
206	0x3efed9ba	0.49775487
207	0x3f273c0c	0.65326
208	0xbeff10f5	-0.49817625
209	0xbf0f44ee	-0.55964553
210	0x3f2836a8	0.657084
211	0xbf09ae53	-0.5378162
212	0xbf02a511	-0.5103312
213	0xbf1ac0d9	-0.6045051
214	0xbf0857af	-0.53258795
215	0xbf31cbd8	-0.69451666
216	0xbef92e65	-0.4866821
217	0x3f0f05c8	0.55868196
218	0x3ed58a87	0.4170725
219	0xbf1dcabc	-0.61637473
220	0x3f13f9f5	0.5780328
221	0xbef95208	-0.48695397
222	0xbf173a6a	-0.5907351
223	0xbf201a36	-0.62539995
224	0xbf24282c	-0.641238
225	0xbf1f542f	-0.6223783
226	0xbf1dc791	-0.6163264
227	0xbf2ca7e5	-0.67443687
228	0xbf201e8f	-0.6254663
229	0x3f165c6f	0.5873479
230	0xbf2fe0bd	-0.687023
231	0x3f09ac6b	0.53778714
232	0xbee8a3c7	-0.45437452
233	0x3efe9c2d	0.49728528
234	0x3f21fb21	0.6327382
235	0xbf398d26	-0.72481
236	0x3eed3d9d	0.4633607
237	0x3f30c62c	0.69052386
238	0xbf281000	-0.65649414
239	0x3f1e7008	0.61889696
240	0xbef247c2	-0.47320372
241	0xbf01d484	-0.507149
242	0x3ef097f6	0.46990937
243	0xbefbac1e	-0.49154752
244	0x3f0d907f	0.5529861
245	0x3f1f12d7	0.6213812
246	0x3f104271	0.5635138
247	0x3f36f033	0.71460265
248	0x3ef8f901	0.48627475
249	0x3f1620b2	0.5864364
250	0xbf2dd842	-0.6790811
251	0xbf156f9c	-0.5837343
252	0xbee54e80	-0.44786453
253	0x3f03dc1a	0.51507723
254	0x3f1da8fe	0.61585987
255	0x3f027efa	0.50975

fc_layer.bias f4 [64]
0	0x3f14cb87	0.5812306
1	0xbd244966	-0.04010906
2	0xbe6cfb8d	-0.23142834
3	0x3f299e4f	0.66257185
4	0x3ec772f9	0.38954905
5	0x3f1effd8	0.62109137
6	0x3f18fd7f	0.59761804
7	0x3dac91bd	0.08426235
8	0x3e297e80	0.16552162
9	0x3f185fa5	0.5952094
10	0x3f28fe6d	0.6601322
11	0x3f1bba8e	0.60831535
12	0x3eb9c44e	0.3628258
13	0x3e1e3490	0.15449739
14	0x3e300283	0.17188458
15	0xbd51306a	-0.051071562
16	0x3e28311b	0.16424982
17	0xbd29d400	-0.041461945
18	0x3ec3a68b	0.38213
19	0x3b3595b6	0.0027707643
20	0x3e15c898	0.14627302
21	0xbcdd6e60	-0.02703017
22	0x3e4f865c	0.20266098
23	0x3cb97dd0	0.022643
24	0x3f0b2af6	0.5436243
25	0x3efb17ce	0.490416
26	0x3ca914aa	0.020639736
27	0x3f0d29a7	0.5514168
28	0x3e1cc5c7	0.15309821
29	0x3eacc18e	0.3374142
30	0x3ddec44d	0.10877285
31	0x3e0ae889	0.13565268
32	0x3f0d4c50	0.5519457
33	0xbe246ffe	-0.16058347
34	0x3dc5da6a	0.096608
35	0x3e54d738	0.20785224
36	0x3dfe7993	0.12425532
37	0x3f0b4910	0.5440836
38	0x3d4a4eec	0.049391672
39	0xbd028b5d	-0.03187119
40	0xbdfd718e	-0.123751745
41	0x3f11935a	0.56865466
42	0x3f2384c8	0.63874483
43	0x3f07a6b9	0.52988774
44	0x3e10e473	0.14149646
45	0x3de54ab4	0.11195889
46	0x3ed0e440	0.4079914
47	0x3f20643d	0.6265295
48	0x3dcc324e	0.09970532
49	0x3ec80a73	0.39070472
50	0x3f1ea752	0.6197406
51	0x3ecfd885	0.4059488
52	0x3ee946ae	0.45561737
53	0xbd109964	-0.035302535
54	0x3f0e8655	0.55673724
55	0x3f12bfd2	0.57323945
56	0x3f012f9a	0.5046326
57	0x3f23a81a	0.6392838
58	0x3f1bc446	0.60846364
59	0x3eb73c2d	0.35788098
60	0x3dbdd6a9	0.09269459
61	0x3e1b3ea9	0.15160622
62	0x3ee99fc6	0.4562971
63	0xbeecba02	-0.46235663

output_layer.weight f4 [1, 64]
0	0x3f27e52c	0.65584064
1	0xbcab63fd	-0.020921702
2	0xbf26c5ab	-0.6514537
3	0x3f0fb211	0.5613108
4	0x3f2416de	0.6409739
5	0x3f17ca1a	0.5929276
6	0x3f21c5a5	0.63192207
7	0xbf0ff042	-0.5622598
8	0xbf5ba676	-0.85800874
9	0x3f1cc802	0.6124269
10	0x3f11a4e9	0.5689226
11	0x3f23b14a	0.63942397
12	0x3f255dcd	0.64596254
13	0xbf387bb2	-0.72063744
14	0xbf33e23a	-0.7026707
15	0xbf0f262b	-0.55917615
16	0xbf515102	-0.81764233
17	0xbf3a8964	-0.7286589
18	0x3f29d44f	0.6633958
19	0xbf5bb891	-0.858285
20	0xbf49b859	-0.7879692
21	0xbd938c56	-0.07204501
22	0xbf54fa4b	-0.83194417
23	0xbee06c40	-0.43832588
24	0x3f1672bc	0.5876882
25	0x3f290608	0.6602483
26	0xbf47d5aa	-0.780604
27	0x3f1bf9f9	0.60928303
28	0xbf57e549	-0.84334236
29	0xbf3effc5	-0.74609023
30	0xbf5b2bad	-0.8561352
31	0xbf233c15	-0.6376355
32	0x3f246aba	0.6422535
33	0xbf2154a6	-0.6301979
34	0xbf26509f	-0.6496677
35	0xbf3b1be3	-0.73089427
36	0xbf001fd0	-0.5004854
37	0x3f296586	0.6617054
38	0xbf46c624	-0.7764609
39	0xbd9626fd	-0.07331655
40	0x3c8907d0	0.016727358
41	0x3f278316	0.65434396
42	0x3f11dab5	0.56974345
43	0x3f19aee1	0.6003247
44	0xbf462752	-0.7740375
45	0xbf12ae83	-0.57297534
46	0x3f1d83d5	0.61529285
47	0x3f144d1a	0.5793015
48	0xbf2f8256	-0.6855825
49	0x3f250623	0.6446249
50	0x3f216e52	0.6305896
51	0x3f140b49	0.5782972
52	0x3f221797	0.63317245
53	0xbd340ecc	-0.043959424
54	0x3f15bb90	0.5848932
55	0x3f29d37c	0.66338325
56	0x3f1a945d	0.60382634
57	0x3f132ced	0.57490426
58	0x3f1aee98	0.60520315
59	0xbf3a77a6	-0.7283882
60	0xbf45feb0	-0.7734175
61	0xbf52f817	-0.82409805
62	0x3f2b9510	0.67024326
63	0xbf2a60ec	-0.6655414
