Conditional_TimeGAN/result/original/model/KT_lag1_total1/torch_best_model.pt (torch, 87834 bytes, 7 tensors)

lstm.weight_ih_l0 f4 [256, 1]
0	0x3d3432ad	0.04399364
1	0x3e0988a0	0.13431025
2	0xbcdf840d	-0.027284646
3	0xbce5abff	-0.028036116
4	0x3bd083af	0.006363354
5	0x3d91a4fa	0.07111545
6	0x3afacaac	0.0019133887
7	0x3e265794	0.16244346
8	0x3d0d6024	0.034515515
9	0x3e4134f5	0.18867858
10	0x3d5eaf71	0.054366533
11	0x3d3d7bf8	0.046260804
12	0x3c4f6259	0.012657725
13	0x3d37a5c9	0.04483584
14	0xbcd82724	-0.026385851
15	0x3d850b75	0.06496326
16	0x3da78e31	0.08181418
17	0x3de2594e	0.1105219
18	0xbcb63657	-0.022242708
19	0x3c899c89	0.016798275
20	0x3dee3aca	0.11632307
21	0x3e328780	0.17434502
22	0x3c6630d1	0.014049725
23	0x3dc5bd8c	0.09655294
24	0xbc269cce	-0.010169221
25	0x3de56a2a	0.1120189
26	0x3ddcca8d	0.10780821
27	0xbcff0997	-0.031132502
28	0xbbbb3290	-0.0057128146
29	0xbc0c36f2	-0.008558022
30	0xbbd492d1	-0.0064872284
31	0x3e30095e	0.17191073
32	0x3d0fa516	0.035069548
33	0x3ca24fe3	0.019813484
34	0xbcadd7e2	-0.021221105
35	0xbcf0da6b	-0.029401025
36	0xbcb74ea4	-0.022376366
37	0x3e4e574d	0.2015049
38	0x3d5133e0	0.051074862
39	0x3e1fde7a	0.15612212
40	0x3d51146f	0.051044878
41	0xbc9474cd	-0.018122101
42	0x3d8a35fe	0.067485794
43	0xbc7f72a2	-0.015591295
44	0x3d980476	0.07422726
45	0x3b81a119	0.003955972
46	0x3e4297b5	0.19003184
47	0x3de013da	0.109412864
48	0xbc289224	-0.010288749
49	0xbb665362	-0.0035144915
50	0x3debf913	0.115221165
51	0x3e74f91d	0.23923154
52	0x3e0b3854	0.13595706
53	0x3dc89df6	0.09795754
54	0x3dc364b4	0.09540692
55	0x3d22d1f3	0.039751004
56	0x3de0d978	0.10978979
57	0xbc15cbb3	-0.009142804
58	0x3d82a95f	0.06379961
59	0x3daa1267	0.08304291
60	0x3da2f8a2	0.07957579
61	0x3db53b4d	0.08849201
62	0x3d957464	0.072975904
63	0x3db43e13	0.08800902
64	0x3e390361	0.18067695
65	0x3c8e6b57	0.017385168
66	0x3d16efd0	0.036849797
67	0x3d6c8506	0.05774405
68	0x3dffad3c	0.12484214
69	0x3e1e7260	0.15473318
70	0xbbeb4e79	-0.0071809855
71	0xbb7358b8	-0.0037131738
72	0x3dcd8117	0.100343876
73	0x3dcf7c29	0.101311035
74	0x3e8ed7e2	0.2789908
75	0x3e00af37	0.12566839
76	0x3dbe7002	0.092987075
77	0x3ccca0f0	0.024979085
78	0x3da50bfb	0.08058926
79	0x3cd4cc98	0.025976464
80	0xbc579227	-0.013157404
81	0x3e1fc564	0.15602642
82	0x3e2146a8	0.1574961
83	0xbbde281e	-0.0067796847
84	0x3d942f46	0.07235579
85	0x3cb1c493	0.02170018
86	0x3d3daca3	0.046307217
87	0x3c746812	0.01491739
88	0x3de1d759	0.110274024
89	0x3c8a4b9d	0.016881758
90	0x3db50f2a	0.08840783
91	0x3e0f9952	0.14023331
92	0x3e0b9d7d	0.13634296
93	0x3c74343c	0.014905032
94	0xbbd3c38a	-0.006462519
95	0xbb7de8ce	-0.0038743499
96	0x3e4f5489	0.20247091
97	0x3d60f78c	0.05492358
98	0x3c2c4e72	0.01051675
99	0x3d912d59	0.070887275
100	0x3e89f26d	0.2694277
101	0x3e1d05f7	0.15334307
102	0x3bc1d4bd	0.005915253
103	0x3c81a867	0.01582737
104	0xbc224587	-0.009904272
105	0x3d92d734	0.07169953
106	0xbbfc47f3	-0.0076990067
107	0x3c0988e3	0.008394453
108	0x3d4d98be	0.050194494
109	0x3cde3245	0.02712358
110	0x3b316237	0.0027066597
111	0x3e1115e4	0.14168507
112	0x3c99fea3	0.018798178
113	0x3e2f3fd6	0.17114195
114	0x3cf3e1a7	0.029770685
115	0xbc07cb80	-0.008288264
116	0xba90de79	-0.001105263
117	0x3cf8fc70	0.03039381
118	0x3ced65d7	0.028979225
119	0x3e0b2769	0.13589253
120	0x3bc01886	0.0058622984
121	0x3da97b5d	0.08275483
122	0x3d0a1067	0.03370705
123	0x3e1c03a4	0.15235764
124	0xbc0abafb	-0.008467431
125	0x3d18b280	0.037279606
126	0x3c9e1cb9	0.019300805
127	0x3cb964b1	0.022631021
128	0xbb1a26a6	-0.0023521571
129	0xbc0c6505	-0.008569007
130	0xbd069484	-0.03285648
131	0x3a5913cb	0.00082808424
132	0xbc2b4cc5	-0.010455315
133	0xbd0369c0	-0.032083273
134	0x3e702305	0.23450859
135	0xbae716ac	-0.0017630658
136	0xba4d95fa	-0.00078424776
137	0xbe18ceb0	-0.14922595
138	0x3d4ae36e	0.0495333
139	0x3d865de8	0.0656088
140	0x3e0814f6	0.13289246
141	0x3c5cf43b	0.013485963
142	0x3cc21d66	0.023695659
143	0x3a672284	0.0008817094
144	0xbd3bbdf6	-0.045835458
145	0xbc01d2d0	-0.007923797
146	0x3e0bf6da	0.13668385
147	0xbc0ffe0d	-0.008788598
148	0xbe128370	-0.14307952
149	0xbce9b0db	-0.028526714
150	0xbd729083	-0.05921985
151	0xbb8d5cc0	-0.004314035
152	0xbd080601	-0.03320885
153	0x3c80b14d	0.015709544
154	0x3b513327	0.0031921358
155	0xbd2d78d7	-0.04235157
156	0x3c331b2b	0.01093177
157	0xbde5d0ad	-0.11221442
158	0xbe408a53	-0.18802767
159	0xbdde44c1	-0.108529575
160	0xbd004b62	-0.03132189
161	0xbc92be96	-0.017913144
162	0xbd7e5725	-0.062094826
163	0xbda9f10d	-0.0829793
164	0xbc1288e0	-0.008943766
165	0x3d6ebd99	0.058286283
166	0xbcf30502	-0.029665474
167	0x3bdde945	0.0067721927
168	0xbdf6816f	-0.12036406
169	0x3ba905d5	0.005158166
170	0x3d56a437	0.0524027
171	0xbbcfd435	-0.0063424357
172	0x3cff7143	0.031181937
173	0x3c4083be	0.01175016
174	0xbc3254e6	-0.010884499
175	0x3d9eda75	0.07756511
176	0xbd3081aa	-0.043092407
177	0xbd78d617	-0.060751047
178	0x3c36d581	0.011159302
179	0xbe3deb61	-0.18546821
180	0x3d53ae29	0.051679764
181	0x3be89bb0	0.0070986375
182	0x3c1c57ad	0.009542388
183	0x3cbd83fa	0.02313422
184	0x3bde9be4	0.006793486
185	0x3bffc37a	0.007805285
186	0xbbcde227	-0.006283063
187	0xbc688dde	-0.01419398
188	0xbca2c7d6	-0.01987068
189	0x3c8bd177	0.017067654
190	0x3cb5b5f0	0.022181481
191	0x3ca3c1cb	0.019989869
192	0x3d253908	0.040337592
193	0x3d9b53fc	0.07584378
194	0xbb8cba48	-0.0042946674
195	0x3c846a01	0.016163828
196	0x3cecdb5d	0.028913194
197	0x3d547c43	0.051876318
198	0x37b05a7f	2.1022975e-05
199	0x3c9340ff	0.017975328
200	0x3dcbcab3	0.09950771
201	0x3d12a6ff	0.03580379
202	0xba9506eb	-0.001136986
203	0xbc2df23a	-0.010616833
204	0x3bc3be9a	0.005973649
205	0x3d52253d	0.051305044
206	0x3ca52c12	0.020162616
207	0x3cbb9f95	0.022903243
208	0x3d7c719d	0.061631788
209	0x3d846076	0.06463711
210	0x3c4a4c08	0.012347229
211	0x3bb23a69	0.005439092
212	0x3bcec13e	0.0063096574
213	0x3d396dfd	0.04527091
214	0x3e09e4a0	0.1346612
215	0x3d951870	0.07280052
216	0x3bde3ba9	0.0067820144
217	0x3d091c2a	0.033474125
218	0x3cff2f90	0.03115061
219	0x3aa0aefc	0.0012259181
220	0x3ba3a4f4	0.004994029
221	0x3b9df339	0.004820254
222	0x3c002d38	0.007823281
223	0x3d310569	0.04321805
224	0x3a3edff7	0.0007281298
225	0x3c422569	0.01184974
226	0xbba8b7f3	-0.0051488816
227	0x3bd2b029	0.0064296913
228	0x3c36ca56	0.011156639
229	0x3be645b2	0.0070273513
230	0x3ccac28c	0.02475097
231	0x3e168671	0.14699723
232	0x3d44e801	0.04807282
233	0x3c4ee57b	0.012627955
234	0x3c7f1afd	0.015570399
235	0xbc0d5acd	-0.008627606
236	0x3e805b2a	0.25069553
237	0xbb3daf40	-0.0028943568
238	0x3d163c7a	0.03667877
239	0x3c93c967	0.018040372
240	0x3d239ef5	0.039946515
241	0x3d3d555a	0.046223976
242	0x3d4c52a0	0.049883485
243	0x3c81b0af	0.01583132
244	0x3cdcbda0	0.026945889
245	0x3d8a7b28	0.067617714
246	0x3d92d93f	0.07170343
247	0xbbca8446	-0.006180319
248	0x3ce02f20	0.027366221
249	0x3c3a0593	0.011353868
250	0x3cf38391	0.029725822
251	0x3dd8f352	0.10593285
252	0x3c018f37	0.00790768
253	0xb9e1cdcc	-0.00043068675
254	0x3d784a5a	0.060617782
255	0x3bf7b8be	0.007559865

lstm.weight_hh_l0 f4 [256, 64]
0	0xbc36c2ba	-0.011154825
1	0x3d8ed049	0.06973321
2	0xbdbf2cc0	-0.09334707
3	0xbd108c70	-0.03529018
4	0xbd901161	-0.07034565
5	0x3d7a1073	0.061050843
6	0x3df22558	0.11823529
7	0x3e3a2f7a	0.18182173
8	0x3c2f3058	0.010692678
9	0xbdd10601	-0.10206223
10	0x3b6fed52	0.003660996
11	0x3d73f719	0.059561823
12	0x3e16dfbd	0.14733787
13	0xbcf7954b	-0.030222556
14	0xbc094189	-0.008377441
15	0x3beaaf11	0.007161983
16	0xbe3b2a00	-0.1827774
17	0x3d31b4d5	0.043385345
18	0xbc74465f	-0.014909356
19	0xbe4f92bf	-0.20270823
20	0x3d350f4e	0.04420405
21	0xbd9a368a	-0.07529934
22	0xbd4087b1	-0.047004405
23	0x3c91a403	0.017778402
24	0xbd08f161	-0.033433322
25	0xbcf347ec	-0.029697381
26	0xbd417461	-0.04723013
27	0x3d91603e	0.07098435
28	0x3da6742d	0.081276275
29	0x3d61d473	0.055134248
30	0xbde2d985	-0.11076645
31	0xbcda096b	-0.026615819
32	0xbd80e0d5	-0.06292883
33	0xbdad694f	-0.08467352
34	0xbde31ecc	-0.110898584
35	0x3c3aba44	0.011396948
36	0xbd069b6c	-0.032863066
37	0x3d643366	0.05571308
38	0xbd44ed08	-0.048077613
39	0xbdab82d7	-0.08374565
40	0x3d1abcf1	0.037777845
41	0xbd8e66e8	-0.069532216
42	0x3e0096e9	0.12557568
43	0xbda0242d	-0.078194
44	0x3d28641c	0.041111097
45	0x3ce312ce	0.027718928
46	0xbd42c6e4	-0.047552958
47	0x3dbb8ebc	0.09158084
48	0xbc7f9804	-0.015600208
49	0xbe1ccf40	-0.15313435
50	0x3b917ea5	0.004440146
51	0x3bec2156	0.0072061224
52	0x3e0090e8	0.12555277
53	0xbd238583	-0.03992225
54	0xbdd0f7b0	-0.10203493
55	0xbddb06fb	-0.10694691
56	0x3c9b9005	0.018989572
57	0x3c1b5c63	0.009482476
58	0xbd715554	-0.058919266
59	0x3dcb5f21	0.09930254
60	0xbe01e1fd	-0.12683864
61	0x3de5569c	0.1119816
62	0x3d1de80e	0.038551383
63	0x3db2eddc	0.08736774
64	0xbd6be1c8	-0.05758837
65	0x3dc6bfbc	0.09704539
66	0xbe1f1c08	-0.15538037
67	0x3d783f0c	0.060607
68	0x3de712ac	0.11282858
69	0x3cfeb304	0.03109122
70	0x3e0bc555	0.13649495
71	0x3ca824e1	0.020525398
72	0x3e0d549d	0.13801809
73	0xbe037ca0	-0.1284051
74	0xbd47a93b	-0.048745375
75	0xbd493219	-0.049120042
76	0x3e396869	0.18106236
77	0x3e1112cc	0.14167327
78	0xbcef048b	-0.029176971
79	0x3d3850fc	0.044999108
80	0x3cb2d6e2	0.02183098
81	0x3d710c71	0.058849756
82	0x3e231259	0.15924968
83	0x3cf30142	0.029663686
84	0xbdbadc88	-0.09124094
85	0xbbdaeea2	-0.0066812793
86	0x3d237bd4	0.039913014
87	0x3ddceddf	0.10787558
88	0xbe034435	-0.12818988
89	0x3e288e14	0.16460449
90	0x3dafecaa	0.08590062
91	0x3ceb8ca6	0.02875359
92	0xbd21465b	-0.039373737
93	0xbcb50f06	-0.02210189
94	0xbdfa289b	-0.12214776
95	0x3cf61649	0.030039923
96	0xbdaf0a07	-0.085468344
97	0xbbe30b92	-0.0069288695
98	0xbc8bd91d	-0.017071301
99	0xbb152da3	-0.0022762797
100	0xbda55ee3	-0.08074739
101	0x3deebe5a	0.116574004
102	0xbe3dd6f1	-0.18539025
103	0x3cd17869	0.025570111
104	0xbe1cadbe	-0.15300652
105	0xbdd1862b	-0.10230669
106	0xbcb80047	-0.02246107
107	0x3d8a8deb	0.0676535
108	0x3d8c5c90	0.068535924
109	0x3e2975b6	0.1654881
110	0x3e1c26aa	0.15249124
111	0xbd41d1ba	-0.04731915
112	0xbe1eb539	-0.15498818
113	0xbdb35919	-0.087572284
114	0xbe0999f6	-0.13437638
115	0x3cc76f4f	0.024345068
116	0x3bb1a02f	0.0054207067
117	0xbdb8c935	-0.09022752
118	0xbe3e7d4f	-0.18602489
119	0xbcad4b89	-0.021154182
120	0x3d9e6e46	0.07735877
121	0x3e2bb80f	0.16769432
122	0x3d264d66	0.040601157
123	0x3d404c7c	0.04694794
124	0x3d61675f	0.055030223
125	0x3ca1a82c	0.01973351
126	0x3cb16d7f	0.021658657
127	0x3e27a86d	0.16372843
128	0x3b83e6fe	0.004025339
129	0xbc14dafb	-0.009085412
130	0xbdb5a4df	-0.08869337
131	0x3e16d5f6	0.14730057
132	0xbd36cf3c	-0.044631228
133	0xbd6a2a4d	-0.057169247
134	0x3d722416	0.059116445
135	0x3d70eb32	0.05881805
136	0xbc5c6b4b	-0.013453315
137	0xbe2a0735	-0.16604312
138	0xbd7e8d3d	-0.062146414
139	0x3de963e0	0.11396003
140	0x3dfae216	0.12250154
141	0x3d7211e7	0.059099104
142	0x3da5b87e	0.0809183
143	0x3e34b609	0.17647566
144	0xbcb60d0a	-0.022223014
145	0xbdb91346	-0.09036879
146	0x3d2fbed7	0.04290661
147	0x3cf44e9f	0.029822646
148	0xbd1b2e30	-0.037885845
149	0xbe551193	-0.20807485
150	0x3d41f336	0.047351085
151	0xbc49a24e	-0.012306763
152	0xbdb38f24	-0.08767536
153	0x3df3a05d	0.11895821
154	0x3d3a150c	0.045430228
155	0xbe5f70c8	-0.21820366
156	0x3e585480	0.21125984
157	0xbd3d578d	-0.046226073
158	0xbe36e79a	-0.17861786
159	0xbe047061	-0.12933494
160	0xbd99ea27	-0.07515364
161	0xbdf2c7aa	-0.11854489
162	0xbd504549	-0.050847325
163	0x3d732b32	0.059367366
164	0xbdf13adf	-0.11778807
165	0xbc4d598c	-0.012533557
166	0xbdbf9e77	-0.09356397
167	0x3e5ece7f	0.2175846
168	0xbd00f69f	-0.031485196
169	0xbd5db11c	-0.054123983
170	0x3db084da	0.086190894
171	0xbe50eb6e	-0.2040231
172	0x3b65a433	0.0035040497
173	0x3e3027c0	0.17202663
174	0xbe30940b	-0.17243974
175	0x3e0c7465	0.13716276
176	0x3ce0ddd0	0.027449518
177	0xbdb39682	-0.087689415
178	0x3ccd04f4	0.025026776
179	0xbdf3ee36	-0.119106695
180	0x3dfbc747	0.122938685
181	0xbc2f1245	-0.010685508
182	0x3e639dc8	0.22228158
183	0xbd913b09	-0.07091338
184	0xbc0c9666	-0.00858078
185	0xbd9308b0	-0.071793914
186	0xbd61b448	-0.05510357
187	0xbca94dd4	-0.020666994
188	0xbe620248	-0.22071183
189	0x3e4ad3af	0.19807313
190	0x3c5910f8	0.013248675
191	0x3e17cd28	0.14824355
192	0xbe417d81	-0.18895532
193	0xbe39c9c5	-0.18143375
194	0xbde5ac2d	-0.112144805
195	0x3e5a7026	0.21331844
196	0x3e7d470f	0.24734138
197	0xbd8af39f	-0.06784748
198	0x3d746968	0.059670836
199	0x3e7c908d	0.24664517
200	0x3e0a1239	0.13483514
201	0xbd95e19c	-0.07318422
202	0x3e016074	0.1263445
203	0x3e2780d8	0.16357744
204	0x3cd4a897	0.025959296
205	0x3d7b85ec	0.061407015
206	0x3e0a5e0a	0.13512436
207	0xbda64ffd	-0.08120725
208	0xbdc8ba0a	-0.09801109
209	0xbd239e48	-0.03994587
210	0x3e7e63e9	0.248428
211	0xbe5db058	-0.21649301
212	0xbe633d69	-0.22191395
213	0xbdb2e526	-0.08735113
214	0xbe094493	-0.13405065
215	0x3dcb7bdc	0.09935734
216	0xbe3814cd	-0.17976685
217	0x3c20bc51	0.009810523
218	0x3e300c5f	0.17192219
219	0xbec83bb6	-0.39108056
220	0xbc8e8e47	-0.017401827
221	0xbdef3b62	-0.11681248
222	0xbe4c4f63	-0.19952159
223	0xbde25ce8	-0.11052877
224	0xbe995fd8	-0.29955935
225	0xbe58e0b1	-0.21179463
226	0xbe8d896e	-0.27643913
227	0xbe032042	-0.12805274
228	0xbe4fe46a	-0.20301977
229	0x3e80842e	0.25100845
230	0xbdd31e0a	-0.10308464
231	0x3e0618a4	0.13095337
232	0xbe314dbc	-0.1731481
233	0x3db6da1b	0.08928319
234	0x3db80472	0.08985223
235	0xbe1e62db	-0.15467398
236	0x3dc9d2e1	0.09854675
237	0x3c30cf28	0.010791577
238	0x3dc2e891	0.09517015
239	0x3e02efeb	0.12786834
240	0xbea32401	-0.31863406
241	0xbe4eb287	-0.2018529
242	0x3e1a2cd5	0.15056165
243	0xbd8bc4f1	-0.06824673
244	0x3c0d0248	0.008606501
245	0x3e19b308	0.15009701
246	0x3dfb5570	0.12272155
247	0x3e6d72ec	0.2318837
248	0x3de3bba8	0.11119777
249	0x3d43df7c	0.047820553
250	0xbd78ce1b	-0.060743432
251	0xbe094caf	-0.13408159
252	0xbe31134e	-0.1729252
253	0x3e1a0fee	0.15045139
254	0x3b66f648	0.003524201
255	0x3e169a3e	0.14707276

lstm.bias_ih_l0 f4 [256]
0	0x3e32e089	0.17468466
1	0x3e0ae926	0.13565502
2	0x3dbbb0b4	0.09164563
3	0x3e3287ca	0.17434612
4	0x3e529ece	0.20568392
5	0xbd58e0aa	-0.05294863
6	0xbdfe5dbd	-0.12420223
7	0xbd5f817a	-0.054566838
8	0xba19156d	-0.00058396795
9	0x3d518ac0	0.051157713
10	0x3d099091	0.033585135
11	0x3caad65a	0.020854164
12	0x3cb6e19f	0.022324381
13	0x3e6f2026	0.23352107
14	0x3e45a84f	0.19302486
15	0x3e1d23ab	0.15345638
16	0x3d8e84a0	0.0695889
17	0x3dcee23f	0.10101747
18	0xbda1fd10	-0.07909596
19	0x3da62786	0.08113007
20	0x3e63ff0d	0.22265263
21	0x3ddc897f	0.10768413
22	0x3dc564a1	0.09638334
23	0x3defb312	0.11704077
24	0x3c851fab	0.016250452
25	0x3cdd5956	0.027020138
26	0x3e0750a7	0.1321436
27	0xbc1c685f	-0.009546368
28	0x3d8860df	0.06659102
29	0x3ce9b2b6	0.028527599
30	0x3dd12c6b	0.1021355
31	0xbb4b4d89	-0.0031021556
32	0x3c94bdb6	0.018156867
33	0x3e24315b	0.16034453
34	0x3d87eada	0.06636591
35	0x3ddee9e1	0.108844526
36	0x3e34c6fa	0.17654029
37	0x3de67bd9	0.11254091
38	0x3cec38b8	0.02883564
39	0x3e13ad1b	0.14421503
40	0x3cec9ceb	0.028883418
41	0x3c8e0213	0.017334973
42	0xbd3340b5	-0.04376288
43	0x3e1d3b27	0.15354596
44	0x3e1d27ce	0.15347216
45	0x3e29e8c4	0.165927
46	0x3dc61bd7	0.09673279
47	0x3d5fb367	0.05461445
48	0xbd885415	-0.066566624
49	0xbd9aa4ff	-0.07551002
50	0x3e24a4af	0.16078447
51	0x3e32ec36	0.1747292
52	0xbc4fe9e1	-0.012690038
53	0x3db29559	0.08719892
54	0x3e2a06bb	0.1660413
55	0x3de56dc0	0.11202574
56	0x3d999edb	0.075010024
57	0x3e19a770	0.15005279
58	0x3e087b41	0.13328268
59	0x3e020a8a	0.12699333
60	0x3cb26a21	0.021779122
61	0xbd5385ca	-0.051641263
62	0x3df34b50	0.11879599
63	0xbdeceda6	-0.11568765
64	0x3e271f17	0.16320454
65	0xbd78e306	-0.06076338
66	0x3de7b49f	0.113137476
67	0x3d61f490	0.055164874
68	0xbcc67e1e	-0.02423006
69	0xbb81767c	-0.003950892
70	0xbd1b15eb	-0.0378627
71	0x3b364f54	0.002781828
72	0x3cd922c6	0.02650584
73	0xbda2b90a	-0.0794545
74	0xbd91e78a	-0.07124241
75	0xbc143a23	-0.009047064
76	0x3dbb04c5	0.09131769
77	0x3e2e4fbf	0.17022608
78	0x3d814c44	0.06313375
79	0x3c80bff7	0.015716536
80	0x3de70774	0.112807184
81	0x3d3e26e4	0.046423808
82	0x3df5f874	0.12010279
83	0x3e06f696	0.13180003
84	0x3dcbf4ad	0.099587776
85	0x3d8b87cc	0.068130106
86	0x3da5feed	0.08105264
87	0xbb9d27e0	-0.0047960132
88	0x3e0bc545	0.13649471
89	0x3d797cf2	0.060910173
90	0x3dc5c0d9	0.096559234
91	0x3d8e46c8	0.06947094
92	0x3e3366e3	0.17519717
93	0x3d1ae50c	0.037816092
94	0x3e0c6450	0.13710141
95	0xbd7c6bb4	-0.06162615
96	0x3ccbe28a	0.024888296
97	0x3dc552bf	0.09634923
98	0x3e4552ee	0.19269916
99	0x3df1d99f	0.11809086
100	0x3e38dab2	0.18052176
101	0xbadd4850	-0.0016882513
102	0x3dafcb45	0.085836925
103	0x3dca1d95	0.098689236
104	0x3e0799dd	0.13242288
105	0x3dff7e10	0.124752164
106	0x3e11c33f	0.14234637
107	0x3dd9796b	0.10618862
108	0x3dba2f9f	0.09091114
109	0xbd96ed73	-0.073695086
110	0x3e117158	0.14203393
111	0xbdb21b46	-0.08696608
112	0xbd3c3c4c	-0.04595594
113	0xbde5c733	-0.11219635
114	0xbd8b8d0c	-0.06814012
115	0x3db74f50	0.089506745
116	0xbd778e42	-0.060438402
117	0xbe0e9cf8	-0.13927066
118	0xbd858105	-0.06518749
119	0x3dfac458	0.12244481
120	0x3c1b6ad2	0.009485917
121	0x3db61222	0.08890177
122	0x3e570fed	0.21002169
123	0x3e33e16a	0.17566457
124	0x3e1a4b23	0.15067725
125	0x3cdef962	0.027218524
126	0xbe192ad4	-0.14957744
127	0x3b99ad13	0.0046898215
128	0xbcd5daf0	-0.026105374
129	0x3ccf927a	0.0253384
130	0x3c553cb6	0.013014963
131	0xbd9dc779	-0.07704062
132	0x3e289c56	0.16465887
133	0x3dc52912	0.09626974
134	0x3e44770d	0.1918604
135	0xbdb9e511	-0.09076894
136	0x3d66230f	0.05618578
137	0xbe2038a9	-0.15646614
138	0xbdba22a2	-0.09088637
139	0xbd62b41b	-0.055347543
140	0xbd6ad300	-0.05733013
141	0xbde5a289	-0.11212642
142	0xbe34d4d3	-0.17659311
143	0xbd85a6da	-0.06525965
144	0x3c63fa26	0.0139146205
145	0xbcd0d627	-0.02549274
146	0x3ddc7c7e	0.107659325
147	0x3d907046	0.070526645
148	0xbcc84917	-0.024448914
149	0x3e79084d	0.24319573
150	0xbcc2ec1d	-0.023794228
151	0x3e4fed7e	0.2030544
152	0x3d0923c2	0.033481367
153	0xbd9a3f5e	-0.075316176
154	0xbdb3a484	-0.08771613
155	0x3c9fa8c6	0.019489657
156	0xbe047a14	-0.12937194
157	0xbb257f2a	-0.0025252798
158	0xbe72ac01	-0.23698427
159	0xbd0f2f02	-0.03495694
160	0xbdb8627f	-0.09003162
161	0x3dbd2783	0.09236052
162	0x3d44c6ae	0.04804104
163	0xbe7a650f	-0.24452613
164	0x3dfe44a6	0.124154374
165	0xbd49fae7	-0.049311545
166	0x3dee6645	0.116406
167	0xbe317796	-0.17330775
168	0x3c07261f	0.008248835
169	0x3dae3bd0	0.08507502
170	0xbd9c135e	-0.076208815
171	0xbc550303	-0.013001206
172	0xbd926696	-0.07148473
173	0x3c91738a	0.017755289
174	0x3e0f61ce	0.14002153
175	0xbd8e0b12	-0.06935705
176	0x3dae861f	0.08521675
177	0x3e25dd73	0.16197757
178	0xbe0507de	-0.12991282
179	0xbd863368	-0.06552774
180	0x3de18788	0.11012179
181	0xbde6371c	-0.1124098
182	0xbe2a7ffe	-0.16650388
183	0xbda0d391	-0.07852853
184	0xbd2606ed	-0.04053395
185	0xbdeddbf7	-0.116142206
186	0x3e196583	0.1498013
187	0x3e0c4460	0.13697958
188	0x3d0fe030	0.03512591
189	0xbe143ba9	-0.14475884
190	0xbcc457b5	-0.023967603
191	0xbe171638	-0.1475457
192	0x3e2cbee6	0.16869697
193	0xbd65abed	-0.056072164
194	0x3e1f6e0e	0.15569326
195	0x3e238db4	0.15972024
196	0x3ccf753c	0.025324456
197	0xbe62d4bd	-0.22151466
198	0x3dc1013f	0.09424066
199	0xbe2cbcb2	-0.16868857
200	0xbd9d4e78	-0.07680982
201	0xbde7036b	-0.11279949
202	0xba01f9ea	-0.00049581996
203	0x3dca2c1a	0.09871693
204	0x3d4e9004	0.050430313
205	0xbe01732b	-0.1264159
206	0xbd46f328	-0.048571736
207	0xbd1a8b46	-0.037730478
208	0xbd0b1777	-0.033957925
209	0xbda84e63	-0.08218076
210	0xbe54d6c2	-0.20785049
211	0xbdb0cb17	-0.08632486
212	0xbde34428	-0.11096984
213	0xbae380f5	-0.0017357158
214	0xbd6a305f	-0.057175037
215	0xbe2fbde5	-0.17162283
216	0x3e6fdc72	0.23423937
217	0x3ded9d6a	0.1160229
218	0xbe1faba4	-0.1559282
219	0x3e2c095a	0.16800442
220	0xbe0884e2	-0.13331941
221	0xbe3de3d1	-0.18543936
222	0xbe1d8071	-0.15381028
223	0x3d960824	0.073257715
224	0x3dc3a273	0.09552469
225	0xbe4a930d	-0.19782658
226	0xbe0a0210	-0.1347735
227	0xbe8537f5	-0.26019254
228	0xbdcc181d	-0.09965537
229	0xbd35f4fc	-0.04442309
230	0x3dc93b65	0.09825782
231	0x3e05754b	0.13033025
232	0x3d8dd6e7	0.06925755
233	0xbe2c5e75	-0.16832907
234	0xbe4b372f	-0.1984527
235	0xbcba4a59	-0.02274053
236	0xbdf52adb	-0.11971065
237	0xbcbd0238	-0.023072347
238	0xbe0b5a48	-0.13608658
239	0xbdac774c	-0.084211916
240	0xbe11e963	-0.14249186
241	0xbdf40044	-0.11914113
242	0x3e34e766	0.17666396
243	0x3d536dec	0.0516185
244	0xbdf97e3f	-0.12182283
245	0x3cd5432b	0.026033005
246	0xbd482bcb	-0.04886989
247	0xbcd5d778	-0.02610372
248	0xbd28e7ce	-0.04123669
249	0xbdd5784e	-0.10423337
250	0x3e607e88	0.21923268
251	0x3b660385	0.0035097313
252	0xbd725be2	-0.059169658
253	0xbd6a0847	-0.0571368
254	0xbd8accb2	-0.06777324
255	0xbdbf3371	-0.093359835

lstm.bias_hh_l0 f4 [256]
0	0xbb3d27ca	-0.0028862827
1	0xbcef4fda	-0.02921288
2	0xbbacc967	-0.0052730325
3	0x3dab5e62	0.083676115
4	0x3cc31a52	0.023816261
5	0xbde0cae1	-0.10976196
6	0x3dbd6db3	0.09249439
7	0xbd6d677a	-0.05796001
8	0x3c4e435a	0.0125893
9	0x3e5c333e	0.21503922
10	0x3c4c7075	0.012477984
11	0x3dd83aa1	0.105580576
12	0x3cd2016c	0.025635444
13	0x3e1d93f7	0.15388475
14	0x3e0470b6	0.12933621
15	0x3ba9c809	0.0051813168
16	0xbd9e871f	-0.07740616
17	0x3d9d49d7	0.076800995
18	0x3b7853e6	0.0037891804
19	0x3e3c6982	0.18399623
20	0x3dc8ffba	0.09814401
21	0x3e349470	0.1763475
22	0xbc7d614a	-0.01546509
23	0xbd4f02ae	-0.050539665
24	0x3afb86a6	0.0019189909
25	0x3e0f3d3a	0.139882
26	0x3e04c3f3	0.12965374
27	0x3e276948	0.16348755
28	0x3c56595a	0.0130828265
29	0x3c41aac9	0.0118205035
30	0x3e2ed861	0.1707473
31	0x3e4cd45e	0.20002887
32	0x3e26bf60	0.16283941
33	0x3dbafb1d	0.09129927
34	0x3d73c07b	0.059509736
35	0x3e2097f2	0.15682963
36	0x3e2f1ffd	0.17102046
37	0xbd38bb28	-0.04510036
38	0x3d96dc1e	0.07366203
39	0x3dbd044d	0.09229336
40	0x3e2eb5ee	0.17061588
41	0x3de4b590	0.11167443
42	0x3cb5cb29	0.0221916
43	0xbcceb9fd	-0.02523517
44	0xbdb73b2f	-0.08946835
45	0xbc047526	-0.008084571
46	0x3e63b358	0.22236383
47	0x3c60fbe5	0.013731931
48	0x3c94c25e	0.018159088
49	0xbd65ac61	-0.056072596
50	0x3dfeb95b	0.124376975
51	0x3dad4f76	0.084624216
52	0x3e21fb3c	0.15818495
53	0xbd28ca4f	-0.04120856
54	0x3d5ab93d	0.053399313
55	0x3e37f5c5	0.17964847
56	0x3db886c3	0.09010079
57	0xbcfcba60	-0.03085059
58	0x3e3531a3	0.17694716
59	0x3ca2b210	0.019860297
60	0xbde8332d	-0.11337886
61	0xbda85f45	-0.08221296
62	0xbd596c8a	-0.053082027
63	0x3d0fb5bf	0.035085436
64	0x3e507945	0.2035876
65	0x3e196461	0.14979698
66	0x3e3af1ff	0.18256377
67	0xbd34548d	-0.044025946
68	0x3d8aec5e	0.06783365
69	0x3d923c81	0.071404465
70	0xbdf61a40	-0.120167255
71	0x3d7384ac	0.059452698
72	0x3d9d7ec8	0.07690197
73	0x3dbbcc7b	0.09169861
74	0x3dbf59dc	0.09343311
75	0xbca8c8b1	-0.02060351
76	0x3e041ec6	0.12902364
77	0x3e6236db	0.22091238
78	0x3e22fcbb	0.15916722
79	0xbd6899b6	-0.056787215
80	0x3e68b3e5	0.22724874
81	0x3c431d62	0.011908861
82	0x3b2d2cc1	0.002642438
83	0x3dee4d7c	0.11635873
84	0x3e1a3f66	0.15063247
85	0xbd18e483	-0.0373273
86	0x3d7f134d	0.062274266
87	0xbdd56ccf	-0.10421144
88	0x3d1bb3d4	0.038013294
89	0x3e340ded	0.17583437
90	0x3cbae79c	0.022815518
91	0x3d36da7e	0.044641964
92	0x3e0ef0ef	0.13959096
93	0x3d467acd	0.048456956
94	0x3dde798b	0.10863026
95	0xbcccafdb	-0.024986198
96	0x3dd319ec	0.103076786
97	0x3de2f0b7	0.11081069
98	0x3e4ec24b	0.20191304
99	0x3e78c356	0.24293265
100	0x3e13e378	0.14442241
101	0x3d5d6a9b	0.054056745
102	0x3d81a59b	0.06330415
103	0x3d8d3f3f	0.06896829
104	0x3b965f9d	0.0045890347
105	0xbb8a2041	-0.0042152707
106	0x3e09da94	0.13462287
107	0x3e0c0746	0.1367465
108	0xbdba2dbe	-0.09090756
109	0xbd7b637e	-0.06137418
110	0x3e4f2166	0.20227584
111	0x3b031ca2	0.002000608
112	0x3e000989	0.12503637
113	0x3d2a4a7e	0.041574948
114	0xbd23b46f	-0.039966997
115	0x3d23aa5e	0.039957397
116	0xbddb5c43	-0.10710957
117	0xbd68233c	-0.056674227
118	0xbd91ef56	-0.07125728
119	0x3d85300c	0.06503305
120	0xbc90b1d4	-0.01766292
121	0x3dc07758	0.09397763
122	0x3d20f0e9	0.03929225
123	0x3d54c24a	0.0519431
124	0x3d98806a	0.07446368
125	0x3e02e02a	0.12780824
126	0x3d19371f	0.037406083
127	0x3e16bf0a	0.14721313
128	0xbcb51855	-0.022106329
129	0x3e599996	0.21249995
130	0xba81c528	-0.0009900676
131	0xbb89a703	-0.0042008176
132	0x3dac8138	0.08423084
133	0xbc29ba41	-0.010359348
134	0x3e2d899c	0.16947025
135	0x3dadad77	0.084803514
136	0x3db6d609	0.08927543
137	0x3d2feda0	0.042951226
138	0x3cab5efc	0.020919316
139	0xbda4322d	-0.08017383
140	0x3e18ba08	0.14914715
141	0xbd8715d2	-0.06595959
142	0xbd6dd061	-0.058060054
143	0xbe210230	-0.1572349
144	0x3d2770b5	0.04087897
145	0x3d04e3e8	0.03244391
146	0x3cdbb56c	0.026819907
147	0xbd9d32d3	-0.076757096
148	0xbd694707	-0.056952503
149	0x3d90dcdf	0.07073378
150	0xbdba9c3a	-0.09111829
151	0xbc49746f	-0.012295826
152	0x3dfdf430	0.12400091
153	0x3cc938df	0.024563251
154	0xbdcbf3ea	-0.09958632
155	0x3e0e8da4	0.13921219
156	0xbd5892ff	-0.05287456
157	0xbddf0e10	-0.10891354
158	0xbe3f81c1	-0.18701841
159	0xbcc3f582	-0.023920778
160	0x3c2f857c	0.0107129775
161	0x3dcf383b	0.10118147
162	0x3d41e988	0.047341853
163	0xbdcdaca9	-0.10042698
164	0xbd616664	-0.055029288
165	0x3d7dd2aa	0.061968483
166	0xbcbd7f95	-0.023132125
167	0x3c452e99	0.0120350355
168	0xbd9c5ffa	-0.076354936
169	0xbddac665	-0.10682372
170	0xbe04d869	-0.12973179
171	0xbc7abe57	-0.01530417
172	0xbd70de43	-0.058805715
173	0x3cb018f5	0.021496275
174	0x3ddbb931	0.10728682
175	0xbdd4b341	-0.103857525
176	0xbe15cadf	-0.1462817
177	0x3d78c1ad	0.06073158
178	0xbc8dc811	-0.017307313
179	0xbdf1307d	-0.117768265
180	0x3c58be70	0.013228998
181	0x3d269504	0.040669456
182	0x3c68e6fa	0.014215225
183	0xbdaa7a7c	-0.08324143
184	0xbe216977	-0.15762888
185	0x3d7a6c04	0.061138168
186	0x3bc3c888	0.005974833
187	0x3dabd962	0.08391072
188	0xbd1199b1	-0.035546962
189	0xbd1b892e	-0.03797262
190	0xbdec7333	-0.1154541
191	0xbddb3bd1	-0.107047684
192	0x3ce00704	0.027347095
193	0x3bc48cb3	0.005998218
194	0x3c7f773c	0.0155923925
195	0x3d27219c	0.040803537
196	0x3d111a39	0.0354254
197	0xbcf59df5	-0.029982546
198	0x3d2f20eb	0.042756002
199	0xbe02c04d	-0.1276867
200	0xbd7f82cf	-0.06238061
201	0xbd56564a	-0.052328385
202	0xbb8aaea9	-0.004232247
203	0x3e3fd5d6	0.18733916
204	0x3caf054c	0.02136483
205	0xbd82e997	-0.0639221
206	0x3c61249a	0.013741637
207	0xbe62a7e9	-0.22134365
208	0xbe181907	-0.14853297
209	0x3c1032f1	0.008801208
210	0xbe532c2f	-0.20622323
211	0xbe79e7b1	-0.2440479
212	0xbe35bc60	-0.1774764
213	0x3dfc509e	0.12320064
214	0xbd870112	-0.06592001
215	0xbe05442f	-0.13014291
216	0x3e0f972a	0.14022508
217	0x3d8dc06f	0.069214694
218	0xbe84cda2	-0.25938135
219	0x3d86728b	0.06564816
220	0xbdc91233	-0.09817924
221	0xbdca3389	-0.09873111
222	0xbe99b124	-0.3001796
223	0xbc183330	-0.009289548
224	0x3db69319	0.089147754
225	0xbe0fd541	-0.14046194
226	0xbdc4707e	-0.09591769
227	0xbd952bbf	-0.072837345
228	0xbe03a82b	-0.1285712
229	0xbb839fe2	-0.0040168623
230	0xbdf213b1	-0.11820162
231	0x3dadc9f5	0.08485786
232	0xbdf88239	-0.12134213
233	0xbd9a7699	-0.07542152
234	0xbe8ced7d	-0.2752494
235	0x3da62e94	0.08114353
236	0xbe2d007a	-0.16894713
237	0x3d49fc4e	0.049312882
238	0xbd9e3452	-0.07724823
239	0xbe5292ce	-0.20563814
240	0xbe00f1f6	-0.12592301
241	0xbe876e1e	-0.264512
242	0x3dc35d5e	0.09539293
243	0x3dfe309d	0.12411616
244	0xbe1e446d	-0.1545579
245	0x3d0f05df	0.03491771
246	0x3db42dcd	0.08797798
247	0x3d1452f6	0.03621193
248	0x3d937592	0.07200159
249	0xbddc6684	-0.10761741
250	0xbc999407	-0.018747343
251	0xbe0ee3f9	-0.13954152
252	0xbdefa8f1	-0.11702145
253	0x3c942b1a	0.018086959
254	0xbd85b6ec	-0.0652903
255	0xbe1520fa	-0.14563361

fc_layer.weight f4 [64, 64]
0	0xbebe3e7b	-0.37157044
1	0xbea1230a	-0.31472045
2	0xbf05b01d	-0.5222185
3	0x3f3a0168	0.72658396
4	0x3f2f1e17	0.6840529
5	0xbf0c1060	-0.54712486
6	0x3e85bc76	0.26120347
7	0x3f3fdd83	0.74947375
8	0x3f339a7f	0.7015762
9	0xbe90f499	-0.28311613
10	0x3f127d09	0.5722204
11	0x3f3ee2db	0.74564904
12	0x3ec66888	0.38751626
13	0x3efa9272	0.48939854
14	0x3f222e8e	0.63352287
15	0x3f107044	0.56421304
16	0xbf067344	-0.5251963
17	0xbefb4d9e	-0.49082655
18	0x3e97ef09	0.29674557
19	0xbf2d1333	-0.6760742
20	0xbecef2c9	-0.40419605
21	0xbea6c71b	-0.3257378
22	0xbefc4d7a	-0.4927786
23	0xbf0f6c07	-0.5602421
24	0xbf12c2e1	-0.5732861
25	0x3f052d78	0.52022505
26	0x3e9bac71	0.30405
27	0xbf101246	-0.56277883
28	0x3ebf0c47	0.37314054
29	0xbf4753b5	-0.778621
30	0xbf42d2e1	-0.76103026
31	0xbecd63d0	-0.40115213
32	0xbf2505d9	-0.6446205
33	0xbea81e6c	-0.3283571
34	0xbf308b96	-0.6896299
35	0xbec1faa3	-0.37886533
36	0xbf3c369b	-0.7352082
37	0x3eefb6e7	0.4681923
38	0xbf1ca992	-0.61196244
39	0x3ec0cbce	0.3765549
40	0xbf1fd85f	-0.6243953
41	0x3ec5e13b	0.386484
42	0x3ea86965	0.3289291
43	0xbf262b9d	-0.649103
44	0x3f197d8f	0.5995721
45	0x3f37cae0	0.7179394
46	0xbf26b786	-0.65123785
47	0x3eaf5983	0.3424798
48	0xbecf920a	-0.40541106
49	0xbee862fa	-0.45388013
50	0x3ef6bbc9	0.48190144
51	0xbf0dc1a0	-0.55373573
52	0x3eb96641	0.36210826
53	0x3f10bbb6	0.56536424
54	0x3f2f7708	0.68541
55	0x3f36157a	0.7112652
56	0x3f3d884b	0.7403609
57	0x3f197237	0.59939903
58	0xbf004312	-0.5010234
59	0xbef50865	-0.47857967
60	0xbf3b2a0d	-0.7311104
61	0x3f0b3038	0.5437045
62	0x3ef57ff1	0.47949174
63	0x3e614dbe	0.22002313
64	0xbe2df1a4	-0.1698671
65	0x3cc85871	0.024456235
66	0xbe13a6e1	-0.14419128
67	0xbeae2131	-0.34009698
68	0xbf039600	-0.51400757
69	0xbe85f6c2	-0.26164824
70	0x3e2c492d	0.1682479
71	0xbe9666b6	-0.29375237
72	0xbed663f6	-0.4187314
73	0xbec49bb1	-0.38400033
74	0x3e9db19b	0.30799565
75	0x3cb3bc4b	0.021940371
76	0x3e931314	0.28725493
77	0x3e9136e3	0.28362188
78	0xbddcd1d5	-0.1078221
79	0xbde560b8	-0.11200088
80	0xbde8a0dd	-0.11358807
81	0xbe42a082	-0.19006541
82	0x3dba6b33	0.09102478
83	0x3ef169e4	0.471511
84	0xbdb58770	-0.08863723
85	0xbe11e31e	-0.14246795
86	0xbdd51619	-0.104046054
87	0x3e97fbf1	0.29684404
88	0xbe8ce66c	-0.27519548
89	0x3d95a664	0.07307127
90	0x3dd604d7	0.10450142
91	0xbe7ebc81	-0.24876596
92	0x3e7e108c	0.24811
93	0x3ea942a4	0.33058655
94	0x3e8457dc	0.2584828
95	0xbe909da3	-0.28245267
96	0xbe3c78d6	-0.1840547
97	0xbd424e65	-0.047438044
98	0x3e6c343f	0.23066805
99	0x3dfb8401	0.12281037
100	0x3efd3888	0.49457192
101	0x3e4e9dde	0.20177409
102	0xbe3c4a78	-0.18387783
103	0xbeaf16f1	-0.3419719
104	0xbe206a6b	-0.15665595
105	0x3cc2ec2e	0.02379426
106	0x3e71b871	0.23605515
107	0x3dc26e80	0.094937325
108	0x3d1033f5	0.0352058
109	0xbe969b88	-0.29415536
110	0x3f24d4ad	0.6438702
111	0x3ed4ea33	0.4158493
112	0xbe1efecf	-0.1552689
113	0xbeace8e7	-0.3377144
114	0xbe9e212c	-0.30884683
115	0xbe9c55a1	-0.3053408
116	0x3ea6cdc7	0.3257887
117	0x3dbf634f	0.093451135
118	0xbee5c810	-0.44879198
119	0xbe108791	-0.14114214
120	0xbf3753ff	-0.7161254
121	0xbeb19bac	-0.3468908
122	0xbda8b917	-0.08238428
123	0xbd816080	-0.06317234
124	0x3e82de0c	0.25560033
125	0xbcdac055	-0.02670304
126	0xbcccdd3f	-0.025007842
127	0x3ef1e2c8	0.47243333
128	0xbe4c7ad5	-0.19968732
129	0xbd8efcc5	-0.06981806
130	0xbdb5a397	-0.08869093
131	0xbebf26f2	-0.373344
132	0xbefdea4b	-0.49592814
133	0xbe9ad15d	-0.30237857
134	0x3e627ed4	0.22118694
135	0xbe6d5b1d	-0.23179288
136	0xbeaa1c2e	-0.33224624
137	0xbe99c240	-0.30031013
138	0x3e32f3f5	0.17475875
139	0x3d5fb4cd	0.054615784
140	0x3ebd9d1c	0.37033927
141	0x3e18de38	0.1492852
142	0xbd6f9ae3	-0.05849732
143	0xbe478ff5	-0.19488509
144	0x3c69def3	0.014274347
145	0xbe8be4a0	-0.27322865
146	0x3d6e9488	0.05824712
147	0x3e9b25ff	0.30302426
148	0xbe38b2b3	-0.18036918
149	0xbe7220a0	-0.23645258
150	0xbdd7a68d	-0.10529814
151	0x3e8d1ffb	0.27563462
152	0xbd6321e3	-0.05545224
153	0x3d14deb4	0.0363452
154	0x3db1a32b	0.086737
155	0xbe2c7dc2	-0.16844848
156	0x3e6edea9	0.23327126
157	0x3eaa38d0	0.3324647
158	0x3ed80308	0.42189813
159	0xbe3b2800	-0.18276978
160	0xbe7e6052	-0.24841431
161	0xbbddd852	-0.006770172
162	0x3eb74941	0.35798076
163	0x3d351db6	0.044217788
164	0x3f09692e	0.53676116
165	0x3e2a66cd	0.16640778
166	0xbd1f8183	-0.03894187
167	0xbe3b0c2b	-0.1826636
168	0xbd1d6a98	-0.038431734
169	0x3e101c07	0.14073192
170	0x3e017b42	0.12644675
171	0xbd4c089f	-0.04981291
172	0x3e180134	0.14844209
173	0xbe96b709	-0.2943652
174	0x3ecf8338	0.405298
175	0x3eb962ff	0.3620834
176	0xbe877436	-0.2645585
177	0xbe7dc58b	-0.24782388
178	0xbe5576ae	-0.20846054
179	0xbde33303	-0.11093714
180	0x3ec1221b	0.37721333
181	0x3e4ff09a	0.20306626
182	0xbf0a3e85	-0.5400165
183	0xbda72a18	-0.081623256
184	0xbeda2c4c	-0.4261192
185	0xbe92ed0f	-0.28696486
186	0xbdc31c6e	-0.09526907
187	0xbc8d14c0	-0.017221808
188	0x3eec67b8	0.4617288
189	0xbd78fd28	-0.060788304
190	0x3e95e2a3	0.29274473
191	0x3e7b6de6	0.24553642
192	0xbf1889b6	-0.5958513
193	0xbe36480e	-0.17800924
194	0xbf182466	-0.5943054
195	0x3f2fcc08	0.686707
196	0x3f509462	0.81476414
197	0xbf06cb85	-0.52654296
198	0x3ef688bd	0.48151198
199	0x3f4a3b40	0.7899666
200	0x3f31badf	0.6942577
201	0xbead0981	-0.33796313
202	0x3eed7c4a	0.46383888
203	0x3f14cf72	0.58129036
204	0x3e6ff8a2	0.2343469
205	0x3f0b68f9	0.5445705
206	0x3ef84c37	0.48495647
207	0x3f3e5fff	0.7436523
208	0xbf173ab1	-0.5907393
209	0xbef72b82	-0.4827538
210	0x3ecb71de	0.3973531
211	0xbf300eec	-0.6877277
212	0xbe73d744	-0.23812586
213	0xbedf631a	-0.43630296
214	0xbef55355	-0.4791514
215	0xbf29db1b	-0.66349953
216	0xbf0a45b6	-0.5401262
217	0x3f13a804	0.57678246
218	0x3e42f842	0.19040015
219	0xbf163ef6	-0.5868982
220	0x3ecbbe1c	0.3979348
221	0xbf2b0953	-0.668111
222	0xbf4311b3	-0.7619888
223	0xbf10be3f	-0.5654029
224	0xbf16a12b	-0.5883967
225	0xbece8ddc	-0.40342605
226	0xbf510807	-0.81652874
227	0xbf01b9e4	-0.5067427
228	0xbf609c70	-0.87738705
229	0x3ed5a7a9	0.41729477
230	0xbf171c54	-0.590276
231	0x3efa8a69	0.48933724
232	0xbede800f	-0.43457076
233	0x3e555f65	0.20837171
234	0x3eb55c84	0.35422146
235	0xbf58f45c	-0.8474786
236	0x3ec5c010	0.38623095
237	0x3f653aea	0.8954302
238	0xbf57b42d	-0.842593
239	0x3eea281d	0.4573373
240	0xbea8d6a1	-0.3297625
241	0xbecfe2cc	-0.4060272
242	0x3ef19f9c	0.47192085
243	0xbeef13cf	-0.466948
244	0x3ebe6714	0.37188017
245	0x3f0ae001	0.5424805
246	0x3f4bc943	0.79603976
247	0x3f67435c	0.9033716
248	0x3f4e41fe	0.80569446
249	0x3f4a8c34	0.79120183
250	0xbf09d191	-0.538354
251	0xbf0ec866	-0.55774534
252	0xbf23152e	-0.6370419
253	0x3f089a6b	0.53360623
254	0x3eef1173	0.46693
255	0x3e8877a3	0.26653776

fc_layer.bias f4 [64]
0	0x3f189520	0.59602547
1	0x3e077f27	0.13232099
2	0x3c9a02d5	0.018800179
3	0x3f23c2bd	0.6396902
4	0x3ecaf422	0.39639384
5	0x3f1e8b99	0.6193176
6	0x3f1ada6c	0.60489535
7	0x3e78e256	0.2430509
8	0x3e58b144	0.21161371
9	0x3f1883d0	0.5957613
10	0x3f23ba10	0.63955784
11	0x3f1d5956	0.6146444
12	0x3ec0666b	0.3757814
13	0x3e9cd492	0.30630928
14	0x3ebd06ba	0.36919194
15	0x3cbfb4b7	0.023401601
16	0xbcbe63df	-0.023240982
17	0x3e2a0146	0.16602048
18	0x3ecb9eed	0.39769688
19	0x3df6d12b	0.120516144
20	0x3e2be89e	0.16787955
21	0xbcdd6e60	-0.02703017
22	0x3e4343ad	0.19068785
23	0x3c85b10f	0.01631978
24	0x3f08ca56	0.5343374
25	0x3efdbec3	0.49559602
26	0x3e157f5b	0.14599364
27	0x3f0d2e4b	0.5514876
28	0x3ea129be	0.3147716
29	0x3ec1c1b3	0.37843093
30	0x3d16e76c	0.036841795
31	0x3ce2d569	0.027689653
32	0x3f0bffa4	0.5468695
33	0x3e8229a9	0.2542241
34	0x3e33aa2f	0.17545389
35	0x3e1a0fbd	0.15045066
36	0x3e2905a9	0.16506065
37	0x3f0f8047	0.5605511
38	0x3e13516f	0.14386533
39	0x3dc7a740	0.09748697
40	0x3ec6f805	0.388611
41	0x3f13cf6c	0.57738376
42	0x3f1e97f6	0.61950624
43	0x3f048a3f	0.51773447
44	0x3e35f4df	0.17769192
45	0x3e8068b6	0.25079888
46	0x3e7fea4b	0.2499172
47	0x3f1e15fe	0.6175231
48	0x3eafdbef	0.34347484
49	0x3ec68f0e	0.38781017
50	0x3f1f51bb	0.62234086
51	0x3ec7ae34	0.39000094
52	0x3eea4b20	0.4576044
53	0xbd15b6e1	-0.03655136
54	0x3f0cc4e5	0.5498794
55	0x3f16219d	0.5864504
56	0x3f00a434	0.50250554
57	0x3f1f9269	0.6233278
58	0x3ec1292f	0.37726733
59	0x3eb95d17	0.36203834
60	0x3e864931	0.26227716
61	0x3dc33e47	0.09533363
62	0x3e856402	0.26052862
63	0xbd1df9c1	-0.038568262

output_layer.weight f4 [1, 64]
0	0x3f3ffe84	0.74997735
1	0xbf1f02a2	-0.6211339
2	0xbef40e27	-0.47667047
3	0x3f2d3ed2	0.6767398
4	0x3f410fb5	0.7541459
5	0x3f348a9a	0.7052399
6	0x3f3e5123	0.74342555
7	0xbf2f85bf	-0.68563455
8	0xbf4600e0	-0.77345085
9	0x3f35c924	0.7101004
10	0x3f2b7acc	0.6698425
11	0x3f3d131c	0.73857284
12	0x3f4045bd	0.7510641
13	0xbf2c6786	-0.67345464
14	0xbf3ab874	-0.72937703
15	0xbf1966ba	-0.59922373
16	0xbf01fd3f	-0.5077705
17	0xbf341ead	-0.7035931
18	0x3f4811e1	0.7815228
19	0xbf3fc72d	-0.74913293
20	0xbf37cb57	-0.71794647
21	0xbd938c56	-0.07204501
22	0xbf3d0a61	-0.7384396
23	0xbee701f9	-0.45118693
24	0x3f31ef2d	0.6950558
25	0x3f423fe4	0.7587874
26	0xbf301fb9	-0.68798405
27	0x3f34ae1c	0.7057817
28	0xbf3eb759	-0.74498516
29	0xbf2bcf8a	-0.67113554
30	0xbf23ce8b	-0.63987035
31	0xbe9b7cd4	-0.30368674
32	0x3f3d8901	0.74037176
33	0xbf2ab93f	-0.66688913
34	0xbf1b138b	-0.60576695
35	0xbf1c71b0	-0.61110973
36	0xbf08fd46	-0.53511465
37	0x3f4482d5	0.76762134
38	0xbf349943	-0.7054636
39	0xbf0d7ff8	-0.5527339
40	0x3f322a1d	0.6959551
41	0x3f411b0c	0.75431895
42	0x3f2baeb1	0.6706343
43	0x3f329450	0.69757557
44	0xbf2fe2ae	-0.6870526
45	0xbf2fa124	-0.68605256
46	0x3f3425dc	0.7037027
47	0x3f2f0185	0.68361694
48	0xbf1f79e6	-0.6229538
49	0x3f3d91db	0.7405068
50	0x3f3a92ef	0.7288045
51	0x3f30dc4f	0.69086164
52	0x3f3a05ca	0.72665083
53	0xbd2ef2dd	-0.04271208
54	0x3f30c4c3	0.69050235
55	0x3f443235	0.7663911
56	0x3f346e3a	0.7048069
57	0x3f2ec4bf	0.6826896
58	0x3f2a3ccc	0.6649902
59	0xbf2e3391	-0.68047434
60	0xbf46bcd8	-0.776319
61	0xbf301197	-0.6877684
62	0x3f451c26	0.76996076
63	0xbeceb5f0	-0.40373182
