TimeGAN4paper/result/iter6000/model/KC_lag1_total1/torch_best_model.pt (torch, 87834 bytes, 7 tensors)

lstm.weight_ih_l0 f4 [256, 1]
00000000: b2a8 f03b 09e0 c13d 1950 11bd aad5 0bbd
00000010: 5245 e33d 94e0 fe3d a2b7 be3d 9ca9 703e
00000020: 4861 0b3d 9e95 b33c a9c8 053d 32a7 c43d
00000030: 48b2 92bd 8fe9 41bd cfd2 93bc 0846 cb3c
00000040: 1153 693d bf1f 283e 149d 5dbd 7ad6 4cbc
00000050: 4f5e 0a3d 9899 243e 4a0c 3abc 22fd 193e
00000060: e0e5 c73d 2021 b43c 7e1d 793e 8306 6ebd
00000070: c172 17bd 2df8 8538 bd8f 10bb 3939 5b3e
00000080: ce71 0d3d 6c94 40bc 946d 35bd 4d45 61bd
00000090: fe75 18bd a4d9 3c3e 9b8b 433e d4e2 893c
000000a0: 5c25 3ebd 306c 14bd 0682 d23c 6809 29bd
000000b0: 3d81 00bb c826 b63c 10f0 113e 841d 1e3e
000000c0: c4a0 a8bb 53bd e8b8 e821 2a3e b46c 4e3d
000000d0: df2d c63d d6ec 783d 93d6 d63d af1a 83bd
000000e0: 8d8f f23c 008d 27bd ac3e 093d 1a8a 37bd
000000f0: 2456 9c3d c2df 843e d20b 06bd 6b56 ce3c
00000100: a542 473e ef6a 833d 4ab1 2a3d 1f71 b43d
00000110: c6e8 b93d dd23 c83d 804a c2bc 05b3 c9b9
00000120: fd5a a33d be16 f23d 9e1f 2b3e 5a4a 363e
00000130: 7948 903d 882c 3fbd faff 1a3d 7261 5e3b
00000140: 8dfa 35bd 2047 b83c bd36 093e b854 4dbd
00000150: 9279 843d bf3f 143c 1b7f 2a3c 5c8e ddba
00000160: f8b3 e53c 7d1d bfbc 46d5 e43d 8281 f43d
00000170: b67c 033e e266 723d b292 f7bc 75f4 7fbc
00000180: 6f4a 8e3c 3583 543d 0bee 04bd bf20 edbb
00000190: 6e55 4e3e 9db0 243e f776 a4bc a1cc 81bb
000001a0: 79b2 5abd ee05 f73c 91f8 46bd d93d 0fbb
000001b0: 86dd 413d 9149 763d 1ce0 daba 4a66 3d3d
000001c0: 0e66 a2bc b943 3c3e 1a8d 533d fd29 32bd
000001d0: 8163 14bb 2704 883d ed3e a93d 8a54 303d
000001e0: b582 433d 63ea e93c 9c49 09bc 7480 9e3d
000001f0: ce18 5ebd ba20 4ebc 4b2b 9e3c 311d 143b
00000200: 9c20 2cbe 222d 8dbd 734a 9abd 8084 783d
00000210: 248a 7c3d e512 3abc d9ef 723d ce85 2cbc
00000220: b5f5 213c d768 aaba 4ad4 8a3c 3e08 3e3d
00000230: d0e1 3d3e 8d4e c63d a79d d73d 443b f4bb
00000240: ba13 0fbe 9451 c1bd 86a5 963c 1914 35bc
00000250: a852 99bd 486b 6ebd b05e cebd 7b31 7fbd
00000260: fc52 d1bc 2585 513d 1774 6e3d 8f5e f1bc
00000270: 56bf 963d d845 33bd 58a6 b0bc 8e00 83bd
00000280: 13ca 03be 84fc f3bc dd80 fabd e948 0abe
00000290: f624 04bd afb6 c33b f22d 45bd 2003 003d
000002a0: 81e1 f1bd e0b7 b9bc d6c4 f83d a58d b7bb
000002b0: 4357 703d 02fd 8d3d cc8d 90bd 2a00 c23d
000002c0: d94b f4bc 3217 0fbc 45d9 d53d d21a 71bd
000002d0: 3c67 113d 0a30 b73c 5699 9b3d de6d af3d
000002e0: a825 c13d 1b5b a13c b082 5dbc 784d e2bc
000002f0: 3911 47be 1b51 bb3c 8acc ab3d 2761 113c
00000300: fe6b 25bd 0b44 053d c11d 623b 2cf2 3f3c
00000310: e388 9ebb 80d7 a53c 67c7 b63c 45aa 5e3d
00000320: f4ec 573d c712 a33d e8e5 54bb 8d6d a8ba
00000330: 12b4 803c a4b0 b83d 2bb3 5b3c ae2f 8f3d
00000340: 5806 9d3d 9559 a13d 8611 b33d 84fc 243d
00000350: bb64 313d 08fe 213d f8b0 483d 583b 713d
00000360: 72b4 c0bb 8f31 743c 63d1 6a3d 9dea 02ba
00000370: aad3 073d 68ce b23d 268e 9f3d a1dd 343d
00000380: a212 a0bc 3402 df3d 00e7 d03c d4c6 833d
00000390: 10e4 563c c553 1c3d 8e1f 323d a162 8a3d
000003a0: ca1e 763c 840c 3b3d 6240 df3d a4ac d53c
000003b0: cf8f 043e 2b16 983c 1fdd bb3c bfe0 833d
000003c0: ab0d 023d fb03 083e 2d3d 6f3c caf3 073d
000003d0: 7804 3a3e 2ed8 a0bb 8685 d93d 3fff db3b
000003e0: 20b1 4c3d e4c1 f93c 741f 393d 751c 333c
000003f0: e905 f43d 5e00 cd3c 253b 99ba 9e64 e43c
0.007344329 0.094665594 -0.035476778 -0.034139313 0.11097206 0.12445179 0.09312369 0.23502201
0.03402832 0.021921929 0.032662068 0.096022025 -0.07162911 -0.04734188 -0.018044857 0.024813667
0.056963984 0.1641836 -0.05410488 -0.012502307 0.033781346 0.16074216 -0.011355469 0.15037969
0.09760642 0.021988451 0.24327657 -0.05811168 -0.036974672 6.3881605e-05 -0.002205833 0.21408547
0.03453236 -0.0117541365 -0.044293955 -0.05499773 -0.0372219 0.18442398 0.19096224 0.016831793
-0.046422347 -0.03623599 0.025696766 -0.041268736 -0.0019608282 0.02223529 0.14251733 0.15440947
-0.005146118 -0.000110978865 0.16614497 0.050396636 0.09676718 0.06077274 0.104901455 -0.06401574
0.029609466 -0.040905952 0.033507034 -0.04480944 0.076336175 0.25951964 -0.032726116 0.025187692
0.19459017 0.0641688 0.041672982 0.08810639 0.09077601 0.097724654 -0.023717165 -0.00038471087
0.07976339 0.11820744 0.1671128 0.178018 0.07045073 -0.046673328 0.037841775 0.0033932594
-0.044428397 0.022494853 0.13399787 -0.050129622 0.064685 0.009048401 0.010406281 -0.0016903388
0.028039917 -0.02332949 0.11173491 0.11938764 0.12840542 0.059180148 -0.030221317 -0.015622248
0.017369477 0.05188294 -0.032453578 -0.0072365697 0.20149776 0.16082998 -0.020076258 -0.0039611612
-0.05339286 0.030154195 -0.048576895 -0.0021856932 0.0473304 0.060128752 -0.001669887 0.04624013
-0.019824054 0.18385209 0.051648237 -0.043497074 -0.0022642317 0.06641417 0.08263955 0.043049373
0.047732074 0.028554147 -0.008379366 0.07739344 -0.054222874 -0.012581045 0.019307753 0.0022600407
-0.16809314 -0.06893374 -0.07533731 0.060673237 0.06165518 -0.011357044 0.059310768 -0.010529948
0.009885241 -0.0013001215 0.01694693 0.04639458 0.18543172 0.09682951 0.10528117 -0.007453354
-0.13972369 -0.09439388 0.018389475 -0.011052155 -0.074864686 -0.05820778 -0.10076654 -0.062303048
-0.025552265 0.051152367 0.05821618 -0.029464034 0.07360713 -0.04376778 -0.021563694 -0.0639659
-0.12870054 -0.029783495 -0.1223161 -0.13504376 -0.03226181 0.0059727053 -0.04813952 0.03125298
-0.118105896 -0.022670686 0.121469185 -0.005601602 0.05867697 0.06933023 -0.070582956 0.094726875
-0.029821323 -0.008733558 0.104418315 -0.05886347 0.035498843 0.022361774 0.07597606 0.085658774
0.094310105 0.019696763 -0.013519928 -0.02762483 -0.19440164 0.022865823 0.08388622 0.008873261
-0.040386193 0.032535594 0.0034502598 0.011715453 -0.0048380955 0.02024436 0.02231188 0.0543616
0.05271621 0.07962566 -0.0032485668 -0.0012850031 0.015710864 0.090180665 0.013409416 0.06991516
0.076672256 0.078784145 0.08743577 0.04027988 0.043308955 0.039548904 0.048996896 0.058894485
-0.0058808858 0.014904394 0.057328593 -0.00049940665 0.033160843 0.08730775 0.077907845 0.044156674
-0.019540135 0.10889092 0.025500774 0.06434408 0.013115898 0.038165826 0.043487124 0.06757093
0.015021989 0.045666233 0.10900952 0.026083298 0.12945484 0.018565258 0.022932587 0.06439351
0.031751316 0.13282768 0.014601988 0.03319148 0.18165767 -0.004908583 0.10621171 0.0067137773
0.049973607 0.030487962 0.04519601 0.010932078 0.1191519 0.02502459 -0.00116906 0.02788001

lstm.weight_hh_l0 f4 [256, 64]
00000000: b57b 06bf bbf5 acbe a31b 60be ad90 8dbd
00000010: fdf4 f63d e406 aebe 89d7 8e3d f0b6 c13d
00000020: 16b5 9d3d bdd7 3ebd bc8f 19be b906 193f
00000030: 7549 9a3d 7351 523e 58c1 3c3e 4e47 08be
00000040: 0246 55be a386 6fbe 25cf 023f e198 3abd
00000050: d851 9ebe 2bbc f9be af9f 2dbe 8e49 383d
00000060: 166a f9be 0810 c33e 6c6d b13d 19e0 a83e
00000070: 4ac7 523e ea25 1dbd 78e3 e0bd 30fb 96bd
00000080: 0bee f8be fd46 b3bd 71fd a1be 7dc8 8e3d
00000090: 3b12 b5be a1f7 56be 1181 3dbe 1286 003e
000000a0: afe2 b33c a719 77be 78bc 2d3e fd6b 783e
000000b0: 5320 123e 8605 023f 7fd0 96be 67ae 463e
000000c0: a5db 5a3c d00a 9bbe 6fe8 b83e 8cda 963d
000000d0: 2f93 ff3d 5056 803e 5fba 763e 61f9 bcbc
000000e0: ad96 d63e d3e1 9bbd 97a3 b13d 5f55 0ebc
000000f0: c8fb 81be 3929 bd3e ae9e b93e f694 ce3e
00000100: 7b06 a83d c78c aebd 13e9 4abd ad13 07bd
00000110: 50a8 443e 8c57 3d3e 2e70 d7bc 1f34 703d
00000120: 1e44 6abd b940 bebd 4138 55be a6fd 27be
00000130: 24af 8a3d c388 b43d c434 08be 20fc 523e
00000140: 6213 0b3e c4fb 9bbb f7c7 c3bc 98c6 143e
00000150: c310 c8bd bc3c aabe c65f 213e 2485 1b3e
00000160: 16d0 0cbe 890f 2a3d 79d7 043e d780 423e
00000170: 8c2e 09be c128 123c 1c68 abbd 1bd6 153e
00000180: 4c2f 063d 80b5 4abd 2d90 ae3d d6f8 0a3e
00000190: df64 26ba d63f 763c 4c42 2d3e e257 153e
000001a0: be41 dfbc c6b4 5cbe 19b9 d3bd 1d77 453e
000001b0: 301d bb3d 5da5 6b3e 21af 153e fda6 36bc
000001c0: 4647 0cbe 35a2 d83d f259 dc3d 18a7 073e
000001d0: ff17 febd 569d 473e 0ecb 12be 41bb 33be
000001e0: c504 013e 4b6a 103d f765 93bd 7c8f f93d
000001f0: f5e2 9e3d 5605 99bd 40e1 573b 5740 0f3c
00000200: 8b76 9bbd 278f 7b3d f1e7 34bd 334a 493e
00000210: 678a 1fbb 3544 ab3a ad02 ef3d 3d06 c3bd
00000220: 0661 cabc 03da 0bbe 1d09 6dbd aa29 383e
00000230: 9b95 423e 3142 ae3d f8e7 db3c 549b 023e
00000240: 884d 003c c3a1 a9bc 05dc e5bc 8af3 923c
00000250: e058 163c ce4a 12be 7f24 863d ddad 003d
00000260: 1652 f7bd 9ed0 2e3e 4fc7 37bc c51d 74be
00000270: fdc8 693e 5743 6fbd dd8b 2ebe f5b1 f0bd
00000280: a45a 49bd 1df8 e4bd 56e6 fabd b290 a9bd
00000290: 2417 fdbd 5b95 613c 2f27 78bd ee30 003e
000002a0: 3e93 18bc 4e05 52be 88a9 293d 34bf b5be
000002b0: cd80 233d ff4c 633d f157 18be b8c5 a83d
000002c0: 5fb7 8a3c 860d 8fbd dbf9 9cbd a161 f6bd
000002d0: e363 b43d 29ac 98bd 7169 ee3d ebff 1c3e
000002e0: daae e7bd 9ecc d93b ac6f c8bd e955 183d
000002f0: b3dd 36be a223 3b3e cff7 af3d 8e08 023e
00000300: 2be0 09be 6108 fbbd 4559 1fbd 9528 333e
00000310: 2fe5 1c3e b921 c5bc b042 9f3d 6073 543d
00000320: bc4a d53c ffb0 b2ba 93b7 99bd 54e7 993d
00000330: 99a8 0f3d b1be 603d 87a6 eb3d c297 a1bd
00000340: c74b fabc d9c0 4d3d d999 6b3d 6a28 42be
00000350: abe5 dfbd f2d1 afbb 9edb 223d 41bc 9c3d
00000360: 58f2 ca3d fe35 d93d d2dc bd3d 3c1c 97be
00000370: 4d13 903c ed37 463b 24f1 1ebe 2a1c 8dbc
00000380: afc7 d2bd 30ac d3bd c88a 8abe feae 15be
00000390: c6ef 17be ad2f 3f3e 3707 cbbb cc24 fd3d
000003a0: ffc9 96bd 0762 f9bd 3678 073d df3e 4fbe
000003b0: 7a61 fc3d f3b5 09be ac5f b23d 25da 973c
000003c0: f2e4 3cbe 99a5 c6bd 347a 0b3e 38a9 203d
000003d0: 0d61 b2bd ca4b 7e3d 7eec f63d 1747 953e
000003e0: 92e2 c93d 9c69 503d cce1 453c 00b7 453d
000003f0: 4a7c adbd cc03 123e 2aea 0d3e cff8 4a3e
-0.5253251 -0.33781227 -0.21885543 -0.0691236 0.120584466 -0.33989632 0.06974704 0.09458721
0.07700555 -0.046592463 -0.14996237 0.5977588 0.07533542 0.20538883 0.1843313 -0.1330845
-0.20827487 -0.23391204 0.5109733 -0.045555953 -0.30921817 -0.48776373 -0.16955446 0.044992022
-0.4871375 0.38098168 0.08663449 0.32983473 0.20583835 -0.038366236 -0.10980886 -0.07372129
-0.48619112 -0.08753774 -0.31638673 0.06971834 -0.3536547 -0.209929 -0.18506266 0.12551144
0.021958677 -0.2413088 0.16966426 0.24259944 0.14270143 0.5078968 -0.29455945 0.19402467
0.013358031 -0.30281687 0.36114833 0.07365903 0.12479245 0.2506585 0.24094532 -0.023068132
0.41911831 -0.07611432 0.086737804 -0.008687346 -0.25387406 0.36945513 0.36253875 0.40348023
0.08204361 -0.08522945 -0.049538683 -0.03297775 0.19204831 0.18490428 -0.026298609 0.058643457
-0.057193868 -0.092896886 -0.2082224 -0.16405353 0.06771687 0.08815148 -0.13301378 0.2060399
0.13581613 -0.0047602374 -0.023899062 0.14528883 -0.09768822 -0.33249462 0.15759191 0.15187508
-0.13751253 0.04151872 0.12972821 0.18994461 -0.13396662 0.008920849 -0.08369467 0.14632456
0.03275995 -0.0494895 0.08523593 0.13571486 -0.00063474284 0.015029868 0.16919822 0.14584306
-0.027253028 -0.21553335 -0.10338039 0.1928372 0.091364264 0.230123 0.14617588 -0.011148212
-0.13699064 0.105778135 0.10759343 0.13247335 -0.12406921 0.19493613 -0.14335272 -0.175519
0.12599476 0.03525762 -0.071971826 0.121855706 0.07758132 -0.07471721 0.0032940656 0.008743367
-0.0759097 0.061415818 -0.04416651 0.19657211 -0.0024343969 0.0013066592 0.11670432 -0.09522674
-0.024704468 -0.13657384 -0.05787002 0.17984644 0.19002382 0.08508719 0.02684401 0.12754565
0.007830985 -0.020707017 -0.028059015 0.017938394 0.009176463 -0.14286348 0.0654993 0.03141581
-0.120762035 0.17071769 -0.011216952 -0.23839481 0.22830577 -0.05841383 -0.17045541 -0.117526926
-0.049158707 -0.11180136 -0.12250964 -0.082795516 -0.12357929 0.013768519 -0.060584243 0.12518665
-0.009312449 -0.20509836 0.041421443 -0.3549744 0.039917756 0.05549335 -0.14877297 0.08240837
0.016933141 -0.06985001 -0.07664844 -0.1203034 0.088081144 -0.07454712 0.11641205 0.15332
-0.11312647 0.0066467067 -0.09786925 0.037191305 -0.17858009 0.18275312 0.085921876 0.12698576
-0.1346442 -0.122574575 -0.038903493 0.1749595 0.15321802 -0.024063932 0.077763915 0.051867843
0.026036613 -0.0013633071 -0.07505717 0.075148255 0.035072897 0.054869357 0.11506372 -0.07890274
-0.030553712 0.050232742 0.057519767 -0.18960729 -0.109324776 -0.0053656036 0.039760225 0.07653094
0.09909505 0.10606001 0.09270634 -0.2951373 0.017587328 0.0030245737 -0.15521675 -0.017225344
-0.10291993 -0.103355765 -0.27059007 -0.14617535 -0.1483756 0.1867053 -0.0061959284 0.12360534
-0.073627464 -0.121769 0.033073626 -0.20238827 0.1232328 -0.13448314 0.08709654 0.018536637
-0.1844671 -0.09699554 0.13620836 0.03922388 -0.08709917 0.062083997 0.12056826 0.291558
0.09857668 0.050881967 0.01207776 0.048270226 -0.08470972 0.14259261 0.13858858 0.19821475

lstm.bias_ih_l0 f4 [256]
00000000: c08b 593e 274b c73c e3a1 703d 1618 1e3e
00000010: 6f18 f63d c2ce 4cbb 97e2 3dbc 583a a63d
00000020: b285 dcb7 268f b6bd 6496 a0bc 7691 133e
00000030: 28f9 37bd f926 0d3e ed22 233e d199 0d3e
00000040: 2036 c93d 86c8 0d3e d2c2 20bd 6e2f 493d
00000050: bed9 bd3d ad97 c6bd 5224 b93d 89f5 ff3d
00000060: 8df2 243d a180 c3bc 46e7 233e c97b 14bc
00000070: 7547 053d 696a e23c c2a3 5a3d 5c08 c0bc
00000080: 5d7b a03d 8906 193e ed69 3c3d 899d c03d
00000090: fcb8 bf3d acf7 053e 86c4 4c3e 0dc0 773b
000000a0: ca45 dd3b cf78 043b 9f0f 22bd 8368 163e
000000b0: 7952 3d3e 3323 2e3e b25f 38be 86df d43b
000000c0: 090c c1bc d72e 1abe b4fa 143e 1bad 523c
000000d0: a0fa e9bd 627a 48bc 39e9 ba3d 22d8 113d
000000e0: 6410 9fbc 0342 d83d e573 293e 1fe3 973d
000000f0: 0226 a83d f717 4f3e 2058 d43d 795b 56bd
00000100: 18fc 0e3d 784f 2dbe f397 55bb b63b ec3d
00000110: 2f09 7cbe 9e01 343c 3db5 343d 7935 2abc
00000120: f98d fbbc 647c 59bd ac7d 08be 3ff6 94bd
00000130: 624b 82bb 7a41 f73d 7a54 dc3c 9a83 8f3d
00000140: 0133 a43d 29f6 b23c d3e1 c13d 7bbe aa3d
00000150: ac56 59bd 580a 103d 26b6 953d 2f5c d23d
00000160: e25f f53d b8d9 183d f9d1 bebd 9086 753d
00000170: f188 b63d d011 663d dfd8 d63d 09a6 bdbb
00000180: 6b8b 83bd 383a 223d d6a9 373e b8b1 433c
00000190: 6f43 de3d 0cd8 333d 84c6 013e 069b 4a3d
000001a0: e002 1c3e 85ad f43d d2f3 013e 63e0 c73d
000001b0: 5ccf 133e 762a 3ebe c552 e43d 0f90 e8bd
000001c0: 8d23 eebc 42bc a4bd 1610 a3bd cb03 be3d
000001d0: 292e 063d 6dc5 27be efc3 46be da4e 123d
000001e0: 7ae3 e1bd 660f 613c 8cae 253e 4319 d53d
000001f0: 7fa4 193e 1db1 a43c d616 8fbd 86d2 37bc
00000200: 9589 debd 687c e93b 2626 103d cf81 e7bd
00000210: 5f20 493d b0c1 34ba 3ead 8e3d 6846 b6bd
00000220: d085 5e3d dbf4 c0bd 36d8 e1bd d772 2bbe
00000230: 6ac8 afbd 9bac a3bd abb7 2cbe 1401 9fbc
00000240: 8377 69bd 6ea2 2c3c f80e 8ebc f610 df3c
00000250: 3178 2c3e 7ec2 2d3e d0cf e93d 486d 033e
00000260: 3e32 8c3c 39ad 34bc 206c 463c 24e7 0bbd
00000270: c4b2 b0bd 8f2d dd3d 357b 9bbd d7dd 0a3d
00000280: d461 263c aa37 37bd dee1 9ebb 8cd2 43bd
00000290: 223e ce3d 961f e0bd b33b 533d 9a6c e2bd
000002a0: 7afa af3d 36a1 8e3d 758c 99bd fd1f 0b3d
000002b0: c16f 2dbd 69d6 0fbd 4cc3 c73c 44d0 0ebe
000002c0: 0d16 ed3d df1c 1c3e a0e6 1cbe 22e5 693d
000002d0: 86d4 c43d a5a9 43bd 6fb9 1fbe 5594 06bd
000002e0: 9989 ddbd 9793 96bd 05e8 b43d 1319 aa3d
000002f0: 4854 24be cd82 9fbd a955 bf3d 0f81 12be
00000300: ef81 233e 3d3c 25bc c61b 523e f8d6 153e
00000310: e56d e3bc e368 0dbe ae7a 1c3e ff53 f03c
00000320: 5fc7 223d 8754 9abd 25a1 90bc 9a27 bf3d
00000330: a875 3c3e 27cb 97bd 77e5 82bc a5e2 75bd
00000340: 99c9 1c3e dd8e 16bd 96f6 933c 2786 033e
00000350: 3444 32bc 53e8 99bc 6171 3bbc d3b9 613a
00000360: 49b7 243e 9378 bc3d 2978 17be 4350 223e
00000370: ff54 b3bc 03dd 1dbe d9bc 94bd a08b 2a3e
00000380: 03a4 a73d f780 dcbd 8b50 623c 7572 a83c
00000390: 9858 9a3d 5db2 ad3d 0b57 283e 00c2 03be
000003a0: aa80 193e ccf4 29be 5382 e4bd d9de cd3d
000003b0: 5bb3 47be e89a b73d d208 e3bc ebe4 033d
000003c0: 50ed b7bd c9b6 96bd e018 3c3e d907 b83d
000003d0: f734 353c 84f6 d53c 2a23 bcbd 0239 903d
000003e0: a77c 9abd 5bf6 1b3e f92e 433e cdf3 cb3d
000003f0: 2b51 72bd f90e 86bb c7d7 e73c b666 093d
0.21244717 0.024327828 0.058748137 0.15438876 0.12016379 -0.0031251167 -0.011589668 0.08116597
-2.62883e-05 -0.08914022 -0.019602962 0.14410958 -0.04491535 0.13784398 0.15931292 0.13828208
0.09824777 0.13846025 -0.039248295 0.049117498 0.09270047 -0.096968986 0.09040131 0.12498004
0.040270377 -0.023865046 0.16006193 -0.009062716 0.03253885 0.027638631 0.053378828 -0.023441486
0.0783603 0.14943899 0.045999456 0.094050474 0.09361455 0.1308276 0.19996843 0.003780368
0.0067527043 0.002021361 -0.03956568 0.14688306 0.18488492 0.17005615 -0.18005255 0.0064963726
-0.02356531 -0.1505693 0.1454876 0.012858654 -0.11424756 -0.01223621 0.09126515 0.03560651
-0.019416995 0.10559466 0.16548117 0.07416367 0.082103744 0.20223986 0.10368371 -0.05233333
0.034908384 -0.16924846 -0.003259179 0.115348265 -0.24612878 0.010986714 0.044118155 -0.010388725
-0.030707346 -0.053097144 -0.1332919 -0.0727353 -0.0039762715 0.120730355 0.02689575 0.07007523
0.08017541 0.021845894 0.09466901 0.083371125 -0.053061172 0.035166115 0.07310133 0.10271489
0.11981179 0.037317008 -0.09317393 0.059942782 0.08912838 0.05616933 0.10490584 -0.005787615
-0.06423076 0.039606303 0.17935881 0.011944227 0.10852706 0.04390721 0.12673384 0.049464248
0.15235472 0.11947159 0.12690666 0.09759595 0.1443457 -0.18570885 0.111485995 -0.11355602
-0.029069686 -0.0804372 -0.079620525 0.09278067 0.032758866 -0.16383906 -0.1941068 0.03571973
-0.11029716 0.013736581 0.16179866 0.10405209 0.15004157 0.020103985 -0.069867775 -0.011219626
-0.108660854 0.007125426 0.03519263 -0.11304056 0.049103137 -0.0006895317 0.06966637 -0.08900148
0.054326832 -0.094217025 -0.11027567 -0.16743027 -0.08583148 -0.07991906 -0.16866939 -0.019409694
-0.05699874 0.010536773 -0.017341122 0.027229767 0.16842724 0.16968724 0.1141659 0.12834656
0.017113801 -0.011027628 0.01211074 -0.03415598 -0.08627847 0.10799705 -0.07591859 0.03390297
0.01015516 -0.04473082 -0.004848703 -0.047808215 0.10070445 -0.109435245 0.051570605 -0.1105587
0.085926965 0.06964342 -0.07497493 0.033966053 -0.042342905 -0.035116587 0.024385117 -0.13946635
0.115764715 0.15245388 -0.15322351 0.057103284 0.09610848 -0.047769208 -0.15598081 -0.032856304
-0.1081726 -0.07352369 0.08833317 0.08305564 -0.16047776 -0.0778862 0.0934251 -0.14307044
0.15967534 -0.010085163 0.20518407 0.14632785 -0.027762363 -0.13809542 0.15281174 0.029336927
0.039740916 -0.075356536 -0.017654965 0.09333725 0.18404257 -0.07411795 -0.015978558 -0.0600306
0.15311278 -0.03675734 0.018061917 0.12844144 -0.010880519 -0.018787539 -0.011440606 0.0008610759
0.16085543 0.09202685 -0.14791931 0.1585093 -0.021891115 -0.1541634 -0.07262582 0.16654825
0.0818558 -0.107667856 0.013813148 0.02056239 0.07536429 0.08481286 0.16439454 -0.12866974
0.14990488 -0.16597289 -0.1115767 0.100522704 -0.19502012 0.08965093 -0.027714167 0.032200735
-0.08980811 -0.07359082 0.18368864 0.08985872 0.011059991 0.026118524 -0.091863945 0.070421234
-0.07543307 0.15230696 0.19060887 0.09958611 -0.05915944 -0.0040911403 0.028301133 0.03354522

lstm.bias_hh_l0 f4 [256]
00000000: 62c4 0e3d 96e9 0fbe 7056 1cbd 9e80 823d
00000010: b5be 7cbd 5280 75bd 4809 523e 6747 9f3d
00000020: 3566 573c e510 993d e2bf 26bd a253 6a3e
00000030: 4369 2abd 7d6a 6e3d c8d2 c33d caff 23bc
00000040: deaa 47bd b2f8 e93d 1bbc 323d 6da0 1b3e
00000050: c44b 02bd 9edb e7bc ab9e afbc 9b7a 2ebd
00000060: b37d d43c 5348 b63d 735a 213e 99e8 273e
00000070: 0ac6 abbc 141f 333c 5cd8 f93d 6100 383e
00000080: 1667 643e 95a6 a43d 6b4e 203d 7a71 113e
00000090: 136b b43d 9ea8 dbbc 11ac 7a3e 8d2b 45bd
000000a0: f011 183e 185a c53d a828 d83c b1aa 02bd
000000b0: dfc8 6dbd dbb2 81bb 00e8 5ebd c3d7 0cbd
000000c0: 9897 7a3d 8b47 06be 4368 df3d 6b33 9ebd
000000d0: 9bf1 673d 0705 10be 1203 afbc 576a d33d
000000e0: bac9 8dbb ea3c 9abd 0736 563e 4b0a 07bd
000000f0: 3a50 59bd 98c9 2f3e bfa9 8bbd 5b9b c93d
00000100: 6832 9a3d e135 293d ba70 873d 7c5d 843c
00000110: 5ec3 1dbe aed3 b03d dc68 1cbd 0996 3d3d
00000120: 634b a13c d9c7 f13d 408c 003d 23a1 acbd
00000130: c12c 0a3d c58b 2f3e f5c4 fb3d b7aa 1fbb
00000140: 9848 473e bf91 4fbc 2db6 babc 601e 8b3d
00000150: 7b16 04bb 2ff5 8fbd 0681 5e3d 8e38 573b
00000160: dcb8 ae3c 46e7 1b3e 9bec 2abe f0d5 0f3d
00000170: 1639 5b3d e7d3 883d 258a 9c3d 14ce fc3c
00000180: 07b4 643c b476 5d3d 3619 413e aa10 0c3e
00000190: 1755 943d 9f16 cc3d 4467 d53d 68ca a13c
000001a0: 22e4 c83c 6197 1bbc e712 f43d d83c 033e
000001b0: 0388 19bd 8b8c 31be fad8 2f3e 8271 c9bc
000001c0: 855b 113e 0230 963d b9bb 52bd 0314 313d
000001d0: daf0 63bc 7962 a6bd 18fb 4cbe 20b3 b1bc
000001e0: 9ebe 0cbe a02a 9a3c 055c 12bc e822 a1bc
000001f0: 4531 973d f32d f73d aed9 ef3d 1974 063e
00000200: de58 d6bd 09f3 463e 0c92 ad3c 9ba9 24bd
00000210: 8453 00bd 53cb dbbd dba4 413d 3e41 b13d
00000220: d707 b33d 1773 d73d 41b3 c83a efde 44be
00000230: c115 f73d e93d 0abd 875b 4dbd ac15 e4bd
00000240: 1e0a f6bc 893b 8c3d da12 c9bd 88de f5bd
00000250: 5a2f 0b3e c0ba 35bb 06dc 3f3d a62d b2bd
00000260: 576f dc3d 45f8 b53d 979e 7c39 703c af3d
00000270: da36 20bc 40ae d23a 8a9d d4bc 0b14 383d
00000280: 511e e33d 1c16 13bd 2acb b5bb 0e34 c53d
00000290: 04ba a0bd 0b0a f03a 6729 b4bd a328 993d
000002a0: d3a6 ad3a c660 fabd db93 03be 3ab1 013d
000002b0: 0902 f3bc c383 00bd f6c9 08bc 8f24 32be
000002c0: 0a05 edbd 3dc0 513d 6c5c 26bd ce79 9f3b
000002d0: 207a 4eba e6ac d73d 4080 ca3c a3e1 19bd
000002e0: c1ac 66be 0681 d43d 7c4b 63bd a299 f53c
000002f0: bab2 6cbe 16c3 ec3c 7533 fe3a ca11 d2bd
00000300: ff1d 963c c4ee 543d a14a 853d 118c e03c
00000310: b0af 90bc f0e1 5a3d 5884 cf3d 250e 903d
00000320: 74e1 5d3d fbec 73bc 2e3d afbc 1253 3a3e
00000330: 81b2 1e3e f872 3ebc e6c8 3d3d ba7d 79be
00000340: 26db 1d3d 5c1b 5e3d 4b4b a13c 32ea efbc
00000350: 547c 9ebd bb64 d93d 385d a5bc 9d6c 2d3d
00000360: f7e2 883d d136 393d f3b3 80be da02 663d
00000370: 6811 593c c327 8abd e23d 60be 8c08 ac3d
00000380: 9c94 9a3d 360b 4ebd 74ba 573d a0e9 543e
00000390: 5e41 3e3d 3839 003e a640 55bd 5652 32be
000003a0: bbae 26bd 12a3 95bd 13e7 40be 654f 513e
000003b0: 0e1e 7abe 11ec 253e b1f7 fe3c a8bb b6bd
000003c0: f5fe 95bd ef37 60be 46bf d13d 8e40 263e
000003d0: 838d b1bc 0f5f 0f3d 0a41 383d 53ec 073e
000003e0: 1fd9 1a3d 557f 183e 5107 42bd 3a06 32bd
000003f0: 39a3 efbd 40ae 913d a82f fc3c 0e6d 99bc
0.034855254 -0.1405395 -0.03816837 0.06372188 -0.06170531 -0.05993683 0.20511353 0.07777291
0.013146927 0.074739255 -0.040710337 0.22883466 -0.04160429 0.058207024 0.09561688 -0.010009715
-0.048746936 0.11424388 0.043636423 0.15197916 -0.031810537 -0.028302964 -0.021437963 -0.042597394
0.025938844 0.089005135 0.1575716 0.16397323 -0.020968456 0.010932703 0.121994704 0.17968895
0.22304949 0.080395855 0.039137285 0.14203444 0.08809485 -0.026813801 0.244797 -0.048137236
0.14850593 0.09636325 0.026386574 -0.031901065 -0.058052894 -0.003958089 -0.05442047 -0.034385454
0.061179727 -0.13113229 0.10908558 -0.07724651 0.056626897 -0.14064418 -0.021363769 0.10323017
-0.004327026 -0.0753115 0.20919047 -0.0329688 -0.053055026 0.17166746 -0.06819486 0.09844085
0.075291455 0.04131115 0.06613298 0.016157858 -0.15406558 0.08634125 -0.03818594 0.046285663
0.019689268 0.11805696 0.031383753 -0.08429172 0.033734087 0.17143162 0.12293426 -0.0024363229
0.19461286 -0.012669026 -0.022791946 0.06792903 -0.0020155 -0.07029187 0.054322265 0.0032840106
0.021328382 0.15224943 -0.1669182 0.035116136 0.05352124 0.06681042 0.076435365 0.030859984
0.0139589375 0.054068282 0.18857273 0.13678232 0.07242792 0.09965252 0.10420087 0.019749835
0.024522845 -0.009496541 0.11917668 0.12816179 -0.037483227 -0.17338769 0.17172614 -0.024590258
0.14195068 0.073333755 -0.051448558 0.043231975 -0.013912404 -0.08124251 -0.2001766 -0.021691859
-0.1374459 0.018819153 -0.008933072 -0.019669965 0.07382444 0.12069311 0.11711441 0.13130225
-0.10466169 0.19428648 0.021187805 -0.04020081 -0.031329647 -0.107321404 0.04727636 0.08655022
0.0874173 0.105199985 0.0015312211 -0.19225667 0.12064696 -0.03375045 -0.050136115 -0.11136946
-0.030034121 0.06847293 -0.09818049 -0.12005335 0.13592282 -0.002772972 0.04684069 -0.08700113
0.10763424 0.08885244 0.00024091672 0.085564494 -0.009778703 0.0016073659 -0.025954027 0.04494099
0.11089767 -0.035909757 -0.0055479007 0.09629069 -0.0784798 0.001831354 -0.08796959 0.07478454
0.001324857 -0.12225489 -0.12849371 0.031663157 -0.029664056 -0.031375658 -0.0083489325 -0.17396758
-0.11573227 0.051208723 -0.040615484 0.004866815 -0.00078764744 0.10531025 0.024719357 -0.0375687
-0.22526838 0.10376172 -0.05549191 0.029980484 -0.23115054 0.028901618 0.0019393997 -0.10257299
0.01832485 0.051985517 0.06508375 0.027410539 -0.0176619 0.053438127 0.101326644 0.07033948
0.054170087 -0.0148880435 -0.021391477 0.18195751 0.15497781 -0.01162409 0.04633417 -0.24364367
0.038539074 0.05422531 0.019689223 -0.029286478 -0.077385575 0.10614916 -0.020186052 0.04233991
0.06683915 0.045218293 -0.2513729 0.056155063 0.013248779 -0.06745865 -0.21898606 0.08400068
0.07547876 -0.05030366 0.05266805 0.20792246 0.046449058 0.12521827 -0.052063607 -0.17414221
-0.04069398 -0.07306494 -0.18838148 0.20440443 -0.24425527 0.16203333 0.031123968 -0.08922511
-0.0732402 -0.21896337 0.10241561 0.16235563 -0.021673923 0.035002764 0.0449839 0.13273744
0.03780472 0.14892323 -0.04737026 -0.04346297 -0.11701054 0.07113314 0.030784443 -0.01872876

fc_layer.weight f4 [64, 64]
00000000: bf85 a6be ed5c 33be 2494 7fbe a758 9e3e
00000010: a942 5c3e a536 7cbe 2749 073e 43b5 66be
00000020: 3ad1 693e beea cebd 1db1 a73e 3bc4 b93e
00000030: ca51 953e 45c1 003f 20dc a73e 26b2 af3b
00000040: 36f9 38be e1fa bcbe 26aa 843e 6474 70be
00000050: bc15 7dbe 34f2 2ebe 1985 83be 7853 6bbe
00000060: 7333 dabe 0d06 5e3e 5c45 9dbc be2b 86be
00000070: 7303 7a3e 16d3 56be 734a 68be 92bf d1bd
00000080: c4a9 e4be 6e26 85be e083 a6be 6445 45be
00000090: 32e5 35be d797 943e ffcc d9be 4e07 5cbc
000000a0: 5ef0 febe bfa3 9b3d acbc 963e 8af9 30be
000000b0: 6bfc 993e 8f8a 1c3e 30c4 1cbe 723c 6c3e
000000c0: 1cb8 34be d62e d0be 0f6b 553e 0518 9bbe
000000d0: fcc2 733e afa4 c13e b363 fe3d 8618 503e
000000e0: 202c 75bd 8b57 c63d a918 a5be 32c8 96be
000000f0: b08e 48be ce39 6a3e 85b0 a23e 3ac3 ed3d
00000100: 29cd 04bd bd1a 65bc 3407 823d 39b5 c33c
00000110: 1dda cfbd 75b0 283a 23b1 d4bd d0bb b9bd
00000120: 6488 983a d4f3 7fbd e83f b93d eb42 9bbd
00000130: d45e 08bd 2f33 3e3d 62a0 ae3c ec28 c73c
00000140: 4a51 eb3b e425 60bc 1fa9 8dbd 6f17 123e
00000150: aba1 d93d 2843 5cbd e217 aa3d 11cb 563d
00000160: 57b5 9dbd 7bbe 8bbd 7d8e 3cbc fc56 8abd
00000170: 7f60 b1bd 3668 0c3c ca99 c4bd 5f45 8ebd
00000180: 7803 f83c 4030 743b 39c8 8c3d 0384 c33d
00000190: e588 c03d ca60 8fbd d033 db3c 175f 58bd
000001a0: 9a7d 2f3d 7b92 cabd 245d b93d 9a49 b43d
000001b0: 7b34 25bd 4b7b 73bd 1d7a ed3d 3444 6c3d
000001c0: c9f7 0a3e bfbd 80bd 35fc cdbd 133d cdbd
000001d0: 1e66 00bd 64d6 ba3b 4b5e ba3d 2347 90bd
000001e0: 327c f8bd e814 8aba 499b 013d 6277 473d
000001f0: 4427 1dbd 48e6 e4bd 349f 01be 0d4b ef3d
00000200: 4942 ecbc 2a40 96bc 659d 943d 1bbe 92bd
00000210: a521 e5bd 9564 efbd c81c 27bc 2a6c 323d
00000220: c2a3 593d b86b 52bd 23b5 ae3b 0aaf be3a
00000230: 3cf4 933d 4dd8 a1bd f665 b43d bc6a c6bc
00000240: 4af5 6f3d b471 c9bd ee3e 48bd 2eaa 77bd
00000250: a35a 63bd e17e bebd f838 043d 6f2e 023e
00000260: 25d7 c43d 8838 a7bd 2df4 8dbc 92f1 f2bc
00000270: d4b2 6dbd 7a2c 4cbd 4c8d 1b3d 56c9 48bd
00000280: 9db0 a9bd 6306 b93c 30a8 fc3d 2d69 84b9
00000290: 8f53 003e 269c aebd 9083 e13d 2452 ffbb
000002a0: 16a8 c03d 094c a63c d180 db3c ba57 cfbd
000002b0: 02cc ddbc b7d7 15bb 9fbe 7ebc 3aef 9c3d
000002c0: e316 2dbd 3ff6 39bd cc88 c3bd 9653 3e3d
000002d0: af7d c83d ab15 bf3c 401b a7bd 76cd 323d
000002e0: 8095 473c 580e 9b3d 9afa 9b3b 3153 f93d
000002f0: 3273 e73d 453b adbd 5ce2 b83d 0553 3bbd
00000300: 5f12 13bf 8d98 6fbd eb80 aabe d364 913e
00000310: ba7a b73e 458e 7dbe d0bf bd3e 460b 82be
00000320: 46b8 7a3e 045b 40be 4043 733e 0d3c 5c3e
00000330: 1193 1f3e 0956 163f 0519 4b3e c9a0 443e
00000340: c993 8ebe 26d4 d0be fba3 c83e 626f 89be
00000350: c168 cdbd c83d 9fbe d7e4 8abe 909c b8be
00000360: aee4 d8be d65d 963e 1072 f8bd fe80 a1be
00000370: bcd6 963e 60ea 08be 6d4e 7dbe 3b8b 95be
00000380: 6fed d1be 3e43 bdbe 244b f3be d406 aebe
00000390: 56f9 aebe 7494 893e e8a0 e0be cb22 ef3d
000003a0: e4dc aebe 582f 0abe 0f11 b33e 20b5 c7be
000003b0: 023a db3d 5244 ad3e dad9 babe 3f45 c23e
000003c0: 4828 f2bd 0682 d0be 7a6a 643e 5c94 7bbe
000003d0: 09b8 8c3e 7032 c23e 22a7 863e 4d46 d93e
000003e0: de07 043c 8c73 9f3e 4e42 c3be c499 d3be
000003f0: 62a7 04be 5e9a 763e f93c a43e da49 393e
-0.32523915 -0.17515917 -0.24958855 0.3092701 0.21509804 -0.2463022 0.13211499 -0.22530083
0.2283372 -0.10103367 0.32752314 0.36282524 0.29163963 0.50294906 0.3278513 0.005361813
-0.18063816 -0.36910155 0.25911063 -0.234819 -0.24715322 -0.1708458 -0.25687483 -0.2298106
-0.42617378 0.21681996 -0.019198112 -0.26205248 0.24415378 -0.2097896 -0.2268465 -0.10241617
-0.4466077 -0.26005882 -0.32522488 -0.19264752 -0.17763212 0.29022095 -0.42539212 -0.013429476
-0.4979276 0.075995915 0.2944082 -0.17282692 0.30075392 0.15287231 -0.15309215 0.23069933
-0.17648357 -0.40660733 0.20841621 -0.30291763 0.2380485 0.37820956 0.1242136 0.20321855
-0.059856534 0.09684666 -0.32245377 -0.29449612 -0.19585681 0.22873613 0.317753 0.11609502
-0.03242222 -0.013983426 0.0634903 0.023890125 -0.10149024 0.00064349856 -0.10385349 -0.090690255
0.0011637327 -0.062488392 0.09045392 -0.07581123 -0.03329356 0.04643553 0.02131671 0.024311505
0.0071813213 -0.013680909 -0.06917023 0.14266752 0.10626539 -0.053774983 0.083053365 0.052439753
-0.077006035 -0.06823441 -0.011508581 -0.06754872 -0.08660983 0.008569768 -0.095996454 -0.06946825
0.030275092 0.0037260205 0.06874127 0.095466636 0.094011106 -0.07000883 0.026758105 -0.05282506
0.042844392 -0.0989122 0.09050968 0.08803101 -0.040333252 -0.059443753 0.11595557 0.05768223
0.13571085 -0.06286191 -0.1005787 -0.100214146 -0.031347387 0.005701827 0.09100016 -0.07044818
-0.121330634 -0.0010534795 0.031642232 0.048697837 -0.038367525 -0.11176735 -0.12658387 0.11684237
-0.028840201 -0.018341143 0.07256583 -0.07165166 -0.11188058 -0.116891064 -0.010199733 0.043560185
0.053134687 -0.05137226 0.005331652 0.0014548015 0.072243184 -0.07902584 0.0880851 -0.024220817
0.058583535 -0.0983614 -0.04888814 -0.06046503 -0.05550636 -0.09301544 0.032280892 0.12713026
0.09611348 -0.08165079 -0.017328346 -0.029656205 -0.058031872 -0.049847104 0.037976548 -0.049020134
-0.082856394 0.022586053 0.12336767 -0.00025255364 0.12531875 -0.08525877 0.11011422 -0.0077917743
0.0940706 0.020299928 0.026794823 -0.101241544 -0.027074818 -0.0022864172 -0.015548377 0.07662816
-0.042258155 -0.045400854 -0.09547576 0.046466433 0.09789597 0.023325762 -0.081594944 0.043652974
0.01218164 0.07571095 0.0047600986 0.121740706 0.11301269 -0.084585704 0.090275496 -0.04573347
-0.5744991 -0.058495093 -0.33301482 0.28397235 0.3583582 -0.24761303 0.37060404 -0.25399226
0.24484357 -0.1878472 0.23756123 0.21507283 0.15583445 0.5872503 0.19833763 0.1920196
-0.27847126 -0.40786856 0.39187607 -0.2684279 -0.10029746 -0.31101823 -0.27127716 -0.36056948
-0.4236197 0.29368466 -0.12131131 -0.31543726 0.29460704 -0.13370657 -0.24736948 -0.29207787
-0.4100146 -0.36965364 -0.47518265 -0.33989584 -0.34174603 0.26871073 -0.43872762 0.11676558
-0.341529 -0.13494623 0.34973952 -0.39005375 0.107044235 0.33841187 -0.36494333 0.37943456
-0.11824089 -0.407242 0.22306243 -0.24568313 0.27484158 0.37929106 0.26299387 0.42436448
0.008058516 0.31142843 -0.38136524 -0.4132825 -0.12954476 0.24082324 0.32077768 0.18094578

fc_layer.bias f4 [64]
00000000: c403 933e 8ee9 25bd 924c efbd e778 ba3e
00000010: 8313 ba3d 434b a53e 2dad 9a3e 70f1 d3bc
00000020: 5466 a2bc bb27 993e 5193 b93e 3765 9f3e
00000030: fb71 8a3d a17a 953d 7c73 1b3e cba0 b0bd
00000040: 3cdd 3abd c863 19bd 88f2 b43d 9ffe 3abd
00000050: 2dc1 73bd 606e ddbc 5460 07bc 2db9 213e
00000060: eaad 7b3e 4ebe 4d3e c65b c9bd d04c 823e
00000070: e225 9d39 44f7 223e d825 4ebd f2f2 c83d
00000080: 7873 823e 0bd5 63bd 7f66 7a3d e7f5 3dbc
00000090: ed31 6b3d 4311 803e 7c75 66bc 61b3 ffbc
000000a0: 4eb4 f43d 9788 8d3e 0809 ae3e 6677 743e
000000b0: 88df 89bd 9e2a 933d a348 e8bd 726b a83e
000000c0: a328 db3d 662d 083e fa74 a53e 09ce dd3d
000000d0: a835 253e ccd9 0bbd 2d37 843e 4871 8f3e
000000e0: a5a5 543e 5325 af3e 2f20 743d b5bb d13d
000000f0: 3b92 663d 4266 833b c74c 293e f4d2 2fbd
0.2871381 -0.04050594 -0.116845265 0.36420366 0.09085753 0.32283983 0.30210248 -0.025871962
-0.019824184 0.29913124 0.36245206 0.31131908 0.06760021 0.0729878 0.15180773 -0.08624419
-0.04562114 -0.037448674 0.08835322 -0.04565298 -0.0595104 -0.02703017 -0.0082627125 0.15793295
0.24578062 0.20092127 -0.098319575 0.25449228 0.00029973598 0.15914637 -0.05032906 0.09811963
0.2547872 -0.055623095 0.061132904 -0.011594272 0.05742066 0.2501317 -0.014066096 -0.031213464
0.11948453 0.27643272 0.33991265 0.23873672 -0.06732088 0.07185863 -0.11341979 0.32894474
0.1070111 0.13298568 0.3231581 0.10830314 0.1613375 -0.034143254 0.25823346 0.28016114
0.20766313 0.34208164 0.059601005 0.102408804 0.0562918 0.004009993 0.16533194 -0.04292579

output_layer.weight f4 [1, 64]
00000000: a935 c43e 6d17 b3bc 8ea7 a9bc 0882 923e
00000010: f36b b83e cbc4 9e3e 2529 b63e db2e 0bbf
00000020: ccd0 3dbf 3886 ae3e a59a 973e 0774 b63e
00000030: 298b bd3e 7923 36bf a0ae 2cbf 0ad7 96bd
00000040: c528 4abf acfa 48bf 3312 c03e 00a7 58bf
00000050: 7523 48bf 568c 93bd 1808 42bf c245 1ebf
00000060: e2d4 9c3e 02af bd3e 38f5 43bf 8285 ad3e
00000070: aac0 78bf fca0 3abf 0654 46bf 9dcc 02bf
00000080: 1790 b93e 6633 58bf 02f0 05bf 99c4 36bf
00000090: a0e6 9abd 6850 c33e ab56 14bf 5279 97bd
000000a0: 4d05 7b3f 235b bf3e c84c 963e a7c5 703f
000000b0: b506 47bf 3d61 01be 06f0 243d c9ba 9c3e
000000c0: 73f6 27bd d036 8b3f 287c b43e 2eb2 993e
000000d0: 5049 b93e cc57 38bd 6990 9e3e 8167 c93e
000000e0: 51c5 a73e 35c5 993e 4f61 9abc 68ef 38bf
000000f0: 8b84 30bf 8cc7 4abf 4a0f cc3e 35ac 38bf
0.3832219 -0.021861756 -0.02070978 0.2861483 0.3601986 0.31009516 0.35578266 -0.5436837
-0.74146724 0.34086776 0.29610172 0.35635397 0.37020233 -0.71147877 -0.67453957 -0.07365234
-0.7896846 -0.78507495 0.37513885 -0.8462982 -0.78179103 -0.07204501 -0.757936 -0.6182519
0.30631167 0.37047583 -0.7654605 0.3389092 -0.9716898 -0.7290189 -0.7747196 -0.51093465
0.36242744 -0.8445343 -0.5231935 -0.71393734 -0.075635195 0.38147283 -0.57944745 -0.07396187
0.98054963 0.3737422 0.29355454 0.94051594 -0.7774461 -0.1263475 0.040267967 0.30611256
-0.041006517 1.0876102 0.35250974 0.30018753 0.36188745 -0.045005605 0.3096955 0.3933678
0.32767728 0.3003327 -0.018845228 -0.72240305 -0.68952245 -0.79210734 0.39855415 -0.7213777
