TimeGAN4paper/result/iter6000/model/SL_lag1_total1/torch_best_model.pt (torch, 87834 bytes, 7 tensors)

lstm.weight_ih_l0 f4 [256, 1]
0.0061528925 0.15729435 0.0056113093 -0.035118006 -0.030106207 0.03627869 0.00300783 0.16513804
0.008471244 0.0011683076 -0.0047207396 -0.0021690365 -0.009610364 -0.006229822 -0.0048981495 0.015876472
0.0116911 0.15566383 -0.012378976 -0.0068803653 0.0043759877 0.16114356 -0.011109569 0.15990789
0.004927687 0.0046474305 0.15757115 -0.011846576 -0.008442389 -0.0044964417 0.0005492996 0.16203201
-0.116484255 -0.01397916 -0.009378565 0.0029658407 -0.004747841 0.033947725 0.013918674 0.010771796
-0.0014634376 -0.011677472 0.0021047408 -0.15098727 -0.0040861475 -0.0021466957 0.0035153 0.009339021
0.09127558 0.006630605 -0.0014506208 0.004098256 0.01025333 0.0046188696 0.15645471 0.011780504
-0.010952954 0.00873961 -0.011805396 -0.008361061 -0.0012091217 0.05657823 -0.0071331807 0.023763824
0.016288932 -0.0040537203 0.0080309985 0.010674734 0.01354845 0.02676677 -0.0061082486 0.039013725
0.023535723 0.029095095 0.0018154165 0.013052952 -0.00276503 0.00018314285 0.0116407275 0.010374103
0.02401787 0.022213819 0.16392228 0.01967356 -0.0057649263 0.008851183 0.01406009 0.011903531
0.0066378014 0.0054519656 0.009721517 0.014629832 0.15945575 0.010742613 -0.004323386 0.021170072
0.062414236 0.006842143 -0.005620592 -0.0056900037 0.018760022 0.042385634 0.00033306744 0.00090264564
0.012025957 0.00947262 -0.0018632164 -0.09641959 0.0085568065 0.0055040745 0.0034997961 0.0047807256
-0.009773751 0.036763757 0.0071241483 -0.0013978572 0.0017868793 0.0024417746 0.018273477 0.0139711695
0.010496098 0.0027474216 -0.0053777276 0.018336767 -0.001385587 0.0007220958 0.0009359612 0.0029968994
-0.0873697 -0.10245271 -0.0885195 0.018320799 -0.09402272 -0.005309472 0.090051316 0.00076509453
0.003945758 -0.0026197997 0.009597632 0.08843902 0.118405774 0.030489167 0.11867669 0.0016641439
-0.11229019 -0.089072555 0.0930293 -0.0033056866 0.008456651 -0.09578897 -0.11698151 -0.105501026
-0.08769774 0.0031305035 0.0083608925 -0.120553985 0.003082772 -0.09781368 -0.08834466 -0.087199725
-0.02308728 -0.0035285486 -0.112168744 -0.10792974 -0.09119854 -0.00308224 -0.001826627 0.0058978214
-0.1125073 -0.0076632653 0.10992743 -0.05098599 0.11287539 0.08586295 -0.11280762 0.0887865
0.0042117066 0.0016494317 0.09995666 -0.1010119 0.0029374831 -0.002084474 0.08926408 0.09492854
0.004312336 0.08721455 -0.08587077 -0.0058654486 -0.10301018 0.005247669 0.09924726 0.0032437618
-0.005329317 0.0033068466 0.007521561 0.0014069151 -0.020297205 -0.012858205 -0.006569829 0.015735302
0.014729305 0.15655299 0.0036625876 -0.003389124 0.010550651 0.01952783 0.0072171087 0.013856093
0.016074672 0.015410121 0.025962876 0.013148692 0.016416185 -0.0027002213 0.017055213 0.013150403
0.0042302473 0.0075451615 0.0046370435 -0.014296812 0.016506063 0.16467535 0.15781797 0.013555959
-0.14447092 0.15654211 0.009509319 0.010229516 0.027224647 0.00211618 0.012719904 0.027263226
0.016978513 0.045606993 0.15892199 -0.11330021 0.02183345 0.022829646 -0.004396848 0.0057509867
0.036661513 -0.0066144723 -0.0048116986 0.025345337 0.02264452 -0.005264254 0.16054738 0.025934258
0.005613386 0.016534103 0.009027944 0.004251745 0.018165568 -0.00846913 0.010604385 0.032800958
00000000: 349e c93b c511 213e 13df b73b e6d7 0fbd
00000010: 4ba1 f6bc f798 143d 031f 453b f219 293e
00000020: f9ca 0a3c e621 993a 6fb0 9abb 6526 0ebb
00000030: ca74 1dbc 8923 ccbb a880 a0bb 600f 823c
00000040: 078c 3f3c 5766 1f3e 30d1 4abc b074 e1bb
00000050: 7264 8f3b d102 253e e904 36bc e5be 233e
00000060: 6f78 a13b 7949 983b 555a 213e 2418 42bc
00000070: f251 0abc e356 93bb dffe 0f3a b8eb 253e
00000080: 4c8f eebd d908 65bc 8da8 19bc 8d5e 423b
00000090: c793 9bbb c50c 0b3d 260b 643c 307c 303c
000000a0: d1d0 bfba de52 3fbc b1ef 093b 689c 1abe
000000b0: 17e5 85bb 94af 0cbb f360 663b b102 193c
000000c0: b1ee ba3d 8c45 d93b c222 beba aa4a 863b
000000d0: 95fd 273c e359 973b aa35 203e 0403 413c
000000e0: 0574 33bc 9530 0f3c 6b6b 41bc d5fc 08bc
000000f0: 647b 9eba 93be 673d 75bd e9bb 5aac c23c
00000100: 5e70 853c 12d5 84bb 7394 033c 14e5 2e3c
00000110: 51fa 5d3c fc45 db3c b427 c8bb dbcc 1f3d
00000120: fdcd c03c d658 ee3c 45f3 ed3a 0cdc 553c
00000130: 8135 35bb 090a 4039 c0b8 3e3c 24f8 293c
00000140: 20c1 c43c c1f9 b53c 3edb 273e 722a a13c
00000150: b5e7 bcbb 8d04 113c 4b5c 663c 0707 433c
00000160: ea81 d93b 67a6 b23b ff46 1f3c f6b1 6f3c
00000170: 5e48 233e c901 303c 31ab 8dbb dc6c ad3c
00000180: 12a6 7f3d 0e34 e03b f12c b8bb 3673 babb
00000190: 9eae 993c 8f9c 2d3d 8e9f ae39 869f 6c3a
000001a0: 8508 453c 0c33 1b3c 2b37 f4ba a277 c5bd
000001b0: d931 0c3c 865b b43b d65c 653b a2a7 9c3b
000001c0: 1522 20bc 9895 163d b071 e93b 4e38 b7ba
000001d0: b835 ea3a 2e06 203b 42b2 953c 55e7 643c
000001e0: d3f7 2b3c 160e 343b a637 b0bb fd36 963c
000001f0: 969c b5ba 074b 3d3a 4b5b 753a a167 443b
00000200: e3ee b2bd bad2 d1bd b649 b5bd 8015 963c
00000210: fc8e c0bd 14fb adbb d36c b83d a090 483a
00000220: 6b4b 813b f2b0 2bbb 633f 1d3c 841f b53d
00000230: ba7e f23d 6bc4 f93c c40c f33d 671f da3a
00000240: 66f8 e5bd ac6b b6bd 2586 be3d 38a4 58bb
00000250: c48d 0a3c 022d c4bd 0094 efbd ec10 d8bd
00000260: df9a b3bd 2229 4d3b 20fc 083c 02e5 f6bd
00000270: 5508 4a3b 8a52 c8bd 0cee b4bd c595 b2bd
00000280: 8921 bdbc 393f 67bb bab8 e5bd 440a ddbd
00000290: 4dc6 babd 68ff 49bb 6e6b efba 8342 c13b
000002a0: 3a6a e6bd 211c fbbb a221 e13d afd6 50bd
000002b0: 362b e73d ead8 af3d ae07 e7bd b2d5 b53d
000002c0: 5b02 8a3b be31 d83a 14b6 cc3d 54df cebd
000002d0: ca82 403b ac9b 08bb 16d0 b63d e569 c23d
000002e0: 7f4e 8d3b 8b9d b23d 04dd afbd f332 c0bb
000002f0: 00f7 d2bd a3f4 ab3b 2642 cb3d 4b95 543b
00000300: 8da1 aebb aeb7 583b 6d77 f63b 3d68 b83a
00000310: 5346 a6bc 38ab 52bc b847 d7bb 52e7 803c
00000320: 2f53 713c 6d4f 203e 0608 703b 111c 5ebb
00000330: a3dc 2c3c d4f8 9f3c 7f7d ec3b ab04 633c
00000340: 08af 833c bb7a 7c3c 19b0 d43c 9d6d 573c
00000350: 3c7b 863c 32f6 30bb 60b7 8b3c ca74 573c
00000360: e39d 8a3b 673d f73b 57f2 973b 2d3d 6abc
00000370: b937 873c a8a0 283e 099b 213e d019 5e3c
00000380: 2ff0 13be 934c 203e facc 1b3c b399 273c
00000390: 3906 df3c 9caf 0a3b 2567 503c 2157 df3c
000003a0: 8616 8b3c 66ce 3a3d 72bc 223e f109 e8bd
000003b0: 10dc b23c 3d05 bb3c 6f13 90bb c672 bc3b
000003c0: 622a 163d 37be d8bb 74ab 9dbb 06a1 cf3c
000003d0: 0081 b93c c37f acbb 8866 243e 1574 d43c
000003e0: 7ff0 b73b 8772 873c f1e9 133c 3952 8b3b
000003f0: f5cf 943c 1bc2 0abc 04be 2d3c 4c5a 063d

lstm.weight_hh_l0 f4 [256, 64]
-0.086170115 0.13363123 -0.054963246 -0.18634996 0.17300336 0.39751875 -0.22410458 -0.48066595
0.0641273 0.23947997 -0.4713188 -0.34925774 -0.068274766 -0.26699817 -0.43295875 -0.2761575
-0.13077068 0.012790882 -0.39017406 -0.13264768 0.26170406 0.19922459 -0.06134434 -0.006566973
0.15488444 -0.35687017 -0.3332929 -0.007750486 0.102468535 0.44848013 0.18915781 0.27785698
-0.028558128 -0.018787654 0.16585886 0.08018615 0.33158228 -0.21118198 0.19093394 -0.5362333
-0.051275916 -0.10251539 -0.2579358 -0.04201564 -0.44999066 -0.21869743 0.2166797 -0.030085066
0.07414734 0.5946577 -0.3735039 0.39763767 -0.3060413 0.43690217 -0.3259108 -0.20744622
-0.43130645 -0.03846596 -0.048478764 0.7910816 0.28313708 -0.28921026 -0.017344331 -0.41011006
-0.025865247 -0.020952253 -0.12233889 0.0155630745 0.07982768 0.11492954 0.10241647 0.02287195
0.075975865 -0.07652556 -0.074425004 -0.07906106 0.13354622 0.11970896 -0.038143847 0.05878117
0.04944174 0.0769281 0.14154024 0.057365637 -0.011024857 -0.092118695 0.05478178 0.022573074
-0.107517056 0.14051314 0.09933111 0.060080178 -0.06204932 -0.011908799 -0.11002546 0.05223949
-0.022492573 0.017315015 -0.002094813 0.027273385 -0.08620516 0.051260676 -0.08590953 0.07525082
-0.12473782 -0.16300936 -0.06411548 0.09868376 0.09689638 0.1654419 0.06789587 -0.074973874
-0.07555074 -0.025033016 -0.04962854 0.04877758 -0.07714788 -0.069149174 -0.07057281 -0.022451144
0.12099236 0.14720641 0.074197836 0.07414767 0.080384314 -0.006902432 0.078067355 0.12844022
-0.024309153 0.1816989 -0.060753252 0.14029609 -0.16003361 -0.07864357 0.14137486 -0.23415272
-0.2613512 -0.3275099 -0.07388083 0.23211996 0.21517333 0.040586796 -0.047465537 -0.1536742
0.1468185 0.06452803 0.100663364 -0.13752876 -0.15392257 -0.11103947 0.0049931076 0.1735627
0.009112251 -0.025757806 -0.18428807 -0.22210059 0.14564463 -0.09690129 -0.13031366 -0.0026489154
-0.033933744 -0.33068466 -0.1923581 0.09769051 -0.14148831 0.10298199 0.18513025 -0.184063
0.06399415 -0.066925764 0.015190427 -0.092893936 0.064878695 0.049437176 -0.22797146 -0.028784553
-0.12711656 0.29185805 0.039561134 0.0072353175 -0.23305346 -0.10723746 0.10551425 -0.09885328
-0.14882904 -0.19605736 -0.085760206 0.08788938 -0.19966117 0.052370664 0.050478093 -0.4762514
-0.25201413 -0.57839346 0.20943135 0.89058626 -0.5576338 -0.23150206 0.23643519 0.40299308
0.5201132 -0.050261945 -0.0049436516 0.08519565 -0.012221326 0.2501669 0.54515487 0.52499837
-0.4336541 -0.42421237 0.6499762 -0.7353518 -1.35793 -0.28453398 -0.42996702 -0.3632744
-0.431147 0.5072639 0.3381014 -0.012143535 0.47317168 -0.13405736 -0.29853573 -0.43050522
-0.08824099 -0.14116302 -0.2984613 0.06451028 -0.6272676 0.38711187 0.18798023 0.52320266
-0.5219175 -0.919111 0.070630014 0.016611673 0.35703075 -0.05226564 -0.24067694 0.4421983
-0.5315625 -0.15515259 0.33064145 -0.26949957 0.1273726 0.08001732 0.3124982 0.2664006
0.15115723 0.37510931 0.10233705 -0.38866344 -0.2695763 0.18721092 0.09175159 0.9107455
00000000: f579 b0bd a0d6 083e 2421 61bd 86d2 3ebe
00000010: cb27 313e 9487 cb3e ac7b 65be d919 f6be
00000020: 2d55 833d 3d3a 753e b350 f1be e9d1 b2be
00000030: a4d3 8bbd fcb3 88be c5ac ddbe 8464 8dbe
00000040: c0e8 05be d990 513c e5c4 c7be cbd4 07be
00000050: 13fe 853e 8801 4c3e 3444 7bbd c32f d7bb
00000060: 079a 1e3e b0b7 b6be 5ea5 aabe caf7 fdbb
00000070: 06db d13d 309f e53e 96b2 413e 4543 8e3e
00000080: bcf2 e9bc 91e8 99bc e8d6 293e a338 a43d
00000090: 27c5 a93e 1740 58be 3084 433e 9646 09bf
000000a0: b206 52bd 97f3 d1bd 2910 84be 9718 2cbd
000000b0: 2d65 e6be 38f2 5fbe 49e1 5d3e f574 f6bc
000000c0: 90da 973d 7d3b 183f e73b bfbe 2a97 cb3e
000000d0: 72b1 9cbe a4b1 df3e c8dd a6be c86c 54be
000000e0: 33d4 dcbe 7c8e 1dbd ab91 46bd 5384 4a3f
000000f0: 58f7 903e 5e13 94be b315 8ebc f2f9 d1be
00000100: 5be3 d3bc 0fa4 abbc d08c fabd 44fc 7e3c
00000110: b27c a33d 2e60 eb3d babf d13d f55d bb3c
00000120: 3c99 9b3d 6fb9 9cbd 236c 98bd c4ea a1bd
00000130: 57c0 083e f929 f53d b93c 1cbd 86c4 703d
00000140: 6c83 4a3d 7b8c 9d3d edef 103e 3bf8 6a3d
00000150: 9aa1 34bc baa8 bcbd dc62 603d 2beb b83c
00000160: e731 dcbd ade2 0f3e 1c6e cb3d a216 763d
00000170: 6e27 7ebd 201d 43bc 0755 e1bd 13f9 553d
00000180: 5842 b8bc 38d8 8d3c 2149 09bb 6f6c df3c
00000190: 558c b0bd b7f6 513d 56f1 afbd 1a1d 9a3d
000001a0: 8b76 ffbd edeb 26be fa4e 83bd b61a ca3d
000001b0: 9c71 c63d 9a69 293e fd0c 8b3d e78b 99bd
000001c0: 59ba 9abd 0a12 cdbc 4c47 4bbd 00cb 473d
000001d0: b5ff 9dbd 159e 8dbd 7a88 90bd 76eb b7bc
000001e0: d8ca f73d 47bd 163e 09f5 973d bcda 973d
000001f0: 88a0 a43d cc2d e2bb c7e1 9f3d d585 033e
00000200: fd23 c7bc 470f 3a3e 67d8 78bd c7a9 0f3e
00000210: dadf 23be e10f a1bd 92c4 103e bbc5 6fbe
00000220: d3cf 85be 61af a7be d54e 97bd dbb0 6d3e
00000230: 6656 5c3e 573e 263d 396b 42bd c55c 1dbe
00000240: 9757 163e 4627 843d 9828 ce3d 57d4 0cbe
00000250: e19d 1dbe a968 e3bd 399d a33b 6cba 313e
00000260: 8d4b 153c 0902 d3bc 03b6 3cbe 566e 63be
00000270: de23 153e 2f74 c6bd f270 05be 6d99 2dbb
00000280: 1cfe 0abd 804f a9be 86f9 44be f611 c83d
00000290: 50e2 10be 39e8 d23d c992 3d3e 037b 3cbe
000002a0: 5d0f 833d 6010 89bd 45e1 783c 2d3f bebd
000002b0: 1fdf 843d a37e 4a3d 5a71 69be 95cd ebbc
000002c0: d82a 02be 6b6e 953e db0a 223d 3e16 ed3b
000002d0: 91a5 6ebe 509f dbbd db17 d83d 9773 cabd
000002e0: a466 18be 43c3 48be 0ca3 afbd 59ff b33d
000002f0: fa73 4cbe 9f82 563d 1ec2 4e3d 39d7 f3be
00000300: ff07 81be 9811 14bf 2c75 563e 76fd 633f
00000310: 17c1 0ebf e00e 6dbe 111c 723e 1c55 ce3e
00000320: 2426 053f 78df 4dbd 5bfe a1bb 0f7b ae3d
00000330: f53b 48bc e015 803e 458f 0b3f 4b66 063f
00000340: e907 debe 5d32 d9be d764 263f 0440 3cbf
00000350: a6d0 adbf 70ae 91be a324 dcbe 1aff b9be
00000360: 4dbf dcbe 0cdc 013f a01b ad3e adf5 46bc
00000370: 8f43 f23e 5546 09be add9 98be 2e6b dcbe
00000380: b1b7 b4bd 0a8d 10be ebcf 98be f71d 843d
00000390: 9c94 20bf 8733 c63e e47d 403e 9cf0 053f
000003a0: 639c 05bf dc4a 6bbf 78a6 903d 3415 883c
000003b0: bccc b63e 7f14 56bd 0474 76be d167 e23e
000003c0: 7b14 08bf 52e0 1ebe d649 a93e d9fb 89be
000003d0: f66d 023e 1fe0 a33d c4ff 9f3e a965 883e
000003e0: f6c8 1a3e 540e c03e 1696 d13d e5fe c6be
000003f0: e805 8abe 38b4 3f3e 42e8 bb3d 9e26 693f

lstm.bias_ih_l0 f4 [256]
0.08668467 0.16454044 -0.078687586 0.26863626 0.309354 -0.14527175 -0.20510553 -0.10360557
-0.27009642 -0.24214204 -0.19359505 -0.15803742 -0.023612315 0.12694253 0.019624224 0.024943046
-0.112252295 0.16286306 -0.0008460455 0.17382129 -0.0141841285 0.031095093 -0.047727257 0.13539912
-0.1794178 -0.14286117 0.11977911 -0.055296425 0.03921037 -0.014063738 -0.0644465 -0.086296566
-0.05533047 0.16628243 -0.009286321 0.042658553 0.026747398 -0.1664566 -0.14872253 -0.10699802
-0.24190775 0.15585385 -0.19829123 0.07163881 0.16857348 0.041253548 -0.26255882 -0.17149046
0.0067470153 -0.2686502 -0.08919887 -0.060261484 -0.15585126 -0.10205354 0.1771369 0.095147885
0.07096931 0.012456106 0.15557195 -0.049494397 -0.18305989 -0.18550238 0.06932058 -0.32099444
-0.07462308 -0.15470739 -0.06226556 0.03263363 -0.10394625 -0.19763494 0.050580863 -0.0050748372
-0.09125471 -0.21855934 -0.14079876 -0.1732115 -0.07784135 0.09617867 -0.08363575 0.07394711
0.07716183 -0.16655616 0.08302748 0.14736967 0.09104715 -0.068309255 -0.051294304 -0.049434606
-0.040469892 -0.0014974457 -0.04199457 -0.15520722 0.101810955 -0.028934084 0.09828174 -0.06149464
-0.086104706 -0.06924946 0.32619792 0.0016512608 -0.19660474 -0.2552214 0.005221453 0.08512069
0.089782946 0.018760882 0.07784741 0.013320342 0.10164122 -0.1266281 -0.0051103826 -0.351106
0.15205657 -0.25713617 -0.15711424 0.12046035 -0.096943505 -0.1145633 -0.22104967 -0.124026164
-0.20833959 -0.1080578 0.1532998 -0.052474733 0.10054066 0.012900199 -0.10902963 -0.05412416
-0.019709732 -0.06840508 -0.057588328 -0.09546992 0.11281439 0.03233909 0.10032195 -0.109109275
-0.36190516 -0.026839849 -0.17880249 -0.05091145 -0.116463214 -0.20271918 -0.084005415 -0.087040745
-0.041287675 -0.11689454 0.020340288 0.12314499 0.015872838 0.09496501 -0.01084426 0.09952445
-0.012351158 -0.081128724 -0.18791158 -0.05020903 -0.183724 0.03014937 -0.11603538 0.008500922
-0.10002839 0.032442752 -0.018080771 -0.055956945 0.034870204 -0.19079766 0.24075332 -0.17887238
0.074150145 0.17920227 -0.029218629 -0.009196788 -0.0036595464 0.07452182 0.007554397 -0.030536052
0.12682404 0.2352993 -0.008276537 -0.06382729 0.020829583 -0.0054452713 -0.070816234 -0.06583765
-0.067498274 -0.035785377 0.065590546 0.13170792 -0.053350434 -0.12374969 0.09059967 -0.21560034
0.102470025 -0.32995245 0.09671492 0.46806923 0.48851714 -0.3522652 0.13140957 -0.2871114
-0.3044233 0.073112786 -0.042769477 0.06325021 0.08688928 -0.19247971 -0.097238846 -0.16968212
-0.23688737 -0.3289614 -0.49540043 -0.24479958 -0.37727714 -0.0750058 -0.43273905 -0.41206992
0.10199229 0.018040001 -0.24036545 0.20014508 -0.41929728 -0.030230314 0.11558022 -0.27570474
-0.009115609 0.07611886 -0.10362914 -0.18434292 -0.42827213 0.0659768 -0.025420895 -0.21449167
-0.3149311 -0.3817839 0.025878144 -0.011072064 -0.25679594 0.07579525 -0.06823124 -0.27327314
-0.11868725 -0.09257694 0.14231798 -0.2592217 -0.29235154 -0.020341493 0.016828338 0.08781294
-0.13246372 -0.34617776 0.13816422 -0.17227823 -0.078264765 -0.34211114 -0.03569968 -0.016436882
00000000: bb87 b13d 4a7d 283e f526 a1bd b18a 893e
00000010: a663 9e3e 1ec2 14be 2f07 52be 282f d4bd
00000020: 144a 8abe 15f4 77be c83d 46be 90d4 21be
00000030: 9d6e c1bc 39fd 013e fbc2 a03c 5c55 cc3c
00000040: 88e4 e5bd 93c5 263e 27c9 5dba 35fe 313e
00000050: 8c64 68bc 23bb fe3c a87d 43bd 11a6 0a3e
00000060: 4db9 37be 334a 12be c04e f53d 817e 62bd
00000070: 0e9b 203d 986b 66bc 87fc 83bd 41bc b0bd
00000080: 34a2 62bd f145 2a3e a725 18bc bcba 2e3d
00000090: 5c1d db3c 9973 2abe b84a 18be c721 dbbd
000000a0: aab6 77be 2798 1f3e db0c 4bbe 5eb7 923d
000000b0: 879e 2c3e 7bf9 283d 1c6e 86be 329b 2fbe
000000c0: 1116 dd3b 858c 89be e6ad b6bd bfd4 76bd
000000d0: 7997 1fbe 7201 d1bd 6063 353e e5dc c23d
000000e0: 5c58 913d b214 4c3c 414e 1f3e a3ba 4abd
000000f0: 0d74 3bbe 56f4 3dbe f3f7 8d3d 6259 a4be
00000100: fcd3 98bd 9d6b 1ebe 2c0a 7fbd d7aa 053d
00000110: c6e1 d4bd d060 4abe e12d 4f3d d24a a6bb
00000120: c0e3 babd 05ce 5fbe 8d2d 10be 5b5e 31be
00000130: 496b 9fbd 53f9 c43d 3849 abbd 9571 973d
00000140: 0607 9e3d b38d 2abe 500a aa3d 13e8 163e
00000150: ee76 ba3d b9e5 8bbd fa19 52bd f17b 4abd
00000160: c2c3 25bd f145 c4ba 8002 2cbd a4ee 1ebe
00000170: 4382 d03d 2c07 edbc f047 c93d cee1 7bbd
00000180: aa57 b0bd a9d2 8dbd 6a03 a73e 1e6f d83a
00000190: c152 49be 61ac 82be b918 ab3b c253 ae3d
000001a0: 1fe0 b73d 6cb0 993c 776e 9f3d 903d 5a3c
000001b0: 4629 d03d ccaa 01be ff74 a7bb 2ac4 b3be
000001c0: b8b4 1b3e 5aa7 83be 8ee2 20be eab3 f63d
000001d0: 518a c6bd 2aa0 eabd d85a 62be 6e01 febd
000001e0: f956 55be 684d ddbd 9ffa 1c3e bfef 56bd
000001f0: 43e8 cd3d 5b5b 533c ed4a dfbd 4cb1 5dbd
00000200: 4e76 a1bc f617 8cbd bde1 6bbd bc85 c3bd
00000210: 3b0b e73d fe75 043d 9875 cd3d af74 dfbd
00000220: a24b b9be 3edf dbbc 0018 37be 8688 50bd
00000230: 4484 eebd 9e95 4fbe 080b acbd 6b42 b2bd
00000240: 441d 29bd 6866 efbd ada0 a63c 7133 fc3d
00000250: c107 823c 047d c23d 20ac 31bc 7ad3 cb3d
00000260: 835c 4abc d126 a6bd e56b 40be fca7 4dbd
00000270: 2522 3cbe d0fb f63c f5a3 edbd 7347 0b3c
00000280: afdb ccbd b1e2 043d 201e 94bc 1c33 65bd
00000290: 0fd4 0e3d 7660 43be 0a88 763e 522a 37be
000002a0: 08dc 973d cd80 373e e85b efbc 20ae 16bc
000002b0: 00d5 6fbb e59e 983d e08a f73b be26 fabc
000002c0: 29de 013e 4df2 703e 509a 07bc e2b7 82bd
000002d0: cda2 aa3c 3f6e b2bb 1a08 91bd e4d5 86bd
000002e0: 893c 8abd b093 12bd 5654 863d 71de 063e
000002f0: fc85 5abd 7a70 fdbd 528c b93d 56c6 5cbe
00000300: cedb d13d 87ef a8be 7912 c63d c5a6 ef3e
00000310: eb1e fa3e 1b5c b4be 3b90 063e 4400 93be
00000320: 5fdd 9bbe 28bc 953d 0c2f 2fbd 5389 813d
00000330: 02f3 b13d 6719 45be 2925 c7bd 26c1 2dbe
00000340: 9a92 72be a16d a8be 20a5 fdbe beac 7abe
00000350: 782a c1be a49c 99bd f98f ddbe d4fa d2be
00000360: 55e1 d03d a0c8 933c 5c22 76be d5f2 4c3e
00000370: 22ae d6be 90a5 f7bc 53b5 ec3d 2c29 8dbe
00000380: a359 15bc 34e4 9b3d 843b d4bd 64c4 3cbe
00000390: 7c46 dbbe d81e 873d 7b3f d0bc b4a3 5bbe
000003a0: a63e a1be 2e79 c3be 67fe d33c 9a67 35bc
000003b0: c27a 83be 8a3a 9b3d d2bc 8bbd 75ea 8bbe
000003c0: 4d12 f3bd fb98 bdbd cebb 113e b5b8 84be
000003d0: 1aaf 95be 34a3 a6bc 95db 893c 45d7 b33d
000003e0: 92a4 07be 363e b1be ec7a 0d3e b469 30be
000003f0: 4749 a0bd 3129 afbe d439 12bd a4a6 86bc

lstm.bias_hh_l0 f4 [256]
-0.090907104 -0.0003259814 -0.17560346 0.17796949 0.1274859 -0.2020836 0.011599624 -0.10699867
-0.25692368 -0.07826409 -0.21470265 -0.07331089 -0.020301241 0.047303304 -0.044072848 -0.12334938
-0.25924635 0.13864566 0.082039274 0.27668908 -0.1386947 0.09976167 -0.15956885 -0.032182883
-0.19374917 -0.029990813 0.11728892 0.11773845 -0.014297296 -0.03076982 0.004171149 0.116834484
0.089358546 0.09723955 -0.01614855 0.09064063 0.021227749 -0.32409763 -0.103893384 -0.15891567
-0.10015595 0.25019723 -0.13233827 -0.107145295 -0.07436568 -0.13275898 -0.1369249 -0.2123724
0.09149166 -0.24921224 -0.12560256 -0.15036675 0.015022104 -0.2304638 0.06450762 0.16277519
0.086059496 -0.16845064 0.19927414 -0.15662715 -0.31821904 -0.21607567 -0.10255675 -0.17021742
-0.034239963 0.05585232 0.0071280147 -0.06655752 -0.011881479 -0.12227887 -0.031723414 0.051599864
-0.04085798 -0.04740432 0.023877876 -0.18476795 -0.040132776 0.14687945 0.012402052 0.0014346099
0.19159895 -0.201071 -0.034433406 0.13192815 0.14209165 -0.17376655 -0.07007313 -0.14886582
-0.13895151 0.113428675 -0.1157386 -0.18003368 0.066202864 -0.01829213 0.069811285 -0.024846274
-0.00791496 -0.054787762 0.33541194 0.12648721 -0.23270401 -0.19948143 -0.017311541 0.05540633
-0.038049024 -0.11020753 0.070118174 0.043886423 -0.0801887 -0.114308044 0.055130683 -0.2621405
0.3230775 -0.103364445 -0.12894265 0.07091051 -0.1436153 -0.03196553 -0.22711961 -0.18143672
-0.23548685 -0.10297528 -0.017433628 -0.17619646 0.024324719 0.11349008 0.07795256 0.088403255
-0.015710628 0.118756175 -0.071593165 -0.02262953 0.032381915 -0.07429429 0.07793197 0.06644259
-0.32881573 0.17257503 -0.06699722 -0.07573772 0.09001383 -0.15655375 0.034527525 -0.1789956
-0.014323324 -0.05895818 -0.060499378 -0.024137188 -0.016631395 -0.077494204 -0.07816987 -0.11582355
0.07816864 0.018752985 -0.19978157 0.06951161 -0.107225455 -0.07624005 -0.066070035 0.019537205
0.0007216935 0.04126371 -0.018779978 0.088141814 -0.14431511 -0.07952962 0.10121111 0.0064722924
-0.0104534775 -0.012696783 -0.08274001 -0.011499733 0.009019434 0.07826277 -0.025179774 -0.06503612
-0.104674436 0.13405335 0.10433106 -0.11606386 -0.07606597 0.1476351 0.109883994 -0.07054959
-0.18459316 0.14149986 -0.07823335 0.07863144 -0.12402348 -0.016961789 -0.0008863658 -0.1751034
-0.038880635 -0.26788196 -0.04338436 0.34915215 0.4986177 -0.16072938 0.079924904 -0.24610728
-0.28999412 0.13358124 -0.046506 0.15186891 0.057822805 -0.12998632 -0.034926295 -0.35329252
-0.35146302 -0.23797801 -0.49377203 -0.40252617 -0.4437818 0.049931414 -0.4414844 -0.37059096
0.007978102 -0.028767785 -0.34382212 0.09778977 -0.38415748 0.056474667 -0.03077962 -0.35825375
-0.015492666 0.13348383 -0.06477431 0.0030182544 -0.45718744 0.10638226 -0.24187979 -0.2599611
-0.50553596 -0.2888751 -0.050925627 0.09282674 -0.30603078 0.14817683 -0.009392712 -0.39469874
-0.102119766 -0.23795056 0.061046522 -0.18672498 -0.32508552 -0.011457642 0.1536759 0.15012701
-0.019225817 -0.34956166 -0.0998141 -0.31532717 -0.13611537 -0.2668876 -0.033216566 -0.068710536
00000000: 812d babd 7ce8 aab9 65d1 33be a23d 363e
00000010: aa8b 023e 01ef 4ebe 590c 3e3c 1e22 dbbd
00000020: 808b 83be ec48 a0bd 03db 5bbe 0524 96bd
00000030: ca4e a6bc 1cc1 413d bb85 34bd 9a9e fcbd
00000040: f0bb 84be 21f9 0d3e 3504 a83d 31aa 8d3e
00000050: fc05 0ebe d94f cc3d 0466 23be 33d2 03bd
00000060: 2f66 46be 4baf f5bc 2c35 f03d db20 f13d
00000070: 353f 6abc fd10 fcbc 22ae 883b eb46 ef3d
00000080: 9d01 b73d 8725 c73d f749 84bc cba1 b93d
00000090: d1e5 ad3c 20f0 a5be 0ec6 d4bd caba 22be
000000a0: 901e cdbd da19 803e af83 07be fe6e dbbd
000000b0: 094d 98bd f8f1 07be 0a36 0cbe 2778 59be
000000c0: fb5f bb3d 7e31 7fbe f59d 00be bef9 19be
000000d0: 451f 763c b4fe 6bbe 921c 843d 8aae 263e
000000e0: f63f b03d 537e 2cbe 850e 4c3e de62 20be
000000f0: 9bed a2be f142 5dbe 4609 d2bd 7a4d 2ebe
00000100: 343f 0cbd 67c5 643d 1f92 e93b 4f4f 88bd
00000110: 89aa 42bc 586d fabd 69f0 01bd 615a 533d
00000120: b25a 27bd 082b 42bd 899b c33c cf33 3dbe
00000130: 4462 24bd 9167 163e fa31 4b3c 8509 bc3a
00000140: 8432 443e 8ee5 4dbe 0b0a 0dbd 2c18 073e
00000150: 7980 113e dcef 31be 8082 8fbd 4870 18be
00000160: 4e49 0ebe 4b4d e83d 5c08 edbd c05a 38be
00000170: 5e95 873d 61d9 95bc 38f9 8e3d 6a8a cbbc
00000180: c0ad 01bc 2269 60bd 1dbb ab3e dd85 013e
00000190: f649 6ebe dc44 4cbe efd0 8dbc bff1 623d
000001a0: 4bd9 1bbd 7cb4 e1bd 1e9a 8f3d 40c2 333d
000001b0: f939 a4bd 561a eabd b6d0 613d 4837 86be
000001c0: 6a6a a53e bdb0 d3bd 8b09 04be 8839 913d
000001d0: e40f 13be 4aee 02bd 0b92 68be 8cca 39be
000001e0: 7723 71be b4e4 d2bd f8d0 8ebc d86c 34be
000001f0: a244 c73c 7d6d e83d 97a5 9f3d c40c b53d
00000200: 93b3 80bc 7036 f33d 709f 92bd 9061 b9bc
00000210: e6a2 043d 9b27 98bd cc9a 9f3d 0d13 883d
00000220: 895a a8be 82b7 303e d735 89bd 611c 9bbd
00000230: 2c59 b83d a04f 20be bc6c 0d3d 9f4a 37be
00000240: 60ac 6abc 227e 71bd 32ce 77bd 5abb c5bc
00000250: 903e 88bc 48b5 9ebd 8617 a0bd e634 edbd
00000260: e116 a03d dc9f 993c 8a93 4cbe 1a5c 8e3d
00000270: 0599 dbbd be23 9cbd ba4f 87bd 7d0c a03c
00000280: 0830 3d3a 2304 293d 78d8 99bc b283 b43d
00000290: 57c7 13be 6de0 a2bd c547 cf3d 8615 d43b
000002a0: 1045 2bbc 2b06 50bc 9873 a9bd 6069 3cbc
000002b0: 40c6 133c 3b48 a03d d045 cebc a831 85bd
000002c0: 8d5f d6bd 4845 093e 86ab d53d e4b2 edbd
000002d0: 7ac8 9bbd a82d 173e dc0a e13d 4e7c 90bd
000002e0: fd05 3dbe 57e5 103e ce38 a0bd 8509 a13d
000002f0: 0600 febd 73f3 8abc 005b 68ba 4e4e 33be
00000300: 4d41 1fbd d327 89be ccb3 31bd 12c4 b23e
00000310: d24a ff3e 3e96 24be abaf a33d 8c03 7cbe
00000320: 1c7a 94be 85c9 083e 137d 3ebd 8683 1b3e
00000330: 9bd7 6c3d 221b 05be e00e 0fbd c2e2 b4be
00000340: f6f2 b3be 82b0 73be b0cf fcbe e917 cebe
00000350: 5e37 e3be e284 4c3d 3e0a e2be 19be bdbe
00000360: 96b6 023c 6baa ebbc 7409 b0be 0146 c83d
00000370: 4ab0 c4be fb51 673d 8b25 fcbc 096d b7be
00000380: f3d4 7dbc fcaf 083e 65a8 84bd e8cd 453b
00000390: 7914 eabe f1de d93d 56af 77be 9f19 85be
000003a0: ce6a 01bf 70e7 93be 6497 50bd f21b be3d
000003b0: 11b0 9cbe abbb 173e e4e3 19bc f415 cabe
000003c0: 2b24 d1bd 50a9 73be eb0b 7a3d d534 3fbe
000003d0: 9c71 a6be d5b8 3bbc 375d 1d3e e5ba 193e
000003e0: 767f 9dbc bff9 b2be 566b ccbd 9072 a1be
000003f0: d461 0bbe 7ea5 88be 180e 08bd 1cb8 8cbd

fc_layer.weight f4 [64, 64]
-0.7503407 -0.858658 -0.6613767 -0.009176388 1.5909419 -0.9789379 0.9973486 0.7933496
0.89144164 -0.68119437 0.88370806 1.0915735 1.3592935 0.8326909 0.8717785 0.9257913
-0.6866058 -0.7622326 0.80579007 -1.1066501 -1.6047326 -0.71653485 -0.74057037 -1.046857
-0.85194236 0.80742174 0.8218152 -2.9514494 0.8246337 -0.786168 -0.78821516 -0.67446667
-0.1247914 -0.48490572 -0.8114231 -0.5619012 -0.74742335 0.9176396 -0.896617 0.664966
-1.0783213 -0.86707234 0.89091545 0.084688395 0.88105416 0.3698618 -0.8763598 0.83469886
-1.4568799 -0.4674963 0.7978493 -0.7975981 0.8619568 -0.8004742 0.6374045 0.39046264
0.570335 0.78542364 -1.5973258 -0.8252292 -0.65963334 0.8258022 0.724746 0.8032364
-0.24347878 0.03963183 -0.1606052 0.3637535 -1.7819957 -0.0021849223 -0.1580472 -0.83876055
0.028221816 -0.21585299 0.34519106 -0.03502434 -0.21913175 0.26033384 0.21626714 -0.37938803
-0.07468767 -0.109884046 0.12683782 0.7171394 1.3376712 -0.29500675 -0.05539935 0.09319711
-0.1405421 -0.05710536 0.10473545 2.1398787 0.07608628 -0.14376025 -0.33997458 -0.12519464
0.019880623 -0.4447393 -0.09179093 -0.0058168117 -0.085944675 0.0025402205 0.025228173 0.044023395
0.14264359 0.27598006 0.11029706 0.08203465 0.1718404 0.25523534 0.11696622 0.030858312
1.205208 -0.15608262 0.062548034 -0.18435113 -0.5622399 -0.08186233 0.26412112 0.22645888
0.05285935 -0.07738953 0.8146842 0.17448027 -0.16485916 -0.19878623 0.04305583 0.00450817
-0.17266986 0.06684488 -0.25009754 0.33550668 -1.8181342 -0.14737178 -0.22399913 -0.45761496
-0.04138931 -0.22340703 0.23430873 -0.041410062 0.026094776 -0.15005967 0.19470122 -0.6363226
0.09406165 -0.080059424 0.20670249 0.9047326 1.715214 -0.27812833 -0.016653901 0.18029007
-0.067481205 -0.25016868 0.05167831 0.97291 -0.02749795 -0.24419402 -0.21825753 -0.054072745
-0.08753294 -0.41400412 -0.39373192 -0.24310787 -0.08409005 0.15751855 0.14210595 0.1201076
0.32991463 0.5554382 -0.017602002 -0.10503498 -0.103216276 0.2617002 0.09955751 0.12572676
1.6160163 -0.11222187 -0.0047697127 0.07659798 -0.3284039 -0.06622114 0.12650621 0.37543753
0.12719357 -0.079140395 0.3955384 0.505694 0.28026262 -0.23467936 0.46565658 -0.16019566
-0.97774035 -0.77210665 -0.7198076 -0.061717268 1.7128747 -1.0096378 1.226563 0.8759244
0.92461574 -0.78727174 0.7905269 0.94592845 1.1986908 0.90274715 0.7490071 1.1527977
-0.8003553 -0.8047264 0.93463326 -1.1516774 -1.4948219 -0.8609395 -0.7640586 -1.197495
-0.81995535 0.88821244 0.7594926 -2.9605558 0.88572234 -0.70780206 -0.81491286 -0.8856119
-0.059186395 -0.5903111 -0.9335113 -0.6767936 -0.91452724 0.9042415 -0.9312277 0.82568264
-0.93628365 -1.0943708 0.9649636 -0.10116778 0.68160933 0.5290254 -1.0918895 1.0014192
-1.4143718 -0.47047475 0.81525564 -0.75391465 0.9180106 -0.858208 0.7982142 0.5745905
0.71337825 0.97392994 -1.6239507 -0.9362697 -0.61346406 0.84478384 0.70193034 0.8791369
00000000: 5416 40bf 03d1 5bbf fc4f 29bf 9058 16bc
00000010: fca3 cb3f ad9b 7abf 3d52 7f3f f618 4b3f
00000020: 8535 643f c162 2ebf b13a 623f aeb8 8b3f
00000030: 54fd ad3f 3b2b 553f e02c 5f3f a900 6d3f
00000040: 66c5 2fbf ad21 43bf 4248 4e3f b6a6 8dbf
00000050: e167 cdbf d46e 37bf 0596 3dbf 69ff 85bf
00000060: e518 5abf 31b3 4e3f 7b62 523f 8ce4 3cc0
00000070: 321b 533f 4e42 49bf 78c8 49bf d9a9 2cbf
00000080: a292 ffbd 9045 f8be 6db9 4fbf c2d8 0fbf
00000090: 2357 3fbf 6eea 6a3f b188 65bf 363b 2a3f
000000a0: 6f06 8abf 74f8 5dbf 0913 643f 1c71 ad3d
000000b0: c48c 613f 875e bd3e 1e59 60bf d3ae 553f
000000c0: 0a7b babf ad5b efbe da3f 4c3f 642f 4cbf
000000d0: 33a9 5c3f e1eb 4cbf f12c 233f b8ea c73e
000000e0: 7901 123f 8611 493f 2c75 ccbf 3942 53bf
000000f0: bbdd 28bf c667 533f f488 393f e7a0 4d3f
00000100: 8052 79be fc54 223d b175 24be e63d ba3e
00000110: 6f18 e4bf ea30 0fbb 20d7 21be 03b9 56bf
00000120: 7031 e73c 9108 5dbe e2bc b03e af75 0fbd
00000130: 1364 60be 7a4a 853e 2275 5d3e 263f c2be
00000140: d9f5 98bd e30a e1bd c6e1 013e 7396 373f
00000150: cf38 ab3f 200b 97be 6eea 62bd 20de be3d
00000160: 45ea 0fbe 4fe7 69bd 8a7f d63d c6f3 0840
00000170: 20d3 9b3d e335 13be 2611 aebe 0633 00be
00000180: b0dc a23c dfb4 e3be e2fc bbbd f49a bebb
00000190: c303 b0bd d479 263b 50ab ce3c e051 343d
000001a0: 2911 123e 424d 8d3e 6de3 e13d c801 a83d
000001b0: eef6 2f3e 35ae 823e fc8b ef3d 92ca fc3c
000001c0: 4144 9a3f 1fd4 1fbe 2f19 803d 8bc6 3cbe
000001d0: f4ee 0fbf 70a7 a7bd e23a 873e d6e4 673e
000001e0: 0c83 583d 677e 9ebd 258f 503f f5aa 323e
000001f0: d7d0 28be 9e8e 4bbe 4f5b 303d 45b9 933b
00000200: 5ed0 30be f8e5 883d c90c 80be 88c7 ab3e
00000210: 9fb8 e8bf a1e8 16be 0760 65be 824c eabe
00000220: d687 29bd d0c4 64be a1ee 6f3e 999d 29bd
00000230: b6c4 d53c 3ea9 19be c25f 473e 0ae6 22bf
00000240: 65a3 c03d 32f6 a3bd d1a9 533e 8e9c 673f
00000250: 228c db3f d666 8ebe c36d 88bc f69d 383e
00000260: 9633 8abd 1c16 80be a3ac 533d a110 793f
00000270: 6143 e1bc ff0d 7abe e77e 5fbe 627b 5dbd
00000280: 7844 b3bd 59f8 d3be 3b97 c9be 45f1 78be
00000290: 6737 acbd 8b4c 213e 3984 113e f9fa f53d
000002a0: 92ea a83e 3331 0e3f 1332 90bc 941c d7bd
000002b0: 0e63 d3bd 92fd 853e cfe4 cb3d 84be 003e
000002c0: 9fd9 ce3f 94d4 e5bd 404b 9cbb 67df 9c3d
000002d0: 8e24 a8be f39e 87bd d88a 013e 5939 c03e
000002e0: 083f 023e 5c14 a2bd 0284 ca3e 2975 013f
000002f0: 957e 8f3e c94f 70be 8a6a ee3e 550a 24be
00000300: 314d 7abf c8a8 45bf 5045 38bf 3fcb 7cbd
00000310: 7a3f db3f d03b 81bf 0400 9d3f 953c 603f
00000320: 9eb3 6c3f a48a 49bf f95f 4a3f 5e28 723f
00000330: b36e 993f 701a 673f eebe 3f3f e08e 933f
00000340: 16e4 4cbf 8d02 4ebf 2044 6f3f 2a6a 93bf
00000350: 5356 bfbf 8866 5cbf 5899 43bf 8447 99bf
00000360: 98e8 51bf e461 633f 1b6e 423f bf79 3dc0
00000370: b3be 623f 8432 35bf 219e 50bf 76b7 62bf
00000380: 6f6d 72bd a11e 17bf 99fa 6ebf 5842 2dbf
00000390: 751e 6abf 5f7c 673f f064 6ebf f05f 533f
000003a0: 49b0 6fbf 5814 8cbf db07 773f 0e31 cfbd
000003b0: f37d 2e3f 356e 073f 09c3 8bbf 812e 803f
000003c0: 230a b5bf 11e2 f0be 98b4 503f 8d00 41bf
000003d0: be02 6b3f 85b3 5bbf c457 4c3f 5d18 133f
000003e0: f59f 363f 7953 793f 9edd cfbf 5faf 6fbf
000003f0: fb0b 1dbf c143 583f b5b1 333f 1e0f 613f

fc_layer.bias f4 [64]
0.8084913 0.13649993 0.09575707 0.9028362 0.6188781 0.8554067 0.8266755 0.21587121
0.14947385 0.8284053 0.8981702 0.8404268 0.5903643 0.2218391 0.28330356 0.111006595
0.13782562 -0.0938697 0.6078332 0.10097783 0.11215663 0.17243543 0.22944063 0.25929105
0.7822571 0.719142 0.25185844 0.7846997 0.1902622 0.30267534 0.07882883 0.27061674
0.7763848 0.17890468 0.19634499 -0.18569545 0.22515745 0.77046067 0.19295852 0.16482578
0.6422486 0.794786 0.88025427 -0.15362577 0.078186445 0.2704719 -0.038971294 0.87094796
0.09703908 0.612366 0.8503896 0.64604276 0.6856318 0.19020265 0.79300326 0.80037004
0.7403562 0.8784257 0.8390117 0.24840516 0.18858677 0.15234925 0.036156002 -0.07499534
00000000: 49f9 4e3f a3c6 0b3e 481c c43d 4620 673f
00000010: cc6e 1e3f effb 5a3f 01a1 533f 580d 5d3e
00000020: ac0f 193e 5f12 543f 7bee 653f 3626 573f
00000030: 1d22 173f ca29 633e 2a0d 913e 6d57 e33d
00000040: 2922 0d3e c23e c0bd f59a 1b3f 77cd ce3d
00000050: 60b2 e53d ea92 303e 7cf2 6a3e ccc1 843e
00000060: 0042 483f b119 383f 97f3 803e 14e2 483f
00000070: 18d4 423e 43f8 9a3e 0271 a13d 478e 8a3e
00000080: 27c1 463f ca32 373e a90e 493e f326 3ebe
00000090: ad8f 663e e93c 453f eb96 453e 17c8 283e
000000a0: 676a 243f 1877 4b3f 5858 613f 1350 1dbe
000000b0: 3720 a03d 4b7b 8a3e 5da0 1fbd 72f6 5e3f
000000c0: 6dbc c63d 05c4 1c3f 22b3 593f 0f63 253f
000000d0: 9185 2f3f 7cc4 423e 4302 4b3f 0de5 4c3f
000000e0: fc87 3d3f 82e0 603f 79c9 563f ec5d 7e3e
000000f0: e41c 413e 7101 1c3e 5118 143d 2897 99bd

output_layer.weight f4 [1, 64]
1.0254072 -1.1599262 -1.9350796 0.9285306 0.9930612 0.9551772 1.0010897 -1.6475072
-1.7743596 0.9769393 0.9359409 1.0057206 1.0110348 -1.311881 -1.3023233 -1.3641165
-1.642093 -0.037516642 1.0254353 -1.9098345 -1.7906278 -2.232565 -1.8311533 -1.802103
0.95253366 1.0228764 -3.505986 0.9777139 -0.64581096 -1.4907122 -1.5513357 -1.7227197
0.9983752 -1.6860766 -1.090144 4.6154966 -1.0723267 1.0290145 -1.8841648 -1.4018751
0.9535198 1.0291042 0.9298824 4.6512117 -1.4521312 -1.9081646 2.149979 0.9347774
-0.031565625 1.0040694 0.9946616 0.9386284 1.0110451 -1.6391935 0.94743395 1.0319387
0.9673931 0.9399127 0.96329373 -1.3910483 -1.5714964 -1.6057985 0.67006546 -0.010097577
00000000: 8b40 833f 7678 94bf b0b0 f7bf 2eb4 6d3f
00000010: 4239 7e3f 7e86 743f b523 803f 84e1 d2bf
00000020: 371e e3bf b218 7a3f d399 6f3f 74bb 803f
00000030: 9769 813f b7eb a7bf 88b2 a6bf 5f9b aebf
00000040: 1a30 d2bf 0dab 19bd 7741 833f 7575 f4bf
00000050: 4b33 e5bf 58e2 0ec0 3b63 eabf 50ab e6bf
00000060: 3fd9 733f 9ded 823f 1362 60c0 754b 7a3f
00000070: de53 25bf a8cf bebf 2b92 c6bf 1482 dcbf
00000080: 8495 7f3f 5cd1 d7bf d789 8bbf 26b2 9340
00000090: 0042 89bf bfb6 833f 502c f1bf a570 b3bf
000000a0: e019 743f b0b9 833f c60c 6e3f bad6 9440
000000b0: 6fdf b9bf bd3e f4bf 4299 0940 924d 6f3f
000000c0: f54a 01bd 5985 803f 25a2 7e3f f349 703f
000000d0: ed69 813f 18d1 d1bf 088b 723f 9116 843f
000000e0: 13a7 773f 1e9e 703f 6b9a 763f df0d b2bf
000000f0: cb26 c9bf ce8a cdbf 6989 2b3f 4f70 25bc
