TimeGAN4paper/result/iter6000/model/JP_lag1_total1/torch_best_model.pt (torch, 87834 bytes, 7 tensors)

lstm.weight_ih_l0 f4 [256, 1]
0.13803102 0.07379342 -0.018249867 -0.009654817 0.036028698 0.27136037 0.10750552 0.3410255
0.06696343 0.11018767 0.061173785 0.022826554 -0.041785114 -0.00834592 -0.05528617 0.07069391
0.25130403 0.27438098 -0.072309054 0.016578715 0.036295623 0.22211476 0.025685197 0.30952358
0.007191921 0.036479022 0.28321218 -0.15247516 -0.0779429 -0.058767267 0.021085002 0.101825856
0.022035036 -0.022003984 0.004528673 -0.052607678 0.044015463 0.13845478 0.08655167 0.042461656
0.019722411 -0.033826537 0.012894252 -0.012699543 -0.05101776 0.31609637 0.37596545 0.23425244
0.013350834 -0.029519776 0.14128858 0.17732117 0.24432051 0.17744567 0.25526264 -0.0032021967
0.14634798 -0.07580158 -0.03805603 -0.030176217 0.055090036 0.4584593 -0.029694904 0.09373324
-0.006672343 -0.01703408 0.008107683 0.034298003 0.105991155 0.18320583 0.01775441 -0.010541081
0.14718325 0.18319027 0.034573954 0.052544232 0.055743575 -0.0054555903 0.06413679 -0.004545324
0.010414313 0.041725736 0.16590804 -0.006654595 0.030232612 0.07362226 0.016248163 0.012986916
0.118476786 0.015039326 0.045112982 0.050333947 0.04335165 0.09719403 -0.019855067 -0.0068834387
0.015745437 0.053225536 -0.0083741415 0.04606146 0.053592965 0.058683105 -0.0016743257 0.0022739912
-0.0033262223 0.03803482 -0.0009413893 -0.0037293937 0.040401205 0.026459562 0.06416492 0.016356887
0.013197761 0.25570104 0.110283256 -0.0015204669 0.011752656 0.0018053065 0.0015149094 0.10826118
0.074885145 0.03944771 0.003433187 0.04163558 -0.005301905 0.020317212 0.014190845 0.0062705763
-0.031269155 -0.017760798 0.015854385 -0.008183873 -0.03428267 -0.058222506 -0.009207631 -0.019376768
0.00888825 0.013268487 0.09938125 0.12532686 0.007972921 0.017805295 0.27704495 0.012471731
-0.14123261 -0.04905941 0.095329836 -0.023236405 -0.010915196 -0.004368346 -0.20269722 -0.11206237
-0.019920714 0.103418626 0.14571358 -0.27322367 0.04168019 -0.034640737 0.007468808 -0.022534426
-0.0027647107 0.0122840805 -0.08879614 -0.006154022 -0.07579826 0.050944664 -0.0067288997 0.13245368
-0.14283024 -0.022181803 0.1610967 0.024771169 0.23909967 0.0900174 -0.07481205 0.005181988
0.00469334 -0.02609484 0.037998892 -0.013940024 0.008702314 -0.0087794205 0.0080576595 0.15702249
0.031828463 -0.024738302 -0.06924139 -0.011548837 -0.085778385 0.17980309 0.124747515 0.04505215
0.04602023 0.1056832 0.013251491 0.016908329 0.0493623 0.064360656 0.025276229 0.04859169
-0.00047273858 0.049663585 0.04268865 0.023460895 0.0040921853 0.04429448 0.0032946721 0.03925925
0.09906642 0.04922736 0.06015455 0.066447 0.051575374 -0.00015931249 0.0396031 0.034148272
0.0143446615 0.0017671498 0.37254938 -0.00037519605 0.009850909 0.0277867 0.004817673 0.059687816
0.019273302 0.018621119 0.017336836 0.057056367 0.06245209 0.04053642 0.059232984 0.023010572
-0.007900824 0.049552947 0.049912963 0.057282314 0.034204736 0.041848894 0.0015406853 0.16334273
0.0029776932 0.08471396 0.06489787 0.012465144 0.00013821303 0.008240191 0.19040644 0.033370845
0.11048009 0.042951904 0.021286836 0.05546827 0.054934382 0.054593988 -0.00038757428 0.0340245
00000000: 0158 0d3e 0121 973d bf80 95bc 3d2f 1ebc
00000010: d492 133d bfef 8a3e db2b dc3d e59a ae3e
00000020: 1f24 893d 13aa e13d 5d91 7a3d c1fe ba3c
00000030: de26 2bbd 53bd 08bc c073 62bd f8c7 903d
00000040: ecaa 803e aa7b 8c3e c516 94bd 16d0 873c
00000050: b8aa 143d 0d72 633e c369 d23c e079 9e3e
00000060: 35aa eb3b 076b 153d 3001 913e 7322 1cbe
00000070: 87a0 9fbd f2b5 70bd 74ba ac3c 138a d03d
00000080: d282 b43c b341 b4bc 4365 943b 267b 57bd
00000090: 8f49 343d 17c7 0d3e 0142 b13d 46ec 2d3d
000000a0: e590 a13c b28d 0abd 6a42 533c be11 50bc
000000b0: 00f8 50bd 62d7 a13e 8b7e c03e dfdf 6f3e
000000c0: 75bd 5a3c 75d3 f1bc f4ad 103e ae93 353e
000000d0: 282f 7a3e 51b4 353e c9b1 823e f2db 51bb
000000e0: 3fdc 153e dc3d 9bbd a4e0 1bbd 1d34 f7bc
000000f0: 17a6 613d 2dbb ea3e ba42 f3bc 37f7 bf3d
00000100: aba3 dabb 0e8b 8bbc 16d6 043c 107c 0c3d
00000110: e411 d93d 4f9a 3b3e b271 913c 80b4 2cbc
00000120: 35b7 163e 3b96 3b3e 6b9d 0d3d 9f38 573d
00000130: 6053 643d cfc4 b2bb 265a 833d f1f0 94bb
00000140: cba0 2a3c 9be8 2a3d cce3 293e ca0e dabb
00000150: 62aa f73c 44c7 963d de1a 853c 13c7 543c
00000160: f5a3 f23d 8167 763c 64c8 383d f82a 4e3d
00000170: 8091 313d aa0d c73d 18a7 a2bc 788e e1bb
00000180: 93fc 803c 0503 5a3d b233 09bc f1aa 3c3d
00000190: 4c84 5b3d b25d 703d 0c75 dbba 3e07 153b
000001a0: c0fc 59bb 66ca 1b3d 91c7 76ba d868 74bb
000001b0: bc7b 253d b9c1 d83c e668 833d e1fe 853c
000001c0: 6c3b 583c 3feb 823e 30dc e13d 674a c7ba
000001d0: 368e 403c 09a0 ec3a ed8f c63a 0ab8 dd3d
000001e0: 625d 993d ec93 213d 52ff 603b 128a 2a3d
000001f0: 9abb adbb 4870 a63c b880 683c 6879 cd3b
00000200: 1614 00bd 187f 91bc 0ee1 813c a715 06bc
00000210: fc6b 0cbd b97a 6ebd 9bdb 16bc 07bc 9ebc
00000220: 06a0 113c 1164 593c 6688 cb3d af55 003e
00000230: dba0 023c 69dc 913c d6d8 8d3e 3b56 4c3c
00000240: 489f 10be 85f2 48bd 4a3c c33d 465a bebc
00000250: a6d5 32bc 5824 8fbb dc8f 4fbe f580 e5bd
00000260: c430 a3bc 25cd d33d f135 153e f9e3 8bbe
00000270: d9b8 2a3d 72e3 0dbd e7bc f43b 1e9a b8bc
00000280: 2630 35bb 2b43 493c c0da b5bd aea7 c9bb
00000290: 1e3c 9bbd 5aab 503d 1a7e dcbb f0a1 073e
000002a0: 1742 12be 9db6 b5bc 89f6 243e e8ec ca3c
000002b0: 8bd6 743e 0b5b b83d 0f37 99bd aacd a93b
000002c0: 97ca 993b d9c4 d5bc baa4 1b3d b364 64bc
000002d0: 2794 0e3c 8fd7 0fbc 4604 043c 81ca 203e
000002e0: 905e 023d fba7 cabc 6ece 8dbd 5537 3dbc
000002f0: 94ac afbd 4d1e 383e a07b ff3d 9a88 383d
00000300: b57f 3c3d 6f70 d83d c81c 593c 5683 8a3c
00000310: 2030 4a3d 85cf 833d 1810 cf3c 1408 473d
00000320: e6d9 f7b9 0b6c 4b3d 4bda 2e3d 1031 c03c
00000330: bd17 863b 216e 353d 6deb 573b 4fce 203d
00000340: 56e3 ca3d a1a2 493d 9e64 763d 5d15 883d
00000350: b340 533d 1f0d 27b9 dc36 223d 0fdf 0b3d
00000360: df05 6b3c b59f e73a cbbe be3e f6b5 c4b9
00000370: b565 213c efa0 e33c 92dd 9d3b 367b 743d
00000380: 0be3 9d3c 518b 983c fb05 8e3c f0b3 693d
00000390: c3cd 7f3d 8409 263d 499e 723d ab80 bc3c
000003a0: 7572 01bc 08f8 4a3d 8971 4c3d dca0 6a3d
000003b0: 441a 0c3d bf69 2b3d d2f0 c93a 5143 273e
000003c0: 6725 433b 837e ad3d 2de9 843d 9a3a 4c3c
000003d0: 47ed 1039 de01 073c e8f9 423e deaf 083d
000003e0: 6343 e23d 56ee 2f3d bb61 ae3c b232 633d
000003f0: e002 613d f29d 5f3d 5733 cbb9 465d 0b3d

lstm.weight_hh_l0 f4 [256, 64]
0.068170115 -0.03730718 -0.3077313 0.14794664 0.11784066 -0.011440002 0.07695358 -0.046620164
0.09692418 -0.16401838 -0.09301675 -0.03310653 0.35732356 0.22376072 0.14141062 0.24517162
-0.19170775 0.3064085 0.035454184 -0.27269152 -0.078647576 -0.048367415 -0.02971991 -0.029100074
-0.11386517 0.07095503 -0.36415198 -0.15472719 0.22386885 0.118028834 -0.026202425 -0.08187893
-0.17858186 -0.09224237 -0.27240524 -0.092561975 -0.0010262835 -0.048252292 -0.07262336 0.05088117
-0.047748752 0.22737832 0.25388736 -0.28101072 0.023429487 0.09461238 -0.04448928 0.088248275
-0.07757441 -0.15993823 0.0045163613 -0.025522519 0.24642897 -0.11958349 0.31204638 0.18959968
0.014458492 0.20775644 -0.09046072 -0.15253533 -0.24903883 0.23048277 0.20080033 0.13467383
0.13412964 -0.28783497 -0.1297735 0.10801039 0.14370558 0.2400306 0.13818635 0.028105063
0.015412677 -0.093884066 -0.06911201 -0.094580285 0.19696116 -0.01644008 -0.043284148 0.3259417
0.1967191 0.3048864 0.14005582 0.1697191 0.137966 0.059594873 -0.24376476 0.18905367
0.05368562 0.36304352 -0.1466866 0.033611793 0.04225204 0.23781261 0.12276803 0.07508071
0.06959505 0.08130034 0.024547154 0.12169551 0.09326858 0.027948912 -0.3133228 0.33320382
-0.05594673 -0.068184815 -0.12379797 0.023648465 -0.08502605 0.232665 -0.2934367 -0.044848047
-0.26912168 0.17967016 -0.25629345 0.0036707218 0.15232545 -0.19398044 -0.11418384 -0.097799174
0.15511774 0.17444427 0.20667805 -0.22131959 0.14786714 -0.07100352 -0.040134914 0.4497549
0.1536719 0.15685587 0.22739474 0.34155592 0.5240879 0.10038063 0.3641844 -0.13958879
-0.16318811 -0.26160887 -0.036162466 0.13965885 0.24247274 -0.037127912 0.32036105 0.036266625
0.12859286 0.26067936 0.32741508 -0.025074521 -0.12846857 -0.11504628 -0.0014986851 0.17924185
0.025704425 0.18646346 -0.057020888 -0.7652759 0.7378828 -0.07046792 -0.028620765 -0.1448192
-0.03345664 -0.020602444 -0.18962586 0.064377114 -0.027676474 -0.3325135 -0.056012765 0.02393247
0.11223168 0.029003276 -0.055114582 -0.5652182 0.08353276 0.15614167 -0.21516076 0.31014937
-0.13471512 -0.11795526 -0.24410246 -0.093604326 0.040946405 0.14716041 0.08233785 0.11195065
-0.28911796 0.3506835 -0.30180925 -0.03849615 -0.030572359 0.23882341 0.20157239 0.1372338
-0.20008163 -0.23868406 -0.08924138 0.07894527 0.39119875 -0.08872539 0.09385628 -0.033367217
0.15516715 0.10048907 0.12549943 0.22879955 0.11140233 0.19039908 0.117293 0.03892213
-0.13693428 -0.08912398 0.051771887 -0.2474586 -0.18919344 -0.11968664 -0.14259695 -0.050795592
-0.17240363 0.20632313 0.2514702 -0.32575318 -0.022577161 -0.07579706 -0.22558251 -0.05574523
-0.23491493 -0.15145862 -0.48623565 -0.044357456 -0.20402664 0.27611312 -0.025456645 0.2215444
-0.15639658 -0.009839987 0.121511266 -0.132819 0.17952487 0.35163563 -0.11660799 -0.055599354
-0.0636525 -0.18392085 0.26096728 0.01078268 0.0032233808 -0.11134659 0.19143926 0.37781549
0.29039544 0.06926483 -0.100107126 0.028930103 -0.18259007 0.2133648 0.08651109 0.32549804
00000000: c69c 8b3d 6acf 18bd f58e 9dbe 537f 173e
00000010: 7256 f13d d96e 3bbc d799 9d3d c9f4 3ebd
00000020: 2f80 c63d 6ff4 27be 917f bebd b69a 07bd
00000030: 1df3 b63e 8821 653e f2cd 103e 450e 7b3e
00000040: 094f 44be 93e1 9c3e 6838 113d 399e 8bbe
00000050: fb11 a1bd e91c 46bd 2b77 f3bc 4763 eebc
00000060: 2432 e9bd df50 913d 2172 babe ce70 1ebe
00000070: e03d 653e 1ab9 f13d 78a6 d6bc 24b0 a7bd
00000080: 2ade 36be 91e9 bcbd b378 8bbe 2291 bdbd
00000090: 5c84 86ba 32a4 45bd 8ebb 94bd c668 503d
000000a0: 3294 43bd ddd5 683e 86fd 813e a3e0 8fbe
000000b0: 32ef bf3c 23c4 c13d 643a 36bd 83bb b43d
000000c0: 55df 9ebd d9c6 23be fcfd 933b 9a14 d1bc
000000d0: e057 7c3e 30e8 f4bd 8bc4 9f3e 6b26 423e
000000e0: 50e3 6c3c 1bbe 543e 7843 b9bd 3932 1cbe
000000f0: 0904 7fbe ad03 6c3e 9a9e 4d3e f0e7 093e
00000100: 4859 093e 1b5f 93be 58e3 04be 8d34 dd3d
00000110: 8e27 133e 95ca 753e b980 0d3e 973c e63c
00000120: 7485 7c3c 4a46 c0bd 998a 8dbd 4fb3 c1bd
00000130: 30b0 493e 59ad 86bc b84a 31bd d5e1 a63e
00000140: bb70 493e 121a 9c3e cb6a 0f3e d8ca 2d3e
00000150: f646 0d3e c119 743d 789d 79be 4997 413e
00000160: 74e5 5b3d d7e0 b93e 0335 16be 85ac 093d
00000170: 7a10 2d3d 2685 733e ce6d fb3d eac3 993d
00000180: d987 8e3d cb80 a63d 1d17 c93c 7f3b f93d
00000190: 9903 bf3d 1ef5 e43c d96b a0be b199 aa3e
000001a0: 6628 65bd 7ba4 8bbd ca89 fdbd 6dba c13c
000001b0: 2322 aebd bc3f 6e3e 563d 96be 96b2 37bd
000001c0: 51ca 89be 74fb 373e e538 83be 7e90 703b
000001d0: 34fb 1b3e cfa2 46be 38d9 e9bd ef4a c8bd
000001e0: 2fd7 1e3e 85a1 323e 69a3 533e 9aa1 62be
000001f0: 7c6a 173e 4b6a 91bd 8264 24bd 4646 e63e
00000200: 2b5c 1d3e d39e 203e 2bda 683e 6be0 ae3e
00000210: a02a 063f 5c94 cd3d 6176 ba3e 5df0 0ebe
00000220: c91a 27be 99f1 85be 181f 14bd bb02 0f3e
00000230: c64a 783e 7013 18bd 5d06 a43e 508c 143d
00000240: d9ad 033e c477 853e f3a2 a73e 1569 cdbc
00000250: 448d 03be 629d ebbd 876f c4ba 2d8b 373e
00000260: 1692 d23c 47f0 3e3e bc8e 69bd 1fe9 43bf
00000270: e3e5 3c3f 7c51 90bd 1876 eabc 7c4b 14be
00000280: d409 09bd 75c6 a8bc 482d 42be 26d8 833d
00000290: c6b9 e2bc 363f aabe a46d 65bd 070e c43c
000002a0: b9d9 e53d 4798 ed3c d4bf 61bd 24b2 10bf
000002b0: 3913 ab3d 9ae3 1f3e 1a53 5cbe e6cb 9e3e
000002c0: c3f2 09be 8792 f1bd fff5 79be a0b3 bfbd
000002d0: 6bb7 273d 38b1 163e bfa0 a83d 6246 e53d
000002e0: 4507 94be ca8c b33e be86 9abe 24ae 1dbd
000002f0: e272 fabc 208e 743e fe68 4e3e 0487 0c3e
00000300: 33e2 4cbe 9869 74be 2fc4 b6bd 0fae a13d
00000310: 344b c83e a8b5 b5bd b937 c03d 10ac 08bd
00000320: 23e4 1e3e 37cd cd3d ec82 003e 6e4a 6a3e
00000330: e826 e43d faf7 423e 5037 f03d d06c 1f3d
00000340: 8038 0cbe a286 b6bd c20e 543d ca65 7dbe
00000350: edbb 41be 451e f5bd ef04 12be 0a0f 50bd
00000360: 948a 30be 5f46 533e b4c0 803e 1fc9 a6be
00000370: bdf3 b8bc 7d3b 9bbd 1aff 66be 1c55 64bd
00000380: 8a8d 70be f817 1bbe e1f3 f8be 2ab0 35bd
00000390: 5cec 50be b35e 8d3e 748a d0bc 89dc 623e
000003a0: 6d26 20be e637 21bc e6da f83d b401 08be
000003b0: 5ed5 373e 9609 b43e 2bd0 eebd 26bc 63bd
000003c0: 3e5c 82bd bf55 3cbe 819d 853e d6a9 303c
000003d0: 5b3f 533b ae09 e4bd a708 443e 0871 c13e
000003e0: b6ae 943e b8da 8d3d f704 cdbd d3fe ec3c
000003f0: e4f8 3abe 4d7c 5a3e ba2c b13d aea7 a63e

lstm.bias_ih_l0 f4 [256]
0.25502592 0.028782833 0.16166806 0.16149199 0.05447228 0.1394388 0.04885051 -0.028191885
0.0696513 0.004180121 0.040147584 0.13316202 0.0462043 0.1638385 0.16210262 0.18377802
0.19264705 0.1407854 -0.060333382 0.085445635 0.12523827 0.024680104 0.11276058 0.19911344
0.07642264 0.105116114 0.12453573 -0.12439289 0.00033927208 0.13106625 0.0441438 -0.16575533
0.04858641 0.16789088 0.07367308 0.13187848 0.17068705 0.079253204 0.20314577 0.031747
0.029040754 0.1291978 -0.06723527 0.19422935 0.17620367 0.4795305 0.023154864 0.10069807
-0.0034140702 -0.14120565 0.019326843 0.10997728 0.095794015 0.06844913 0.23000531 0.14357044
0.117205106 0.101284936 0.11784958 0.07818802 0.024551885 0.25336754 0.15042558 -0.018411193
0.069388494 -0.014196294 0.058846932 0.019601269 -0.14066896 0.06379452 0.0005403145 0.0054492764
0.08665152 -0.033400763 -0.1511316 -0.13378386 -0.071976066 0.12759015 0.091942325 0.056888204
0.082817145 0.064418115 0.1319153 0.13772841 0.010770194 -0.02357826 0.009560911 0.16759954
0.00017748636 0.04873721 -0.07227135 -0.06055596 0.09878659 0.1033353 0.12461247 -0.035455823
-0.08073149 0.057610884 0.25307357 0.073679246 0.078082494 -0.16343102 0.065112844 0.02491886
0.12158604 0.13353673 0.113790676 0.13438833 0.16840985 -0.117315754 -0.03228359 -0.10826307
0.0025429355 -0.075181715 -0.1696386 0.103420734 -0.0054484666 0.014229846 0.07367558 -0.0041898945
-0.16522714 0.01197647 0.1861171 0.10337583 0.13222246 0.047919266 -0.035933714 -0.020941101
-0.10214789 -0.14803831 -0.25642005 -0.07356603 0.18504643 -0.02141261 0.17361549 -0.055388983
0.07299511 -0.0894284 -0.016167937 -0.24407962 -0.23448758 -0.13343948 -0.09189961 -0.09642219
-0.018787 -0.09628118 0.039764207 0.10426496 -0.12540877 0.042919327 0.11333847 0.1667968
-0.07741738 0.0067984997 -0.2882598 -0.3641889 0.08534298 0.056854673 0.017255768 0.071466036
-0.15457478 0.008948343 0.153275 -0.08179259 0.045873486 -0.008648034 0.044501718 -0.13827838
-0.14941587 0.13480873 -0.028401688 -0.026498009 0.06006828 -0.0420994 0.047781873 0.035441194
0.18879062 0.1698192 -0.014999338 -0.05819786 0.046344593 -0.06966763 0.054194678 -0.24939466
0.018140297 0.08153391 0.17069955 0.11079621 0.023740191 0.018924687 -0.02522515 -0.073071204
0.21473846 0.06408794 0.23437104 0.17935924 0.06277363 -0.32746845 0.17882855 -0.028698126
-0.034570407 0.014567507 0.006932439 0.11973331 0.1555654 0.008231287 0.010046864 0.11331565
-0.15018182 0.14506073 0.006336804 0.14408967 0.082852185 -0.068560824 0.016739614 -0.19649723
0.2506428 0.10710089 0.00992512 0.19370757 -0.05708885 -0.020885216 -0.0026359246 0.23701234
0.10328318 -0.03061819 0.041344717 -0.3038842 0.1886559 0.042497367 0.20861265 0.09051852
0.028349048 -0.06731409 -0.112572126 0.15499562 -0.12331656 0.25753468 0.0050991015 0.11922515
-0.08048985 -0.19222091 0.2556847 0.10991503 0.018355204 0.019460276 -0.057863425 0.09980821
0.00074910215 0.14902331 0.231398 -0.057550095 -0.012973376 0.08625729 0.058071647 0.09789947
00000000: c292 823e fac9 eb3c 508c 253e 285e 253e
00000010: 531e 5f3d 0bc9 0e3e 7917 483d abf2 e6bc
00000020: 57a5 8e3d 65f9 883b cb71 243d a05b 083e
00000030: b840 3d3d 48c5 273e 3bfe 253e 4e30 3c3e
00000040: 4545 453e 0c2a 103e 2320 77bd 1ffe ae3d
00000050: 763e 003e ee2d ca3c 05ef e63d 65e4 4b3e
00000060: 7983 9c3d 1e47 d73d 970c ff3d b3c1 febd
00000070: 54e0 b139 3b36 063e 21d0 343d c4bb 29be
00000080: 8b02 473d 96eb 2b3e e9e1 963d 270b 073e
00000090: 96c8 2e3e 814f a23d 7205 503e 2409 023d
000000a0: e0e6 ed3c 6e4c 043e a5b2 89bd 0fe4 463e
000000b0: bc6e 343e 0685 f53e 45af bd3c ca3a ce3d
000000c0: 98be 5fbb 3798 10be 5453 9e3c c53b e13d
000000d0: a72f c43d 0f2f 8c3d 8386 6b3e 2104 133e
000000e0: 3b09 f03d 7a6e cf3d 1f5b f13d 0a21 a03d
000000f0: 0921 c93c 64b9 813e 2a09 1a3e 12d3 96bc
00000100: 8e1b 8e3d 9397 68bc 7b09 713d d792 a03c
00000110: 860b 10be b4a6 823d e4a3 0d3a d88f b23b
00000120: 5a76 b13d 3dcf 08bd 3ec2 1abe a3fe 08be
00000130: 3068 93bd fea6 023e 424c bc3d 9b03 693d
00000140: 099c a93d a5ed 833d ce14 073e ad08 0d3e
00000150: 7875 303c 3227 c1bc 5ea5 1c3c 379f 2b3e
00000160: a21b 3a39 aba0 473d 0003 94bd 8709 78bd
00000170: a050 ca3d 75a1 d33d d334 ff3d 203a 11bd
00000180: 8d56 a5bd 64f9 6b3d dc92 813e 25e5 963d
00000190: b7e9 9f3d 765a 27be e259 853d a322 cc3c
000001a0: 1a02 f93d dabd 083e 160b e93d 189d 093e
000001b0: a273 2c3e 3e43 f0bd cc3b 04bd 07b9 ddbd
000001c0: 61a7 263b dff8 99bd beb5 2dbe 40ce d33d
000001d0: 0d89 b2bb 4d24 693c 39e3 963d 624b 89bb
000001e0: 4e31 29be f538 443c 7b95 3e3e b5b6 d33d
000001f0: 5365 073e fe46 443d 3b2f 13bd ac8c abbc
00000200: ea32 d1bd 5b97 17be 7d49 83be c9a9 96bd
00000210: d07c 3d3e 7f69 afbc 42c8 313e 8fdf 62bd
00000220: 767e 953d 3d26 b7bd 9f72 84bc 02f0 79be
00000230: 831d 70be 5ca4 08be dd35 bcbd ff78 c5bd
00000240: 32e7 99bc 112f c5bd cbdf 223d de88 d53d
00000250: 286b 00be 2dcc 2f3d 001e e83d c8cc 2a3e
00000260: 018d 9ebd f3c5 de3b ca96 93be f876 babe
00000270: 4dc8 ae3d 72e0 683d f85b 8d3c c95c 923d
00000280: da48 1ebe 129c 123c 1ff4 1c3e e082 a7bd
00000290: d6e5 3b3d 7cb0 0dbc 6f47 363d d998 0dbe
000002a0: 7900 19be 4d0b 0a3e a8aa e8bc 5a12 d9bc
000002b0: 280a 763d 6c70 2cbd edb6 433d c92a 113d
000002c0: 5452 413e 16e5 2d3e c9bf 75bc e160 6ebd
000002d0: d4d3 3d3d e7ad 8ebd 3dfb 5d3d 5061 7fbe
000002e0: f69a 943c 40fb a63d ddcb 2e3e 20e9 e23d
000002f0: ca7a c23c f207 9b3c f9a4 cebc 5ba6 95bd
00000300: 66e4 5b3e 8a40 833d f6fe 6f3e f3a9 373e
00000310: 768f 803d f2a9 a7be d51e 373e 5518 ebbc
00000320: b399 0dbd 8eac 6e3c 8329 e33b bd36 f53d
00000330: 894c 1f3e 85dc 063c 9a9b 243c 0912 e83d
00000340: 43c9 19be cd8a 143e f7a4 cf3b 3e8c 133e
00000350: 68ae a93d 9e69 8cbd 8421 893c 9236 49be
00000360: 4154 803e b657 db3d f89c 223c 475b 463e
00000370: ffd5 69bd 7917 abbc 7abf 2cbb 5db3 723e
00000380: 2286 d33d 00d3 fabc 1459 293d b696 9bbe
00000390: 032f 413e b811 2e3d 8e9e 553e c661 b93d
000003a0: 433c e83c f8db 89bd 378c e6bd 2cb7 1e3e
000003b0: 658d fcbd 96db 833e 5d16 a73b 512c f43d
000003c0: ddd7 a4bd 8fd5 44be 1be9 823e 221b e13d
000003d0: a75d 963c 286b 9f3c 3302 6dbd 3f68 cc3d
000003e0: 655f 443a 9199 183e 99f3 6c3e a6b9 6bbd
000003f0: 488e 54bc a9a7 b03d 89dc 6d3d 847f c83d

lstm.bias_hh_l0 f4 [256]
0.07743358 -0.13608472 0.064751826 0.070825025 -0.12739678 0.08262689 0.26555523 -0.03158482
0.08282441 0.16805972 0.019040037 0.21788767 0.049515355 0.08419972 0.09840519 0.03548598
0.04565192 0.116568975 0.02255218 0.18830895 0.000727415 0.093346015 0.0009211272 0.031531252
0.06209118 0.21798797 0.12204561 0.048642255 -0.05316835 0.11436001 0.112754904 0.037375286
0.19327548 0.098846674 0.06681099 0.17986222 0.16516748 -0.07838819 0.24797325 -0.020171003
0.17079176 0.22353958 -0.001282182 0.0154451765 -0.06673611 0.3055169 0.14878735 0.05981626
0.081330426 -0.12176817 -0.017076094 0.019873554 0.26666865 -0.05995851 0.11737664 0.21119398
0.13229504 -0.079621196 0.16155986 -0.028944882 -0.1106046 0.22279537 -0.021452777 0.1323631
0.10977194 0.196363 0.12824087 -0.079589024 -0.04860476 0.13914907 -0.0817645 0.0621237
0.13704835 0.1377521 0.013544212 -0.14533997 -0.0342657 0.17828974 0.187979 -0.015623579
0.19725548 0.02990328 0.014454423 0.12228651 0.061816014 -0.1290357 -0.009218133 0.06816826
-0.09830586 0.16366158 -0.14601465 -0.085382715 0.06317888 0.11397681 0.096142 0.0011918963
-0.002541826 0.072072744 0.26228845 0.19851378 0.041982703 -0.107685216 0.042580187 -0.004795131
-0.0062466688 0.0045685973 0.10606157 0.1649538 -0.013420311 -0.104994215 0.0279567 -0.01929655
0.17356166 0.07858981 -0.14146693 0.05387194 -0.05212007 0.09682673 0.067605816 -0.061601713
-0.1923759 0.017059047 0.015383947 -0.020346465 0.056005787 0.14851134 0.15104863 0.12158566
-0.09814876 0.039122954 -0.27042505 -0.0007263909 0.10461381 -0.12804532 0.15122558 0.12016304
0.10608553 0.1099886 0.09563879 -0.26890656 -0.028010376 -0.087272815 0.026633559 -0.18837962
0.008177308 -0.038344417 -0.041075427 -0.043018244 -0.15791266 -0.12954 0.046012606 -0.04855134
0.013102412 0.10667963 -0.30012983 -0.24446787 0.16184282 -0.04953467 0.06722031 0.08250241
-0.05383065 0.01776925 0.15257579 0.062306385 -0.13331044 0.10261851 -0.09503924 0.047064964
-0.2340195 -0.057089284 -0.081923276 -0.028800972 0.07274735 -0.038358383 0.015047595 0.00093954545
-0.042707525 0.06857381 0.09760799 -0.11043456 -0.050550513 0.08341206 0.23489484 -0.25410676
-0.098954946 0.2588202 0.02687466 0.0577206 -0.04693275 0.12571259 -0.11671123 -0.032574523
0.0733877 0.12615852 0.094271205 0.060441032 0.072874166 -0.13593459 0.12734428 0.012304916
-0.020141397 0.07503634 0.0031959154 0.20835371 0.12650052 0.07072498 0.07235982 -0.07029757
-0.2647567 0.23604415 0.007964135 -0.0136377225 0.016348055 0.056375388 0.007994054 -0.15501833
0.15662694 0.060292292 -0.09352929 0.09135304 -0.02194878 0.06581953 -0.14899679 0.15446502
0.096906096 0.026746836 0.08019935 -0.11652169 0.15974113 0.082903214 -0.007845984 0.045046363
-0.1622509 0.025594424 -0.18937564 0.25887865 -0.17255142 0.32991755 0.06393711 -0.0021996417
-0.06392189 -0.33759415 0.17441109 0.1824127 -0.014378911 0.028344579 0.07898474 0.16212337
0.1139866 0.1456394 -0.006579949 -0.20060037 -0.07082428 0.16148192 0.060554724 0.045625556
00000000: 7f95 9e3d cb59 0bbe 9b9c 843d b60c 913d
00000010: 4d74 02be 4938 a93d dbf6 873e 165f 01bd
00000020: d89f a93d d917 2c3e daf9 9b3c f21d 5f3e
00000030: 9dd0 4a3d e770 ac3d a988 c93d bf59 113d
00000040: 82fd 3a3d b7bb ee3d 59bf b83c 10d4 403e
00000050: ffaf 3e3a 322c bf3d cd77 713a ea26 013d
00000060: 5253 7e3d 3d38 5f3e 0cf3 f93d 1a3d 473d
00000070: 0ec7 59bd 9535 ea3d 0bec e63d d416 193d
00000080: 02ea 453e 2070 ca3d 33d4 883d cd2d 383e
00000090: aa21 293e fd89 a0bd b3ec 7d3e a93d a5bc
000000a0: 09e4 2e3e 8fe7 643e e40e a8ba c40d 7d3c
000000b0: f1ac 88bd b66c 9c3e b65b 183e e501 753d
000000c0: 9190 a63d 9761 f9bd 2ae3 8bbc ddcd a23c
000000d0: cb88 883e 0e97 75bd 2a63 f03d 3c43 583e
000000e0: 5a78 073e 7010 a3bd f36f 253e d11d edbc
000000f0: aa84 e2bd 7824 643e bcbd afbc 318a 073e
00000100: 1cd0 e03d 6213 493e 9351 033e 92ff a2bd
00000110: c915 47bd 187d 0e3e 2574 a7bd 6c75 7e3d
00000120: 6756 0c3e e30e 0d3e 8be8 5d3c 00d4 14be
00000130: 315a 0cbd 9691 363e 917d 403e 0afa 7fbc
00000140: 57fd 493e b9f7 f43c 3fd2 6c3c 5a71 fa3d
00000150: ca32 7d3d ef21 04be a707 17bc cd9b 8b3d
00000160: 9554 c9bd e796 273e dd84 15be 22dd aebd
00000170: ee63 813d ac6c e93d 19e6 c43d 6739 9c3a
00000180: c494 26bb e09a 933d ac4a 863e 3247 4b3e
00000190: 0ef6 2b3d 118a dcbd 9068 2e3d 7920 9dbb
000001a0: dbb0 ccbb 2cb4 953b cf36 d93d a6e9 283e
000001b0: dde0 5bbc 3507 d7bd 7305 e53c cc13 9ebc
000001c0: 26ba 313e b2f3 a03d b5dc 10be d3a8 5c3d
000001d0: db7b 55bd 184d c63d eb74 8a3d 1452 7cbd
000001e0: 30fe 44be 6abf 8b3c f30c 7c3c a1ad a6bc
000001f0: 5366 653d 5b13 183e 7eac 1a3e e701 f93d
00000200: 3802 c9bd 643f 203d 2775 8abe 456b 3eba
00000210: c43f d63d 501e 03be e1da 1a3e 0a18 f63d
00000220: 5f43 d93d b441 e13d 45de c33d 1fae 89be
00000230: 0476 e5bc 17bc b2bd 9f2e da3c 96e6 40be
00000240: 1efa 053c 090f 1dbd b53e 28bd e633 30bd
00000250: dbb3 21be 22a6 04be b777 3c3d c5dd 46bd
00000260: 80ab 563c da7a da3d 9eaa 99be c955 7abe
00000270: 20ba 253e dee4 4abd cdaa 893d 06f7 a83d
00000280: 877d 5cbd d190 913c d43c 1c3e fb34 7f3d
00000290: 8882 08be a729 d23d efa3 c2bd 31c7 403d
000002a0: cfa2 6fbe 74d6 69bd 64c7 a7bd 04f0 ebbc
000002b0: 90fc 943d ae1d 1dbd 308a 763c d44b 763a
000002c0: 16ee 2ebd 6d70 8c3d b3e6 c73d 842b e2bd
000002d0: 0e0e 4fbd f1d3 aa3d 4688 703e 481a 82be
000002e0: e4a8 cabd 1584 843e 3f28 dc3c 706c 6c3d
000002f0: 8e3c 40bd cdba 003e 4c06 efbd dd6c 05bd
00000300: 4a4c 963d b32f 013e 4311 c13d 0491 773d
00000310: 0d3f 953d 7032 0bbe 8a66 023e 8f9a 493c
00000320: 92ff a4bc a7ac 993d 9072 513b ad5a 553e
00000330: 5a89 013e 42d8 903d 6331 943d 2cf8 8fbd
00000340: 318e 87be 8fb5 713e 017c 023c c170 5fbc
00000350: 5bec 853c e1e9 663d 7ef9 023c 20bd 1ebe
00000360: d062 203e 0df5 763d 498c bfbd 4d17 bb3d
00000370: eecd b3bc 64cc 863d 9d92 18be 142c 1e3e
00000380: b476 c63d 2e1c db3c 8f3f a43d eca2 eebd
00000390: 2e93 233e 29c9 a93d 718c 00bc 8982 383d
000003a0: 1a25 26be 66ab d13c b0eb 41be be8b 843e
000003b0: 52b1 30be f4ea a83e 76f1 823d dd27 10bb
000003c0: 7be9 82bd 24d9 acbe d298 323e 65ca 3a3e
000003d0: 8695 6bbc e432 e83c c0c2 a13d ab03 263e
000003e0: ce71 e93d 7f22 153e 9d9c d7bb 2f6a 4dbe
000003f0: 520c 91bd 845b 253e 3b08 783d dde1 3a3d

fc_layer.weight f4 [64, 64]
-0.2730974 -0.37167484 -0.4538317 0.4181355 0.34121418 -0.36492568 0.25198564 -0.31826705
0.3714596 -0.18794575 0.41542262 0.47957763 0.39885047 0.38270983 0.43179438 0.23530097
-0.213659 -0.2925277 0.3288781 -0.27365923 -0.42425582 -0.34788716 -0.29381508 -0.3323294
-0.41053167 0.29442838 0.30989876 -0.4003637 0.3276235 -0.34696674 -0.38143066 -0.21928109
-0.48488164 -0.325132 -0.28810573 -0.2688934 -0.29376984 0.40159348 -0.4308665 0.18881743
-0.4812681 0.40508357 0.33673716 -0.28627577 0.43590513 0.3371477 -0.22399591 0.3071838
-0.35659617 -0.28927618 0.28922465 -0.37499356 0.34338585 -0.31874514 0.21452811 0.3189951
0.29232875 0.21334536 -0.36283103 -0.28618392 -0.27433437 0.3390936 0.42220056 0.2559418
-0.034014758 -0.013269496 0.06494322 0.024857752 -0.10211026 0.0012292818 -0.10289382 -0.0899626
0.0013162543 -0.06178986 0.092488796 -0.07444786 -0.03626928 0.047742203 0.022286847 0.024154086
0.0078967055 -0.013166074 -0.07344507 0.13743517 0.10682442 -0.053598937 0.08329909 0.052894384
-0.07700297 -0.06730781 -0.012206585 -0.062326107 -0.086902246 0.009314373 -0.09649648 -0.06897317
0.02768519 0.0032523514 0.06948216 0.095210634 0.09409409 -0.07124021 0.02718846 -0.053383898
0.04320922 -0.1271976 0.08989651 0.09464875 -0.04326026 -0.062709875 0.115007676 0.05707565
0.13407186 -0.06221428 -0.09982923 -0.09947765 -0.031323574 0.007134918 0.090323485 -0.08776425
-0.12127763 -0.0023123524 0.031773735 0.049539037 -0.037688933 -0.11114161 -0.12459964 0.1165046
0.45038456 0.31169906 0.76341575 -0.016835798 -0.088178895 -0.4379367 0.09274739 0.16612862
-0.60460186 -0.3093707 0.06668548 0.016867762 0.14653115 0.530612 0.14541884 0.28080285
-0.11587255 -0.049016017 -0.09549422 -0.080311775 -0.5106566 -0.8849958 0.004526368 0.31848317
0.6398027 0.009388842 0.19968103 0.24250738 0.41752133 0.19256784 0.71240413 -0.15671356
-0.53996223 0.49835423 0.097094186 -0.018534724 0.057908453 -0.53852314 0.18423487 -0.14336316
0.7523392 0.57555205 0.3170143 -0.11514982 -0.2354913 -0.21509086 0.1626272 0.7151137
0.80308694 -0.43452427 -0.37351352 -0.04234497 -0.39255342 -0.9670204 0.07416481 0.10410364
0.012620343 0.09197213 -0.034525488 0.55056065 -0.2951871 -0.10702351 0.26957986 0.059867676
-0.53469855 -0.3058425 -0.5739092 0.41616684 0.5116584 -0.40544704 0.5122727 -0.37206185
0.43803322 -0.30721176 0.3441374 0.3543192 0.28592488 0.46995914 0.32680804 0.4608815
-0.33232984 -0.34057325 0.4929092 -0.32722935 -0.3265422 -0.5183905 -0.32762474 -0.4947076
-0.41350996 0.38992503 0.26334953 -0.46507266 0.40121752 -0.3128148 -0.43707997 -0.44306535
-0.46152586 -0.4681676 -0.45133817 -0.42692167 -0.49231327 0.4117551 -0.4695001 0.36467358
-0.3582571 0.27553612 0.41399318 -0.5205266 0.27307242 0.5508897 -0.46099672 0.48934898
-0.33775327 -0.3006769 0.33165562 -0.34609511 0.41938642 -0.4182775 0.3883888 0.5505169
0.40508303 0.45194787 -0.44046098 -0.43461064 -0.23131137 0.37872225 0.44916812 0.34564433
00000000: 6cd3 8bbe 2a4c bebe a15c e8be db15 d63e
00000010: a0b3 ae3e 8ad7 babe 4304 813e e6f3 a2be
00000020: f42f be3e da74 40be 46b2 d43e 338b f53e
00000030: 2136 cc3e 8bf2 c33e 2714 dd3e bdf2 703e
00000040: 6dc9 5abe 31c6 95be b662 a83e 101d 8cbe
00000050: 0f38 d9be 441e b2be ee6e 96be 1427 aabe
00000060: 3531 d2be 51bf 963e 0dab 9e3e 79fc ccbe
00000070: 44be a73e a0a5 b1be e14a c3be 398b 60be
00000080: 6842 f8be b477 a6be 9882 93be 65ac 89be
00000090: 0069 96be a99d cd3e 899a dcbe 5b59 413e
000000a0: c668 f6be 1d67 cf3e d068 ac3e bd92 92be
000000b0: f52e df3e a09e ac3e 2f5f 65be 3247 9d3e
000000c0: c693 b6be 021c 94be 4115 943e 28ff bfbe
000000d0: 45d0 af3e 9032 a3be 42ad 5b3e 5353 a33e
000000e0: 1dac 953e 3577 5a3e fdc4 b9be b386 92be
000000f0: 8e75 8cbe ad9d ad3e ac2a d83e ce0a 833e
00000100: 0f53 0bbd 4d68 59bc f300 853d 7ca2 cb3c
00000110: 2f1f d1bd da1f a13a ffb9 d2bd 503e b8bd
00000120: 2a86 ac3a 5d17 7dbd c46a bd3d 1f78 98bd
00000130: 198f 14bd 548d 433d e892 b63c cade c53c
00000140: 2f61 013c 84b6 57bc 5e6a 96bd cebb 0c3e
00000150: c3c6 da3d 8f8a 5bbd b798 aa3d c8a7 583d
00000160: bcb3 9dbd add8 89bd 21fe 47bc a949 7fbd
00000170: cef9 b1bd 509b 183c f29f c5bd ce41 8dbd
00000180: 0dcc e23c 6725 553b aa4c 8e3d cbfd c23d
00000190: 67b4 c03d 63e6 91bd 55ba de3c 13a9 5abd
000001a0: 27fc 303d 1640 02be a91b b83d 34d7 c13d
000001b0: ac31 31bd 096e 80bd 2589 eb3d 28c8 693d
000001c0: 224a 093e 67d4 7ebd 4473 ccbd f0ba cbbd
000001d0: 264d 00bd 08cc e93b 85fb b83d bebd b3bd
000001e0: 6860 f8bd d68a 17bb 2d25 023d 72e9 4a3d
000001f0: b65f 1abd 369e e3bd 192e ffbd f799 ee3d
00000200: ce98 e63e 0597 9f3e 376f 433f 3aeb 89bc
00000210: 2397 b4bd 3d39 e0be 58f2 bd3d 9f1d 2a3e
00000220: 30c7 1abf d665 9ebe 6692 883d 432e 8a3c
00000230: 430c 163e 30d6 073f ade8 143e 64c5 8f3e
00000240: 964e edbd 05c5 48bd 7992 c3bd 807a a4bd
00000250: 64ba 02bf 168f 62bf ed51 943b 3a10 a33e
00000260: 1cca 233f a8d3 193c 2f79 4c3e db53 783e
00000270: 5bc5 d53e 8130 453e 1e60 363f 8579 20be
00000280: f73a 0abf 4928 ff3e 51d9 c63d 22d6 97bc
00000290: 6a31 6d3d a7dc 09bf 11a8 3c3e cbcd 12be
000002a0: 4d99 403f 6157 133f b34f a23e abd3 ebbd
000002b0: a224 71be c740 5cbe bf87 263e b111 373f
000002c0: 1b97 4d3f f779 debe 2a3d bfbe eb71 2dbd
000002d0: c3fc c8be a68e 77bf b8e3 973d 4a34 d53d
000002e0: 8ec5 4e3c e25b bc3d 996a 0dbd 8bf1 0c3f
000002f0: c322 97be 242f dbbd 5f06 8a3e cf37 753d
00000300: 01e2 08bf 6397 9cbe b7eb 12bf d213 d53e
00000310: 0bfc 023f c196 cfbe 4e24 033f e47e bebe
00000320: e445 e03e dc4a 9dbe c732 b03e 5469 b53e
00000330: bf64 923e 7c9e f03e 6253 a73e a9f8 eb3e
00000340: 2327 aabe 9e5f aebe 985e fc3e 9b8a a7be
00000350: 8a30 a7be 3db5 04bf 6ebe a7be 514a fdbe
00000360: 94b7 d3be 41a4 c73e c0d5 863e 011e eebe
00000370: 626c cd3e 4329 a0be f2c8 dfbe 76d9 e2be
00000380: 1e4d ecbe aab3 efbe cc15 e7be 7a95 dabe
00000390: 7c10 fcbe 91d1 d23e 5162 f0be 7fb6 ba3e
000003a0: 7a6d b7be 1213 8d3e eaf6 d33e 3b41 05bf
000003b0: 26d0 8b3e 1b07 0d3f c307 ecbe f38b fa3e
000003c0: ffed acbe 53f2 99be c4ce a93e 6133 b1be
000003d0: d1b9 d63e 7828 d6be e6da c63e adee 0c3f
000003e0: 0b67 cf3e b665 e73e 1a84 e1be 4985 debe
000003f0: e3dc 6cbe e2e7 c13e 5df9 e53e 4bf8 b03e

fc_layer.bias f4 [64]
0.38388574 -0.041203097 -0.18904403 0.4945348 0.19614339 0.4354961 0.40608525 -0.024199592
0.25334695 0.40929845 0.4886367 0.41739878 0.1655804 0.094784044 0.11351251 -0.08621014
0.2534078 -0.045145106 0.18515769 -0.020106334 -0.11153295 0.17724293 0.09526252 0.080098495
0.3651368 0.29644883 -0.08931189 0.3657367 0.04021404 0.27880824 0.21760088 0.092074834
0.35863432 0.29631525 0.07679903 0.25027946 0.08233728 0.34549814 -0.015366323 -0.0023516384
0.5503959 0.3744558 0.46684548 0.35353848 0.17479065 0.07791918 0.23879458 0.45220652
0.1347889 0.5411874 0.43110353 0.2331023 0.2693399 0.11997802 0.37583995 0.37880132
0.31994647 0.46536437 0.4281278 0.33739775 0.025295092 0.07210565 0.2741341 0.19550265
00000000: ac8c c43e 94c4 28bd c294 41be aa33 fd3e
00000010: d0d9 483e 58f9 de3e 68ea cf3e 393e c6bc
00000020: b1b6 813e 918f d13e 972e fa3e 4bb5 d53e
00000030: e98d 293e 231e c23d 3f79 e83d f18e b0bd
00000040: abbe 813e 13ea 38bd fa99 3d3e 0ab6 a4bc
00000050: 636b e4bd 2c7f 353e ff18 c33d ae0a a43d
00000060: 36f3 ba3e 24c8 973e 27e9 b6bd d741 bb3e
00000070: 7ab7 243d f4bf 8e3e c4d2 5e3e bb91 bc3d
00000080: eb9e b73e a2b6 973e cf48 9d3d a124 803e
00000090: 73a0 a83d 22e5 b03e 08c3 7bbc f21d 1abb
000000a0: bfe6 0c3f acb8 bf3e 5f06 ef3e ff02 b53e
000000b0: 52fc 323e 1794 9f3d 9186 743e 9d87 e73e
000000c0: 1a06 0a3e 428b 0a3f 9ab9 dc3e 5fb2 6e3e
000000d0: ebe6 893e 09b7 f53d 186e c03e 3ff2 c13e
000000e0: 06d0 a33e 3d44 ee3e 9133 db3e 66bf ac3e
000000f0: a737 cf3c 21ac 933d 4e5b 8c3e d931 483e

output_layer.weight f4 [1, 64]
0.47745 -0.02073731 -0.79655606 0.38869163 0.46134934 0.41729113 0.45585683 -0.6440302
-0.9468024 0.43730834 0.40013242 0.4659055 0.4691205 -0.7576885 -0.6909846 -0.34107187
-0.9090741 -0.8398653 0.48540565 -1.0268382 -1.0543416 -1.0589527 -1.051706 -0.64130896
0.41769886 0.47888532 -0.9312696 0.43753472 -1.1591625 -0.87747693 -0.90297604 -0.61909145
0.46255267 -0.928947 -0.64198244 -0.87291366 -0.5064524 0.48087984 -0.7334554 -0.7812112
1.1069474 0.47335443 0.39962173 0.43090665 -0.8904146 -0.48323652 0.460214 0.40729418
-0.69852227 1.1695621 0.45895925 0.4107602 0.46436185 -0.93808347 0.41278043 0.4909233
0.43281758 0.4024682 0.4327175 -0.85402346 -0.8016798 -1.0125681 0.5078693 -0.98675084
00000000: 5474 f43e 4be1 a9bc 19eb 4bbf 9702 c73e
00000010: fb35 ec3e 2fa7 d53e 1166 e93e 2adf 24bf
00000020: a461 72bf e1e6 df3e 28de cc3e 2a8b ee3e
00000030: 9030 f03e e0f7 41bf 5ee4 30bf f9a0 aebe
00000040: 15b9 68bf 6a01 57bf 1787 f83e 6f6f 83bf
00000050: aaf4 86bf c38b 87bf 4d9e 86bf d32c 24bf
00000060: a0dc d53e 7530 f53e af67 6ebf 8d04 e03e
00000070: 705f 94bf 54a2 60bf 7029 67bf c77c 1ebf
00000080: b4d3 ec3e 78cf 6dbf f658 24bf 4577 5fbf
00000090: dda6 01bf e235 f63e bcc3 3bbf 75fd 47bf
000000a0: 74b0 8d3f 835b f23e 389b cc3e cc9f dc3e
000000b0: 36f2 63bf c76a f7be 2ba1 eb3e dd88 d03e
000000c0: 5bd2 32bf 36b4 953f b5fc ea3e 294f d23e
000000d0: d6c0 ed3e 3d26 70bf f557 d33e 4c5a fb3e
000000e0: 449a dd3e 5010 ce3e 268d dd3e 48a1 5abf
000000f0: e33a 4dbf d59b 81bf b903 023f b49b 7cbf
