Conditional_TimeGAN/result/original/model/TC_lag1_total1/torch_best_model.pt (torch, 87834 bytes, 7 tensors)

lstm.weight_ih_l0 f4 [256, 1]
000000 a7 a5 07 3d b2 a5 6b 3e c1 d4 e7 bc a9 ed 65 bd
       0.033116963 0.23012426 -0.028299691 -0.056134854
000010 df 8c a0 bd 28 41 29 3d 6e 66 1c 3d 81 15 1b 3e
       -0.07839369 0.041321903 0.038183622 0.15144922
000020 6d 5a ea 3b 1e 53 2a 3d 60 f5 49 3b 02 8e 4d bb
       0.007151893 0.041583173 0.003081642 -0.003136516
000030 7f 6a 46 bd 8a 7e 00 bd 3f 64 88 bc b7 92 40 3c
       -0.048441406 -0.031370677 -0.016649364 0.01175373
000040 76 4f 7b 3d b1 1e 19 3e 70 9a 45 bd 1b 88 c9 bc
       0.061355077 0.14953114 -0.048242986 -0.024601033
000050 2a cc 99 3d 4f 7c 10 3e 8e ce 04 bd ee 21 d6 3d
       0.07509644 0.1410992 -0.03242355 0.1045569
000060 0b 6a 53 3d 58 f5 e5 3c 43 7a 88 3e 17 e8 82 3b
       0.051614802 0.02807109 0.26655778 0.0039949524
000070 07 32 cc bc c4 2b 33 bd c0 53 1f bd 0a fd f1 3d
       -0.024926199 -0.04374291 -0.03889823 0.118158415
000080 74 09 4d bd fc a7 d1 bc 1e ec b5 bd 92 52 c3 bd
       -0.050057843 -0.025592797 -0.088829264 -0.095372334
000090 f8 ac 82 3c bc c2 09 3e 48 28 16 3e 36 f9 d6 3d
       0.015951619 0.13453192 0.14663804 0.10496752
0000a0 68 a8 12 3c 08 81 21 bd d2 b0 83 3c bc 00 89 bd
       0.008951284 -0.039429694 0.016075525 -0.06689593
0000b0 06 2e 87 bd b2 67 33 3c 43 11 60 3e c6 4e 23 3e
       -0.06600575 0.010950016 0.21881585 0.15948018
0000c0 b3 e8 76 bc 68 ad 43 3d 85 14 03 3e cd 82 39 3e
       -0.015070128 0.047772795 0.12800796 0.18116303
0000d0 ab ac a6 3d b3 6a 27 3e 49 54 e6 3d 8f 8b c0 bc
       0.081384026 0.16349296 0.11246545 -0.023504047
0000e0 9e a3 93 3d 41 93 9a bd a3 59 5a bd a2 f4 58 3d
       0.07208942 -0.07547618 -0.05330814 0.052967675
0000f0 69 5c 4a 3d 38 a6 7f 3d de 7f 8f bc 40 0d df 3d
       0.049404535 0.062414378 -0.017517027 0.10891199
000100 c5 cf 74 3d 38 33 1d 3e f5 c0 c1 3d d1 f9 ba 3d
       0.059768457 0.1535157 0.09460632 0.0912968
000110 ee f6 d1 3d ec 3b 19 3e 69 55 5d 3b 9b d8 2b bd
       0.10252176 0.14964265 0.0033772832 -0.041954618
000120 aa 30 db 3d 27 56 32 3e cf f0 16 3e 84 2e 2b 3e
       0.10702641 0.17415677 0.14740299 0.16716963
000130 d7 1e 97 3d db 77 19 bd a3 31 71 3d 99 f6 24 bd
       0.07378929 -0.03746782 0.058885228 -0.040274236
000140 e8 4b 40 bd f8 95 3e 3e 09 9f 20 3e 47 1b 38 bd
       -0.04694739 0.18611896 0.15685667 -0.04494789
000150 d4 08 8e 3d b6 d8 53 3d 3d c4 2d 3d cf bf 57 3d
       0.069352776 0.051720344 0.042423476 0.052673157
000160 cb fb 79 3d c0 c2 93 bc d7 50 59 3e 4d dd 1c 3e
       0.061031144 -0.0180372 0.21222244 0.15318795
000170 ad 45 3f 3e 49 54 6f 3d c8 0a 83 bd 9c 5f 26 39
       0.18678923 0.05842999 -0.06398541 0.00015866611
000180 67 6e b7 3d d7 f0 7d 3d e5 59 39 bd c4 97 1d bc
       0.089566045 0.06199726 -0.045251746 -0.009618703
000190 cf 50 3b 3e 61 2f a8 3d 92 4c 73 3d c3 13 91 3d
       0.18292545 0.08212162 0.059399195 0.070838474
0001a0 2b 4a 06 bd 16 7c 0b 3d 30 2a 91 3b 00 44 8e bc
       -0.032785576 0.034053884 0.004430078 -0.01736641
0001b0 70 57 81 3d 6d 43 41 3d 0a 38 dc 3d 6a 15 19 3e
       0.063155055 0.047183443 0.10752876 0.14949575
0001c0 84 ac f3 bc 9a cd ec 3d a9 40 62 3e cd 4e 3f 3a
       -0.029745348 0.11562653 0.22094978 0.0007297814
0001d0 79 17 2d 3c 30 e9 25 3d 82 8f 6d 3d ea 3e e7 3d
       0.010564678 0.040505588 0.057998188 0.11291297
0001e0 a1 97 0c 3d 40 72 f8 3c 42 a0 0c bc 1d 2b 26 3e
       0.034324292 0.030327916 -0.00858313 0.16227384
0001f0 64 35 ea bc 4f 6e 03 bd 6a 51 82 3d c9 2f f9 3c
       -0.028589912 -0.03208762 0.06363185 0.030418294
000200 ea 1d c3 bd f0 1c a4 bd 4d 69 a1 bd 54 c7 7b 3c
       -0.0952719 -0.08013332 -0.07881413 0.015367348
000210 7a 5e 12 bd 17 87 ed bb 24 01 d8 3d 7f d5 45 3c
       -0.03573463 -0.00724877 0.105470926 0.012074827
000220 f7 d7 d8 3c 16 49 35 bd a6 1e 98 3c fa ad a9 3d
       0.026470168 -0.044259153 0.018569302 0.082851365
000230 e8 16 46 3e 83 bb 6a 3d 16 80 45 3e 13 21 09 bb
       0.19344676 0.05730773 0.19287142 -0.0020924255
000240 69 23 fe bd 50 a2 45 bd 62 99 a0 3d 6b 38 33 bc
       -0.12409098 -0.048250496 0.078417554 -0.010938744
000250 96 42 b5 bd dd 29 99 bd 99 23 30 be 09 c4 b3 bc
       -0.08850591 -0.07478688 -0.1720108 -0.021944063
000260 59 77 a1 bd fd 86 c2 3d ce 79 11 3d 5c f7 8a bd
       -0.07884092 0.09498403 0.035516553 -0.06785461
000270 7c 18 6b 3d 4a 26 e3 bd d0 c6 4a bd 99 b8 84 bd
       0.057396397 -0.110912874 -0.04950601 -0.06480522
000280 0f 72 ec bc 35 31 7f bd bb 0d ee bd 6b 64 f5 bd
       -0.028862981 -0.062302787 -0.11623713 -0.11982044
000290 3d c6 46 bc bb 12 50 3b 3e f1 1a bd 8e 15 d3 3c
       -0.012132225 0.0031749445 -0.037827723 0.025767114
0002a0 9c e4 19 be 89 fb cd bb 92 a8 4b 3e 6a ed 5f bd
       -0.15028614 -0.006286089 0.19888523 -0.054669775
0002b0 65 4b 86 3e 9b a9 a8 3d 1b 73 bc bd 7f 90 e8 3d
       0.26229396 0.08235475 -0.09201642 0.113556854
0002c0 5d 61 b1 3b bc c1 43 bd 27 11 bc 3c e9 00 f6 bd
       0.005413218 -0.04779218 0.022957398 -0.12011892
0002d0 47 4d 37 bb 96 1e 12 bd 15 41 17 3e 23 b4 1c 3c
       -0.0027969645 -0.0356737 0.1477092 0.009564432
0002e0 0e de ca 3d 33 48 2c 3d 92 59 83 bd 33 41 e4 bc
       0.09905635 0.042061042 -0.064135686 -0.02786312
0002f0 61 a3 4b be c2 e2 c0 3d 22 e7 e3 3d 88 67 b8 3d
       -0.19886543 0.094182506 0.111280695 0.09004122
000300 fe d7 ca bc 7a 8d a0 3d 76 74 68 bc 4c 45 83 3a
       -0.024761196 0.078394845 -0.014187923 0.0010015159
000310 64 d6 a6 3c 81 7b bd 3d fc e2 19 bd 20 b4 8b 3d
       0.020365901 0.09252072 -0.037569985 0.068214655
000320 15 35 6a 3d bb 26 e3 3d a7 3f 1a bd 20 0f 63 bc
       0.05717953 0.110913716 -0.03765836 -0.013858587
000330 ba be e8 bb ed 70 1d 3e 58 fc 77 3c 15 54 11 3e
       -0.0071028145 0.15375109 0.015135847 0.14192231
000340 c2 87 b7 3d 0a 79 a2 3d 42 79 90 3d fe 73 1d 3d
       0.089614406 0.079332426 0.07054378 0.038440697
000350 1c 35 27 3d 14 80 9e 3d 4b 55 61 3d cd df 84 3d
       0.040822133 0.07739273 0.055012982 0.06487999
000360 d3 f3 b9 bc 32 05 92 3b 79 96 52 3e e2 aa bf bc
       -0.022699272 0.0044561857 0.20565213 -0.023396913
000370 d9 0c 68 3d 2f 0a 43 3e 87 c5 ba 3d 4f 7b 57 3d
       0.056652877 0.19046853 0.091197066 0.05260783
000380 72 1f 26 bd 6c f6 e6 3d fd f3 32 bd 98 44 c8 3c
       -0.040557332 0.1127747 -0.043689717 0.02444677
000390 65 f8 6b 3c 18 ea e8 3c df 57 f2 3d 95 c2 48 3e
       0.014402484 0.028431937 0.11833166 0.19605477
0003a0 91 53 50 3d bb d6 31 3e 55 71 0b 3e 99 c4 99 3b
       0.050860945 0.1736707 0.13617451 0.0046926257
0003b0 1c 81 e1 3d b5 d2 9a bc ce ac 3e 3c 78 ab a6 3d
       0.11010954 -0.018899301 0.01163788 0.08138174
0003c0 56 92 c2 3d fd 1b 1a 3e ca ca 58 3d 4e 14 1c 3d
       0.095005676 0.15049739 0.05292777 0.0381053
0003d0 96 ca e8 3d 41 76 b9 bd cf e0 00 3e b5 f3 ce bc
       0.11366765 -0.09055758 0.12585758 -0.025262693
0003e0 a6 93 20 3d a6 25 8d 3c 7f d2 e4 3b 11 83 dd 3d
       0.03920331 0.017229866 0.006983101 0.108160146
0003f0 58 7a 18 3e 79 e8 24 3c e2 08 cd bb 38 d3 b2 3d
       0.1489042 0.010065191 -0.0062571624 0.08731693

lstm.weight_hh_l0 f4 [256, 64]
000000 a6 17 a2 bd 9d 02 be 3d 2f d6 bd bd dd c3 a8 bc
       -0.07914667 0.09277842 -0.09269368 -0.020601207
000010 e2 de 88 3c 66 b4 9e 3c b5 c2 6e 3d 35 a9 e9 3c
       0.016707841 0.01937313 0.058291156 0.028523067
000020 e0 df ee 3d 6d e5 b9 bd 50 8f e7 3c 0a 42 95 3d
       0.116637945 -0.090769626 0.028266579 0.072879866
000030 e8 9b 1c 3e 98 d6 eb 3d a1 38 cf bb 25 42 17 be
       0.15293849 0.1151554 -0.0063238894 -0.14771326
000040 3c c7 3a be d3 1b 65 3a 62 73 3c bd f4 ab 28 be
       -0.18240064 0.0008739803 -0.046008475 -0.16471845
000050 8b 04 af 3d 93 22 20 3b 15 78 94 bd 2f 8c 11 bc
       0.085457884 0.002443467 -0.07249466 -0.00888352
000060 d9 ee a0 3c 0b bc 97 bc 53 48 14 be c5 a8 28 3e
       0.019645141 -0.018522283 -0.14480714 0.1647063
000070 4c 04 15 3d 25 35 8d 3d 6c 39 d9 bd d3 5a de bc
       0.03638105 0.06894902 -0.106066555 -0.027142918
000080 e8 3a b2 bd 17 83 6c bd 9f 0a f9 bd ed 25 6c bc
       -0.08702642 -0.057742205 -0.12160229 -0.014413339
000090 e2 13 0e 3e e0 9a 70 bd 29 85 51 3c 70 25 bd bd
       0.13874772 -0.05874145 0.0127880955 -0.09235656
0000a0 85 8b 0a 3d f8 15 1c be 54 36 bf 3d 29 f9 de bd
       0.033824462 -0.15242755 0.09336534 -0.10887367
0000b0 76 a6 23 bb 1d 5d 95 3c 0a 3d 16 bd 8e f0 80 3d
       -0.0024971045 0.018232876 -0.036679305 0.06295882
0000c0 08 bc 12 bd 05 52 2e be 98 db a1 3a 1b fe b3 3d
       -0.03582385 -0.17023475 0.0012348769 0.08788701
0000d0 06 63 05 3e 8e 2e 97 3d 85 47 2d bd 12 c3 bb bd
       0.13026056 0.073819265 -0.042304534 -0.09168066
0000e0 33 1f 8a 3d 69 b5 88 3b a8 4e 87 bc ac 1e ed 3d
       0.06744232 0.0041720164 -0.016516998 0.11578116
0000f0 5d e7 df bd fb 55 72 3d 4d 2a d5 3c 80 8c cc bb
       -0.10932801 0.05916403 0.026021147 -0.006242335
000100 61 d5 f1 bc b4 7d 31 bd 59 60 11 be 18 14 a2 3d
       -0.029520692 -0.04333277 -0.1419691 0.07913989
000110 9b c7 00 3e 0c f5 65 3d 42 7a 1a 3e cd 75 75 bd
       0.12576143 0.056141898 0.150857 -0.059926797
000120 7d bd f2 3d ca c2 eb bd a3 cb 30 bd 94 c5 da ba
       0.11852548 -0.115117624 -0.043162953 -0.0016690963
000130 fa 94 30 3e f8 64 21 3e 9e 5d 0b bd 01 f6 ba bc
       0.1724433 0.15761173 -0.034024827 -0.022822382
000140 93 2a 0c 3d f1 f4 bd 3a 65 f7 35 3e c7 2e 0b 3d
       0.03422029 0.0014492554 0.17770155 0.033980157
000150 18 b7 0c be 21 df 35 bd 6b 6d 3f 3d 69 5b ae 3d
       -0.1374172 -0.044402245 0.04673521 0.08513529
000160 e2 9a bd bd 82 95 30 3e 89 c0 d9 3d b0 34 c4 3d
       -0.09258057 0.17244533 0.10632426 0.09580362
000170 23 a3 fd b8 a9 5c 9d bd 12 02 e5 bd 92 84 f6 3c
       -0.00012094367 -0.07683689 -0.111820355 0.030092511
000180 c1 36 a9 bd 58 bc fd bb e7 d9 22 bd 77 fe 38 bc
       -0.082623966 -0.0077433996 -0.03975859 -0.011291138
000190 86 57 a9 3c ed 8a 8e 3b 33 93 c5 bd cc 62 f5 3c
       0.020671617 0.0043500573 -0.09647217 0.029954337
0001a0 40 66 1d be 69 55 3e be 4e 20 82 bd b8 76 34 3d
       -0.15371037 -0.18587269 -0.06353818 0.04405853
0001b0 44 85 00 3e 83 b5 f7 3d f3 3b a1 3c 66 03 70 bd
       0.12550837 0.120951675 0.019681906 -0.05859699
0001c0 88 da 14 be 6a 28 b5 bd f8 57 11 bd d8 1e 9e bc
       -0.14536488 -0.08845599 -0.035484284 -0.019301817
0001d0 88 26 94 3b 0c 06 09 bc d2 7e 98 bd 3e 13 06 be
       0.004521195 -0.008363258 -0.07446064 -0.13093278
0001e0 39 ae 52 3e 99 47 24 3e 95 e5 ac 3c 7f b8 d5 3c
       0.20574273 0.16042937 0.021105567 0.026088951
0001f0 70 c9 73 3d 32 ca f7 3c 6a 68 33 3d 04 e3 20 3e
       0.059518278 0.030247781 0.04380075 0.157116
000200 69 c7 14 3c ce 34 bd 3d b3 5f fc bc 40 c9 4d 3e
       0.009080746 0.09238587 -0.030807352 0.20096302
000210 98 c4 ac 3d 55 1f 95 bd cf d2 18 3e 8f bf d8 bd
       0.08435935 -0.07281367 0.14924167 -0.10583412
000220 3d 03 90 3d de 4c 3c be 10 fc a8 3c 5c 84 79 3e
       0.07031868 -0.18388698 0.020628005 0.24366897
000230 bc 52 45 3e 2d d3 b8 3d 4d b7 d6 3c b8 8c 88 bd
       0.19269842 0.090246536 0.026210451 -0.06667465
000240 48 37 43 bd d0 d8 d3 bd c1 c3 7a bd 33 99 bb bc
       -0.047660142 -0.10344088 -0.06122184 -0.0229002
000250 2b 27 41 bc 94 87 72 bd 31 23 8f ba cf 26 ac bd
       -0.0117891235 -0.05921133 -0.0010920522 -0.0840584
000260 d2 3c a3 bd b2 fa 4f 3e 3e b5 17 bd 87 e1 8e 3d
       -0.07970585 0.20310476 -0.03703808 0.0697661
000270 fd 3e 1c 3e d7 be 55 bd b9 eb 5f be b0 62 3d be
       0.15258403 -0.052183952 -0.21867265 -0.18494678
000280 62 f7 32 be 95 1f b3 bd 79 e1 0b be 1f ef 1c bd
       -0.17477182 -0.08746258 -0.1366023 -0.03831398
000290 d7 15 e3 3d 51 ef 56 be f6 31 2a 3c 28 2e 0e 3e
       0.1108815 -0.2098973 0.010387888 0.13884795
0002a0 9a 9f 97 bc c6 e1 7d be 73 f8 96 3d e2 ad 6d be
       -0.018508721 -0.24793157 0.07371607 -0.23210862
0002b0 89 73 98 3d 9f 01 0f 3e 69 5f fa bd fd 94 07 3e
       0.074439116 0.13965462 -0.12225229 0.13240428
0002c0 d2 39 32 bc 04 3c 1f be 2b 88 02 3d 7b f9 6b bd
       -0.010878043 -0.15550238 0.03186814 -0.05761097
0002d0 12 ff 04 3e ea de 04 3c d3 41 02 3e fa 8f 7c be
       0.12987927 0.0081097875 0.12720422 -0.24664298
0002e0 93 a7 fd bd 64 2a a8 3c 49 f9 3d be 8c b8 84 3d
       -0.12385478 0.020528026 -0.18552126 0.06480512
0002f0 5d 6c 6c be e5 3d 7a 3e c2 a3 8c 3d 65 d0 8a 3d
       -0.23088212 0.24437673 0.06867172 0.06778029
000300 6e ac b4 bd 16 8d 04 be fa d3 43 3d f6 d7 1a 3e
       -0.08821951 -0.12944445 0.04780958 0.15121445
000310 a0 09 29 3e 3a 4c d0 3b f1 58 fb 3a 17 74 89 3c
       0.16507578 0.006356743 0.0019176287 0.016778989
000320 a5 4a 95 3d 74 9a 08 3c 47 75 0d bd 59 ee 4b 3d
       0.07289628 0.008337606 -0.034535673 0.049787853
000330 ee 66 86 bd 47 b8 94 3c 10 6b 9e 3d 2e 19 3e be
       -0.06562601 0.018154277 0.07735264 -0.18564293
000340 f5 72 7b bc 33 83 de 3c a9 52 82 3d fb 46 21 be
       -0.015347232 0.02716217 0.063634224 -0.15749733
000350 eb 9d 05 be 2f 27 40 bd 10 4b 93 bb c1 ec a7 3d
       -0.13048522 -0.04691237 -0.004495032 0.08199454
000360 45 75 f9 3b 99 d5 4f 3d 17 e0 8c 3d d2 fa f9 bd
       0.0076128566 0.050740812 0.06878679 -0.12206043
000370 68 ea 96 bd 5b ce 96 bc 10 dd 0c be 8c 55 12 bb
       -0.07368928 -0.018408945 -0.13756204 -0.0022328822
000380 e4 98 26 be 2d 7d d4 bd 26 40 35 be 3c 13 59 bc
       -0.1626926 -0.10375438 -0.17700252 -0.013249215
000390 61 a5 8b 3d b8 6b 14 3d 02 e1 0e 3d ae 29 f5 3d
       0.06818653 0.03623554 0.034882553 0.119708404
0003a0 0e 1a 49 bd 82 3c ce bd 3e 88 86 3c 3c 06 86 bd
       -0.049097113 -0.10070135 0.016422387 -0.06544158
0003b0 d5 e5 f8 3d a6 01 cd 3c 9d fe ba 3d f6 9b 25 3d
       0.12153212 0.0250252 0.09130595 0.04043194
0003c0 2a 48 31 be 48 18 0e be a3 d0 02 3e a1 c1 ed 3d
       -0.17312685 -0.1387645 0.12774901 0.116091974
0003d0 92 d0 80 bd 12 2f 29 3e 67 39 a6 3d a7 a4 53 bb
       -0.06289782 0.16521862 0.081164174 -0.0032294185
0003e0 19 03 e0 3d f5 e0 a8 ba 60 42 1a bd 5b 0e 9a 3c
       0.10938091 -0.0012884425 -0.037660956 0.018805673
0003f0 35 fe a5 bd a6 23 dd 3d 8d 76 40 3d a4 9a 04 3e
       -0.08105127 0.10797815 0.04698806 0.12949616

lstm.bias_ih_l0 f4 [256]
000000 be aa 3a 3e 63 fe f7 3d 9c 82 a1 3d bc 70 fb 3d
       0.18229195 0.12109067 0.0788624 0.12277362
000010 4b c2 1f 3e b7 62 46 bc fe f3 10 bb e1 b2 97 bc
       0.1560146 -0.012108496 -0.0022118087 -0.018517913
000020 06 0a d6 bc 3f 57 37 bd d9 41 fb ba c8 d2 cf ba
       -0.026127826 -0.04476094 -0.0019169404 -0.0015855664
000030 ae 21 c3 bc 20 a0 d5 3d ca a4 2a 3e cb 51 0b 3e
       -0.02381977 0.10430932 0.16664425 0.1360542
000040 b2 db a3 3d ff 4d b6 3d 1b 31 5f bd 88 5c 59 3d
       0.08000888 0.08901595 -0.05449019 0.05306676
000050 35 05 20 3e 61 76 cc 3d 74 f1 a5 3d 30 7a 1e 3e
       0.15626986 0.099835165 0.08102694 0.15476298
000060 9e 8f ac 3d cb 3f 2b bc c4 40 09 3e 57 3e 74 3c
       0.0842583 -0.010452221 0.13403612 0.014907441
000070 d2 91 3c 3d e8 d4 5c 3d ea 52 0d 3d 66 1f 2a bd
       0.046037503 0.05391398 0.0345029 -0.04153385
000080 f7 d8 b5 bc 18 6c 21 3e bc cc cf 3b 96 5d 8a 3d
       -0.022198183 0.1576389 0.006341545 0.06756131
000090 c9 81 c7 3d 09 d7 c5 3d 14 a4 20 3e fa 16 c4 3d
       0.097415514 0.09660155 0.15687591 0.09574695
0000a0 e6 9c 8e 3c 39 97 1d 3c 68 c1 19 bb 89 34 cc 3d
       0.0174088 0.009618574 -0.0023461226 0.09970958
0000b0 27 5b 2f 3e 1c 5f 38 3e 0d 65 58 bd 00 02 ab 3d
       0.17124616 0.18005031 -0.052830745 0.08349991
0000c0 df 3d b9 bc 5a 6c b3 bd ac 12 1c 3e 72 16 18 3e
       -0.02261251 -0.08760901 0.15241498 0.14852312
0000d0 fc 0e 51 bd 30 55 83 3d 1f 95 45 3e a0 b5 81 3d
       -0.05103968 0.064127326 0.19295166 0.0633347
0000e0 14 3e dd 3d fb d8 96 3d 2b 8c de 3d 9e 62 99 3d
       0.10802856 0.073656045 0.10866579 0.07489513
0000f0 bd 5a 7f 3d ce d4 b7 bc 5d 20 06 3e 09 1c e1 bb
       0.062342394 -0.02244034 0.13098283 -0.006869797
000100 1d 0d d0 3d f1 40 dd bd 3e 1a 42 3d 7e e3 ef 3d
       0.10158751 -0.10803402 0.047388308 0.117133126
000110 08 f1 05 bc 62 fc 07 bc 56 c7 47 3d 1e 54 39 bc
       -0.008175142 -0.008299919 0.048774086 -0.011311559
000120 58 d0 01 3b 9a 13 d0 bc 59 2f 8d bd 23 9b 6f bb
       0.001980802 -0.025399972 -0.068937965 -0.0036560975
000130 1b 17 55 3c 20 5a a2 3d 5a 9d be 3d 93 08 31 3d
       0.013005997 0.07927346 0.09307356 0.043221068
000140 fa 48 af 3d 53 24 01 3d 08 4f d8 3d 15 31 9c 3d
       0.08558841 0.031528782 0.10561949 0.07626549
000150 bd 48 7d 3d cc 44 6f 3d 17 45 71 3d ab 7f e1 3d
       0.061836947 0.05841522 0.05890378 0.11010679
000160 62 f4 20 3e 57 8b 97 3c 13 9a 94 3c b8 0d 6a 3d
       0.15718225 0.01849906 0.018139875 0.05714199
000170 ca a5 5e 3d 05 d9 b1 3d c3 ea 87 3d 0e 30 26 bc
       0.054357328 0.08683971 0.06636574 -0.010143293
000180 cd 8c 4f bd ff 09 61 3d 5a 76 1e 3e f1 7b d4 bc
       -0.050671387 0.054941174 0.15474835 -0.025938006
000190 00 68 b9 3d 20 d1 db 3c 74 88 09 3e 92 a1 b8 3d
       0.090530396 0.026833117 0.13430959 0.09015192
0001a0 26 ec c0 3d 04 e4 d9 3d e5 4a e6 3d 44 65 6d 3d
       0.09420042 0.10639194 0.11244754 0.057957903
0001b0 9e d8 26 3e db 73 cc bc 7f 5c 54 3c d5 f7 97 bd
       0.1629357 -0.024957588 0.012961506 -0.07420317
0001c0 58 d8 2a bd 04 78 c5 bd 20 0b b3 3c 04 cd b6 3d
       -0.041710228 -0.09642032 0.02185589 0.089258224
0001d0 30 b0 18 3d 63 e3 2b bc 3f 18 17 bd 79 6e 6d 3d
       0.0372774 -0.010491225 -0.036888357 0.057966683
0001e0 ef 14 50 bd 4c 54 b2 3c e6 61 1a 3e 27 4a 88 3d
       -0.050801214 0.021768712 0.15076408 0.066547684
0001f0 6b 4e d2 3d 3c 74 00 bc 8e f0 5b bd db c1 ec 3c
       0.10268863 -0.007840212 -0.053696208 0.028901031
000200 70 b3 c3 bc 89 5d 23 bd 7d 92 31 bd 5e df 40 bd
       -0.023889273 -0.039884124 -0.043352593 -0.04708802
000210 d5 1c ee 3d a0 50 af bc 6c 30 c8 3d 0a 2d a5 bd
       0.11626593 -0.02140075 0.09774861 -0.08065231
000220 2d bb 98 3d 4a ec 32 be 05 40 e5 bc df 64 60 bd
       0.07457576 -0.1747295 -0.027984628 -0.0547837
000230 d4 33 05 be f7 be a8 bd 1e f5 cd bd b7 39 22 bd
       -0.13008052 -0.08239549 -0.10056518 -0.039605822
000240 5e b5 01 bc 40 f6 da bd f2 fd 95 bc a4 cd 63 3c
       -0.007916776 -0.106915 -0.018309567 0.013904009
000250 0f 5f 5b 3c 72 f6 bc 3d b0 de 9a bc cd af a0 3d
       0.013389363 0.09226693 -0.018905014 0.07846031
000260 5d 46 5c 3c 2e e5 aa 3c 89 5c 0f bd 5c 45 c1 bd
       0.01344451 0.020861235 -0.035000358 -0.094370574
000270 0e 05 ac bd f6 ff c7 3b 03 7e b3 bd 52 52 af 3c
       -0.083994016 0.006103511 -0.08764269 0.021401558
000280 5f c0 e0 bd 72 91 01 bd bb 10 9c bb d7 fb a8 bd
       -0.10974192 -0.031632848 -0.0047627366 -0.0825116
000290 3b 3f cb 3d 20 bc 02 be bf cc 38 3d df 1c b9 bd
       0.0992417 -0.12767076 0.045117136 -0.0903871
0002a0 4c 7e a2 3d 04 5c e1 3d 47 c9 e4 bc 35 d7 cc bc
       0.079342455 0.11003879 -0.027928008 -0.025004962
0002b0 d1 9e c0 bb ec d5 d3 3d e3 e0 17 3d 9b 05 bb bc
       -0.0058783074 0.10343537 0.037079703 -0.022829821
0002c0 74 43 c6 3d 33 ca ee 3d 0a df d4 bc 32 4d 13 bd
       0.096808344 0.1165966 -0.02598526 -0.03596229
0002d0 45 ca b6 3d 91 a7 17 bd 8c 44 af bd e2 a1 19 be
       0.089252986 -0.03702504 -0.08557996 -0.1500316
0002e0 6f 9b dd bb d5 06 32 bd a0 2f 9d 3d af 97 96 3d
       -0.006762914 -0.043463547 0.076750994 0.0735315
0002f0 ba ec 4e bd b3 2c cd bc 42 12 dc 3d 79 9b cd bd
       -0.05051873 -0.025045728 0.1074567 -0.1003942
000300 fe 2f 1a 3e e2 60 c6 3c 40 33 34 3e 13 d7 0b 3e
       0.1505737 0.02421612 0.17597675 0.13656263
000310 27 35 af 3b 55 d3 7b bd 78 1a 07 3e f7 2c ce 3c
       0.0053469124 -0.06148084 0.13193691 0.025167925
000320 09 bc 80 3d bc 14 8f 3d 18 1f 3a bd 2e 29 5d 3d
       0.06285865 0.06986377 -0.04543981 0.05399435
000330 34 c9 24 3e c8 ec 18 3d 82 97 8b 38 4b b9 2a 3e
       0.16092378 0.037335187 6.656257e-05 0.16672246
000340 bd 7b 1e 3e 41 7d bd 3d 3f c4 d0 bb c7 51 0f 3e
       0.1547689 0.09252406 -0.0063710506 0.1399604
000350 6f e4 90 3d 0b 51 f3 bc 34 63 ef bc 68 4c 3a 3c
       0.0707482 -0.02970173 -0.029222108 0.011370756
000360 18 79 3b 3e 58 6f b0 3d 57 f2 da 3c 76 6d 17 3e
       0.18307912 0.08614987 0.026726885 0.1478785
000370 01 e0 99 bc b0 6c 3c 3c d3 bc 9f 3d 17 33 2f 3e
       -0.018783571 0.0115005225 0.07799687 0.17109333
000380 1d 07 82 3d a1 e5 a3 3d 90 74 12 bd e4 60 30 bd
       0.06349013 0.080027826 -0.035755694 -0.043061152
000390 5e f5 b6 3d a5 0b 88 3d 79 3c 27 3e 06 da bc 3d
       0.08933519 0.06642846 0.16331662 0.09221272
0003a0 13 16 20 3e 01 27 cb bb ce 4e 5e 3c 4a 5d 6c 3d
       0.1563342 -0.006199718 0.013568593 0.057706155
0003b0 7c 99 0d bc 56 ac c0 3d 07 ac 8d bd 37 b8 56 3d
       -0.008642551 0.094078705 -0.06917577 0.052421775
0003c0 83 45 6a 3d 16 01 6b 3d 31 57 68 3e 96 c5 10 3e
       0.057195198 0.057374083 0.22689511 0.14137873
0003d0 85 13 94 3d e9 5c 14 bc df 8e 5f 3c 52 5f 1f 3d
       0.072302856 -0.009055355 0.013644903 0.038909264
0003e0 17 ea 1b bc d6 80 ed 3d 17 00 44 3e df 0d 0b 3e
       -0.009516261 0.11596839 0.1914066 0.1357951
0003f0 cb 57 09 3e ae e8 8e bb c5 41 20 3d e4 e1 02 3d
       0.13412397 -0.0043612337 0.039125223 0.031953707

lstm.bias_hh_l0 f4 [256]
000000 03 02 9a 3b 29 4f 33 bd c1 e6 93 bc 9b 81 03 3d
       0.004699947 -0.043776665 -0.018054368 0.032106023
000010 25 ce d3 bc 41 26 8d bd 21 a4 5b 3e b2 7e b3 bc
       -0.025855133 -0.06892062 0.21449329 -0.021910999
000020 68 3f 54 bc 7d f4 f3 3d 9a 9d bc bc 5d 45 aa 3d
       -0.01295457 0.11911867 -0.023024369 0.08314011
000030 de 01 a8 bc 05 1b ca 3c 1f d6 d2 3d 9d 7b 48 bc
       -0.020508703 0.024671087 0.102947466 -0.012236503
000040 eb 2f 89 bd 81 b5 84 3d b9 9c e8 3c 9f ac 1f 3e
       -0.06698593 0.064799316 0.028395044 0.15593193
000050 1c 17 02 3d c2 8b 2c 3e 9d 6b fc bc b4 00 52 bc
       0.03176032 0.16850188 -0.030813033 -0.01281755
000060 c7 35 8f 3d 87 c1 d1 3d f9 b3 06 3e fa 73 40 3e
       0.06992679 0.102419905 0.13154592 0.18794242
000070 ae c8 f4 bb 3a 67 18 3d 83 2f d3 3d eb 79 25 3e
       -0.007470212 0.03720782 0.103117965 0.1615979
000080 51 dc fa 3d 68 71 b5 3d ae 7c 08 ba fc a2 ec 3d
       0.12249053 0.08859521 -0.0005206567 0.11554524
000090 e6 33 bc 3d 14 05 7a bd 8c 8b 4e 3e 42 86 33 3d
       0.09189586 -0.06104 0.2017042 0.04382921
0000a0 96 fa 22 3e 4a e9 d4 3d 4d 44 82 3d cd f1 a1 bd
       0.15915903 0.10396059 0.063606836 -0.07907448
0000b0 ae d2 92 bd 43 d0 c5 3b 1a 19 95 3d 26 90 2e 3d
       -0.0716909 0.0060367896 0.07280178 0.04261794
0000c0 41 7e 7e 3d cb 9d 8b bd 59 98 ed 3d 39 48 6f 3d
       0.062132124 -0.06817206 0.11601324 0.058418486
0000d0 e2 6b f5 3d 73 a5 83 bd 4b 80 a4 3d f7 19 06 3e
       0.11983468 -0.06428041 0.080322824 0.13095842
0000e0 8f 25 fc 3d 04 a6 db bd 37 08 1c 3e b7 0b 04 bd
       0.12311851 -0.10725024 0.15237509 -0.032237735
0000f0 82 1f 95 bd 9e 23 59 bd 8a 82 27 bd 96 5b 13 3e
       -0.072814 -0.053012483 -0.040895976 0.14390406
000100 86 60 11 3e c7 f8 d1 3d b1 2b ef 3d 56 fc 92 3c
       0.14196977 0.10252529 0.11678255 0.017942589
000110 e6 cd ab 3d df 53 89 3d 10 57 09 bd c1 ce 39 3d
       0.083888814 0.0670545 -0.033530295 0.04536319
000120 b5 89 56 3d 72 40 15 3e 3d 12 c4 3d ac 3d 79 bc
       0.05237742 0.14575365 0.09573791 -0.015212458
000130 a7 bb 4f 3d bc 17 05 3e aa a6 41 3e 23 f3 ef bc
       0.05071607 0.12997335 0.18911234 -0.029290741
000140 da d3 4c 3e d6 b1 43 bb e9 02 42 bc 8e 21 79 3d
       0.2000269 -0.0029860637 -0.011841514 0.060823016
000150 db 2e e7 3d f2 ae 40 bd b3 59 24 3d 53 e9 2e 3c
       0.11288234 -0.04704184 0.040124606 0.010675746
000160 b4 6e 70 3d 39 a0 08 3e 0d c1 63 bd d7 5c 04 3d
       0.058699325 0.1334237 -0.05560403 0.0323151
000170 f6 98 99 3c 5c a4 c7 3d ed 37 1b 3d 81 1f d9 3c
       0.018749695 0.09748146 0.03789513 0.02650428
000180 5b 6e e1 3c f6 22 8e 3d bf e5 27 3e be 8a ca 3d
       0.027518442 0.06940262 0.16396235 0.09889744
000190 7c f2 5e 3d ee 1e a9 3d 16 eb e4 3d fa 8d 77 3d
       0.05443047 0.082578525 0.111776516 0.060438134
0001a0 a3 c1 09 bd 24 f2 b8 bc 75 76 d6 3d 30 4c b5 3d
       -0.033631932 -0.0225764 0.10471813 0.08852422
0001b0 d4 c6 9a bc 7b 09 4f bc e6 ea 95 3d 77 e0 71 3c
       -0.018893637 -0.012636538 0.07320194 0.014762989
0001c0 ad 69 04 3e a4 e8 6a 3d d9 e9 4c 3d eb a6 22 3d
       0.12930937 0.05735077 0.050027702 0.039709967
0001d0 8e ea 19 bc 24 ac 93 3d cc f4 2f bd bf 86 11 3a
       -0.009394301 0.072105676 -0.042958066 0.000555139
0001e0 4b a4 9f bd 2d f7 db 3c fd 94 a3 bc 4b 30 6a bd
       -0.07795008 0.026851261 -0.019968504 -0.057174962
0001f0 7e db d8 3c 97 f4 bd 3d 0b 7c 08 3e df 8a 2f 3e
       0.02647185 0.092751674 0.13328569 0.17142819
000200 9a f0 a2 bc 9e cf 16 3e d3 ef 6a bd 0f f5 d2 3c
       -0.019890118 0.14727637 -0.05735762 0.025751619
000210 b4 c5 12 3d 02 1b 03 be a0 55 9a 3d 9c 5a c2 3d
       0.035833076 -0.12803271 0.07535863 0.094899386
000220 31 80 dc 3d d2 3a ca 3c a5 aa ab 3d 78 0a a3 bd
       0.10766638 0.02468625 0.08382157 -0.07960981
000230 e6 75 9c 3d 09 64 14 bd c8 31 93 3c 3d b8 06 be
       0.07639675 -0.036228213 0.017968073 -0.13156219
000240 99 09 9c 3c 91 9d 48 bd 88 0e cb bd 93 94 08 be
       0.019047545 -0.048978392 -0.09914881 -0.13337927
000250 b5 96 9c bc da 3b a4 bd d1 99 b0 bd 7d 2c 0c be
       -0.019114831 -0.08019228 -0.08623088 -0.13688846
000260 2e eb d4 3d f5 47 f7 3d 13 fb 3f bd 34 ab cf 3c
       0.103964195 0.120742716 -0.046870302 0.02535019
000270 5d 99 f5 bb b9 62 cd bd b4 53 1a bd bf dd 04 3d
       -0.007495089 -0.100285955 -0.03767748 0.032438036
000280 56 6b 13 bc d6 df ba bc 39 fa b2 bb be 42 7c 3d
       -0.008997759 -0.022811811 -0.005461958 0.061587088
000290 eb b8 a3 bd 85 62 86 bc 1c 61 c1 bd 87 78 c2 3d
       -0.07994255 -0.0164044 -0.0944235 0.09495645
0002a0 ef 62 ac bb 44 a6 a7 bd 19 cf a6 bd c6 b4 df bc
       -0.0052608172 -0.081860095 -0.081449695 -0.02730788
0002b0 25 d8 de 3b 42 7f db 3d 84 64 8e 3b 3a d4 6a bd
       0.006800669 0.10717632 0.0043454785 -0.0573313
0002c0 3f ec 09 be fb 85 7b 3c 5f 67 b1 3d 7b a1 b4 bd
       -0.13469027 0.015351768 0.086622946 -0.088198625
0002d0 08 6b fa bb 06 ae ed 3d 6a ce c2 3d 17 75 1e be
       -0.0076421537 0.11605458 0.095120266 -0.15474354
0002e0 78 a9 fd bd a8 08 09 3e f7 5d 89 bd 12 92 a7 3c
       -0.12385839 0.13382208 -0.067073755 0.020455394
0002f0 ab 33 f8 bd 41 68 a7 3d 17 d5 82 3c 40 57 75 bd
       -0.1211923 0.08174182 0.01597075 -0.05989766
000300 94 1d 17 3c 0c b7 b0 3d 49 f3 12 3d e6 8a 90 3c
       0.009223361 0.086286634 0.035876546 0.017644357
000310 f8 16 7d 3c 68 2c 05 3e 39 c4 a4 3d 8d 84 87 3d
       0.015447371 0.13005221 0.08045239 0.06617079
000320 50 49 9e 3d 08 76 05 3e 1b 6d 49 bd cb 09 12 3e
       0.07728827 0.13033307 -0.049176317 0.14261548
000330 0d 06 07 3e 19 73 cc 3d b5 81 7f 3d 5f 5e 8a bc
       0.13185902 0.09982891 0.062379558 -0.016890703
000340 b1 a2 24 3d 0d e9 3b 3e 6e 71 9b bb 91 8e 91 bc
       0.040194217 0.1835062 -0.0047437465 -0.017768176
000350 db 0a 8b 3b ab 0a c3 3d 12 84 1b bd 3c 79 58 3d
       0.0042432374 0.09523519 -0.03796775 0.052849993
000360 fe 66 b6 3d 5e 24 21 3d 0f 23 9d bd 71 76 3a 3d
       0.08906363 0.039341323 -0.076727025 0.04552311
000370 a2 fd 85 3c e7 1f c9 3d 05 02 8c bd 84 57 b5 3d
       0.016356293 0.09820538 -0.06836323 0.08854583
000380 6e ef 69 3d a6 b0 0c 3e 31 19 4b 3b 4e c3 13 3e
       0.057113104 0.13739261 0.0030990357 0.14429972
000390 aa 7a 77 3d eb cb da 3d 63 ab 59 bd c2 72 3f 3d
       0.060419716 0.106834255 -0.053141963 0.0467403
0003a0 51 5a 0c bd 79 94 b1 3d 4c 81 81 bd a8 77 25 3e
       -0.03426582 0.08670897 -0.063234895 0.16158926
0003b0 ba 10 6d bd d5 74 2a 3e 8d 60 29 bc d1 51 8d bd
       -0.05787728 0.1664613 -0.010337961 -0.06900371
0003c0 35 11 97 3d de 38 b4 bd eb 1d 15 3e 59 02 5b 3e
       0.07376329 -0.08799909 0.14562194 0.21387614
0003d0 06 13 22 3d 6c 70 33 b9 fd 1a 1a 3e e6 4e cf 3d
       0.039568923 -0.0001711265 0.15049358 0.101224706
0003e0 90 6b d4 3d bf 92 e6 3d 65 c1 3e bd f6 bc ed bb
       0.103720784 0.11258458 -0.046571154 -0.007255192
0003f0 e5 34 9c 3d f0 20 91 3d 7b 6d 2a 3d e0 76 a6 bc
       0.07627276 0.070863605 0.041608315 -0.020320356

fc_layer.weight f4 [64, 64]
000000 c6 b3 d9 bd b1 a4 2f be 69 98 4a be 1c fa 8d 3e
       -0.10629992 -0.17152669 -0.19784702 0.2772988
000010 72 42 7d be 8d f3 41 be a7 44 1f 3c 67 da 3c be
       -0.24732378 -0.18940563 0.009720958 -0.18442689
000020 a9 86 14 3e 20 81 78 3c a9 e9 39 3e a7 81 91 3e
       0.14504494 0.015167505 0.1815554 0.2841923
000030 ac c5 30 3e 46 86 1b 3e ce 95 66 3e 58 c4 45 be
       0.17262906 0.1518794 0.22518083 -0.1931318
000040 0d 71 0b bd 2f 60 c4 bd ea 85 78 3d 8c 08 9c bd
       -0.03404336 -0.09588658 0.060674585 -0.07618818
000050 01 95 3c be 03 6a cd bd 57 66 a1 bd a5 02 2c be
       -0.18416215 -0.10029986 -0.07880848 -0.16797884
000060 af f6 80 be cb 97 c0 3d 67 eb 30 3e bc 0b 7b be
       -0.25188205 0.09403952 0.17277299 -0.24516195
000070 c2 9f 37 3e 57 b0 ba bd db 21 eb bd d2 95 41 bd
       0.17932037 -0.091156654 -0.11481067 -0.04726202
000080 c1 8b 90 be f2 7f af bd b8 3a b2 bd 15 82 c4 bd
       -0.28231624 -0.085693255 -0.08702606 -0.09595124
000090 6b 67 4b 3e 5f f3 88 bc 22 fd 83 be 60 27 40 3d
       0.1986367 -0.01671761 -0.25779063 0.04691255
0000a0 35 47 58 be 1b 8d ad 3c 91 65 30 3e 7a 00 b1 bd
       -0.21120913 0.021185448 0.17226245 -0.08642669
0000b0 33 5c 64 3e b5 49 0a 3e dc 61 a4 bc b7 98 9d 3d
       0.22300796 0.1350468 -0.020066194 0.07695144
0000c0 03 02 e1 bd 73 f1 21 be 79 bc f6 3c ed 8b dc bd
       -0.10986712 -0.15814762 0.030119168 -0.10768876
0000d0 94 2c 0b 3e fe bb a7 3e 0a cd f5 3c 8e d1 64 be
       0.13591224 0.32760614 0.030004997 -0.22345564
0000e0 9a 46 1d bd 0a 02 3d 3c 7f 2b 4c be 9c f2 f1 bd
       -0.03839741 0.011536131 -0.19938467 -0.11813852
0000f0 dc 5f 94 bd 5a 18 08 3e 09 aa 23 3e 43 95 25 3e
       -0.07244846 0.1329054 0.15982832 0.1617022
000100 e7 9c dc bc ac 15 1c bc e7 2a 5e 3d f6 f4 22 3d
       -0.026930286 -0.009526651 0.054240134 0.039784394
000110 70 a6 cd bd 6d 34 09 bc 18 de 9f bd 38 02 2e bc
       -0.10041511 -0.008374316 -0.07806033 -0.010620646
000120 8a bb 4c 3c d7 b5 8e bd 4a c5 d0 3d 09 f9 76 bd
       0.012495885 -0.06968277 0.1019388 -0.060296092
000130 41 65 a5 bc b7 79 8b 3d e8 3c ef 3c 42 2c 31 3c
       -0.020189883 0.06810325 0.029203847 0.010813775
000140 60 a8 3a 3b 1f a5 3e bd fa 4f 53 bd 8f e9 01 3e
       0.0028481707 -0.04654419 -0.051589943 0.12686752
000150 1d 1f e3 3d cd 16 3c bd 9f 6f a3 3d 36 2d a0 3d
       0.11089919 -0.045920182 0.079802744 0.07821123
000160 e2 0e b5 bd 89 20 7f bd b3 27 b4 bc 9a 51 74 bd
       -0.08840729 -0.062286887 -0.021991586 -0.059648134
000170 51 8b cb bd d5 03 dd bb db 60 e6 bd 3e 50 ab bd
       -0.09938682 -0.0067448416 -0.112489425 -0.08364914
000180 79 89 b6 3c 9d be 61 bb 50 bb 7f 3d 06 cb b1 3d
       0.022282349 -0.003444589 0.062434494 0.08681302
000190 c8 09 d8 3d 7a fa 3e bd a2 d9 e4 3c 72 3b 96 bd
       0.105487406 -0.04662559 0.027935807 -0.07335557
0001a0 f8 83 e6 3c 5f e6 ec bd ca 32 c9 3d 47 ef 9c 3d
       0.0281391 -0.11567377 0.0982414 0.07662826
0001b0 9d e9 e9 bc 86 b1 cd bd 76 0f 01 3e e2 85 38 3d
       -0.028553778 -0.100436255 0.12603554 0.045049556
0001c0 d2 89 03 3e 8f 34 71 bd a4 bc b5 bd b0 e6 5d bc
       0.12845543 -0.058888014 -0.08873871 -0.01354377
0001d0 e0 15 9d bc 10 e5 93 3c d7 21 d2 3d 16 58 8a bd
       -0.01917547 0.018053561 0.10260361 -0.06755082
0001e0 95 9e 65 bd 99 a4 ae 3b 40 c1 4b 3a 5a 13 65 3d
       -0.05605944 0.00532968 0.0007772632 0.05592666
0001f0 8d 04 56 bd b6 58 d2 bd da a7 43 be 36 ce 84 3d
       -0.052250434 -0.102708265 -0.19106999 0.06484644
000200 8e 9a 71 3c aa 9f 4f 3e d9 eb ca 3d 0b f2 07 be
       0.014746321 0.20275751 0.099082656 -0.13275926
000210 eb 78 04 3e 03 45 1c be c3 55 ca bc ab fa 97 3e
       0.12936752 -0.15260701 -0.024699097 0.29683432
000220 73 ca cc 3d cf 8f 02 be 40 0f b9 3d 40 26 8a 3d
       0.099995516 -0.12750171 0.09036112 0.06745577
000230 2e 77 40 3e 88 83 7e 3d fb ba 14 3e 96 21 0f bd
       0.18795463 0.062137157 0.14524452 -0.03494414
000240 7c 45 dc 3c 05 fd 1e be 11 f3 1e 3c 00 1e be bd
       0.026888601 -0.15526207 0.009701506 -0.09283066
000250 70 49 92 be 57 c4 fd 3d ed a1 87 bd 2e 1e 83 3e
       -0.28571653 0.123909645 -0.06622682 0.25608963
000260 15 0b 87 3e 37 f5 71 bd 80 bc 9d be 50 16 4c 3e
       0.26375642 -0.059071746 -0.30807877 0.19930387
000270 04 36 7f be ff 14 82 be e1 3b e6 bc 22 d8 2b bd
       -0.24922949 -0.25406644 -0.028104724 -0.041954167
000280 06 2f d0 bd 55 89 06 be 97 cc f4 3d b7 10 b9 bc
       -0.10165219 -0.13138326 0.11953085 -0.022590978
000290 17 14 1f 3e e7 5e de bd 7c 03 9e 3e c4 54 9d be
       0.15535007 -0.10857945 0.30862033 -0.30728734
0002a0 cf c1 80 bd 5f b9 ca bd 9e 2d 9a 3d 03 cd dd bd
       -0.06286966 -0.09898638 0.07528232 -0.108301185
0002b0 38 cb 16 3d f0 66 9d bd 4a 76 1c 3e 6a ff 24 3e
       0.0368149 -0.076856494 0.15279499 0.16113058
0002c0 a1 6b 5f bd d8 e1 dd bd 84 28 88 be 9a a0 5e be
       -0.054546002 -0.10834092 -0.2659341 -0.21740952
0002d0 7a 72 27 3e fd f6 a8 bd ee 82 34 3d 2c 82 07 3d
       0.16352263 -0.08250234 0.044070177 0.033083126
0002e0 a7 a3 cb 3e 3e ca bc 3d 7b 49 bc 3c 7f 52 a9 3e
       0.39773294 0.09218262 0.022984257 0.33070752
0002f0 ca 5a 08 3c 6f 02 76 bd 87 a3 46 3e 76 09 bb be
       0.008322427 -0.060060915 0.19398318 -0.36530656
000300 ff cc b8 be f1 68 b0 bd 65 4f 9f be 3b 3f 8c 3e
       -0.360939 -0.08613766 -0.3111526 0.2739199
000310 f7 d4 41 be 44 ca 5a be f2 58 86 3e 05 96 5c be
       -0.18928896 -0.2136622 0.26239735 -0.21541603
000320 6e a0 2d 3e e8 66 b9 bd 78 2f e0 3d 7a 4f 2f 3e
       0.1695573 -0.09052831 0.10946554 0.17120162
000330 f9 a1 42 3d 87 e7 66 3e a6 56 03 3e 86 d6 bb bd
       0.04751775 0.22549258 0.12826023 -0.091717765
000340 10 ee 1b be 55 88 04 be fe a7 34 3e fa 31 ff bd
       -0.15227532 -0.12942632 0.17642209 -0.12460704
000350 f2 ab fc bc 2f ed 84 be 69 2b c9 bd ef 34 a1 be
       -0.030843709 -0.25962207 -0.09822733 -0.31485698
000360 d3 0e 70 be 42 ce 47 3e de 94 fd 3d 60 1d 95 be
       -0.23443155 0.19512275 0.1238191 -0.29123974
000370 35 1f 77 3e 91 fc 18 3c 9e 5d 20 be 33 e5 86 be
       0.24132998 0.00933756 -0.15660712 -0.2634674
000380 cc e2 86 be 15 b0 3e be cd e8 81 be 66 5f 82 be
       -0.26344907 -0.18621857 -0.25372925 -0.25463408
000390 93 c6 e2 3d 86 f8 0f be c8 b1 89 be 7b df 60 3e
       0.11073031 -0.14059648 -0.2689345 0.21960251
0003a0 cc 49 44 bd c1 3f 62 be 30 ea 78 3e 82 80 98 be
       -0.04792194 -0.22094633 0.24308085 -0.29785544
0003b0 0d 17 5a 3d b9 91 b1 3e 0d 67 7f be dd f4 66 3e
       0.05324464 0.3468149 -0.24941655 0.22554345
0003c0 0b 6b 96 bd e3 10 16 be 97 30 98 3d e4 a2 82 3a
       -0.073446356 -0.1465488 0.07431143 0.0009966758
0003d0 f0 15 35 3e 6c 81 aa 3e 1f b0 2b 3e 6d fd ac bd
       0.1768415 0.33301866 0.16766404 -0.08446775
0003e0 88 57 75 bc dc e9 79 3e 6f 7b 8d be 1f 13 73 be
       -0.014974482 0.24405617 -0.27633235 -0.23737763
0003f0 4f 30 a8 bc 1b 32 2f 3e 89 6d 30 3e a6 bd 75 3e
       -0.020530848 0.17108957 0.17229284 0.23998126

fc_layer.bias f4 [64]
000000 52 74 24 3e 7a b0 2c bd a8 9e e3 bd 5d 62 93 3e
       0.16059998 -0.04216049 -0.11114246 0.28785983
000010 a6 5b e7 bc 1f 61 4c 3e 28 c8 2a 3e f5 9f 85 bc
       -0.028241944 0.19958924 0.16677916 -0.016311625
000020 bb 42 80 bd 09 1e 3d 3e db e5 8c 3e b2 17 4c 3e
       -0.06262728 0.18468489 0.27519116 0.19930914
000030 48 f0 5d bd 0a 8b 32 3d 42 5a e6 3d 1e c9 ab bd
       -0.05418423 0.04358963 0.11247684 -0.083879694
000040 70 be fa bc 4c a5 8b bd ac 51 af bc 22 cd 9e bd
       -0.030608386 -0.06818637 -0.021401249 -0.0775397
000050 53 83 7b bd 94 b2 d4 3b 6f 16 0c bd 3c 11 99 3d
       -0.061404537 0.0064910147 -0.03420108 0.0747399
000060 6e 15 08 3e d8 fa 8c 3d 08 fe a7 bd 11 69 06 3e
       0.13289425 0.06883782 -0.082027495 0.13126017
000070 24 19 61 3d e5 fc fc 3d 17 e4 f3 bd 48 d5 9f 3d
       0.054955617 0.12352923 -0.11908739 0.07804352
000080 57 35 fd 3d 83 dd d6 bd 13 53 be 3c 83 1d 99 3c
       0.123636894 -0.10491469 0.023232972 0.01869083
000090 6f c5 71 3d ee a2 02 3e 07 ff d8 bc 98 b7 6b bc
       0.059026178 0.12757465 -0.026488794 -0.014387034
0000a0 11 e8 05 be 18 a5 1f 3e ff ef 7e 3e 8d d3 ea 3d
       -0.13076808 0.15590322 0.24896239 0.11466131
0000b0 e5 89 96 bd 80 a1 9e 3d b6 84 d7 bd e2 b0 5d 3e
       -0.0735052 0.077456474 -0.105233595 0.21649507
0000c0 f1 fc f2 3d 87 c7 27 3c 34 3c 50 3e 90 3d e2 3b
       0.11864651 0.010240442 0.20335466 0.0069043115
0000d0 20 52 ae 3d c1 7e e3 3b d7 0f 0d 3e 23 39 28 3e
       0.08511758 0.0069426005 0.13775574 0.16428046
0000e0 68 e8 b4 3d 28 91 79 3e a1 a0 47 3e 7e 85 8a 3d
       0.088333905 0.24371779 0.19494869 0.06763743
0000f0 37 ec c3 bb 0e eb eb bc 9a a7 08 3e 47 4b b9 bd
       -0.0059790867 -0.028798606 0.13345185 -0.09047561

output_layer.weight f4 [1, 64]
000000 21 52 8c 3e 6f d1 03 bd 4a 95 9a be 11 e5 4c 3e
       0.2740641 -0.032182153 -0.30192024 0.20009257
000010 d6 eb 85 3e c7 42 4e 3e d2 0e 84 3e 97 cd 0c bf
       0.2615649 0.20142661 0.25792557 -0.55001205
000020 ef cf 2b bf 9b 68 80 3e 50 31 4c 3e 4f d0 88 3e
       -0.67114156 0.25079808 0.19940686 0.26721427
000030 92 d7 82 3e fa f1 57 be f5 74 a1 be 53 ec 99 bd
       0.25555092 -0.210884 -0.31534544 -0.075157784
000040 65 02 b3 be 78 23 92 be d8 61 94 3e 31 1e 95 be
       -0.34962764 -0.28542686 0.289809 -0.29124597
000050 71 29 86 be 0b be 08 bf 0f c0 fd bd 6f 15 88 be
       -0.26203492 -0.5341498 -0.12390148 -0.26578853
000060 d7 fe 62 3e 8c d4 85 3e c3 8a 95 be 0a 5b 67 3e
       0.22167526 0.26138723 -0.2920743 0.22593322
000070 b2 1b b2 be 97 e0 49 be 4e a7 ad bd bc f0 99 bd
       -0.34786755 -0.1971458 -0.084791765 -0.075166196
000080 a4 be 7b 3e c7 22 6a bf 70 7b 5c be 15 9f 58 be
       0.24584442 -0.91459316 -0.21531463 -0.21154435
000090 54 5c b0 bd 0f c9 90 3e 44 b3 99 be 4e 42 99 be
       -0.0861136 0.28278396 -0.3001958 -0.299334
0000a0 19 f4 72 3f c7 53 8c 3e 87 83 42 3e 13 2b 6f 3e
       0.94903713 0.27407667 0.18995486 0.23356275
0000b0 85 71 8c be e1 85 03 be 18 2b 2f 3d 62 77 48 3e
       -0.2743036 -0.1284404 0.042765707 0.19576791
0000c0 40 44 8b be 7d 9b 19 3f cd 5a 85 3e 2c 51 5d 3e
       -0.27200508 0.6000288 0.26045838 0.21612996
0000d0 b0 8f cd 3e a2 5d 7f be 72 b1 53 3e 58 fd 94 3e
       0.40148687 -0.24938062 0.20673159 0.29099536
0000e0 4f ae 70 3e a0 7c 57 3e 1d bd 5f 3e b8 7d 7d be
       0.23503993 0.21043634 0.21849485 -0.24754989
0000f0 3c ac 4f be 79 f6 9f be 92 03 c6 3e 18 5f 5d bf
       -0.20280546 -0.3124273 0.386746 -0.86473227
