TimeGAN4paper/result/iter6000/model/TS_lag1_total1/torch_best_model.pt (torch, 87834 bytes, 7 tensors)

lstm.weight_ih_l0 f4 [256, 1]
0.07772471 0.2833907 -0.01267817 0.0042994474 -0.015125125 0.27981508 -0.009130178 0.03643903
-0.010168726 0.07062306 0.0025310412 0.00605369 -0.024329966 0.2702214 -0.007632603 0.0042504286
0.015354666 0.012084331 -0.016765857 0.005509652 0.0064564436 0.078394614 -0.0023425657 0.020461295
0.08270487 0.0016320355 -0.01127791 0.007177755 -0.010061361 0.27368227 0.0033283662 0.033320036
-0.012323533 -0.017959803 0.009419103 -0.003960285 -0.009864492 0.03835476 0.013458996 -0.001693761
-0.009770849 0.0071597835 -0.0057354597 -0.0051312777 -0.019547123 -0.0190595 0.11956305 0.023623375
0.27368906 -0.0025680368 0.0059262156 0.029808661 0.007835316 0.034548033 0.034906927 -0.015672501
0.0055048675 -0.018462187 -0.01866564 0.046050742 0.2814937 0.00397744 -0.012372024 0.0014443127
0.020998554 -0.011245108 0.026396368 0.02684984 0.017059598 0.27103448 -0.012406906 0.00119348
0.025166143 0.026615432 0.022845753 0.023896778 0.014709074 0.114352845 0.017171156 -0.00017644248
-0.0025281464 0.07982456 0.036368355 0.18764454 0.01918949 -0.0036697565 0.00143192 -0.006426637
0.014669744 0.0026170858 0.0766635 0.0324744 0.012649105 0.02795333 -0.014051701 -0.00798876
0.041034035 0.024509722 0.0017078151 0.017308991 0.030319832 0.019672701 -0.0016467572 0.0027407426
0.010043141 0.034502294 -0.008413898 0.0043895175 0.015275759 0.036786497 -0.0063169263 0.09442248
0.00427202 0.052737344 0.03382773 -0.0071771727 0.01731399 0.008138251 0.0064433864 0.03621636
0.02483818 0.017386774 0.018609492 0.018869374 -0.010836649 -0.0007092167 0.026035896 0.017138068
-0.02046821 -0.15501358 -0.00011947403 0.0063187364 -0.032201216 -0.14561427 0.16505079 0.0013890174
0.003701862 -0.017563445 0.0053926543 -0.003933791 0.018577114 0.16078795 0.02366638 -0.003297461
-0.019988924 -0.004995787 0.00868106 -0.14648671 -0.004514573 -0.03578257 -0.16267614 -0.16939907
-0.016336603 0.015011007 0.0019579527 -0.1668552 -0.0025217207 -0.15914519 0.0022646948 0.0064898524
-0.0017907515 -0.048564315 -0.013146649 -0.019067002 -0.014899017 0.0061432663 -0.010583441 0.0013840692
-0.0041184477 -0.037006456 0.16670017 -0.009088748 0.05836083 -0.00015732522 -0.033228785 0.007903256
-0.16607678 -0.009689452 -0.0036647907 -0.16080013 0.0003015705 -0.01106024 0.009916774 0.0050354702
0.0039542476 0.013157457 -0.033130705 0.0016630618 -0.011809012 0.005978576 0.008468517 0.011590374
0.010021515 0.010153065 0.023124008 -0.0061524194 0.023152534 0.022332188 0.0011551846 0.024085274
0.029914796 0.036971457 -0.012297014 -0.006781229 0.0056759357 0.016556907 -0.011266568 0.034687378
0.025903348 0.032915898 0.03209604 -0.0031151301 0.05097076 -0.005535125 0.036069397 0.03548443
0.00020476192 0.004899329 0.031390723 -0.046465777 0.003081078 0.022722412 0.03146298 0.031619854
0.0022741847 0.031900607 -0.007015571 0.00276296 0.0051225456 -0.018186824 0.046963595 0.039510403
0.046350494 0.019141216 0.03770497 0.009927869 0.036353283 0.12634291 0.022823796 0.022830049
0.009211642 0.047493123 0.0018924559 0.014405766 0.02363637 -0.010173772 0.049919493 0.07504794
0.015361902 -0.0016567382 -0.008992993 0.027981358 0.022616046 0.03196579 0.028049048 -0.0071411887
00000000: 222e 9f3d 9618 913e 19b8 4fbc 61e2 8c3b
00000010: 5fcf 77bc ec43 8f3e be96 15bc 1841 153d
00000020: ba9a 26bc d3a2 903d d3df 253b 085e c63b
00000030: a34f c7bc 765a 8a3e ea1a fabb 2e47 8b3b
00000040: 2392 7b3c 5cfd 453c 8d58 89bc 508a b43b
00000050: 9390 d33b 5b8d a03d bb85 19bb 729e a73c
00000060: 2c61 a93d 06ea d53a fcc6 38bc 5f33 eb3b
00000070: 68d8 24bc 1520 8c3e b820 5a3b 977a 083d
00000080: a5e8 49bc 7020 93bc 9552 1a3c 47c5 81bb
00000090: ae9e 21bc e119 1d3d 1f83 5c3c 3001 deba
000000a0: e915 20bc 9e9c ea3b 86f0 bbbb 4724 a8bb
000000b0: 4a21 a0bc ab22 9cbc 79dd f43d cf85 c13c
000000c0: f920 8c3e 824c 28bb b330 c23b 4b31 f43c
000000d0: b25f 003c 3d82 0d3d 91fa 0e3d 9e63 80bc
000000e0: 2d62 b43b 033e 97bc afe8 98bc b49f 3c3d
000000f0: f11f 903e 2f55 823b 08b4 4abc 184f bd3a
00000100: 2905 ac3c 673d 38bc 323d d83c 32f4 db3c
00000110: 92c0 8b3c 08c5 8a3e 5646 4bbc 8b6e 9c3a
00000120: 3a29 ce3c 9b08 da3c 0427 bb3c 2dc3 c33c
00000130: 54fe 703c d331 ea3d 86aa 8c3c 6b03 39b9
00000140: 42af 25bb 0f7b a33d fcf6 143d e425 403e
00000150: 4733 9d3c 4c80 70bb 43af bb3a 8a96 d2bb
00000160: 5e59 703c 6a83 2b3b c101 9d3d e003 053d
00000170: 313e 4f3c 62fe e43c 1b39 66bc 4ae3 02bc
00000180: 4e13 283d 9dc8 c83c c4d8 df3a 96cb 8d3c
00000190: 4c61 f83c a528 a13c 01d8 d7ba 089e 333b
000001a0: fd8b 243c 4752 0d3d 72da 09bc f1d5 8f3b
000001b0: 2d47 7a3c 70ad 163d 38fe cebb 9360 c13d
000001c0: 4dfc 8b3b 1d03 583d f28e 0a3d 7d2e ebbb
000001d0: 12d6 8d3c 4c56 053c 0b23 d33b 9b57 143d
000001e0: 7079 cb3c b56e 8e3c ef72 983c f293 9a3c
000001f0: 338c 31bc baea 39ba 3b49 d53c 2265 8c3c
00000200: f3ac a7bc e1bb 1ebe 228e fab8 670d cf3b
00000210: 6ce5 03bd e81b 15be 1303 293e b10f b63a
00000220: f09a 723b 37e1 8fbc ddb4 b03b 08e7 80bb
00000230: 082f 983c 99a5 243e ffdf c13c 371a 58bb
00000240: d0bf a3bc b3b3 a3bb 013b 0e3c 9d00 16be
00000250: fcee 93bb be90 12bd 9394 26be f376 2dbe
00000260: 57d4 85bc baf0 753c ff50 003b 17dc 2abe
00000270: 7443 25bb f5f6 22be 466b 143b d4a8 d43b
00000280: a6b7 eaba 60eb 46bd 0b65 57bc 6732 9cbc
00000290: 021b 74bc 744d c93b 2b66 2dbc a869 b53a
000002a0: 0bf4 86bb 1594 17bd 73b3 2a3e f9e8 14bc
000002b0: c40b 6f3d abf7 24b9 e81a 08bd a97c 013c
000002c0: 0810 2abe 82c0 1ebc fc2c 70bb caa8 24be
000002d0: 1b1c 9e39 0236 35bc f779 223c 9600 a53b
000002e0: a292 813b 6092 573c 10b4 07bd 18fb d93a
000002f0: 967a 41bc eee7 c33b 89bf 0a3c 8de5 3d3c
00000300: 4831 243c 0b59 263c 8f6e bd3c 3c9a c9bb
00000310: 62aa bd3c fef1 b63c 9069 973a 7b4e c53c
00000320: e00f f53c 626f 173d 6a79 49bc 1235 debb
00000330: 33fd b93b 5aa2 873c 6997 38bc 5a14 0e3d
00000340: 4233 d43c d2d2 063d 2377 033d 3627 4cbb
00000350: b7c6 503d fe5f b5bb 81bd 133d 1f58 113d
00000360: 5cb5 5639 8d8a a03b 8f93 003d e652 3ebd
00000370: e9eb 493b 5a24 ba3c 53df 003d d283 013d
00000380: 7d0a 153b 36aa 023d e0e2 e5bb c712 353b
00000390: 07db a73b 89fc 94bc e65c 403d a9d5 213d
000003a0: 04da 3d3d 0ace 9c3c 8770 1a3d 80a8 223c
000003b0: 2ee7 143d 0960 013e f8f8 ba3c 1506 bb3c
000003c0: 6dec 163c 2688 423d 480c f83a 2906 6c3c
000003d0: 10a1 c13c e5af 26bc 6278 4c3d bcb2 993d
000003e0: 7db0 7b3c e926 d9ba 5957 13bc 2939 e53c
000003f0: 4945 b93c 8fee 023d 1ec7 e53c a200 eabb

lstm.weight_hh_l0 f4 [256, 64]
0.39247012 0.31885356 0.34675884 -0.5216143 0.59205496 0.05150327 -0.19858377 -0.48703495
-0.2074241 -0.069899224 -0.15201826 -0.39298835 -0.40444714 0.27541846 -0.082238495 -0.35150743
-0.17921042 0.08227435 -0.50886655 0.1503158 0.2667374 0.61562514 0.16267882 0.08582986
-0.15360948 -0.30433255 -0.070331275 0.1614159 -0.57050854 0.07581291 -0.33191922 -0.013370816
0.34567 0.27525806 -0.9029645 0.24061184 0.37421185 -0.0849326 0.19320318 -0.404418
0.90162903 -0.15986991 0.041429494 0.29801866 0.06637713 -0.42948374 0.107643865 -0.02722315
-0.17826697 -0.08440318 0.037960015 0.16635527 0.34395927 0.27959388 0.41322368 0.35462752
0.82169354 -0.5865393 0.22872992 0.54800457 -0.92575353 -0.16435896 -0.35805297 -0.089735515
-0.13459118 -0.04206692 -0.33421353 0.110897526 -0.020200389 0.09327508 0.13803697 0.011873752
0.08952893 -0.091275245 -0.066801354 -0.034043 0.18014804 0.20286347 0.013686807 -0.05562996
0.03334483 0.06104457 0.16891116 -0.020292018 -0.06289931 -0.16584477 0.03147745 0.0021717304
-0.21679655 0.26569286 0.10914207 0.0027359577 -0.0032223645 -0.038556278 -0.23660806 0.004477224
-0.14015721 -0.03200561 0.018224807 0.015751794 -0.18824947 0.10572966 -0.16818199 -0.08600095
-0.28800616 -0.21735284 -0.06080466 0.061089568 0.19542235 0.124885045 0.002503785 -0.057907157
-0.19388531 -0.084825635 -0.12592071 0.0100909425 -0.031014003 -0.056112334 -0.04818298 0.06953715
0.15799665 0.27035508 0.013522212 -0.07070058 0.041209802 0.05301021 0.098564364 0.16649105
-0.16949692 0.021704355 -0.27716747 0.14996986 -0.8235612 -0.08115184 0.34191483 0.22351706
0.14128132 -0.16637418 0.073969595 0.11513874 0.3283153 -0.040519442 0.10680175 0.16797858
-0.065394066 -0.09160588 0.08684335 0.07505357 -0.07196479 -0.4526315 -0.04502877 -0.028049638
-0.28892967 0.27078152 0.1337971 -0.6588526 0.25252298 -0.050573736 -0.34050402 -0.2111007
-0.2682946 -0.18019396 -0.08631952 -0.05203197 -0.1525576 0.021974307 -0.1787442 0.17303003
-0.4530592 -0.20285852 0.10078622 -0.22818245 0.22546889 0.12203146 -0.2634074 0.16366898
0.05050942 -0.21460189 0.15546422 -0.19906993 0.031906646 -0.29564682 0.13150507 -0.2805419
0.020079136 -0.01956491 -0.1367484 -0.01423955 -0.20100251 0.17508002 0.25827304 0.19720739
-0.14473452 -0.18226136 0.032170996 0.099590056 -0.68549216 0.014872519 0.420861 -0.061729692
0.5008732 0.0458457 0.020573497 0.17592229 -0.0017871032 -0.08079277 0.50934297 0.22914274
-0.013735391 0.043424103 0.3268851 -0.294949 -0.112936184 -0.44508204 -0.003994878 0.07179043
-0.06068022 0.20315592 -0.14136128 -1.0372642 -0.14935161 0.018583812 -0.24713838 -0.060071398
-0.3253234 -0.13429444 -0.49537587 -0.41020262 -0.1461732 0.708822 0.061379034 0.16556534
-0.034634504 -0.06718306 0.019992707 -0.021085247 0.1241235 0.19936591 -0.017661113 0.02581611
-0.11272726 -0.24497798 0.44641924 0.05009699 -0.19065064 -0.36898386 0.041643407 -0.52831626
0.11258403 -0.040342465 -0.3788742 0.0815972 -0.121440984 -0.09966273 0.32947358 0.54082155
00000000: d8f1 c83e c640 a33e 608a b13e 8488 05bf
00000010: ea90 173f 18f5 523d 8b59 4bbe a55c f9be
00000020: fc66 54be 5327 8fbd adaa 1bbe c535 c9be
00000030: b213 cfbe a603 8d3e a86c a8bd c8f8 b3be
00000040: f082 37be 747f a83d 1445 02bf 63ec 193e
00000050: ce91 883e 9c99 1d3f 4795 263e 91c7 af3d
00000060: ce4b 1dbe 7ad1 9bbe d809 90bd 364a 253e
00000070: d90c 12bf cd43 9b3d 51f1 a9be 4411 5bbc
00000080: a9fb b03e a0ee 8c3e ae28 67bf f362 763e
00000090: b298 bf3e 25f1 adbd 0ed7 453e e00f cfbe
000000a0: 29d1 663f f0b4 23be f9b1 293d e795 983e
000000b0: bcf0 873d 4be5 dbbe 6374 dc3d 1503 dfbc
000000c0: 9e8b 36be 93db acbd f67b 1b3d 0959 2a3e
000000d0: 6e1b b03e ee26 8f3e 0e92 d33e bd91 b53e
000000e0: 825a 523f 7127 16bf 2d38 6a3e 074a 0c3f
000000f0: 2ffe 6cbf b74d 28be b852 b7be 41c7 b7bd
00000100: 45d2 09be 5d4e 2cbd 091e abbe 3e1e e33d
00000110: 497b a5bc 0107 bf3d 9059 0d3e 208a 423c
00000120: f25a b73d 84ee babd 26cf 88bd ac70 0bbd
00000130: ba78 383e 71bb 4f3e a13e 603c 3edc 63bd
00000140: 9794 083d df09 7a3d 0cf7 2c3e 723b a6bc
00000150: 5ad1 80bd 36d3 29be 80ee 003d 9753 0e3b
00000160: eaff 5dbe e508 883e e185 df3d c14d 333b
00000170: 4e2e 53bb 30ed 1dbd 6249 72be adb5 923b
00000180: 5f85 0fbe 5118 03bd 314c 953c e809 813c
00000190: 78c4 40be cb88 d83d e637 2cbe 4421 b0bd
000001a0: 8b75 93be be91 5ebe 4f0e 79bd 0e39 7a3d
000001b0: cc1c 483e bbc3 ff3d 8b16 243b 0e30 6dbd
000001c0: df89 46be 10b9 adbd 5cf1 00be 7b54 253c
000001d0: 1411 febc 0cd6 65bd 845b 45bd 7e69 8e3d
000001e0: e0c9 213e fb6b 8a3e 458c 5d3c 77cb 90bd
000001f0: 9ccb 283d 3c21 593d 1ddc c93d a17c 2a3e
00000200: 9a90 2dbe 55cd b13c e5e8 8dbe b391 193e
00000210: e8d4 52bf f032 a6bd 760f af3e a8e1 643e
00000220: 0dac 103e fe5d 2abe 5f7d 973d dccd eb3d
00000230: f118 a83e b7f7 25bd e0ba da3d 9402 2c3e
00000240: 53ed 85bd dd9b bbbd edda b13d b0b5 993d
00000250: 4762 93bd 51bf e7be 1670 38bd 5bc8 e5bc
00000260: 97ee 93be e0a3 8a3e 1b02 093e 90aa 28bf
00000270: b14a 813e 6826 4fbd 8b56 aebe c82a 58be
00000280: e95d 89be c484 38be 4ac8 b0bd 7a1f 55bd
00000290: 0f38 1cbe 7603 b43c b808 37be c92e 313e
000002a0: 60f7 e7be 25ba 4fbe 0169 ce3d a9a8 69be
000002b0: 51e1 663e a1eb f93d 56dd 86be d798 273e
000002c0: f7e2 4e3d 99c0 5bbe 0332 1f3e fdd8 4bbe
000002d0: 8bb0 023d 055f 97be 44a9 063e 30a3 8fbe
000002e0: 007d a43c 9746 a0bc c607 0cbe 004d 69bc
000002f0: 9ad3 4dbe 2d48 333e 5d3c 843e bcf0 493e
00000300: 4935 14be b9a2 3abe bcc5 033d dff5 cb3d
00000310: 6a7c 2fbf deab 733c 187b d73e 46d8 7cbd
00000320: 3a39 003f b3c8 3b3d c089 a83c f924 343e
00000330: 3c3d eaba ae76 a5bd 4d64 023f 65a4 6a3e
00000340: 680a 61bc 79dd 313d 7c5d a73e 8e03 97be
00000350: 164b e7bd cbe1 e3be 77e7 82bb dc06 933d
00000360: d38b 78bd 1b08 503e 03c1 10be 13c5 84bf
00000370: a1ef 18be 143d 983c d811 7dbe 6d0d 76bd
00000380: ca90 a6be 7b84 09be e8a1 fdbe 1406 d2be
00000390: 6dae 15be 5c75 353f 9568 7b3d f689 293e
000003a0: e9dc 0dbd 4697 89bd bfc7 a33c f8ba acbc
000003b0: 7634 fe3d 9426 4c3e 0aae 90bc 4f7c d33c
000003c0: 8ddd e6bd 82db 7abe 1091 e43e 8032 4d3d
000003d0: ec39 43be 74eb bcbe 4792 2a3d bc3f 07bf
000003e0: 7592 e63d 243e 25bd cdfb c1be 6f1c a73d
000003f0: 0db6 f8bd f91b ccbd c3b0 a83e 4873 0a3f

lstm.bias_ih_l0 f4 [256]
-0.15651608 0.32806858 0.09011927 0.14184572 0.23983902 0.3751439 -0.31842586 -0.48355642
0.057950012 -0.12158034 -0.07931195 -0.06882454 0.066527046 0.65990025 0.21840622 0.12323842
-0.06754387 -0.3012175 0.012867832 0.07647535 0.009702981 -0.24741693 0.08906928 0.01536484
-0.4728591 -0.3505767 0.21306175 -0.28064406 0.13828155 0.5299399 0.0700054 -0.27218127
0.13362369 0.23416644 -0.055817686 0.13709088 0.13172698 -0.20750682 -0.16281328 -0.015521193
0.071320646 0.106019735 -0.13115412 0.26599047 0.24381302 0.15982153 -0.420662 -0.11988616
0.47979888 0.057231706 0.014067114 -0.29338855 -0.18473828 -0.14622602 -0.053378735 0.1512174
-0.085615434 0.21433896 0.19463086 0.025196334 0.3663641 -0.2653906 0.13782232 -0.17572095
-0.09550816 0.029896682 -0.026783062 -0.02498053 -0.22067522 -0.02335046 0.21147652 0.18326059
-0.15451059 -0.21777925 -0.18069194 -0.20042467 -0.086107984 0.36080018 0.014675903 0.15053944
0.2055415 -0.25458896 -0.15809442 0.39169472 -0.08017753 -0.13087316 0.06413044 -0.00011727851
-0.23505211 0.057893824 -0.0026195857 -0.1605673 -0.05167246 -0.074865855 0.16741961 0.13761473
-0.1599362 -0.08850939 0.15927541 -0.05600983 -0.10991753 -0.21267654 0.19288915 0.0723143
0.121127054 -0.018529506 0.2606988 0.045439 0.07167144 -0.09858299 0.11903904 -0.049812064
-0.052896123 -0.3494219 -0.15980977 0.22291848 0.017420791 -0.15424016 -0.12375635 -0.09506924
-0.12392015 -0.16107255 0.0820511 -0.0086640045 0.41301477 0.09322917 -0.10792343 -0.048937146
0.06641925 -0.22203939 0.009576099 -0.12409839 0.2841285 -0.3040476 0.11491426 -0.20277682
0.0011250209 -0.10138125 -0.120466836 -0.16008598 -0.25826573 -0.09712035 -0.27369663 0.08240935
0.062166244 0.08362644 -0.09421252 -0.2587029 0.011266833 0.33917794 -0.014337606 0.09039074
-0.04917011 -0.19708844 -0.081736125 -0.056492355 -0.11099367 -0.0065252506 -0.012218343 0.1102894
-0.058321178 0.17925364 0.1399992 0.06855267 0.16516598 -0.19496487 0.40872255 -0.20435035
0.1641982 0.17692687 -0.022627926 0.065984696 -0.1059135 0.021322265 0.4426148 -0.1741123
-0.06866208 0.16877882 -0.14236613 -0.071001 0.02947143 0.02475052 -0.21586388 -0.07558528
-0.08694852 -0.19546951 0.1434607 0.08660771 0.002681271 -0.13048501 -0.010614436 -0.147442
0.097050875 -0.2729337 0.26429322 0.13444129 -0.29083538 -0.4024195 0.1407328 0.08933246
-0.26964706 -0.3245537 0.059669744 0.072836846 -0.09542073 -0.44072172 0.044288136 -0.11790757
-0.15361969 -0.2533879 -0.4247795 -0.21472739 -0.48932138 -0.06602544 -0.31280532 -0.3362289
0.07768559 0.09359368 -0.25435534 0.626411 -0.33623737 -0.42460462 -0.3584647 -0.121970385
0.076485805 -0.24074912 0.011695316 -0.4079157 -0.1548663 0.08766524 -0.044967417 -0.412506
-0.32618633 -0.3975189 -0.26598254 -0.16657886 -0.35300145 0.25180534 -0.09571382 -0.26170763
-0.30494648 -0.3421889 0.03245599 -0.16212751 -0.1219247 0.028874408 -0.37422714 0.042723004
-0.18850379 -0.14850798 0.14078236 -0.32191652 -0.4390157 -0.28254393 -0.012704615 -0.009676988
00000000: c045 20be 9bf8 a73e 7490 b83d 0140 113e
00000010: 5c98 753e dc12 c03e b708 a3be b594 f7be
00000020: fe5c 6d3d 1dff f8bd 4e6e a2bd e1f3 8cbd
00000030: 553f 883d 39ef 283f e1a5 5f3e 6d64 fc3d
00000040: 7154 8abd 2e39 9abe 99d3 523c 1c9f 9c3d
00000050: 41f9 1e3c dd5a 7dbe f469 b63d cfbc 7b3c
00000060: 971a f2be ca7e b3be dc2c 5a3e 94b0 8fbe
00000070: ae99 0d3e 24aa 073f fe5e 8f3d 585b 8bbe
00000080: a6d4 083e 54c9 6f3e 16a1 64bd 8d61 0c3e
00000090: 70e3 063e ab7c 54be 86b8 26be 9a4c 7ebc
000000a0: 8f10 923d e020 d93d 444d 06be e72f 883e
000000b0: 1faa 793e 41a8 233e 0261 d7be e086 f5bd
000000c0: 33a8 f53e cb6b 6a3d c179 663c 0637 96be
000000d0: 082c 3dbe 46bc 15be a9a3 5abd bcd8 1a3e
000000e0: 2557 afbd ac7b 5b3e 504d 473e 8b68 ce3c
000000f0: 1394 bb3e 47e1 87be 4b21 0d3e 31f0 33be
00000100: c899 c3bd e3e9 f43c 2768 dbbc f8a3 ccbc
00000110: aff8 61be 7749 bfbc 4d8d 583e aaa8 3b3e
00000120: 0638 1ebe 8601 5fbe 4f07 39be 203c 4dbe
00000130: 6259 b0bd cdba b83e 3373 703c 0327 1a3e
00000140: 7979 523e 7c59 82be 81e3 21be 368c c83e
00000150: 1e34 a4bd 9d03 06be d256 833d 6cf3 f5b8
00000160: 80b1 70be 1322 6d3d 5bad 2bbb c16b 24be
00000170: 80a6 53bd 4553 99bd 0c70 2b3e e0ea 0c3e
00000180: 51c6 23be 6944 b5bd 1819 233e 906a 65bd
00000190: 711c e1bd e1c7 59be bc84 453e 8519 943d
000001a0: 7611 f83d 31cb 97bc 507a 853e 3f1e 3a3d
000001b0: 7ac8 923d e1e5 c9bd bdca f33d bc07 4cbd
000001c0: 9ba9 58bd 6de7 b2be 2ca5 23be be44 643e
000001d0: 0cb6 8e3c 22f1 1dbe f873 fdbd a9b3 c2bd
000001e0: d9c9 fdbd 34f0 24be 680a a83d 78f3 0dbc
000001f0: ac76 d33e efee be3d f606 ddbd 5172 48bd
00000200: d106 883d 4b5e 63be 12e5 1c3c 4c27 febd
00000210: 4a79 913e 21ac 9bbe 2b58 eb3d baa4 4fbe
00000220: 7075 933a f9a0 cfbd 51b7 f6bd 94ed 23be
00000230: 683b 84be 09e7 c6bd f721 8cbe 3cc6 a83d
00000240: 08a2 7e3d 5744 ab3d 7ef2 c0bd b574 84be
00000250: 8698 383c bba8 ad3e 47e8 6abc c81e b93d
00000260: 9966 49bd 8dd1 49be 4565 a7bd 8764 67bd
00000270: a650 e3bd c5d1 d5bb 722f 48bc 69df e13d
00000280: 30e2 6ebd 448e 373e f35b 0f3e 5865 8c3d
00000290: 4521 293e dfa4 47be 1544 d13e 3841 51be
000002a0: 9323 283e 512c 353e 335e b9bc fc22 873d
000002b0: 2de9 d8bd 08ac ae3c 689e e23e 7f4a 32be
000002c0: b49e 8cbd 5bd4 2c3e 6dc8 11be f968 91bd
000002d0: 126e f13c 9ac1 ca3c 6c0b 5dbe 75cc 9abd
000002e0: 1112 b2bd 2929 48be 5de7 123e 625f b13d
000002f0: 43b8 2f3b dd9d 05be 2ce8 2dbc 09fb 16be
00000300: 9cc2 c63d f7bd 8bbe 7151 873e faaa 093e
00000310: 60e8 94be ee09 cebe 421c 103e f0f3 b63d
00000320: 2e0f 8abe e72b a6be 4368 743d 7c2b 953d
00000330: f26b c3bd 47a6 e1be 7a67 353d 8679 f1bd
00000340: 7b4e 1dbe 0fbc 81be b37c d9be 7fe1 5bbe
00000350: 5588 fabe 5938 87bd 0528 a0be 3226 acbe
00000360: 9f19 9f3d 0bae bf3d dd3a 82be 795c 203f
00000370: 4e27 acbe c765 d9be af88 b7be 9ccb f9bd
00000380: 97a4 9c3d f086 76be b69d 3f3c 54da d0be
00000390: 4595 1ebe d589 b33d c12f 38bd fd33 d3be
000003a0: e501 a7be 9987 cbbe dd2e 88be a693 2abe
000003b0: 9bbc b4be a1ec 803e 9b05 c4bd 8bfe 85be
000003c0: f221 9cbe 6233 afbe 92f0 043d c104 26be
000003d0: a8b3 f9bd 068a ec3c b39a bfbe 51fe 2e3d
000003e0: 2307 41be 7a12 18be 4029 103e 3ed2 a4be
000003f0: aac6 e0be 99a9 90be 0427 50bc 3b8c 1ebc

lstm.bias_hh_l0 f4 [256]
-0.33410737 0.16320162 -0.006793636 0.05118237 0.05796662 0.3183307 -0.10172182 -0.48694947
0.0711233 0.042298555 -0.10041873 0.015901357 0.069837995 0.5802608 0.1547129 -0.025052376
-0.21453778 -0.32542893 0.095753506 0.17933889 -0.11480858 -0.17875104 -0.02276892 -0.15222108
-0.48718932 -0.23770796 0.21057113 -0.10760756 0.08477609 0.51323426 0.13862091 -0.06905142
0.27830866 0.16512516 -0.06268002 0.18507488 0.12620842 -0.3651463 -0.117986105 -0.06743859
0.21306968 0.2003612 -0.06520005 0.087207206 0.00088037347 -0.014195647 -0.29503182 -0.16076744
0.5645396 0.076668374 -0.022335583 -0.3834919 -0.013865135 -0.2746324 -0.16600506 0.21884131
-0.07052625 0.033431 0.23834059 -0.08193494 0.23120682 -0.29596525 -0.034052853 -0.024947984
-0.05512448 0.24045414 0.042612653 -0.12417064 -0.12861149 0.052004393 0.12917152 0.23993461
-0.10411479 -0.046625596 -0.01601451 -0.21198133 -0.04839935 0.41149926 0.11071348 0.078029916
0.31997818 -0.28910673 -0.27555615 0.3762525 -0.029131696 -0.23632985 0.045350593 -0.099546924
-0.33353588 0.17281996 -0.076363616 -0.18539272 -0.08727952 -0.064224176 0.1389479 0.17426322
-0.08174491 -0.07404704 0.16848944 0.06882403 -0.14601888 -0.15692952 0.17035644 0.042600494
-0.0067070625 -0.14749804 0.2529682 0.076003484 -0.110161826 -0.08626139 0.17928244 0.03915528
0.11812287 -0.19564967 -0.13163973 0.1733699 -0.02925066 -0.0716434 -0.12982622 -0.1524813
-0.15106848 -0.15599017 -0.08868433 -0.13238524 0.3367991 0.19382244 0.07905807 0.09359059
0.07041827 -0.03487896 -0.004428997 -0.051258776 0.20369817 -0.4106774 0.09252428 -0.02722493
0.034217022 0.098035954 -0.008659975 -0.18491288 -0.051786322 -0.050952487 -0.15516125 -0.0095484555
0.089130394 0.14156298 -0.17505325 -0.4059844 -0.021236956 0.16671497 -0.081662506 -0.12495726
0.041349296 -0.09720724 -0.09360611 0.063227855 -0.034495663 -0.112909146 0.037746403 0.12132508
0.042420346 0.18807462 0.13929996 0.21265236 -0.01401795 -0.083696626 0.269185 -0.019006336
0.07959672 -0.014970863 -0.07614899 0.06368172 -0.09323514 0.025063226 0.4098806 -0.2086145
-0.30011776 0.06753222 -0.02975934 -0.12323757 -0.06742169 0.17783082 -0.03516502 -0.08029723
-0.20404607 -0.018182827 -0.0003643872 0.0335318 -0.06799124 -0.023698606 -0.10210006 -0.10694587
-0.044301227 -0.21086076 0.124194704 0.0155235315 -0.28073615 -0.21088664 0.08924774 0.13033473
-0.2552178 -0.26408532 0.055933215 0.16146001 -0.12448614 -0.37822804 0.10660036 -0.3015199
-0.26819912 -0.16240612 -0.42315215 -0.37245426 -0.5558256 0.058909126 -0.3215511 -0.29474968
-0.016327608 0.046785116 -0.35780767 0.52405566 -0.3010976 -0.33790016 -0.50482637 -0.20452014
0.07010871 -0.18338317 0.050549302 -0.22055754 -0.18378156 0.12807117 -0.2614282 -0.457978
-0.51677877 -0.30461243 -0.34278566 -0.06269691 -0.40223625 0.32418567 -0.03687601 -0.38313347
-0.28837895 -0.48755753 -0.048816837 -0.08963075 -0.15465842 0.037758533 -0.23737447 0.105038114
-0.07526576 -0.15189159 -0.09719733 -0.46496788 -0.49686593 -0.20731786 -0.010221637 -0.061950985
00000000: 1f10 abbe 531e 273e 269d debb 9ba4 513d
00000010: 686e 6d3d 3efc a23e 8853 d0bd 7151 f9be
00000020: 18a9 913d 4041 2d3d 56a8 cdbd 9043 823c
00000030: 3907 8f3d f98b 143f 0f6d 1e3e a43a cdbc
00000040: cbaf 5bbe 9f9e a6be 6a1a c43d 9da4 373e
00000050: c320 ebbd 830a 37be e385 babc d8df 1bbe
00000060: e170 f9be b769 73be f59f 573e 5a61 dcbd
00000070: 169f ad3d 5263 033f a4f2 0d3e d56a 8dbd
00000080: 797e 8e3e 9216 293e 625e 80bd 4584 3d3e
00000090: c83c 013e 75f4 babe b3a2 f1bd 3e1d 8abd
000000a0: f02e 5a3e 7d2b 4d3e 9b87 85bd b199 b23d
000000b0: ddc8 663a dc94 68bc 690e 97be 38a0 24be
000000c0: ab85 103f 4f04 9d3d 1df9 b6bc 0d59 c4be
000000d0: 972a 63bc 9e9c 8cbe 3bfd 29be f017 603e
000000e0: 1170 90bd f2ee 083d 8e0f 743e 81cd a7bd
000000f0: 7bc1 6c3e c288 97be 017b 0bbd b75f ccbc
00000100: 35ca 61bd 9c39 763e 9b8a 2e3d 2d4d febd
00000110: bbb2 03be 8f02 553d 8a45 043e 6bb1 753e
00000120: 233a d5bd 7bfa 3ebd dd30 83bc a211 59be
00000130: 663e 46bd 08b0 d23e c0bd e23d 26ce 9f3d
00000140: 2ed4 a33e cc05 94be b215 8dbe 2ba4 c03e
00000150: 98a5 eebc 7400 72be 8bc1 393d 42df cbbd
00000160: 37c5 aabe b7f7 303e 8764 9cbd 97d7 3dbe
00000170: 9bbf b2bd f787 83bd 5c48 0e3e 0f72 323e
00000180: e069 a7bd f9a5 97bd 7f88 2c3e 9df3 8c3d
00000190: f985 15be 22b2 20be eb71 2e3e db7d 2e3d
000001a0: ebc6 dbbb ba09 17be 0c85 813e b7a7 9b3d
000001b0: 869c e1bd d0a9 b0bd d195 373e 4961 203d
000001c0: 67ea f13d 6358 48be 91cc 06be e187 313e
000001d0: 159f efbc c6b9 92bd 2af1 04be 0f24 1cbe
000001e0: b2b1 1abe e3bb 1fbe 21a0 b5bd ff8f 07be
000001f0: ee70 ac3e 6479 463e 33e9 a13d 6cac bf3d
00000200: 7437 903d 3edd 0ebd 1f21 91bb b9f4 51bd
00000210: 4196 503e 4f44 d2be 5f7d bd3d d106 dfbc
00000220: 2627 0c3d 13c7 c83d 91e2 0dbc cd59 3dbe
00000230: e51d 54bd 8eb3 50bd 97e2 1ebe 2071 1cbc
00000240: ff89 b63d e3f5 103e 2941 33be 30dd cfbe
00000250: 20f9 adbc 54b7 2a3e ac3e a7bd 98e9 ffbd
00000260: e15d 293d 9714 c7bd 8fb4 bfbd 9b7d 813d
00000270: 534b 0dbd e93c e7bd f99b 1a3d 4979 f83d
00000280: f5c0 2d3d a296 403e a6a4 0e3e 8ac1 593e
00000290: 8bab 65bc 2369 abbd 9ed2 893e 2db3 9bbc
000002a0: 9b03 a33d 5a48 75bc 00f4 9bbd 906b 823d
000002b0: 11f2 bebd 6551 cd3c dfdb d13e 0a9f 55be
000002c0: 09a9 99be 554e 8a3d dcc9 f3bc fb63 fcbd
000002d0: 6214 8abd 4819 363e 3209 10bd e072 a4bd
000002e0: 74f1 50be 27f4 94bc 390b bfb9 a458 093d
000002f0: fe3e 8bbd 9423 c2bc d619 d1bd 7006 dbbd
00000300: 3475 35bd e2eb 57be cb59 fe3d 6956 7e3c
00000310: a6bc 8fbe abf2 57be 85c7 b63d 7876 053e
00000320: e8ab 82be 3136 87be 3a1a 653d c655 253e
00000330: 97f2 febd 1ba7 c1be 4a51 da3d d160 9abe
00000340: 6551 89be ca4d 26be 66a7 d8be 53b2 bebe
00000350: 964a 0ebf b24a 713d 59a2 a4be 6ee9 96be
00000360: 7ac1 85bc c0a1 3f3d 9132 b7be 8328 063f
00000370: 7729 9abe 4001 adbe 4d3c 01bf ba6d 51be
00000380: 2895 8f3d ccc8 3bbe c90c 4f3d d6d9 61be
00000390: 3c31 3cbe 1725 033e ebd9 85be 187c eabe
000003a0: 9d4b 04bf 29f6 9bbe 9a81 afbe 3d67 80bd
000003b0: e9f1 cdbe aafb a53e 4d0b 17bd 122a c4be
000003c0: 68a6 93be 24a1 f9be 2af4 47bd 5490 b7bd
000003d0: c75e 1ebe b1a8 1a3d 4b12 73be 391e d73d
000003e0: ef24 9abd 7889 1bbe 650f c7bd 4510 eebe
000003f0: 3665 febe 224b 54be a778 27bc 51c0 7dbd

fc_layer.weight f4 [64, 64]
-0.67118675 -0.8561176 -0.612381 0.6658276 -0.7796078 -0.7174138 0.8289822 0.50477135
0.78189945 -0.44071442 0.69760823 0.82917196 0.7586424 1.3419156 1.0208955 0.56623995
-0.6052688 -0.69946796 0.53068835 -1.1904738 -0.52645487 -0.3770662 -0.61306196 -0.5711651
-1.0241688 0.63439035 1.1833313 -0.3088808 0.81419176 -0.71522725 -1.7741488 -1.3899164
-0.8103228 -0.71348137 -1.0401375 -0.90885735 -0.55842847 2.7763689 -0.5731997 0.2760088
-1.3518628 -0.41330853 1.2609321 -0.41990066 0.6582393 0.54621816 -0.6303797 0.5990964
-0.67060494 -0.46131998 0.67411375 -0.6895817 1.0304408 -0.91999006 -0.31226143 -0.6458354
0.24071929 0.4248465 -0.55573845 -0.69331783 -0.2999078 0.56656444 0.6695349 0.88245654
-0.44457582 0.26194808 -0.4008319 0.48861265 -0.4623341 -0.15846942 -0.32795155 0.3764832
-0.009515776 -0.3052889 0.56561804 0.13108237 -0.30295464 -1.68527 -0.2498678 -1.2126769
-0.090813756 -0.04136691 0.52257615 1.292165 -0.23859748 -0.74758345 -0.040026266 -0.09530274
-0.051703166 0.3742202 -0.9313276 0.8361064 -0.5512916 0.3409027 1.3173562 1.0416889
-0.27122384 -0.18181352 0.6343336 0.6017624 0.25505868 -1.9535156 -0.3819435 -0.38611957
1.2776917 -0.3138928 -0.9303258 0.45023793 0.32978696 0.4010246 0.08249461 0.25896806
-0.00091396255 -0.3969011 0.009429145 -0.10003001 -0.7671782 0.12750408 1.1177535 -0.5405809
0.31165692 -0.20750287 -0.20344439 -0.2852292 -0.5830019 0.15274654 0.3452351 -0.21464434
0.103467904 0.052998766 -0.6397161 0.67792565 0.3870919 -0.11870907 0.95180404 -0.8584479
0.04742953 0.6806506 1.0454079 0.27329516 -0.6526035 -0.79125875 -0.6966782 4.0324707
0.26681235 1.2606167 0.60622144 -1.8495326 0.10922963 -1.4955417 1.4506983 1.4807235
1.5156176 0.84498394 3.5386324 -1.546594 1.9370813 -0.05916749 1.4827961 1.4430579
-0.52248615 1.3156713 -0.44400284 -1.9126036 0.9248194 -3.1960213 -0.15714808 -0.5002811
-1.946476 0.07750117 -0.7983049 -2.3209271 -1.2314725 0.59781146 0.5600549 -0.4621867
1.7103908 0.028318139 -2.9933338 0.5329723 -1.028301 -0.47243342 -0.7242715 -0.6758655
0.45745507 2.4672651 -0.2852593 -0.17871027 2.5632095 0.2771199 0.83819634 -0.5542405
-0.9066319 -0.782944 -0.6940859 0.6403113 -0.7572785 -0.7564512 1.0803887 0.59973925
0.83384174 -0.5553305 0.593938 0.6706494 0.624205 1.4197923 0.89411616 0.8108651
-0.7272947 -0.7530302 0.65622836 -1.2286317 -0.41657206 -0.5308303 -0.63665766 -0.7306113
-1.0109155 0.7155698 1.1381396 -0.304922 0.88414466 -0.66286194 -1.8037527 -1.6125798
-0.76533705 -0.8254257 -1.1829675 -1.0741513 -0.72456276 2.7784984 -0.5970069 0.45021453
-1.226847 -0.6496789 1.3512194 -0.6390392 0.46207422 0.74664885 -0.8389156 0.7741222
-0.61780906 -0.47083372 0.68892324 -0.653615 1.1034997 -1.0109767 -0.15337862 -0.5157681
0.36150956 0.6671144 -0.6039759 -0.8029541 -0.25700992 0.58384264 0.66998553 0.9557283
00000000: e5d2 2bbf 862a 5bbf 00c5 1cbf ad73 2a3f
00000010: 6094 47bf 6ea8 37bf 2d38 543f b238 013f
00000020: 902a 483f 52a5 e1be 7496 323f 9d44 543f
00000030: 6336 423f e4c3 ab3f b4ac 823f 1af5 103f
00000040: e5f2 1abf 5510 33bf 31db 073f 7261 98bf
00000050: bfc5 06bf d20e c1be a1f1 1cbf e037 12bf
00000060: f717 83bf 6867 223f 6677 973f a025 9ebe
00000070: df6e 503f 2219 37bf 4f17 e3bf c8e8 b1bf
00000080: 5171 4fbf b7a6 36bf 3a23 85bf e0aa 68bf
00000090: 2bf5 0ebf 07b0 3140 37bd 12bf 0751 8d3e
000000a0: d709 adbf 2d9d d3be 3966 a13f 38fd d6be
000000b0: 5f82 283f f4d4 0b3f 9060 21bf 625e 193f
000000c0: c4ac 2bbf 2232 ecbe b892 2c3f 6d88 30bf
000000d0: 7ce5 833f 7884 6bbf bbe0 9fbe 7855 25bf
000000e0: 1e7f 763e 7b85 d93e e044 0ebf 477d 31bf
000000f0: 848d 99be 5e0a 113f a466 2b3f ace8 613f
00000100: 719f e3be 0f1e 863e d739 cdbe 702b fa3e
00000110: 0eb7 ecbe cf45 22be 44e9 a7be 68c2 c03e
00000120: 0fe8 1bbc d44e 9cbe 58cc 103f 753a 063e
00000130: df1c 9bbe edb6 d7bf 58dd 7fbe ff38 9bbf
00000140: 90fc b9bd 5970 29bd 8dc7 053f aa65 a53f
00000150: e652 74be a161 3fbf 95f2 23bd 152e c3bd
00000160: b3c6 53bd ca99 bf3e 7c6b 6ebf 120b 563f
00000170: 7221 0dbf cc8a ae3e 219f a83f 1056 853f
00000180: dadd 8abe 532d 3abe b063 223f 1a0d 1a3f
00000190: 0d97 823e cd0c fabf 198e c3be 77b1 c5be
000001a0: 678b a33f 8fb6 a0be d529 6ebf 9685 e63e
000001b0: d6d9 a83e 1953 cd3e eff2 a83d 7697 843e
000001c0: fd96 6fba 9f36 cbbe b37c 1a3c 89dc ccbd
000001d0: ca65 44bf 6e90 023e 8c12 8f3f 8363 0abf
000001e0: 7f91 9f3e a27b 54be ba53 50be 9009 92be
000001f0: 9d3f 15bf 9769 1c3e a8c2 b03e bacb 5bbe
00000200: fbe6 d33d 3c15 593d 6fc4 23bf 898c 2d3f
00000210: e930 c63e be1d f3bd 6ea9 733f 3ec3 5bbf
00000220: 7845 423d 1e3f 2e3f edcf 853f 58ed 8b3e
00000230: 0611 27bf ef8f 4abf 8159 32bf 000a 8140
00000240: a19b 883e e35b a13f 5431 1b3f 7cbd ecbf
00000250: c9b3 df3d e96d bfbf 7bb0 b93f 5988 bd3f
00000260: c2ff c13f de50 583f f478 6240 cbf6 c5bf
00000270: 48f2 f73f 9c59 72bd 43cc bd3f 1fb6 b83f
00000280: a7c1 05bf eb67 a83f 5754 e3be 32d0 f4bf
00000290: f7c0 6c3f 9d8b 4cc0 6deb 20be 6c12 00bf
000002a0: 2026 f9bf efb8 9e3d b65d 4cbf 128a 14c0
000002b0: e4a0 9dbf 2c0a 193f c25f 0f3f bca3 ecbe
000002c0: 16ee da3f 71fb e73c c892 3fc0 df70 083f
000002d0: 5e9f 83bf cbe2 f1be db69 39bf 8505 2dbf
000002e0: 8d37 ea3e ace7 1d40 820d 92be d3ff 36be
000002f0: a00b 2440 a9e2 8d3e 0994 563f b5e2 0dbf
00000300: 0719 68bf 056f 48bf 9daf 31bf 71eb 233f
00000310: 01dd 41bf c9a6 41bf 2d4a 8a3f 8388 193f
00000320: a776 553f 242a 0ebf 520c 183f aeaf 2b3f
00000330: e6cb 1f3f c1bb b53f cce4 643f db94 4f3f
00000340: fc2f 3abf 96c6 40bf 95fe 273f ce43 9dbf
00000350: ef48 d5be 7fe4 07bf fffb 22bf 5809 3bbf
00000360: ae65 81bf 952f 373f 8fae 913f bd1e 9cbe
00000370: 4e57 623f 52b1 29bf 5ee1 e6bf 0469 cebf
00000380: 21ed 43bf 194f 53bf 7b6b 97bf ca7d 89bf
00000390: f27c 39bf ebd2 3140 72d5 18bf 8582 e63e
000003a0: 5309 9dbf 5b51 26bf c2f4 ac3f 1398 23bf
000003b0: fe94 ec3e 6124 3f3f 2cc3 56bf df2c 463f
000003c0: bc28 1ebf 1e11 f1be 465d 303f 5053 27bf
000003d0: 7a3f 8d3f af67 81bf 490f 1dbe 6109 04bf
000003e0: c817 b93e 02c8 2a3f 2a9e 1abf 668e 4dbf
000003f0: ce96 83be b676 153f 2c84 2b3f 9caa 743f

fc_layer.bias f4 [64]
0.62470883 0.23222892 0.5394731 0.7274463 0.43792233 0.6739951 0.64466196 0.2852038
0.061881054 0.6476708 0.72061956 0.6548549 0.4069424 0.28430775 0.09972001 0.19420877
-0.01835843 -0.094104 0.42418203 -0.085148446 0.45386147 0.27420998 0.46990588 0.31916654
0.60166365 0.5422033 0.07618255 0.6036318 0.43328163 0.084415935 0.067937076 0.44855535
0.6011962 0.2830532 0.52765596 0.150742 0.30536363 0.58624196 -0.061954502 0.26845366
0.46444303 0.616782 0.70329374 0.10357619 0.40914527 0.32979754 0.15460393 0.69757694
0.4143531 0.4287002 0.66721934 0.4679774 0.50451386 0.26389143 0.6140478 0.61760575
0.55898255 0.6997757 0.6712511 0.36296356 0.35019326 0.40066546 0.5047883 0.45962337
00000000: ebec 1f3f 6bcd 6d3e e91a 0a3f ec39 3a3f
00000010: 5b37 e03e f18a 2c3f 9108 253f 3c06 923e
00000020: fd76 7d3d c1cd 253f 867a 383f 92a4 273f
00000030: c15a d03e c990 913e 013a cc3d aade 463e
00000040: 6b64 96bc 99b9 c0bd 632e d93e 4f62 aebd
00000050: 8860 e83e 4065 8c3e 8197 f03e cc69 a33e
00000060: a106 1a3f d6cd 0a3f 9905 9c3d 9d87 1a3f
00000070: 17d7 dd3e 43e2 ac3d 9822 8b3d 0ca9 e53e
00000080: ffe7 193f 59ec 903e 7614 073f 1c5c 1a3e
00000090: 9f58 9c3e f413 163f 01c4 7dbd c272 893e
000000a0: 7acb ed3e 6de5 1d3f 0f0b 343f c11f d43d
000000b0: 7d7b d13e 39db a83e 7e50 1e3e 6794 323f
000000c0: 1726 d43e 987e db3e e3ce 2a3f bc9a ef3e
000000d0: d227 013f c71c 873e 3d32 1d3f 691b 1e3f
000000e0: 7b19 0f3f 8024 333f 1dd7 2b3f 5cd6 b93e
000000f0: 884c b33e 0624 cd3e ce39 013f c153 eb3e

output_layer.weight f4 [1, 64]
0.9340932 -1.095674 -4.724881 0.8352397 0.9037723 0.8669205 0.9106422 -1.3952082
-1.3946216 0.8910884 0.836925 0.92348325 0.9188796 -2.4845564 -0.11253598 -1.2076229
-5.5978045 -0.03712031 0.94373775 -1.2126994 -1.5743622 -1.3949515 -1.6069874 -1.271038
0.86696136 0.9320082 -1.8903909 0.8851918 -1.5327723 -0.004266034 -1.5349593 -5.386454
0.91777766 -1.320008 -1.3038484 -1.3046304 -1.1788952 0.94369006 -2.4228342 -1.4076505
0.87493914 0.9418956 0.84486157 4.15549 -1.4550266 -1.293766 2.7128847 0.8466109
-1.2820294 0.92061305 0.9060229 0.851675 0.91818655 -1.3847231 0.8607991 0.94779146
0.8854901 0.8518389 0.8792196 -1.7223991 -1.6421195 -1.7755814 0.9608729 -1.4019696
00000000: bb20 6f3f 0c3f 8cbf 3a32 97c0 45d2 553f
00000010: 9f5d 673f 80ee 5d3f d91f 693f 2f96 b2bf
00000020: f682 b2bf 5f1e 643f b840 563f 6669 6c3f
00000030: b23b 6b3f f902 1fc0 4479 e6bd 6393 9abf
00000040: 3721 b3c0 770b 18bd cc98 713f bc39 9bbf
00000050: b384 c9bf c58d b2bf c3b1 cdbf 60b1 a2bf
00000060: 2ef1 5d3f 1798 6e3f 54f8 f1bf ee9b 623f
00000070: e231 c4bf 16ca 8bbb 8c79 c4bf d55d acc0
00000080: 7af3 6a3f 06f6 a8bf 81e4 a6bf 21fe a6bf
00000090: 0ae6 96bf ac95 713f b70f 1bc0 e42d b4bf
000000a0: 03fc 5f3f 1220 713f d948 583f c6f9 8440
000000b0: 503e babf 209a a5bf e79f 2d40 7ebb 583f
000000c0: 8a19 a4bf 4cad 6b3f 1ef1 673f 5f07 5a3f
000000d0: 460e 6b3f 9b3e b1bf 545d 5c3f 76a2 723f
000000e0: 7baf 623f 1d12 5a3f 8914 613f 9377 dcbf
000000f0: f930 d2bf 4046 e3bf c4fb 753f bd73 b3bf
