Conditional_TimeGAN/result/original/model/TS_lag1_total1/torch_best_model.pt (torch, 87834 bytes, 7 tensors)

lstm.weight_ih_l0 f4 [256, 1]
0	0xbbd0888d	-0.0063639344
1	0x3d0b32bc	0.03398393
2	0xbc116475	-0.0088740485
3	0xbc80c54e	-0.015719082
4	0xb9a798d7	-0.00031966597
5	0x3d0c541f	0.03425991
6	0x3b7d18d3	0.0038619533
7	0x3cef0510	0.029177219
8	0x3bd410f3	0.006471747
9	0xba7a2dcf	-0.0009543569
10	0xbbf06df6	-0.007337327
11	0x3c5dcc37	0.013537458
12	0xbcb88926	-0.022526335
13	0x3cdb5d0c	0.026777767
14	0xbc089169	-0.00833545
15	0x3cee8828	0.029117659
16	0x3c3199c2	0.010839881
17	0x3b835c9b	0.004008842
18	0xbbf1f77f	-0.00738424
19	0x3c590bfc	0.013247486
20	0x3a6300eb	0.00086594996
21	0x3d231784	0.039817348
22	0xbc05de88	-0.008170731
23	0x3b0f05b6	0.0021823472
24	0x3b7afa99	0.003829634
25	0x3bd7bff3	0.0065841614
26	0x3afcabae	0.0019277239
27	0xbca0cb40	-0.019628167
28	0xbc21fea0	-0.0098873675
29	0x3d3cb950	0.046075165
30	0x3d06f698	0.032950014
31	0x3bc72ff7	0.006078716
32	0xbb16856e	-0.0022967714
33	0xbb82368b	-0.003973787
34	0xbc34cf4e	-0.011035753
35	0xbc633f68	-0.013870098
36	0xbc891554	-0.016733803
37	0x3cc2efa0	0.023795903
38	0xba6f7761	-0.00091349153
39	0x3cf7d6d4	0.030253805
40	0x3bb52a3b	0.005528716
41	0x3af132e8	0.0018402012
42	0x3ddba79c	0.10725328
43	0x3cc9eb0f	0.024648217
44	0xbc092e91	-0.008372919
45	0xbbb34637	-0.0054710167
46	0x3c222826	0.009897267
47	0x3b49a131	0.0030766244
48	0x3d103a62	0.03521193
49	0xbb5d21ed	-0.0033742145
50	0xbc16e42b	-0.009209673
51	0x3c6f562d	0.014607948
52	0x3c992c98	0.018698022
53	0x3c1b488d	0.009477747
54	0x3d8f4076	0.06994717
55	0x3c125007	0.008930213
56	0x3bde8a94	0.006791422
57	0xbc895c1f	-0.01676756
58	0xbc09bdd0	-0.008407071
59	0xbc0e966b	-0.008702855
60	0x3c3c5961	0.011495919
61	0x3c9b8dc5	0.0189885
62	0xbc73493d	-0.014849004
63	0x3ce88517	0.028383775
64	0x3d323616	0.04350861
65	0xbb1558d9	-0.0022788553
66	0x3ceb9661	0.02875823
67	0x3cca11b8	0.024666652
68	0x3cc20034	0.023681737
69	0x3cfbd3a2	0.030740563
70	0x3d2ac4a0	0.041691422
71	0xbb9c8ce3	-0.004777537
72	0x3cac0c42	0.021001939
73	0x3d991d75	0.074763216
74	0x3b988919	0.004655015
75	0x3d729faf	0.059234317
76	0x3d306637	0.04306623
77	0xbb970909	-0.0046092314
78	0x3cf310b9	0.02967106
79	0x3d0bd03a	0.034134127
80	0xbc83bab8	-0.016080245
81	0x3b433f54	0.0029792385
82	0x3d540ca1	0.051769856
83	0x3d178a3b	0.03699706
84	0x3d33d10c	0.043900535
85	0x3c50ee20	0.012752086
86	0x394a3f86	0.00019287886
87	0x3bf6caa8	0.0075314827
88	0x3c9e529e	0.019326504
89	0xbb7db9da	-0.0038715512
90	0x3cb26c53	0.021780169
91	0x3d1489c8	0.03626421
92	0x3d136947	0.035989072
93	0x3c14e63c	0.009088095
94	0x3cae3069	0.021263318
95	0x3bf2c705	0.007408979
96	0x3c9ec466	0.01938076
97	0x3cf8b511	0.030359777
98	0x3b02b142	0.001994208
99	0x3ca616d3	0.020274555
100	0x3daa2f61	0.08309818
101	0x3ca0fc95	0.01965169
102	0x3c0a502f	0.008441969
103	0x3c6dc0e0	0.014511317
104	0x3c25396e	0.010084493
105	0x3c8f6ba4	0.017507382
106	0x3c94a51e	0.01814514
107	0x3cad79fb	0.021176329
108	0x3c761841	0.015020431
109	0x3e0124c0	0.12611675
110	0x3c4f179f	0.012639909
111	0x3d5c7c43	0.053829443
112	0x3d252343	0.04031683
113	0x3d419cab	0.04726855
114	0x3d0781dd	0.03308283
115	0x3c1ce01e	0.009574918
116	0x3c3105eb	0.010804634
117	0x3c401eae	0.011726065
118	0x3cf3bf13	0.029754197
119	0x3d3422f4	0.043978646
120	0x3ccf2c35	0.025289634
121	0x3c9f62b5	0.019456247
122	0x3abf5fda	0.001460071
123	0x3c68f0db	0.014217581
124	0x3c946d25	0.01811845
125	0x3bf58916	0.0074931486
126	0x3c664c82	0.014056327
127	0x3c028960	0.007967323
128	0x3ab22101	0.0013590158
129	0xbc1e9fa9	-0.009681621
130	0x3bb5e005	0.005550387
131	0xbc4d490e	-0.012529625
132	0x3b8456ff	0.004038691
133	0xbbbc72c7	-0.005750987
134	0x39efd750	0.00045746053
135	0x3b6b4960	0.003590189
136	0x3c005b04	0.0078342
137	0xba9d4d9b	-0.0012001278
138	0x3ba62600	0.005070448
139	0xbb044649	-0.0020183495
140	0x3cde74df	0.027155338
141	0x3b5a2232	0.0033284542
142	0x3d35dc43	0.04439951
143	0x3ca5084a	0.020145554
144	0xbbf4b53d	-0.0074678943
145	0xbc54b170	-0.0129817575
146	0x3c958c26	0.018255305
147	0xbbc2a392	-0.0059399093
148	0x3ad8a21a	0.0016527802
149	0xbbaf4c10	-0.0053496435
150	0xbba32169	-0.004978348
151	0xba907947	-0.0011022472
152	0x3b039df0	0.0020083152
153	0x3b52758a	0.0032113516
154	0x3cbb84dd	0.022890503
155	0xbd0fe280	-0.035128117
156	0x3c7b16a8	0.015325226
157	0xbcb9f8a9	-0.022701578
158	0xbcb11523	-0.021616524
159	0xba07720b	-0.0005166835
160	0xbbe14fb0	-0.0068759546
161	0xbcd7319f	-0.026268778
162	0xbc9a20ec	-0.018814526
163	0xbe21fd71	-0.15819336
164	0xbc0043c1	-0.007828654
165	0x3c06c4c2	0.008225622
166	0xbc63fc25	-0.013915096
167	0x3ae25ba2	0.001726974
168	0xbc3b6a9f	-0.011438995
169	0xbc3afd3e	-0.011412917
170	0x3d438dcc	0.04774265
171	0xbc52abf9	-0.012858384
172	0x3cc66540	0.024218202
173	0xbbb4ac2e	-0.0055136895
174	0xbc2fc778	-0.010728709
175	0x3b644647	0.0034831928
176	0xbca4f3a5	-0.02013571
177	0xbc0493d2	-0.008091884
178	0x3b1aa0c9	0.002359437
179	0xbb44b385	-0.0030014229
180	0x3c1b4fa0	0.009479433
181	0x3b2aba8d	0.0026051134
182	0x3b805353	0.003916183
183	0x3ba2198e	0.004946894
184	0xbb8348e7	-0.0040064934
185	0x3c35ce89	0.011096605
186	0x3bfe388d	0.007758206
187	0x3bbf48f7	0.0058375555
188	0xbc5299b2	-0.012854027
189	0x3ca4ad47	0.020102156
190	0x3c13ce8e	0.009021414
191	0x3c05ebc3	0.008173886
192	0x3c7e6c01	0.01552868
193	0x3c83c90a	0.016087074
194	0xba89a4c6	-0.0010501377
195	0xbac4fe72	-0.0015029444
196	0x3b9a6c44	0.0047126133
197	0xbb8fb556	-0.0043856306
198	0x3cc9a9e3	0.024617141
199	0x3bf2eb9b	0.0074133403
200	0x3b3d2b0a	0.0028864765
201	0x3d07dee1	0.03317154
202	0x3b7734b1	0.0037720616
203	0xbb1d9563	-0.002404534
204	0xba807957	-0.0009801787
205	0x3d21ff63	0.039550196
206	0xbafeef0d	-0.0019449905
207	0x3cbd722f	0.023125736
208	0x3a314d85	0.00067635655
209	0x39f3902c	0.00046455988
210	0xba740a22	-0.0009309371
211	0x3c6a7dac	0.014312189
212	0x3c475cff	0.012168168
213	0x3cc38034	0.023864843
214	0x3b9f87bc	0.0048684757
215	0x3c5ce352	0.013481932
216	0xbc3cbe8e	-0.011520041
217	0x3aa80cc8	0.0012821192
218	0x3c800e27	0.015631748
219	0xbbb61331	-0.005556487
220	0xba1faa47	-0.0006090742
221	0x3bf639c1	0.007514209
222	0xbac4143e	-0.0014959646
223	0x3e1d1da5	0.1534334
224	0x3a7de966	0.0009685963
225	0x3c8ce7ef	0.017200438
226	0x3b3a2da7	0.0028408559
227	0xbb8f6801	-0.004376412
228	0x3c6483f7	0.0139474785
229	0x3a807527	0.0009800539
230	0x3b836a1a	0.004010451
231	0x3d998aa9	0.074971505
232	0xbb25c288	-0.0025292952
233	0xba2a38fe	-0.0006493478
234	0x3c7c74bd	0.015408692
235	0xbaff7001	-0.0019488336
236	0xbacb2290	-0.0015497971
237	0x3c9dba52	0.019253884
238	0x3a1a2fdf	0.0005881767
239	0x3d910483	0.07080939
240	0xba594fb8	-0.0008289772
241	0x3c7d0eb7	0.015445403
242	0x3c50875e	0.012727587
243	0x3d807847	0.06272941
244	0xba6f5ce1	-0.00091309665
245	0x3c9591bf	0.018257974
246	0x3d5a0494	0.053227022
247	0x3b24ed3f	0.0025165824
248	0x3cac4ca0	0.021032631
249	0x3b2624f7	0.0025351623
250	0x3ca0a730	0.019610971
251	0x3a382999	0.00070252415
252	0x3b9f203c	0.0048561376
253	0x3cc826df	0.024432598
254	0xbb248f1e	-0.0025109719
255	0x3b226d3c	0.0024784347

lstm.weight_hh_l0 f4 [256, 64]
0	0xbe4c31d3	-0.19940881
1	0x3d7864e1	0.06064308
2	0xbcf4c18e	-0.02987745
3	0x3c2080b2	0.009796308
4	0xbe265b59	-0.16245784
5	0x3dcd8a3b	0.10036131
6	0x3e1a28b5	0.15054591
7	0x3e915391	0.2838407
8	0x3d0d1820	0.034446836
9	0xbddfa509	-0.1092015
10	0x3d991872	0.07475366
11	0x3d5cd38b	0.05391268
12	0x3d63d13a	0.055619456
13	0x3dc05f34	0.093931586
14	0xbc13308c	-0.008983742
15	0x3c424aed	0.011858684
16	0xbdd2c2dc	-0.10291073
17	0x3d30da26	0.043176793
18	0xbdd9602a	-0.10614045
19	0xbde7844d	-0.11304531
20	0x3dcf9bb0	0.10137117
21	0xbe27ef06	-0.16399774
22	0xbdef6398	-0.11688918
23	0x3d34ca22	0.04413808
24	0xbe108557	-0.14113365
25	0xbd17ee02	-0.037092216
26	0xbd98d286	-0.07462029
27	0x3d4f8070	0.050659597
28	0xbd1a3f11	-0.0376578
29	0x3dcf0913	0.10109153
30	0xbce49eb4	-0.027907707
31	0xbb5da314	-0.0033819126
32	0xbe25d369	-0.16193928
33	0x3b7b9a3c	0.0038391491
34	0xbdfcdefd	-0.12347219
35	0x3e0a46dd	0.13503595
36	0x3c90870e	0.017642524
37	0xbc280966	-0.010256147
38	0xbd829b91	-0.06377328
39	0xbe13f661	-0.14449455
40	0x3dca972b	0.09892114
41	0x39fee016	0.00048613612
42	0x3d9f576d	0.07780347
43	0xbd47bdfb	-0.048765164
44	0xbe18207e	-0.14856145
45	0x3e312c39	0.17302026
46	0xbde7f7da	-0.11326571
47	0x3e00cace	0.12577364
48	0x3ce8f062	0.028434936
49	0xbdee94ce	-0.11649476
50	0x3d8bbb0f	0.06822788
51	0x3d540f46	0.05177238
52	0x3c71784e	0.0147381555
53	0xbdd32043	-0.10308888
54	0xbd2a8747	-0.041632917
55	0xbda5790c	-0.080797285
56	0x3e0d83aa	0.13819757
57	0xbdf400f2	-0.11914243
58	0xbdf81b84	-0.12114623
59	0x3daf7680	0.08567524
60	0xbdb67875	-0.08909694
61	0x3d3b3349	0.045703206
62	0x3e8b36da	0.27190286
63	0x3ce6cf81	0.028175117
64	0xbdde0860	-0.10841441
65	0xbd160455	-0.036625225
66	0x3e6e17e8	0.23251307
67	0xbe023e7f	-0.12719153
68	0x3ea1c12a	0.31592685
69	0x3e1b4bf2	0.1516569
70	0xbe282f95	-0.16424401
71	0xbccc7e33	-0.02496252
72	0xbdad402b	-0.08459505
73	0xbcdd5c89	-0.027021663
74	0xbea437a7	-0.3207371
75	0xbecd1863	-0.40057668
76	0xbdbd1ccb	-0.092340074
77	0x3e45cae2	0.19315675
78	0xbe32743d	-0.17427154
79	0x3e680fa2	0.22662213
80	0x3c803e72	0.015654776
81	0x3e254914	0.16141158
82	0x3d474fa3	0.048659932
83	0x3e2e1360	0.16999578
84	0xbbc83d5e	-0.006110831
85	0x3dc5ed1d	0.096643664
86	0x3e8434d1	0.25821546
87	0xbcafec67	-0.02147503
88	0xbc391142	-0.0112956185
89	0xbdcf70ca	-0.10128935
90	0x3e2a50d8	0.16632402
91	0x3e932355	0.28737894
92	0xbe642c94	-0.2228263
93	0x3ca036ed	0.01955744
94	0x3a77bc8c	0.0009450398
95	0xbdb50c8b	-0.08840283
96	0xbea15160	-0.31507397
97	0x3d78b5b4	0.06072016
98	0x3e050c1b	0.12992899
99	0x3e196462	0.14979699
100	0xbea46f59	-0.32116202
101	0xbd772ec8	-0.06034735
102	0xbc424eae	-0.011859579
103	0x3d94feab	0.072751366
104	0xbd53ee28	-0.051740795
105	0xbd9cf422	-0.07663752
106	0x3d6fd28f	0.058550414
107	0x3e87cb61	0.26522353
108	0x3d106d5e	0.03526055
109	0xbe0dd709	-0.1385156
110	0x3e7d251f	0.24721192
111	0x3dda3032	0.10653724
112	0xbe0ace82	-0.13555339
113	0xbe1aee6b	-0.15130012
114	0xbe9415be	-0.28922838
115	0x3e5ddfd6	0.21667418
116	0xbcaf8635	-0.0214263
117	0x3e8402b3	0.2578331
118	0xbcf78122	-0.030212943
119	0x3d0210ed	0.031754423
120	0xbdac7cfe	-0.08422278
121	0xbd82e9d8	-0.063922584
122	0x3e6e7d06	0.2328988
123	0x3d23ef8b	0.040023368
124	0x3d4f8cd4	0.050671414
125	0x3dc84b6f	0.09780013
126	0xbe46fbd4	-0.19432002
127	0x3c0d1b77	0.008612505
128	0xbdb10004	-0.08642581
129	0xbc173a59	-0.00923022
130	0x3efd91c1	0.49525264
131	0x3e5ac9c6	0.21366033
132	0xbeefc643	-0.4683095
133	0xbe4b39d7	-0.19846283
134	0x3e3b36d1	0.1828263
135	0x3dafd11f	0.085848086
136	0x3e0ddcde	0.13853785
137	0xbe3c8f17	-0.1841396
138	0xbd6e92e2	-0.058245547
139	0x3e8af935	0.27143255
140	0x3e07997c	0.13242143
141	0x3df802af	0.12109887
142	0x3dca12e5	0.09866885
143	0x3e6220e4	0.2208286
144	0xbe186750	-0.1488316
145	0xbe5e1df8	-0.2169112
146	0x3e7888cf	0.24270938
147	0xbd5de54a	-0.054173745
148	0xbdf133e1	-0.11777473
149	0xbe8182eb	-0.25295195
150	0xbb9f2329	-0.0048564863
151	0x3d7a41df	0.061097976
152	0xbcde4f4f	-0.027137427
153	0x3e76765a	0.24068585
154	0x3dd1b634	0.102398306
155	0xbe976642	-0.29570204
156	0x3e109c79	0.1412219
157	0xbe847977	-0.2587392
158	0xbea58bcc	-0.3233322
159	0xbd75c951	-0.060006443
160	0xbe34e779	-0.17666425
161	0xbcbd27c4	-0.02309025
162	0xbdcbb850	-0.09947264
163	0x3e39c9de	0.18143412
164	0x3c61569a	0.013753558
165	0x3e109dc1	0.14122678
166	0xbe227d08	-0.15868008
167	0x3eb578c1	0.3544369
168	0xbe2cee68	-0.1688782
169	0xbec80e0f	-0.39073226
170	0x3e18ce7f	0.14922522
171	0xbeae7ed1	-0.34081128
172	0x3e3fbba8	0.18723929
173	0x3d73b479	0.059498284
174	0xbe925335	-0.28579107
175	0x3e17cb6f	0.14823698
176	0xbe1401e6	-0.14453849
177	0xbdf1f5f5	-0.11814491
178	0xbd343a38	-0.044000834
179	0xbe0e8a1a	-0.13919869
180	0x3e9b7902	0.3036576
181	0xbe0ab2a4	-0.13544708
182	0x3e4f6515	0.20253403
183	0xbf23cb54	-0.6398213
184	0xbcf94f86	-0.030433428
185	0xbdf6d0ce	-0.12051545
186	0xbd9fe947	-0.07808166
187	0x3e5499ad	0.20761748
188	0xbeb1f6bd	-0.3475856
189	0x3e7f6d75	0.24944098
190	0x3d0cc830	0.0343706
191	0x3e4ea883	0.2018147
192	0xbdd980c8	-0.10620266
193	0xbe54da79	-0.20786466
194	0xbde00685	-0.109387435
195	0xbcc6bdfc	-0.024260513
196	0xbe45ca66	-0.1931549
197	0xbc51414b	-0.012771915
198	0x3d914b88	0.070944846
199	0x3d756bb2	0.05991716
200	0x3dc1e8ee	0.09468256
201	0xbda44c0d	-0.08022318
202	0x3d1c1e37	0.038114753
203	0x3e1f1278	0.15534389
204	0x3e138e1b	0.14409678
205	0x3cfc89c7	0.030827416
206	0x3e1b7ebe	0.15185067
207	0xbcf580cc	-0.029968642
208	0xbd899cf1	-0.06719387
209	0xbcca8b70	-0.024724692
210	0x3e21c529	0.15797867
211	0xbe2d6a8c	-0.16935176
212	0xbe49930e	-0.19685003
213	0xbe303e30	-0.17211223
214	0x3ddad419	0.10684986
215	0x3d41c515	0.047307093
216	0xbccb4a25	-0.024815628
217	0x3df00fce	0.117217645
218	0x3e0bbaa2	0.13645414
219	0xbf25aabf	-0.6471366
220	0x3c871fcb	0.016494652
221	0xbd541e9e	-0.05178701
222	0xbe2b4072	-0.16723803
223	0x3cc8629f	0.024461089
224	0xbe5da44d	-0.21644707
225	0xbe4a2abf	-0.19742869
226	0xbe6ef158	-0.23334253
227	0xbd81e27b	-0.06342026
228	0xbe1f751a	-0.15572014
229	0x3e46266a	0.19350591
230	0xbd33e5ab	-0.0439202
231	0x3e152716	0.14565691
232	0xbd99e0df	-0.07513594
233	0xbdbb05ed	-0.0913199
234	0x3d87c2c0	0.066289425
235	0xbd38046f	-0.044926103
236	0x3e199aae	0.15000412
237	0xbd55e849	-0.052223478
238	0x3c33a13a	0.010963732
239	0x3ce6b6fe	0.02816343
240	0xbe4fc4a9	-0.20289864
241	0xbe2ac161	-0.1667533
242	0x3e72357a	0.23653212
243	0xb888a613	-6.515919e-05
244	0xbd143dbf	-0.0361917
245	0x3bf9cd4a	0.0076233493
246	0x3e275504	0.16341025
247	0xbe8ebe00	-0.27879333
248	0x3eb19193	0.34681377
249	0x3d042549	0.03226212
250	0x3d879af4	0.06621352
251	0xbd8c7e93	-0.068600796
252	0xbe06f4ec	-0.13179368
253	0x3e2c8a02	0.16849521
254	0x3e3f3864	0.18673855
255	0x3e194c92	0.14970616

lstm.bias_ih_l0 f4 [256]
0	0x3dbf4dfd	0.09341047
1	0xbd89e20f	-0.067325704
2	0x3df7da98	0.1210224
3	0x3e6828f8	0.22671878
4	0x3e06a71d	0.13149686
5	0xbdbe5e42	-0.09295322
6	0xbe4c8a76	-0.19974694
7	0xbe5f675c	-0.21816772
8	0xbdbd313b	-0.092379056
9	0xbe091eb2	-0.13390616
10	0x3d0b3b74	0.033992246
11	0xbe565032	-0.2092903
12	0x3d1b6fd6	0.037948452
13	0x3e1d46de	0.15359065
14	0x3e347e3a	0.17626277
15	0x3de0a8a5	0.109696664
16	0xbd0843af	-0.033267673
17	0xbe319818	-0.17343175
18	0xbb76f111	-0.0037680308
19	0x3c939121	0.018013539
20	0xbdb48a4c	-0.088154405
21	0xbe91202e	-0.28344864
22	0x3e0611de	0.13092753
23	0xbd25a0ac	-0.04043643
24	0x3cfae0ed	0.030624831
25	0xbe257fd5	-0.16162045
26	0xbdaff0c6	-0.08590846
27	0x3c4e5be0	0.012595147
28	0x3ddca170	0.10772979
29	0x3d445f4a	0.047942437
30	0xbc89f3b8	-0.016839847
31	0xbe843c5b	-0.25827298
32	0x3a5cc8c0	0.0008422248
33	0x3e77906d	0.24176188
34	0xb889c7a7	-6.569857e-05
35	0x3e4bf93f	0.19919299
36	0x3dfdac4a	0.12386377
37	0xbde2917e	-0.11062907
38	0xbce178ea	-0.027523477
39	0x3b9a8299	0.0047152755
40	0xbdca15e8	-0.098674595
41	0x3d911f18	0.07086009
42	0xbb46f7c8	-0.0030360091
43	0x3e833e54	0.2563349
44	0x3e80435d	0.25051394
45	0x3e639a5b	0.2222685
46	0xbe3af723	-0.18258338
47	0xbd1465ee	-0.03623002
48	0xbdbd4634	-0.09241906
49	0xbd788993	-0.060678076
50	0x3a7c430d	0.00096230285
51	0xbe4f7775	-0.20260413
52	0xbdbc8eed	-0.092069484
53	0x3b824ed2	0.0039766813
54	0x3dc318c7	0.0952621
55	0xbc0f8132	-0.00875883
56	0xbe36c75b	-0.17849486
57	0x3e3b7705	0.18307121
58	0x3e3a122e	0.18170998
59	0x3d900e3a	0.070339635
60	0xbdb4120a	-0.08792503
61	0xbe57d496	-0.21077189
62	0x3e053052	0.13006714
63	0xbe7d9ce5	-0.24766882
64	0x3bfe2c43	0.0077567413
65	0xbd7dfe71	-0.062010232
66	0xbcd16c08	-0.025564209
67	0xbc71ffaf	-0.014770432
68	0xbe27bc0b	-0.16380326
69	0xbe80f0ce	-0.2518372
70	0x3d8c1b6f	0.0684117
71	0x3b812deb	0.0039422414
72	0xbe03f202	-0.12885287
73	0xbde7d735	-0.11320344
74	0xbe6184f8	-0.2202338
75	0xbe3e23b8	-0.18568313
76	0xbd7eaba3	-0.062175404
77	0x3deb32c9	0.11484296
78	0x3cd4b01e	0.025962885
79	0x3d43ee4e	0.047834687
80	0x3e48d40f	0.19612144
81	0xbe1ec131	-0.15503384
82	0x3d04d6fc	0.032431588
83	0x3db54c75	0.08852474
84	0x3db9c5d9	0.090709396
85	0xbcbbe346	-0.02293552
86	0x3e164846	0.14676008
87	0x3d6549fa	0.055978753
88	0xbccd4cb4	-0.025060989
89	0x3d67b64d	0.05657034
90	0xbd81b8fe	-0.063341126
91	0xbdede2cc	-0.11615524
92	0xbd2d737c	-0.042346463
93	0xbd6bb1de	-0.057542674
94	0x3da3d511	0.079996236
95	0xbd80792e	-0.06273113
96	0xbd71e04c	-0.059051797
97	0xbe006dbb	-0.12541859
98	0x3e23ada3	0.15984206
99	0xbca29997	-0.019848628
100	0xbcfcaf2b	-0.030845245
101	0xbda713a3	-0.08158042
102	0x3df628a1	0.12019468
103	0x3d190acf	0.037363824
104	0x3d1db2d3	0.03850062
105	0x3c5aa1ce	0.013344241
106	0x3dc01f1a	0.09380932
107	0x3d76e665	0.060278315
108	0x3cf1655f	0.029467283
109	0x3c546bad	0.012965125
110	0x3d511752	0.05104763
111	0xbe1616d1	-0.14657141
112	0xbd31fb27	-0.04345241
113	0xbe8b37c2	-0.27190977
114	0xbdff0727	-0.12452536
115	0x3d6d4057	0.057922687
116	0x3c5fdd10	0.013663545
117	0xbe0d8915	-0.13821824
118	0xbd2de45a	-0.0424541
119	0xbd4b6c89	-0.049664054
120	0xbe1f7e00	-0.15575409
121	0xbc9bc8f7	-0.019016726
122	0x3e1664d4	0.146869
123	0x3d51a384	0.05118133
124	0x3e08e17b	0.13367264
125	0x3ca118a5	0.019665072
126	0xbe282f52	-0.16424301
127	0xbd297920	-0.04137528
128	0x3c9f19bf	0.019421456
129	0x3d4aa4f1	0.049473707
130	0x3c8810e6	0.01660962
131	0xbd6c6a18	-0.057718366
132	0x3e27b79a	0.16378632
133	0x3d16006e	0.036621504
134	0xbd5648ee	-0.052315645
135	0xbdf99720	-0.12187028
136	0xbd89ee50	-0.067349076
137	0xbddfff21	-0.10937334
138	0xbe11bdb0	-0.14232516
139	0xbe005602	-0.1253281
140	0xbe99f1b0	-0.30067205
141	0xbe4853e8	-0.19563258
142	0xbe8bdf5d	-0.2731885
143	0xbd885bda	-0.06658144
144	0x3e20ae9d	0.1569161
145	0xbc1b4ef3	-0.009479272
146	0xbda71d7b	-0.0815992
147	0x3e20e457	0.15712105
148	0x3dfcfc90	0.1235286
149	0x3e4f9f0e	0.20275518
150	0x3e03b7ff	0.12863158
151	0x3e89577e	0.26824564
152	0x3d06cbba	0.032909133
153	0xbe2fc0b5	-0.17163356
154	0xbd4f07f8	-0.05054471
155	0x3d943502	0.07236673
156	0xbe2ae9ab	-0.166907
157	0x3e64f696	0.2235969
158	0x3d7100fa	0.058838822
159	0x3dbd49c1	0.09242583
160	0xbd93c6dd	-0.072156645
161	0x3d3128a3	0.043251645
162	0x3db4e058	0.08831853
163	0xbdc64765	-0.09681586
164	0x3dd5456c	0.10413632
165	0xbe191d14	-0.14952499
166	0x3e332b96	0.17497095
167	0xbe0921f0	-0.13391852
168	0x3e8ca0bf	0.2746639
169	0x3e6c9885	0.23105057
170	0xbdaa63a4	-0.08319786
171	0x3e1ee60a	0.1551744
172	0xbe375471	-0.17903306
173	0xbb89c70d	-0.004204637
174	0x3e05eb2a	0.13077989
175	0xbdfcc2e5	-0.12341861
176	0x3e35802d	0.17724676
177	0x3e73d102	0.23810199
178	0xbe0d8bc4	-0.13822848
179	0x3db7b50a	0.08970077
180	0x3cf2a44d	0.02961936
181	0xbc86e579	-0.016466843
182	0xbe6e6e28	-0.23284209
183	0x3bb2a436	0.0054517044
184	0xbd3c083a	-0.045906283
185	0xbe463c9b	-0.19359057
186	0x3db3e8d4	0.08784643
187	0x3e1e370e	0.15450689
188	0x3db7463c	0.08948943
189	0xbe103d88	-0.14085972
190	0xbd630f22	-0.055434354
191	0xbe3ef339	-0.1864747
192	0x3d6b77fb	0.05748747
193	0xbe769e9f	-0.24083947
194	0x3e0396a7	0.12850438
195	0xbb935946	-0.004496726
196	0xbd920c29	-0.071312256
197	0xbe75023c	-0.23926634
198	0x3ceea4b0	0.029131263
199	0xbe39d565	-0.1814781
200	0xbe5de4c2	-0.21669295
201	0xbe4b71d4	-0.1986764
202	0xbe4ba1fd	-0.19886012
203	0xbe11ff43	-0.14257531
204	0xbdf38d73	-0.11892214
205	0xbe705f12	-0.23473766
206	0xbe69d105	-0.22833641
207	0xbe710b8d	-0.23539563
208	0xbdc7bf27	-0.09753256
209	0xbe3c0288	-0.1836034
210	0xbe55d1b8	-0.20880783
211	0xbe4a4780	-0.19753838
212	0xbe9e0e60	-0.30870342
213	0xbdf3ca88	-0.11903864
214	0xbe66c402	-0.22535709
215	0xbe97f616	-0.29679936
216	0x3e229d2c	0.15880269
217	0xbd0b3b8b	-0.03399233
218	0xbe8950f4	-0.26819575
219	0x3ddd1718	0.107954204
220	0xbe59ad79	-0.21257581
221	0xbe8a3954	-0.26996863
222	0xbdeb79da	-0.11497851
223	0x3d7f9782	0.06240035
224	0x3c6cd6ae	0.0144554805
225	0xbe80171b	-0.25017628
226	0xbde1268b	-0.109936796
227	0xbe694cac	-0.22783154
228	0xbd9c6d18	-0.076379955
229	0xbe3c9c71	-0.18419053
230	0xbe192bea	-0.14958158
231	0xbec02665	-0.37529293
232	0xbda1b6be	-0.078961834
233	0xbe213a48	-0.15744889
234	0xbe975bc2	-0.29562193
235	0xbe49506c	-0.19659585
236	0xbe6a0b50	-0.22855878
237	0x3d9a7c1c	0.07543203
238	0xbe212b0a	-0.15739074
239	0xbe8863f8	-0.2663877
240	0xbe4bb0c0	-0.19891644
241	0xbe7c94fa	-0.24666205
242	0x3d61b5ca	0.05510501
243	0xbe876a5f	-0.26448342
244	0xbe0151c0	-0.12628841
245	0xbdafb471	-0.08579338
246	0xbe83f475	-0.25772443
247	0x3cd5d26a	0.02610131
248	0xbeab248e	-0.33426327
249	0xbe0a52ff	-0.13508223
250	0x3ddfe202	0.109317794
251	0xbe439a6b	-0.19101875
252	0xbe1c4a57	-0.15262733
253	0xbe81b577	-0.2533376
254	0xbdbc26fa	-0.09187122
255	0xbdfddab1	-0.12395228

lstm.bias_hh_l0 f4 [256]
0	0xbdac678f	-0.0841819
1	0xbe6dc409	-0.23219313
2	0x3cc57ad9	0.02410643
3	0x3e0b50c8	0.13605034
4	0xbd4e51d1	-0.050370995
5	0xbe195c13	-0.1497653
6	0x3c8aecfa	0.016958702
7	0xbe62e0d8	-0.22156084
8	0xbda23676	-0.07920544
9	0x3cf587ce	0.029971983
10	0x3c531971	0.012884484
11	0xbdff1e1a	-0.12456913
12	0x3d28ffd4	0.0412596
13	0x3d977208	0.073947966
14	0x3de688fa	0.11256595
15	0xbd1e13c5	-0.038593072
16	0xbe3896b6	-0.18026242
17	0xbe4a6480	-0.197649
18	0x3da2084a	0.07911737
19	0x3df78fad	0.12087951
20	0xbe59c473	-0.21266346
21	0xbe5befae	-0.2147815
22	0x3c9c67b5	0.01909242
23	0xbe55022f	-0.20801614
24	0x3c857b52	0.016294155
25	0xbd47aa7d	-0.048746575
26	0xbdb50a43	-0.08839848
27	0x3e3e1618	0.18563116
28	0x3d5e1899	0.054222677
29	0x3cffe1ae	0.031235542
30	0x3d54111f	0.05177414
31	0xbd61dcbe	-0.055142157
32	0x3e150675	0.14553244
33	0x3e30ddee	0.1727216
34	0xbbe300ae	-0.0069275713
35	0x3e7d1bf5	0.24717696
36	0x3df25dea	0.11834319
37	0xbe895b2d	-0.26827374
38	0x3c8dc1ad	0.017304266
39	0xbd415735	-0.047202308
40	0x3d306e52	0.04307396
41	0x3e292bab	0.16520564
42	0x3d80da98	0.062916934
43	0x3d9ed437	0.077553205
44	0x3bf872d6	0.007582049
45	0x3d45a825	0.04825606
46	0xbd69484c	-0.056953713
47	0xbd9decaa	-0.07711156
48	0xbbfb82ee	-0.00767552
49	0xbd28ecbb	-0.04124139
50	0xbd112a28	-0.035440594
51	0xbe95de0d	-0.29270974
52	0x3da16440	0.07880449
53	0xbdfed57f	-0.12443065
54	0xbc8e4059	-0.017364668
55	0x3d711bf0	0.058864534
56	0xbe2753ac	-0.16340512
57	0x3b0df6c7	0.0021661983
58	0x3e66d46e	0.22541973
59	0xbd16b546	-0.03679397
60	0xbe646f66	-0.2230812
61	0xbe7722e7	-0.24134408
62	0xbd2b4296	-0.04181155
63	0xbdc66fb5	-0.09689275
64	0x3d452ed0	0.048140347
65	0x3e181d63	0.1485496
66	0x3d3386c8	0.04382971
67	0xbde96492	-0.113961354
68	0xbd92eb09	-0.07173736
69	0xbe34b7ad	-0.17648192
70	0xbc63a08d	-0.013893259
71	0x3d784895	0.060616095
72	0xbda0ad42	-0.07845546
73	0x3d6d5c4f	0.05794936
74	0xbd639023	-0.05555738
75	0xbe49f941	-0.19723989
76	0xbcc86c00	-0.02446556
77	0x3e298425	0.16554315
78	0x3df9dc3b	0.12200209
79	0xbcca297f	-0.02467799
80	0x3e9f024d	0.31056443
81	0xbe42191f	-0.18954895
82	0xbdae2390	-0.08502877
83	0x3d95ac74	0.073082834
84	0x3e11289f	0.14175652
85	0xbe037929	-0.12839188
86	0x3e030d65	0.12798078
87	0xbd31fbc4	-0.043452993
88	0xbdfd04e0	-0.123544455
89	0x3e2f9c68	0.17149508
90	0xbe0c6025	-0.13708551
91	0xbe105d8e	-0.14098188
92	0xbd9fa699	-0.07795448
93	0xbd401b4a	-0.046901025
94	0x3d530b1c	0.051524267
95	0xbcd5adcf	-0.026083855
96	0x3c9cc62f	0.01913747
97	0xbde33d35	-0.11095659
98	0x3e2d1d04	0.169056
99	0x3dd70300	0.10498619
100	0xbd891a7e	-0.06694506
101	0xbcd3a36d	-0.025834763
102	0x3dc802f0	0.09766185
103	0x3bfaa91b	0.0076495535
104	0xbdb6f34c	-0.08933124
105	0xbdeccc06	-0.11562352
106	0x3db04ac7	0.08608013
107	0x3dba0be8	0.09084302
108	0xbe1c04fa	-0.15236273
109	0x3ccf24ae	0.025286045
110	0x3de3ea72	0.11128701
111	0xbd6bf514	-0.05760677
112	0x3e02a0d6	0.12756667
113	0xbdf1f5db	-0.11814471
114	0xbdc555a3	-0.096354745
115	0x3c09310c	0.00837351
116	0xbd0733f8	-0.033008546
117	0xbd63d3eb	-0.055622023
118	0xbd46c11a	-0.048524
119	0xbddb4ac0	-0.10707617
120	0xbe3b4aa2	-0.18290189
121	0xbc644bb0	-0.013934061
122	0xbcc383f4	-0.023866631
123	0xbd949048	-0.07254082
124	0x3d6b5769	0.057456408
125	0x3df64933	0.120256804
126	0x3cba467b	0.022738686
127	0x3dcf2835	0.10115091
128	0x3cbfdced	0.023420775
129	0x3e7250b3	0.23663597
130	0x3b2ab1ef	0.0026045998
131	0x3c77c4bf	0.0151225915
132	0x3daab4cf	0.08335268
133	0xbd8f61b8	-0.0700106
134	0xbd98ff2f	-0.074705474
135	0x3d5be0be	0.053681128
136	0xbd0c5293	-0.034258436
137	0x3db868c1	0.09004355
138	0xbcfa01bc	-0.030518405
139	0xbe19c260	-0.15015554
140	0xbdc0e945	-0.09419493
141	0xbe190da9	-0.14946617
142	0xbe1e5e12	-0.15465572
143	0xbe225832	-0.15853956
144	0x3e3c4b29	0.18388046
145	0x3d467b68	0.048457533
146	0xbe265699	-0.16243972
147	0x3c2134cc	0.009839248
148	0x3dba6aed	0.09102426
149	0x3cf82e90	0.03029564
150	0x3d7b1c21	0.061306123
151	0x3d58afad	0.052901912
152	0x3dfcc8d7	0.12342995
153	0xbd92f357	-0.0717532
154	0xbd7fa642	-0.062414415
155	0x3e44b2dd	0.19208856
156	0xbdb92696	-0.09040563
157	0x3df00b77	0.11720937
158	0x3dded4aa	0.10880406
159	0x3dd3e410	0.10346234
160	0x3cea2ab3	0.028584814
161	0x3d554a72	0.05207295
162	0x3db371c1	0.08761931
163	0x3d41ab96	0.047282778
164	0xbd99b29d	-0.07504771
165	0xbd1cb476	-0.03825804
166	0x3d111ed5	0.035429794
167	0x3d52a230	0.051424205
168	0x3e429ffe	0.19006345
169	0x3d205eb2	0.03915281
170	0xbe0bfffa	-0.13671866
171	0x3e1c8a4f	0.15287136
172	0xbe2a58c4	-0.16635424
173	0xb9f300cd	-0.00046349168
174	0x3dc8ccef	0.09804713
175	0xbe21b606	-0.15792093
176	0xbd5e36b9	-0.054251406
177	0x3e0c2427	0.13685666
178	0xbcd1de78	-0.025618777
179	0x3d197321	0.03746331
180	0xbd89c805	-0.06727604
181	0x3e0be3d0	0.13661122
182	0xbd5592cb	-0.052141946
183	0x3a41ecc9	0.00073976495
184	0xbe26ea1d	-0.16300245
185	0xbc8591b1	-0.016304823
186	0xbd65472d	-0.05597608
187	0x3dcfb9b0	0.10142839
188	0x3c9a26c1	0.018817307
189	0xbd0b8f5b	-0.03407226
190	0xbe16722d	-0.14691992
191	0xbe157b1c	-0.14597744
192	0xbdabc04b	-0.08386286
193	0xbe370f62	-0.17876962
194	0xbc3df8f1	-0.011594997
195	0xbdfcc0d1	-0.12341464
196	0xbd7aba37	-0.061212745
197	0xbd438175	-0.04773088
198	0xbcb721fd	-0.022355074
199	0xbe0fd8ea	-0.1404759
200	0xbe4f1e33	-0.20226364
201	0xbe0d865c	-0.13820785
202	0xbe4f7580	-0.20259666
203	0xbd5cfdd8	-0.05395302
204	0xbe1789b8	-0.1479863
205	0xbe306080	-0.17224312
206	0xbe2a0206	-0.16602334
207	0xbed6881d	-0.4190072
208	0xbe593265	-0.2121063
209	0xbdbdb024	-0.09262112
210	0xbe542724	-0.20718056
211	0xbeb5e56b	-0.35526595
212	0xbec01b54	-0.3752085
213	0x3bc14174	0.005897695
214	0xbe6fb894	-0.23410255
215	0xbe82b95f	-0.25532052
216	0x3d84ad71	0.06478394
217	0xbda57b24	-0.08080128
218	0xbebe48df	-0.3716497
219	0x3bb77a6b	0.00559931
220	0xbe35b1bb	-0.1774358
221	0xbe3baac3	-0.18326859
222	0xbe85cdb6	-0.26133507
223	0xbca50c10	-0.020147353
224	0x3c045afa	0.008078331
225	0xbe456ff6	-0.19280991
226	0xbd919327	-0.07108145
227	0xbd25c62e	-0.040472202
228	0xbdd7a57e	-0.10529612
229	0xbe133c2b	-0.14378421
230	0xbebb69b8	-0.36604095
231	0xbed76e68	-0.4207642
232	0xbe8a042e	-0.26956314
233	0xbd842d2c	-0.06453928
234	0xbebeae8e	-0.3724255
235	0xbdbddf2a	-0.09271081
236	0xbe8e3ade	-0.27779287
237	0x3e175ca6	0.14781436
238	0xbdc9d681	-0.098553665
239	0xbec68f50	-0.38781214
240	0xbe3ab95e	-0.18234774
241	0xbec8b8d6	-0.3920352
242	0xbcd65f08	-0.026168361
243	0xbe4497b4	-0.19198495
244	0xbe22d6c9	-0.15902247
245	0xbd9d8270	-0.076908946
246	0xbdf78e62	-0.12087704
247	0x3db51371	0.08841599
248	0xbe625437	-0.22102438
249	0xbe0dca07	-0.13846599
250	0xbe03bf08	-0.12865841
251	0xbeab0ab9	-0.33406618
252	0xbe5787ae	-0.21047851
253	0xbe3664b1	-0.17811848
254	0xbdb71114	-0.08938804
255	0xbe34755d	-0.17622896

fc_layer.weight f4 [64, 64]
0	0xbf0d5646	-0.5520977
1	0xbf7ca07d	-0.98682386
2	0xbf93f023	-1.1557659
3	0x3f1f03b0	0.62115
4	0xbf1e88b0	-0.6192732
5	0xbfb3a0ad	-1.4033409
6	0x3ea9a9d9	0.33137396
7	0x3f1393e1	0.5764752
8	0x3f8b958d	1.0905014
9	0xbe547a9e	-0.207499
10	0x3f4e74d2	0.80647004
11	0x3f232757	0.637319
12	0x3fbbe794	1.4680047
13	0x3f8656aa	1.0495198
14	0x3fcb3e77	1.5878438
15	0x3f4192f8	0.7561488
16	0xbf32a4bb	-0.6978261
17	0xbf48b289	-0.78397423
18	0x3fe6a8bf	1.8020247
19	0xbf6404c3	-0.89069766
20	0xbfbace4a	-1.4594204
21	0xbf061dab	-0.5238902
22	0xbf8a7a01	-1.0818483
23	0xbf274ffd	-0.6535643
24	0xbf94ebca	-1.1634457
25	0x3f09e717	0.5386824
26	0x3f130f29	0.5744501
27	0xbf069427	-0.5256981
28	0x3fa86d72	1.31584
29	0xbe226919	-0.15860404
30	0xbfb76728	-1.4328356
31	0xbe4410dd	-0.19147058
32	0xbf629d41	-0.885212
33	0xbf384952	-0.7198688
34	0xbebd5fc5	-0.3698713
35	0xbfda076c	-1.7033515
36	0xbf8b8d46	-1.0902488
37	0x3fad7db8	1.3553991
38	0xbf0b9720	-0.54527473
39	0x3e809794	0.25115645
40	0xbfd0ea68	-1.6321535
41	0xbf73c083	-0.95215625
42	0x3f494923	0.7862722
43	0xbfb59319	-1.4185516
44	0x3fbdafe4	1.4819303
45	0x3ea02aa6	0.31282538
46	0xbee08b10	-0.43856096
47	0x3f203da0	0.6259403
48	0xbf74d1d8	-0.95632696
49	0xbf303fe9	-0.6884752
50	0x3e9678cb	0.29389033
51	0xbefb28eb	-0.49054655
52	0x3fa7a657	1.3097638
53	0xbee6e800	-0.45098877
54	0x3e99c3b5	0.30032125
55	0xbf025cf7	-0.50923103
56	0x3e5793ff	0.2105255
57	0x3f748819	0.9552017
58	0xbf1118ee	-0.56678665
59	0xbf12ab55	-0.5729268
60	0xbb15e343	-0.0022871054
61	0x3ee9c658	0.45659137
62	0x3f17604e	0.59131324
63	0x3f00408c	0.5009849
64	0xbcf4b577	-0.029871685
65	0xbc50b2a5	-0.012737905
66	0x3db4f8a3	0.08836486
67	0x3a6daf0f	0.0009066918
68	0xbdaccce7	-0.084375195
69	0x3c619ee6	0.0137707945
70	0xbdf66e67	-0.12032776
71	0xbdd22a14	-0.10261932
72	0xbc1191f2	-0.008884894
73	0xbd4a55dd	-0.04939829
74	0x3d8c6468	0.068550885
75	0xbdd104e2	-0.102060094
76	0xbd7ba2ee	-0.06143468
77	0x3ce8c433	0.028413868
78	0xbc097cdf	-0.008391588
79	0x3c355a2a	0.01106886
80	0x3ca9b690	0.020716935
81	0xba9f8a92	-0.0012172034
82	0xbd9e0f55	-0.07717768
83	0x3e25a6fc	0.1617698
84	0x3dd37197	0.103244
85	0xbd5681c2	-0.05236984
86	0x3dc356ed	0.09538064
87	0x3d5ea4ff	0.05435657
88	0xbd7541a7	-0.059877064
89	0xbdac119c	-0.08401796
90	0xbccd7970	-0.02508232
91	0xbd50b3b5	-0.050952632
92	0xbdd0b0af	-0.1018995
93	0x3cf085d5	0.029360691
94	0xbd9ada4c	-0.07561168
95	0xbd81a92c	-0.06331095
96	0x3d16950f	0.036763247
97	0x3cc9ec36	0.024648767
98	0x3d9ae7bf	0.07563733
99	0x3de9f4cf	0.11423647
100	0x3df6f228	0.120579064
101	0xbdc0661e	-0.09394477
102	0x3caf30c7	0.021385564
103	0xbd4a4323	-0.049380433
104	0x3d5d9f46	0.054106973
105	0xbda04bec	-0.07826981
106	0x3d9e3a39	0.07725949
107	0x3dd8e84f	0.10591184
108	0xbd8dda92	-0.069264546
109	0xbd9d6016	-0.076843426
110	0x3e025603	0.12728123
111	0x3d393b6f	0.045222696
112	0x3e1cba56	0.15305457
113	0xbd4eeb84	-0.050517574
114	0xbdd45bfa	-0.10369106
115	0xbdaf0a8c	-0.085469335
116	0xbd332a7b	-0.043741684
117	0x3cc37266	0.02385826
118	0x3dac7d0c	0.08422288
119	0xbd6ba0f7	-0.057526555
120	0xbde3d30e	-0.1112424
121	0xbc92864e	-0.017886307
122	0x3d5b3d6f	0.053525385
123	0x3d504729	0.050849114
124	0xbccc45dc	-0.024935655
125	0xbe10aaaa	-0.14127603
126	0xbe151535	-0.14558871
127	0x3dc7e909	0.09761245
128	0x3ebc9eac	0.36839807
129	0x3e313709	0.1730615
130	0x3f16bc9a	0.58881533
131	0x3e9bb3e3	0.3041068
132	0xbefa3204	-0.48866284
133	0x3f224435	0.63385326
134	0x3ec667f2	0.3875118
135	0x3e960e0e	0.29307598
136	0xbe50568a	-0.20345512
137	0xbe7ab997	-0.2448486
138	0x3e2a8baf	0.16654848
139	0x3ece1de7	0.4025719
140	0xbf04a25e	-0.5181025
141	0xbe953a17	-0.29145882
142	0xbf407bf4	-0.7518914
143	0xbdd42028	-0.10357696
144	0x3d4596df	0.048239585
145	0xbe3cf337	-0.18452154
146	0xbfa551be	-1.2915571
147	0x3ea440a1	0.32080558
148	0x3f2f352e	0.6844052
149	0xbef88e85	-0.48546234
150	0x3ec0826a	0.37599498
151	0xbe3b95cd	-0.18318863
152	0x3ecaa5d8	0.39579654
153	0x3e5bd57d	0.21468158
154	0x3e4c42dd	0.19947381
155	0xbec77d84	-0.38962948
156	0xbf26c0b2	-0.6513778
157	0xbf5cac77	-0.8620066
158	0x3f73c610	0.95224094
159	0xbeb60f03	-0.35558328
160	0xbed68f53	-0.41906223
161	0xbd99ecdc	-0.075158805
162	0xbe97fca9	-0.29684952
163	0x3f9e6044	1.2373128
164	0x3f089ff5	0.53369075
165	0xbf1115ff	-0.5667419
166	0xbe900de8	-0.2813561
167	0x3f126b8f	0.5719537
168	0x3f851bcb	1.0399107
169	0x3ee94545	0.4556066
170	0x3d92aebf	0.071622364
171	0x3f3892fe	0.7209929
172	0xbf59ffb1	-0.8515578
173	0x3f031f6b	0.51219815
174	0xbeaddc2e	-0.33957046
175	0x3e563f39	0.20922555
176	0x3e56a793	0.20962362
177	0xbe20f2b0	-0.15717578
178	0x3ee9c778	0.45659995
179	0xbef48828	-0.4776013
180	0xbf34d0f5	-0.70631343
181	0xbea72d7f	-0.32651898
182	0x3e9b9db8	0.30393767
183	0xbeadc123	-0.33936414
184	0x3ee13986	0.439892
185	0xbe2b88b5	-0.16751368
186	0xbe8525b3	-0.26005325
187	0x3e111e16	0.14171633
188	0xbf39a600	-0.7251892
189	0x3e6931c1	0.22772886
190	0x3eec1256	0.4610774
191	0x3e7fe8b7	0.24991117
192	0xbf492bda	-0.7858254
193	0xbf68b5e5	-0.9090255
194	0xbf9f6927	-1.2453965
195	0x3f18e1a4	0.597193
196	0xbf1a6b85	-0.6032031
197	0xbfb93f16	-1.4472377
198	0x3f139ca1	0.5766087
199	0x3f2ae16b	0.6675021
200	0x3f91ffb9	1.1406165
201	0xbea26cf4	-0.3172375
202	0x3f364f4e	0.7121476
203	0x3ef49fb4	0.47778094
204	0x3faa8a89	1.3323528
205	0x3f8eaa36	1.1145694
206	0x3fbb8500	1.4649963
207	0x3f7c5513	0.9856731
208	0xbf50ca9f	-0.81559175
209	0xbf559709	-0.83433586
210	0x3ff7446e	1.9317758
211	0xbf6c8b1d	-0.9239977
212	0xbfade164	-1.3584409
213	0xbf2dc214	-0.67874265
214	0xbf8d7c8d	-1.1053635
215	0xbf4f4e4d	-0.8097885
216	0xbf93c838	-1.1545477
217	0x3f1ddc50	0.61664295
218	0x3f043fa6	0.5165962
219	0xbf0f708b	-0.560311
220	0x3fb107c7	1.3830498
221	0xbdafa846	-0.085770175
222	0xbfbb01b4	-1.4609895
223	0xbecfd8f2	-0.40595204
224	0xbf576947	-0.84145015
225	0xbf53e882	-0.82776654
226	0xbf006548	-0.5015454
227	0xbff00ff8	-1.8754873
228	0xbfa0ebf2	-1.2572005
229	0x3fac8e46	1.3480918
230	0xbf1065e2	-0.5640546
231	0x3ed54ddf	0.41660973
232	0xbfc01740	-1.5007095
233	0xbf978bae	-1.1839502
234	0x3f5ce944	0.86293435
235	0xbfd235fc	-1.6422725
236	0x3fa5490b	1.2912916
237	0x3f040328	0.51567316
238	0xbf24ed0e	-0.64424217
239	0x3f4d628b	0.8022849
240	0xbf67d65f	-0.9056148
241	0xbf31bd0a	-0.69429076
242	0x3e9c60a4	0.3054248
243	0xbee8045d	-0.4531583
244	0x3fb0a3ea	1.3800023
245	0xbf08ae97	-0.533914
246	0x3eec1b0c	0.46114385
247	0xbec7a288	-0.3899119
248	0x3ea76200	0.32691956
249	0x3f99967f	1.1999053
250	0xbf1de035	-0.6167024
251	0xbf2f37d6	-0.68444574
252	0x3d4c8a3f	0.04993653
253	0x3eeda8ca	0.46417838
254	0x3f178933	0.59193724
255	0x3f111acb	0.5668151

fc_layer.bias f4 [64]
0	0x3eff0ec1	0.49815944
1	0xbd5b906c	-0.05360453
2	0x3e598141	0.21240713
3	0x3f18751d	0.595537
4	0x3e9f6ae9	0.31136253
5	0x3f0b80fe	0.544937
6	0x3f046367	0.51714176
7	0x3ee5240c	0.44754064
8	0x3f0cfbfb	0.5507199
9	0x3f04e2d0	0.5190859
10	0x3f16ebf8	0.5895381
11	0x3f070367	0.52739567
12	0x3e8f835b	0.28029904
13	0x3cc741ec	0.024323426
14	0x3e632ad3	0.22184305
15	0x3eb065b3	0.3445259
16	0xbe1c5445	-0.15266521
17	0x3eab5579	0.33463648
18	0x3e98932b	0.2979978
19	0x3f03e0bb	0.51514786
20	0x3f028944	0.509907
21	0x3e3da353	0.18519334
22	0xbd952e39	-0.07284207
23	0x3ec88977	0.39167377
24	0x3ef18d47	0.471781
25	0x3ed389ff	0.4131622
26	0xbd87071a	-0.065931514
27	0x3ef31ed2	0.47484452
28	0x3f0d1b8e	0.5512017
29	0x3e551354	0.20808154
30	0x3f01b517	0.50666946
31	0x3efe87ee	0.4971308
32	0x3ef27cd7	0.4736087
33	0xbdb65574	-0.08903018
34	0x3f0d698f	0.55239195
35	0x3f0f3f87	0.5595631
36	0x3ef9a909	0.48761776
37	0x3eeb8696	0.46001118
38	0xbc8d644e	-0.017259743
39	0xbd1d223d	-0.03836273
40	0x3eab3acc	0.33443296
41	0x3efc5d46	0.49289912
42	0x3f12695e	0.5719203
43	0x3d4d8947	0.050179746
44	0x3f05d66c	0.52280307
45	0x3efee697	0.497853
46	0xbe9e7fa7	-0.30956766
47	0x3f10f32d	0.56621057
48	0x3e7738cd	0.24142762
49	0x3e9a5a76	0.3014714
50	0x3f0a1127	0.5393242
51	0x3eaca88d	0.33722344
52	0x3ec0e2d2	0.3767305
53	0x3ad56ff1	0.0016283971
54	0x3ef7e433	0.4841629
55	0x3efb76c0	0.49114037
56	0x3edc14f7	0.42984745
57	0x3f11dc87	0.56977123
58	0x3f0a5a18	0.5404372
59	0x3f42ebaf	0.76140875
60	0x3ef42e42	0.47691542
61	0x3f07c2e5	0.5303176
62	0x3ec17a65	0.37788692
63	0x3f0e21b9	0.55520207

output_layer.weight f4 [1, 64]
0	0x3f8193e1	1.0123254
1	0xbc4b5ce7	-0.012412286
2	0xbfa08a2f	-1.254217
3	0x3f668fe3	0.90063304
4	0x3f76121c	0.9612138
5	0x3f6f594e	0.93495643
6	0x3f79c9f0	0.9757376
7	0xbfcd2373	-1.6026443
8	0xc001d68e	-2.0287204
9	0x3f74f467	0.9568543
10	0x3f6685f1	0.9004813
11	0x3f7cee93	0.98801535
12	0x3f7d4b00	0.98942566
13	0xc00ad965	-2.1695187
14	0xbfd167d4	-1.6359811
15	0xbfc9b1f4	-1.5757432
16	0xc01fa6c5	-2.4945538
17	0xbfba4627	-1.4552659
18	0x3f80f381	1.0074311
19	0xbfe8a5cd	-1.8175598
20	0xc002a187	-2.0411088
21	0xc006e818	-2.1079159
22	0xbdbd26bc	-0.092359036
23	0xbfab06bd	-1.3361431
24	0x3f6f4098	0.9345794
25	0x3f7fa3ba	0.998592
26	0xc039bbeb	-2.9020946
27	0x3f7581ec	0.9590137
28	0xc0014d1c	-2.0203314
29	0x3fa6e90e	1.3039873
30	0xbffc895f	-1.9729422
31	0xbfca5ae1	-1.5808984
32	0x3f796635	0.9742158
33	0xc0413e7d	-3.019439
34	0xbfd7fdc2	-1.6874316
35	0xbff2e277	-1.8975362
36	0xbfd3d4dd	-1.6549336
37	0x3f812da7	1.0092057
38	0xc01f5114	-2.4893236
39	0xbd94c545	-0.07264189
40	0x3f705029	0.93872315
41	0x3f807e85	1.0038611
42	0x3f68cd32	0.90938103
43	0x3fb5672f	1.4172114
44	0xbff36a57	-1.9016827
45	0xbfe2b367	-1.7710999
46	0x3fd0bfe2	1.6308558
47	0x3f6a76f4	0.9158776
48	0xbfeb6501	-1.8390199
49	0x3f810306	1.0079048
50	0x3f76cc65	0.9640563
51	0x3f6a8da0	0.9162235
52	0x3f7bfe6b	0.98435086
53	0xbf812343	-1.0088886
54	0x3f6d9bce	0.92815864
55	0x3f814003	1.009766
56	0x3f724d12	0.9464885
57	0x3f68b955	0.90907794
58	0x3f716a44	0.94302773
59	0xbfeff5bf	-1.8746871
60	0xc002bf03	-2.0429084
61	0xbffacc01	-1.9593507
62	0x3f832d68	1.0248232
63	0xbfe0ce1f	-1.7562903
