TimeGAN4paper/result/iter6000/model/CT_lag1_total1/torch_best_model.pt (torch, 87834 bytes, 7 tensors)

lstm.weight_ih_l0 f4 [256, 1]
00000000: 5a33 bcbc 5712 9f3d 73f8 05bd 1776 8dbd
00000010: ca10 da3d 8642 d13d e3a7 d83c eab1 cc3c
00000020: 7d07 a13c 9f91 e23d 8040 78bc e123 35bc
00000030: 0933 7abd 1eef 51bc 1dcd 54bd a108 7a3c
00000040: adf6 443e f075 9a3d 930f 6abd c9c7 063c
00000050: ea04 e93b 3ae4 943e d48d 00bd a7dc d43d
00000060: d82f 28bd 98d6 6f3c 310f 5d3e dc3c 80bd
00000070: 78ff 63bd 3862 89bd d2a4 563b 64de 053e
00000080: 280e 37bc c0e0 cdbc c677 22bd 3fb2 c0bc
00000090: afa5 903c bdaf cf3d 4308 2d3e 5fb9 0f3e
000000a0: 47b1 56bc 6226 3f3d f424 c83c a51c eabc
000000b0: 8656 eabc e9ac 2cbb 0a05 923e 991b 493d
000000c0: a3ae e1bc 64ac 463e 2180 f03b c0d3 313e
000000d0: 7a37 003e 7d0c 75bc 6ad4 663e ae88 943d
000000e0: 941b cc3d 4bfa 30bd e914 473b 791d 4cbd
000000f0: 9f59 6f3d 42d8 fd3c 8d43 27bd 1369 593d
00000100: 7c89 653e efc1 4f3c 269f 213d 974e 2e3d
00000110: 3651 f53c a1a2 e63d 8d05 39bb e146 2cbb
00000120: c45f c43d 8add b93c b496 023e 17e2 4d3e
00000130: 8e14 713d 46a3 903a 6ab6 a13c 827e 0abc
00000140: 9311 5dbc 1f9d 8c3d 4647 1c3e 814c 9cbc
00000150: 13e3 4d3c e2ea 0c3d b04d c93c 503a b33c
00000160: 2b48 c13d e18a 61bc 8ef6 eb3b 7298 d33d
00000170: 8b2d e33d c5d2 bf3d d4ff e3bb 3d6a 5e3b
00000180: 9f98 1e3e 5af6 a63d 5138 1dbb f716 533c
00000190: 5d80 9c3d a32e e13c 533f 91bc 4bab c93c
000001a0: 513a b4bc 0e00 2f3d b7c8 59bc a995 313c
000001b0: b3a7 8b3d 35df 503d 79b9 713c 6886 df3d
000001c0: 7e6b 043d 5d66 303e cb53 b13c 677b 9b3c
000001d0: a8d8 903c 49dc 71bc 395d c43c 0eab f73c
000001e0: ea0b b43c 734b a33d 6fa4 b8bb c5a0 033e
000001f0: 9814 2cbc c3bb 943b b62f d7bb 6041 b1bc
00000200: b639 a9bc 1842 09bd 2d4c 89bd d38c e63d
00000210: 4598 4fbd 1680 bebc b534 b23d 16df 523b
00000220: 4a82 44ba 7eb8 e2bc 9818 e53c ba78 ac3c
00000230: df5e 203e 6ee3 e13c 0168 3a3e d622 84bb
00000240: 28d0 9db8 05d8 66be c76c 183d 7fed 35bb
00000250: d4f7 cebe 7510 0cbd fd59 80bd 4aa4 bfbc
00000260: c542 c1bc ebdb 2a3e ac66 b93c 7b83 3abe
00000270: 46cf 853d 2ff2 7dbd 6ca2 29bc 890f 30bd
00000280: 34de 5ebb d83d 9ebb 316a 1bbe 6483 aabc
00000290: 91ae 24bd fa7d ea3c c2ba f9bc ac9e 8c3d
000002a0: 505a 9dbd dc86 3b3b 954d e83d 5d1d 79bc
000002b0: e79b b73b 0407 883a fc48 12bd 645a 093c
000002c0: 1edc bdbc dd8a 86bc 8bd2 863d 7ad7 9bbb
000002d0: a39f b93c 71b4 b1bd a1de 1b3d 22b4 bb3c
000002e0: 4e99 263d 4214 86bc f5f8 36bd b27c 3abd
000002f0: 37f9 e1bd 7738 153d 3e6a 0d3d 0acf 943d
00000300: 4fc2 133d b965 953d 3810 023c 8ad9 343d
00000310: feb7 ba3d b1e5 a43c 9509 563c 7da6 a13c
00000320: e1e6 df3d 9903 db3d 8394 88bc 486a b53b
00000330: a387 253d 6ab6 903d 8775 103d 90ee 4c3d
00000340: ef75 163e 73f1 133c 8b3e 603d c7da 1439
00000350: f256 d63c 1779 a43c 78b1 423d 94c3 b33d
00000360: 3d24 b23c 5806 0b3c 2467 433e 53b7 373d
00000370: 6f72 603d f506 a93d c8c1 163e 2425 7c3c
00000380: 06be ec3c 8420 753d 6830 8c3c 71c7 493c
00000390: e8c9 143c fa9e 4e3d fb93 c23b cfdf 8d3d
000003a0: 76ef cf3c e266 c53d 983e 2a3d 5535 383d
000003b0: 5a05 393d 2bf9 04bc d324 913c 5dc0 b33d
000003c0: af42 1c3e 50d3 623d 6422 c93c e04c 903d
000003d0: c3b5 a03d 8636 a03b c4dd 4d3e a89d 9c3b
000003e0: 6ea6 973d 2ca3 8a3b 33e9 773c f1d3 323c
000003f0: 80eb 613d 5a57 a23c 15d0 dd3d 9b2f 543d
-0.022973705 0.0776717 -0.032707643 -0.069072895 0.106477335 0.102177665 0.026447242 0.02498718
0.019656891 0.11062931 -0.015152097 -0.0110559175 -0.061083827 -0.012813358 -0.051953424 0.015260846
0.19234724 0.07542026 -0.05714376 0.008226343 0.0071111815 0.29080373 -0.031385258 0.103936486
-0.041061252 0.0146385655 0.21587826 -0.06261608 -0.055663556 -0.06708187 0.003275205 0.13073117
-0.011172809 -0.025131583 -0.039665006 -0.023522494 0.01765713 0.10140941 0.16897683 0.14035557
-0.01310379 0.046667464 0.024431683 -0.028578112 -0.02860571 -0.002634818 0.2851947 0.049098585
-0.027549094 0.194017 0.007339493 0.17365932 0.12521163 -0.014956591 0.22541967 0.07252632
0.099661976 -0.043207448 0.0030377454 -0.049832795 0.05843508 0.030986909 -0.040835906 0.053078722
0.22415727 0.012680515 0.039458416 0.042555418 0.029945951 0.11261488 -0.0028232068 -0.0026287364
0.09588578 0.022688646 0.12752801 0.20105778 0.058857493 0.0011034987 0.019740302 -0.008453013
-0.01349296 0.06865906 0.15261564 -0.019079449 0.012566346 0.03440369 0.024573177 0.021878392
0.09437593 -0.0137660215 0.0072010225 0.10331811 0.11092671 0.09366373 -0.0069579873 0.0033937835
0.15487908 0.081524566 -0.0023989866 0.012883893 0.07641671 0.027488058 -0.01773039 0.024617812
-0.022000464 0.04272466 -0.013292483 0.010838904 0.068190955 0.050994117 0.014753693 0.10914308
0.032329075 0.17226548 0.0216464 0.018979741 0.017681435 -0.014761993 0.023970233 0.030232932
0.021978337 0.07973375 -0.0056348364 0.12854297 -0.010502957 0.0045389845 -0.006566967 -0.021637619
-0.020657402 -0.033510298 -0.067039825 0.11257329 -0.050682325 -0.023254436 0.08701459 0.0032176427
-0.0007496221 -0.027675863 0.027965829 0.02105366 0.1566119 0.027574267 0.18203737 -0.004032473
-7.5251155e-05 -0.22543342 0.037213113 -0.0027759967 -0.40423453 -0.034195382 -0.06267164 -0.023393769
-0.023591409 0.16685455 0.022631966 -0.18214218 0.06533675 -0.061998542 -0.010353666 -0.042983565
-0.0034006955 -0.0048291497 -0.15177228 -0.020814605 -0.040205542 0.028624523 -0.03048456 0.06866202
-0.07683241 0.0028614318 0.113429226 -0.015204755 0.005603302 0.0010378067 -0.035714135 0.008383367
-0.02317625 -0.016423637 0.06583127 -0.0047559114 0.022659129 -0.086769946 0.038054112 0.022913042
0.040673546 -0.016367082 -0.044671018 -0.045529075 -0.11033862 0.036430802 0.03452515 0.07266052
0.03607398 0.07294793 0.007938437 0.044152774 0.09117125 0.020129057 0.013063808 0.019732708
0.109327085 0.106940456 -0.016672378 0.0055363514 0.040412556 0.07066043 0.035268333 0.0500322
0.14693426 0.009029734 0.054747146 0.00014195881 0.026164506 0.020077271 0.04753253 0.08777538
0.021745795 0.008485399 0.19082314 0.044852566 0.054796632 0.0825328 0.14722359 0.015389714
0.028899204 0.059845462 0.017112926 0.012315617 0.009081341 0.05044458 0.005938051 0.06927454
0.025382739 0.09638764 0.0415636 0.044972736 0.04517112 -0.008116047 0.017717754 0.08776925
0.15259813 0.055377305 0.024552532 0.07045913 0.07847168 0.004889312 0.20104128 0.0047795363
0.07404791 0.0042308774 0.015131283 0.010914789 0.05515623 0.019817043 0.10830704 0.051803213

lstm.weight_hh_l0 f4 [256, 64]
00000000: 82d8 8abe d56b 163e 2b97 0fbe 6d63 893e
00000010: 1944 c1bc 41a0 bf3d 89e8 e53d dcc9 3a3d
00000020: 5044 213e d98a 413d 8b40 b63c de6c c73d
00000030: 22d5 983e 7806 8b3b 1f76 003e 2dc3 16be
00000040: ec49 f9bd 5514 473d ea53 543d b26a f3bd
00000050: 0730 d63d fb15 383e af69 013c 1ba0 de3d
00000060: 1ac0 23be f713 37bd 099e b6be 798b 9ebd
00000070: 95e8 573e b622 053e 99c3 fabd d3ee cd3c
00000080: 536a 3d3d a52b d5bc b8ba 11be 0248 5c3d
00000090: efb9 c93d 0945 1ebe ae45 30bd 1db4 14be
000000a0: ec18 ad3d ad45 8cbd 304c 9b3c 245b 18be
000000b0: 5dba 01be 3349 c33c 708e 74bc e828 233d
000000c0: b434 64ba 2a22 9bbd 0045 8e3d e571 993c
000000d0: 9f65 083d c65d 74bd ad59 94be 024e 5abe
000000e0: 4fa3 24be df05 15be 10b2 903d 1b6b 863e
000000f0: 31fd fdbc ccf1 3c3d 6f92 1ebd fb50 503d
00000100: 1c4e 483d 89f3 693d e670 71bd b1ea 0abe
00000110: 93f6 9cbd 58f8 8b3d 0e4c be3c b67a d13c
00000120: 4976 213c ae45 f83c c3ce f2bd 7525 12be
00000130: 2086 bc3d 8338 083f a401 fdbd 7f53 1e3e
00000140: 6069 0e3e e6f8 c43d 29d1 da3d 80f5 6e3d
00000150: 333c 43bd 638f 70bd c4fc a53c bbe9 1abe
00000160: 6c9f ecbc 304f aa3d bdad bd3e 6b8e f43d
00000170: 768d 06be c7c3 ad3e 7aec c2bd d42a cb3d
00000180: 2008 243d 7470 febd fb54 d43c 8215 133d
00000190: 2b17 fcbc 0f43 8c3d 3922 c8bd 1ff2 e9be
000001a0: a97a 0abe 059e 5c3d 042a e4bd 79e2 0a3e
000001b0: be73 1a3e b05c 6bbd fa16 5fbd 6683 d5bd
000001c0: 7699 6c3e 1161 f53d 07e9 fabd aecd 063e
000001d0: e410 6abe 6093 7f3c 5fd9 913e fdd1 8a3c
000001e0: 5204 0f3e 6ee1 233e a5ad e6bd 23bc 4a3d
000001f0: 6dd9 123e 67ba 88bd f48a 7a3e 11bd 873d
00000200: 3079 f3bc 210a 833d 9830 bbbc ea16 5e3e
00000210: c76f 20bd 7235 60bc 30e2 1a3e 06b2 23be
00000220: ed54 ae3b e6e7 0bbe c6ca 56bc 0042 263e
00000230: 9159 7c3e 1dce 753d 6946 e63d 3e03 383e
00000240: 15f1 3f3a fafd 6ebd 8cf8 a13d f3f0 e93c
00000250: 7e3c 81bc 2c9d 4cbe ff5e 5f3d 0bab f23c
00000260: 4325 93be 03e1 153e 4a96 9fbb 46d5 54be
00000270: 9b84 943e 01bd 5bbd 4475 24be 043b e3bd
00000280: 980f d8bd 7614 d3bd 5786 a8bd 84b0 d43c
00000290: 0a71 a1bd eb10 933b 03cc 7abd d3d2 fd3d
000002a0: 1c1f 95bc 660b 66be 6ba2 2e3d f140 49be
000002b0: e422 843c 6302 7b3e 2a50 1bbe d0bc e13d
000002c0: 0cdf 103d 864c 66bd 3eda 6abc 63ba dfbd
000002d0: c247 c53d 0ddb 88be c1f7 003e 5bb1 acbc
000002e0: ae50 0dbe 2ced 0cbd 611f b7bd d87e 1dbd
000002f0: 1fd8 3abe e752 313e 6ce6 a63c ff7d f73d
00000300: 36ac ccbd 1901 b1bd e26d 29bd ba50 643e
00000310: 1e36 823e e1ae 2d3d 8eef 893d 7bd6 7d3c
00000320: 06a0 b13d 8d03 003e c710 8b3c 1721 c03d
00000330: 6736 8a3c 8510 e4bd 5e40 0e3e e894 1fbe
00000340: f38d 3f3c 0f34 833d ce5f 083e da7e 0abe
00000350: 3578 0cbe 0298 183d c7cb 583b 6127 233e
00000360: 879b babd b001 993d 2e67 27b8 f2ea b4be
00000370: aeb2 323d 2bcf 173e 0010 c4bd 1fa3 803c
00000380: 688c 74be f3c0 e8bd 4aeb 54be 3934 68bd
00000390: e4e4 22bb af73 0b3d ac72 8d3c dbae a3bc
000003a0: 7f7e 55bd a454 153d 3909 abbd 6ba1 12be
000003b0: 6a6e 0c3e f1f3 f83d 5e4c 163e 900e 8e3a
000003c0: a1f8 40be e536 c7bc 5353 373e d40a 653d
000003d0: 343d 05be 3fb1 a6bd 1eb4 ac3d 74a2 9dbb
000003e0: 1ada 053e 7751 743d 4642 2cbd 400a 53bd
000003f0: f661 4b3d c716 f03d c5ea d5bd 1be0 383e
-0.27118307 0.14689572 -0.1402251 0.26833668 -0.023592042 0.09356738 0.11225993 0.045602664
0.15748715 0.047251556 0.022247573 0.09737562 0.29850107 0.0042427145 0.1254506 -0.14722891
-0.121723026 0.048603375 0.05183784 -0.11885585 0.10458379 0.17977135 0.007898732 0.108703814
-0.1599125 -0.044696774 -0.35667446 -0.07741446 0.21084817 0.13001522 -0.122443385 0.025138294
0.046243977 -0.026021788 -0.14231384 0.05377961 0.09849917 -0.15456022 -0.0430352 -0.14521833
0.08452019 -0.06849227 0.018957227 -0.14878517 -0.12668748 0.023838615 -0.014926538 0.039833933
-0.0008705363 -0.07574876 0.069467545 0.018731067 0.03330004 -0.05965974 -0.28974667 -0.2131882
-0.16077922 -0.14553021 0.07065213 0.2625359 -0.03100452 0.046129033 -0.03871387 0.05085848
0.048902616 0.05711702 -0.05894556 -0.1356609 -0.07664218 0.06834477 0.023229625 0.025571208
0.009854862 0.030306663 -0.11855843 -0.14272101 0.0920527 0.5321123 -0.123538285 0.15461539
0.13907385 0.09617786 0.106844254 0.058339596 -0.047664832 -0.058730494 0.02026213 -0.15128224
-0.028884612 0.08315885 0.37046614 0.119412266 -0.131399 0.3393843 -0.095177606 0.09920278
0.04004681 -0.124237925 0.025919428 0.035909183 -0.030772766 0.06848728 -0.097721525 -0.45692536
-0.13523354 0.053861637 -0.11140826 0.13562955 0.15083215 -0.05746144 -0.05446527 -0.10425453
0.23105416 0.119814046 -0.12251478 0.13164398 -0.22858006 0.015599102 0.28486153 0.016945833
0.13966492 0.16003963 -0.11263589 0.049495827 0.14340754 -0.066761784 0.24467069 0.066278584
-0.029720873 0.06398416 -0.02285032 0.21688429 -0.0391691 -0.013684617 0.15125346 -0.1598588
0.0053201825 -0.13662681 -0.013109868 0.16236115 0.24643542 0.060011018 0.112438984 0.17969987
0.0007321996 -0.05834768 0.07908735 0.028557276 -0.015775915 -0.19981831 0.054533955 0.029622575
-0.28739366 0.14636616 -0.004870211 -0.20784482 0.2900742 -0.053647045 -0.16060358 -0.11095241
-0.10549849 -0.10306637 -0.08228748 0.025963075 -0.078828886 0.0044881008 -0.061229717 0.12393727
-0.01820331 -0.22465286 0.042635363 -0.1965368 0.016129918 0.24512629 -0.15167299 0.11022341
0.035368964 -0.056225322 -0.01433426 -0.10924222 0.09632827 -0.26729622 0.1259451 -0.021080663
-0.13800308 -0.034405872 -0.08941532 -0.038451046 -0.18246506 0.17316781 0.020373546 0.12084579
-0.09993784 -0.086427875 -0.041364558 0.2229642 0.25431913 0.042403106 0.067351446 0.015493031
0.086731 0.12501355 0.016975773 0.093813114 0.016871644 -0.11135963 0.13891742 -0.15584147
0.011691558 0.06406414 0.13317797 -0.13524953 -0.1371773 0.03725434 0.0033080445 0.1593299
-0.09111696 0.07471025 -3.9911996e-05 -0.353355 0.043627433 0.14825122 -0.09573364 0.015702782
-0.23881686 -0.11364927 -0.2079288 -0.05669043 -0.0024855668 0.03404587 0.017266594 -0.019980839
-0.05212259 0.036457673 -0.083513685 -0.14319389 0.13713995 0.12155903 0.1467757 0.001083808
-0.18844844 -0.024318168 0.1790288 0.05591853 -0.13011628 -0.08139276 0.08432792 -0.0048106257
0.1307148 0.059648003 -0.04205539 -0.051523447 0.04965397 0.117230944 -0.10445169 0.1805424

lstm.bias_ih_l0 f4 [256]
00000000: b2d3 113e 1f23 f93c 6b78 733d 7356 083e
00000010: a951 a73d 477c ccbb c571 92bd 5984 28be
00000020: 23e0 cebb 7847 a6bd f860 44bc 82ef 6abc
00000030: 29d5 ffbc 8806 1f3e e04d 113e 0ce1 fb3d
00000040: e712 213e 7697 a63d 7c3d 8abd 3bdd 443d
00000050: 9d53 943d 3a28 5f3e fa2a cf3d 114e 953d
00000060: c4cd f0ba b68d b3bc 208b 833d e3fe e4bc
00000070: 5374 ea3c b9d1 d53d f8fd e7ba 6c43 a8bd
00000080: 3be6 ae3d 4141 223e 71ad 663d 99fe f83d
00000090: 6d08 ed3d fe2b d63d a522 993e 2f89 c73d
000000a0: a259 12bd efc9 a9bb 8700 8cbd 99ee 073e
000000b0: b92e 363e 484b 0f3e 4401 983d c7a4 cf3c
000000c0: 917d 66bc e979 b13d 1f9f 2f3d 8e5d 123e
000000d0: feeb 69bd e22c 4e3d 643b 6abd 2981 613c
000000e0: 3a51 9d3c 1ba4 1a3e 8ad2 143e 9cff a33d
000000f0: fad4 7c3d c1dd a3bd e74d 2f3e add1 a8bd
00000100: 7f24 b93b b6dd 42bd 4f11 2d3c 6f4d 9c3d
00000110: 4af5 bcbd c73b 3cbd 7106 e93c 258d 06bd
00000120: aafd 013e 2013 dbbc ff12 8abd 774d 7bbd
00000130: 3210 0cbd df63 203e 0d09 f33c ea79 ae3d
00000140: 8915 203e b22c 6ebd 6c90 aa3d d00f e63d
00000150: 8385 e83c 5581 26bb ff61 8e3c 4a62 853d
00000160: 0d5e 253e 9ced 343d 6218 bb3d db6e 843c
00000170: 22e9 d83d d78d 29bd 1042 003e 5764 1e3a
00000180: e9aa 76bb 49da 353d d7df 373e d50e eabc
00000190: 5de3 9cbc d627 97bc 4066 ed3d e335 0c3e
000001a0: 2476 1c3e 4924 ac3d 0203 093e 1f1d d83d
000001b0: be0f 7a3e 0cbb 7bbd d11c a53d ad4e cfbd
000001c0: adda 68bd c417 78be d1e6 debc b579 363e
000001d0: bfe9 733d ddf4 c4bc 3f7f 423c cbec 40bd
000001e0: 78c3 a73b 0290 7b39 2507 283e 5c3a d43d
000001f0: 8e5b b63d b932 733c bbe1 003c 1780 d0bb
00000200: 125f 35bd f52c c53c 4518 a7bd 0ab7 8fba
00000210: dc37 6d3e 7c95 2abb 96f6 f83d 7fd6 7cbd
00000220: 5889 6a3d 3ec5 f03c 0af8 5dbd bd89 d0bd
00000230: 2e4e 2ebe cf5b 24be a999 4abd 646b 55bc
00000240: f6cb 123d 7595 71be e3da 1cbd c350 393d
00000250: 98e5 96be 5799 673e 1264 683d 9406 0f3e
00000260: a0c5 0abc 5a29 1c3d ee8b 4dbd 2ba4 08be
00000270: 7dac 1fbd f0ed 243e 44c7 3fbd b557 843d
00000280: 6dcf c2bd 38de bf3b 3770 2dbd ba53 cf3c
00000290: 69cd 1e3e 0d01 59be f1cc 023b 9d6e 5bbe
000002a0: 64bd e33d 2150 0e3e bbd6 4cbd 8581 1f3d
000002b0: 2b92 d2bd ea67 cf3c eba8 b33d 09f3 7fbd
000002c0: d3b3 2f3e 71c3 343e 3192 84bc 1c15 81bc
000002d0: 6585 9c3c 5543 06be 207e 36be 680e 05be
000002e0: 2818 c7bd 37a4 eebd f57c 003e ceb5 ae3d
000002f0: 50d5 87bc ab3b c0bd 6fa2 183d 651c 6abd
00000300: b817 6a3e c19a 733d 1958 3d3e c434 1b3e
00000310: 3423 d93d e56d 12be 877f 043e 17d2 85bd
00000320: 0bd5 813d 4d66 0bbe a36f 0bbd 65ed dc3d
00000330: 0483 513e 07ae 47be f989 e93b 0be7 d5bd
00000340: 52e6 88bb 5a8e 43bd cf81 44bd aa3f 09bc
00000350: cd7b 4c3b 85e6 b7bc f5d3 48bd c637 f4bc
00000360: 3ebe 783e fa84 b03d 7347 e93c afe9 803e
00000370: 9756 26bb f317 89be cd1b 97bd f55a a93d
00000380: aaf5 563e c44e efbd ee75 54bc c194 41be
00000390: 4361 fe3c b1ba 7c3d 1d9a e73d a3bb 37be
000003a0: 8b46 3cbc 95f7 b7be e899 62be 86a0 f43d
000003b0: cc3c 9abe 7908 a33d 85bc 0dbd de54 e0bc
000003c0: 42a5 0abe 55b2 19be 243e 5b3e f928 cc3d
000003d0: 4ade 01bd b3f6 8a3c ec10 903d 154d 9e3d
000003e0: 271d 38ba e5c8 8fbc 8617 4f3e f167 803c
000003f0: 6523 07be 3ce5 b9bc 10fd 6b3c e701 573d
0.14240912 0.030412255 0.05944101 0.13314228 0.08169872 -0.006240401 -0.07150606 -0.16456737
-0.0063133403 -0.081191 -0.01198601 -0.01433933 -0.031229572 0.15529835 0.14189863 0.12298784
0.15729867 0.08134358 -0.067500085 0.048062544 0.072425105 0.21792689 0.10115619 0.072902806
-0.001837187 -0.021918159 0.0642302 -0.02795357 0.02861992 0.10440392 -0.001769959 -0.08215985
0.08540007 0.15845205 0.05631775 0.12157936 0.11573873 0.104576096 0.29909244 0.097429626
-0.03573001 -0.005181543 -0.06836038 0.13274612 0.17791261 0.13993561 0.074221164 0.025347127
-0.014068023 0.08665831 0.04287636 0.14293501 -0.057109825 0.050335772 -0.057185546 0.013763704
0.01920377 0.15101664 0.1453344 0.08007738 0.061726548 -0.080012806 0.17119561 -0.082431175
0.0056501026 -0.04757472 0.010563209 0.07631957 -0.09226473 -0.045955446 0.028445454 -0.03284945
0.12694421 -0.026742518 -0.067419045 -0.061353173 -0.034195133 0.15663098 0.029667402 0.08519347
0.15633215 -0.058148094 0.083283275 0.11233485 0.028383976 -0.0025406678 0.017380713 0.06512888
0.16149159 0.044171914 0.0913551 0.016166141 0.105913416 -0.041395035 0.12525201 0.00060421735
-0.0037638491 0.044397626 0.17956482 -0.028571526 -0.019151384 -0.018451612 0.11591768 0.13692431
0.15279442 0.08405358 0.13380054 0.105524294 0.24420068 -0.06145768 0.08062137 -0.10122428
-0.05684917 -0.24227816 -0.027209671 0.17819865 0.05954909 -0.024042541 0.011871158 -0.047100823
0.0051197372 0.00023990872 0.16408975 0.10362694 0.089041814 0.014843636 0.007866318 -0.0063629257
-0.04428012 0.024069289 -0.08158926 -0.0010964584 0.2316584 -0.002602904 0.121564075 -0.061727997
0.057259887 0.029390927 -0.054191627 -0.101825215 -0.1702201 -0.16050647 -0.049462948 -0.013026092
0.035839044 -0.2359217 -0.038294684 0.045243036 -0.2947204 0.22617088 0.05673606 0.13967353
-0.008469969 0.038125373 -0.050182275 -0.13343875 -0.038982857 0.16106391 -0.046820894 0.06462041
-0.095122196 0.005855348 -0.042343345 0.025308479 0.15508045 -0.21191807 0.001995858 -0.21428914
0.11120108 0.13897754 -0.05000947 0.03894188 -0.102817856 0.025318105 0.08772453 -0.062487636
0.17158441 0.1765268 -0.01618299 -0.015757136 0.019106576 -0.13111623 -0.1782155 -0.12993777
-0.09721404 -0.11652415 0.12547667 0.0853077 -0.016581208 -0.09386381 0.037264284 -0.057155985
0.2286061 0.059473757 0.18490638 0.15156847 0.106024176 -0.14299734 0.12939273 -0.06534212
0.06339463 -0.13613243 -0.034042012 0.10787467 0.20460135 -0.1949998 0.0071270433 -0.104444586
-0.004177847 -0.04774318 -0.047975358 -0.008376995 0.003120172 -0.022448787 -0.049030263 -0.029811751
0.24291322 0.08619113 0.028476452 0.25178286 -0.0025381201 -0.26776084 -0.073783495 0.08269302
0.20992151 -0.11684945 -0.01296757 -0.18904401 0.031052237 0.06170148 0.11308692 -0.17942671
-0.011491428 -0.35931078 -0.22129023 0.1194468 -0.3012451 0.079606004 -0.034603614 -0.027384218
-0.13539603 -0.15009435 0.21410424 0.099687524 -0.031706132 0.016963338 0.070344776 0.07729546
-0.0007023387 -0.017551849 0.20223817 0.015674563 -0.13197096 -0.022692315 0.0144035965 0.05249205

lstm.bias_hh_l0 f4 [256]
00000000: 4e1c 10bd 92ae 09be ee7f 19bd 32fb 2d3d
00000010: 2626 cdbd 5021 81bd 74af 143e c8fd 2bbe
00000020: 16c9 e03b 3358 a93d dc8c 07bd e126 903d
00000030: a9b5 e4bc 4cfa 9a3d b128 a03d cd44 cfbc
00000040: 86d0 283c 10ff 693d 5013 7c3c 028b 1a3e
00000050: ed57 55bd 4cbc 923e fe08 2fbc 07e4 c1bd
00000060: 4c73 84bc 3a48 ba3d b5e2 7c3d 6490 143e
00000070: 94df cbbc 059b b33d dae2 883d a5bf f73d
00000080: 969c 6b3e af18 b73d ea91 4a3d 46a1 2d3e
00000090: 45ba e13d 3d58 59bd 4816 b03e 8a6a 3a3d
000000a0: 5424 d93d 829a b63d efce 1dbb a38e 3cbd
000000b0: 1923 85bd 5896 0bbd 8ea6 4c3e 8085 7ebc
000000c0: 8fbd 903d 7348 d93d 8c1a d43b 3965 583d
000000d0: a6fc e83d 74e4 9fbd 7ce4 2dbe e0ae a63d
000000e0: ac77 0c3d aad8 f4bc c093 413e aaa5 ddbc
000000f0: 3963 96bd 657a e2bd 43dc 32ba 7cf7 8b3d
00000100: 8f8c 3c3d cce4 263e 68c1 a33d 695b bbbc
00000110: e18c 52b9 a3d5 f03c 4b9b 5cbd 4730 c33c
00000120: 6598 353e 4ae0 133e 972e c73d e951 95bd
00000130: 012b 663b 224e 543e f9b7 003e d4c3 4f3c
00000140: a1a2 8a3e 92c5 bdbd 69fa 0bbd bf6f c63d
00000150: f8a7 a23d 2b2e ddbd bb4a b7ba 7987 0cbd
00000160: 1708 813d c9ea 223e af46 903c 2ce5 0dbc
00000170: 8bfc 8f3d 41ed fbbc c734 c63d 9995 183d
00000180: 416e 983d 9716 713d 404f 413e 6724 c53d
00000190: fd4d 62bd c9c1 183d 9240 bf3d 4b91 db3d
000001a0: 1981 cc3c faf7 37bd 3518 013e 885b 0b3e
000001b0: c87b 7f3d 0643 49bd d83e 103e f3c4 48bc
000001c0: 07d6 e93d b243 b5bd 9e27 7c3a a6bc 033e
000001d0: defd 523c cad6 6f3d da18 be3b cc09 d6bd
000001e0: 7976 b4bc 1369 ae3b 5261 d9bb c497 a4bc
000001f0: 6325 523c 2668 ec3d 9186 473e 0c6b 0b3e
00000200: 86fd 24bd 5a4d 583e 04c7 c3bd 34ee 923d
00000210: 42db 1a3e d5b6 dfbd ba1b cb3d 751c e93d
00000220: e808 b93d fa4b 6a3e 79fe 6b3d ebb0 01be
00000230: a081 143d 2b2a eabd d973 8d3d 1604 d7bd
00000240: 7a9e 803d 5342 36be 59fd f3bd 07fa d0bd
00000250: 048a a7be 8b02 5c3d 4779 2dbc 69fa 9abd
00000260: 8b0a a83d 3151 0d3e a32a 7ebd 4cb3 60bc
00000270: e0aa 193d 00f1 5f3d de1e 4e3b e6f1 9a3d
00000280: 8337 b83b 1475 703c 654d 30bd 3279 2d3e
00000290: c972 c5bc 8823 cebd c6d8 0cbe 881e edbc
000002a0: 09e1 d93c bdc3 58bd af07 d4bd c912 163d
000002b0: ed9a b8bd 620d ee3c 273e 613d 3ca2 c6bd
000002c0: bc64 75bd d72c 9a3d b779 c53d 6840 8bbd
000002d0: 0b4f 9fbd b2eb b33c c8da 223b dee1 09be
000002e0: d773 5bbe 20d7 783d 914e 96bc 4c04 043d
000002f0: c0b2 b2bd d4ae 533c c315 5ebd d877 88bc
00000300: 2db3 b23d 26ed f83d 6787 373d f3bd 053d
00000310: c4d2 ed3d a2ce 463d 478c 9f3d cd64 c7bc
00000320: 3762 9f3d 09f7 9abd 94bd 1abd c835 493e
00000330: cdbf 333e dcaf 07be c235 8e3d 457c 93be
00000340: ac34 f3bd ab1d 313d 48d7 3dbd a517 2abe
00000350: decf 81bd 0de5 d13d 78a6 6cbd f427 3f3c
00000360: 9c78 183e 1250 213d 3e8e 99bd d503 193e
00000370: 1b89 053d b166 39be 1e6d 61be 738b 1839
00000380: 016e 503e 44a5 73bd 5e11 d43c 1b8a dcba
00000390: ef07 0c3b 1d1e d13d 1db4 d3bd d84b 66be
000003a0: 7cf0 4ebe 0f66 88be 559f 98be acb0 643e
000003b0: 2772 b3be a4a3 1b3e e987 c63c e661 18be
000003c0: 345c f3bd a147 97be bc04 083e a651 303e
000003d0: 33f9 83bd 19be d33c 882a 543e 3df6 0e3e
000003e0: f278 e63d f780 abbc dc62 12bd 4f6f 02be
000003f0: 9e60 42be 1d2c 573d f655 8a3c 27d5 6439
-0.035183243 -0.134455 -0.03747552 0.042475887 -0.10017042 -0.06305182 0.14520055 -0.16796029
0.006859909 0.08268776 -0.03309332 0.070386656 -0.027918654 0.075672716 0.07820261 -0.025301361
0.010303622 0.057128012 0.015385464 0.1509209 -0.052085806 0.28659284 -0.010683296 -0.09467321
-0.01616826 0.090958074 0.061739642 0.14508206 -0.024886884 0.08769802 0.066838935 0.120971
0.23008952 0.08940255 0.04945556 0.16956052 0.11021856 -0.053062666 0.34392 0.04551176
0.10602632 0.08916189 -0.002407964 -0.046034466 -0.06500835 -0.034078926 0.1998541 -0.015534759
0.070674054 0.10609522 0.006472891 0.05283091 0.11376314 -0.07807246 -0.16981691 0.081388235
0.034293815 -0.02988847 0.18904018 -0.027056534 -0.07343144 -0.11058501 -0.00068229827 0.06834313
0.046032485 0.16298217 0.07995874 -0.022870736 -0.00020079642 0.029398745 -0.053859036 0.023826731
0.17733915 0.14441028 0.09725683 -0.07291014 0.0035120847 0.2073293 0.1257018 0.012680966
0.270772 -0.09266199 -0.034174357 0.096892826 0.07942194 -0.107998215 -0.0013984063 -0.034308884
0.06300371 0.15909876 0.01761183 -0.008660596 0.070305906 -0.03075278 0.09678035 0.037252042
0.07442904 0.058859434 0.18877888 0.09626084 -0.055250157 0.037294183 0.09338488 0.10721072
0.024963902 -0.044914223 0.1260689 0.13609135 0.062373906 -0.049136184 0.14086473 -0.012253988
0.114177756 -0.088508025 0.00096189405 0.12864932 0.0128779095 0.05855445 0.0058013024 -0.10451087
-0.022029148 0.0053225844 -0.006633916 -0.020091899 0.0128262965 0.11543302 0.19484927 0.13615054
-0.04028084 0.21123257 -0.095594436 0.0717434 0.15122703 -0.10923544 0.09917398 0.11382381
0.09034902 0.22880545 0.05761573 -0.12665145 0.036256433 -0.11433824 0.06906862 -0.10498826
0.06280227 -0.17798738 -0.119135566 -0.10203939 -0.32722485 0.053713363 -0.010587997 -0.07567293
0.08205136 0.13800503 -0.06205238 -0.013714623 0.037516475 0.054673195 0.0031451504 0.0756567
0.005621852 0.014676351 -0.04304256 0.16940764 -0.024102585 -0.10065371 -0.13754568 -0.028945222
0.026596563 -0.052921046 -0.10353028 0.03663901 -0.09013925 0.029059116 0.054990914 -0.096989125
-0.05991052 0.07528084 0.09642356 -0.06799394 -0.07778748 0.021962974 0.0024849642 -0.13465068
-0.21430908 0.060752034 -0.01834801 0.03223066 -0.087255 0.0129201 -0.054219972 -0.016658708
0.08725581 0.121546075 0.044806864 0.032651853 0.11612466 0.048536904 0.07790428 -0.024340058
0.07782405 -0.075666495 -0.037778452 0.19649422 0.17553635 -0.13250679 0.06943847 -0.28805748
-0.11875281 0.043241184 -0.046347886 -0.16610582 -0.06338476 0.10248766 -0.057775944 0.01166724
0.14889759 0.039383 -0.07497834 0.14942868 0.032601457 -0.1810558 -0.22014281 0.00014547798
0.20354463 -0.05948378 0.025887188 -0.0016825827 0.0021367033 0.10210822 -0.10337088 -0.2248987
-0.20208925 -0.26640365 -0.2980906 0.2233302 -0.3504803 0.15199143 0.024234729 -0.14881095
-0.11882821 -0.29546836 0.13283056 0.17218646 -0.06444015 0.025847482 0.2071935 0.1396112
0.11253537 -0.020935519 -0.03573881 -0.12737773 -0.18982169 0.052532304 0.016886692 0.0002182318

fc_layer.weight f4 [64, 64]
00000000: 7b29 c8be 6f25 0cbf 78d2 95be d780 b83e
00000010: 4f76 70be d2e0 eb3c 5d69 1d3e 0a46 c8bc
00000020: 84de 593e df22 d8be 2ca3 543f c388 c73e
00000030: 7512 a93e b9b3 3c3f 9607 c03e 9365 6bbe
00000040: e5af bfbe 1400 efbc e6c5 7c3e d343 28be
00000050: 0232 07be fbe6 18bf ece7 cabe 24fd 88be
00000060: 2c36 a8be 3cd3 fa3e ab37 873e 66e8 9ebe
00000070: 9919 8e3e c3ec 95bf cb80 29be be90 ac3d
00000080: f856 b9be cff9 bfbe 7ae6 91bf 4af5 4c3d
00000090: 4fbd 7ebe a48e 223f 6f2b 1dbf a49e 8b3d
000000a0: df4c adbf 7c62 09bf d4de 45be 9eb0 54be
000000b0: b3ec b2bc b565 c93d 3bd4 6cbe d6d7 923e
000000c0: 26d0 aebe 7a7c a43e c0bb 2d3e 0ddf e9be
000000d0: a9b1 d23e 7e7c 8dbf c95c ac3a 0043 463f
000000e0: 2439 123e af9d d0be 0c74 98be 7bbc 393e
000000f0: 8837 283e ba17 823e ef5c 5f3f 0db5 233f
00000100: 9d3c 2cbe 17ff 083e d7e7 113c 1ab0 1037
00000110: 2c2e 4a3f beaf 373f 635d 15bd 4b29 3b3f
00000120: 09b5 4f3e 3634 73bf 2062 1b3e 8eb6 103e
00000130: 5b6a c03d 8ee0 14bf 21c8 003e 40ec 45bf
00000140: 2e2d 163f 5187 c83e 230a f4be fa93 ca3e
00000150: 1be1 693f 4fd3 51bd 6b43 3a3f 447b 413f
00000160: 49b8 34be 0481 f7bd ff2f 35be a4ae 48be
00000170: d0a6 5abc d068 42bf 53de cc3e 1f12 0b3f
00000180: 258c 0bbe 78a8 263f cb54 b43d e639 4c3f
00000190: b587 883e 2fd4 183d 02af 9c3d cc23 023f
000001a0: 789d 4f3f 5eff 6b3e 664d 2ebf 00a2 35bd
000001b0: 9528 ecbe a809 583e 5932 813f 31e3 32bf
000001c0: cb65 12bf ec0e b33c 9324 023c 91f0 46be
000001d0: fb8b 4ebf 1dfd f0bc 2786 363e c20b b4be
000001e0: b802 30bd 623a f5be 9a58 8f3f 94e9 ec3e
000001f0: 895d 3e3f 2a85 00be 4ae8 6cbe 77c6 253e
00000200: 74e1 07be eed3 913e 23f5 e73d 6695 85be
00000210: cb07 62bf 2f19 4bbf f6ba 8bbd 8f65 09bf
00000220: e6e1 293f 82c3 213f fe5a b23e d41f 80bd
00000230: 175a ffbb 65b2 26be b8e7 bb3b 2fb3 0ebf
00000240: 9f20 553d ccd1 3cbf e48a fcbd a793 64bd
00000250: 04c5 02bf 1988 d1be 3de9 0bbf 90aa a63e
00000260: b1f0 303e 12d3 813d 16cd 403f 683c 1f3d
00000270: b4d3 07be f82d 663f 5ec3 6c3f 60c0 f3be
00000280: ce14 9abe dc17 0e3f e2fc 99be 29bf afbd
00000290: 0a89 dabd 8994 5bbf 93d0 a13c 2372 74be
000002a0: 8170 96bd 0356 923f 7d49 37bf 3dbf f7bc
000002b0: 3feb 5bbf f7c6 0a3c 8c51 1b3e f753 b63b
000002c0: dceb 243f 99b0 263f f448 24be 3730 a93e
000002d0: 3f13 05bf 32c5 38be 8baf c0be ee0a f43e
000002e0: 4f39 fd3e 334c 7e3f 8a05 a93d ce74 c1be
000002f0: a257 4e3f 4bde dabd 55ef 9f3f 8809 bcbd
00000300: 4f10 1bbf fc23 d1be 7a92 b4be 5f17 9b3e
00000310: 23c1 49be 9851 5a3d cc37 bf3e dccf aebc
00000320: a4d2 4b3e f9c1 f4be 8876 363f 0e9e 5b3e
00000330: f82b 253e e199 483f 650c 5b3e c91a 62bd
00000340: a192 e0be 5f85 88bc 9acf ad3e bdc3 21be
00000350: 62a3 193d 55af 38bf a547 bfbe 216e bbbe
00000360: 7f61 93be 19d0 093f 8739 193e 0ebb a8be
00000370: 78ea 983e a26f 88bf aace 23be ab03 95bd
00000380: 4f82 94be 751c e5be 8297 a0bf 78bb 88bd
00000390: 2c27 c3be 25e7 123f fbda 15bf 8007 343e
000003a0: 5853 94bf f3d7 3bbf 9e2c 31be 89f9 c9be
000003b0: 46ac 80be 7e3e 943e feca d4be 40b4 cc3e
000003c0: ac52 84be 8922 bf3e e17c 1e3e bb94 bbbe
000003d0: 6eb6 d43e 9748 96bf cf82 de3d e3bd 723f
000003e0: c9eb 4e3e ccdb 6bbe d53d a4be 91d1 dd3d
000003f0: 2615 873e 56ed 723e eacf 583f 520a 2f3f
-0.39094147 -0.5474462 -0.29262137 0.36035797 -0.23482631 0.028793726 0.15372224 -0.02444746
0.21276289 -0.42214105 0.8306148 0.38971528 0.33021894 0.73711735 0.37505788 -0.22987966
-0.37438884 -0.029174842 0.24684867 -0.16432123 -0.1320267 -0.5972745 -0.39630067 -0.2675563
-0.3285383 0.48989284 0.2640966 -0.3103668 0.27753904 -1.1712879 -0.16553037 0.08426045
-0.36199164 -0.37495276 -1.1398461 0.050038613 -0.24876903 0.634989 -0.613944 0.06817368
-1.3539084 -0.536659 -0.19323283 -0.20770499 -0.021841383 0.09833852 -0.23127834 0.28680295
-0.3414318 0.32126218 0.16966152 -0.45677987 0.4115117 -1.1053617 0.0013150211 0.77445984
0.1427961 -0.40745303 -0.29776037 0.18138306 0.16427433 0.25408727 0.8725118 0.63948137
-0.16819997 0.13378559 0.008905373 8.624071e-06 0.789767 0.71752536 -0.036466014 0.73109883
0.20283903 -0.9500154 0.1517415 0.14132139 0.09395286 -0.58155143 0.12576343 -0.77313614
0.5866269 0.39165738 -0.47663984 0.39566022 0.9135911 -0.05122691 0.7275912 0.75578713
-0.17648424 -0.12085155 -0.1769409 -0.1959787 -0.013345435 -0.7594118 0.4001337 0.54324526
-0.1362768 0.6510081 0.088052355 0.79775846 0.26666036 0.03731173 0.076505676 0.5083587
0.81099653 0.23046634 -0.6808685 -0.04434395 -0.46124712 0.21097434 1.009349 -0.69877917
-0.57186574 0.021857701 0.00794329 -0.19427706 -0.80682343 -0.029417569 0.17824613 -0.3516522
-0.042971343 -0.47896105 1.1198914 0.46271956 0.74361473 -0.12550798 -0.23135486 0.1618899
-0.13269597 0.28482002 0.11326053 -0.26090544 -0.8829314 -0.793353 -0.06822769 -0.5367059
0.6636032 0.63188946 0.34835047 -0.06256071 -0.007792722 -0.1627899 0.00573441 -0.5574216
0.052033063 -0.73757625 -0.12331179 -0.055804875 -0.5108187 -0.40924147 -0.5465277 0.32552004
0.17279316 0.063390866 0.75312936 0.038875967 -0.13264352 0.8991389 0.92485607 -0.47607708
-0.30093998 0.55505157 -0.30075747 -0.08581383 -0.106706694 -0.8577352 0.019752776 -0.23871665
-0.07345677 1.1432499 -0.7159651 -0.030242557 -0.8590583 0.0084702885 0.15167826 0.0055642086
0.6442239 0.65113217 -0.16043454 0.33044598 -0.5198249 -0.18043974 -0.3763393 0.4766459
0.49457785 0.9933502 0.082530096 -0.37784427 0.8060247 -0.1068693 1.2494913 -0.091815054
-0.6057176 -0.40847766 -0.35268003 0.30291268 -0.19702582 0.05330047 0.37347257 -0.02133935
0.19904572 -0.4780424 0.71274614 0.21447012 0.16130054 0.783598 0.21391447 -0.055201326
-0.4386187 -0.016665159 0.3394745 -0.15797324 0.03750933 -0.72142535 -0.37359348 -0.3660746
-0.2878532 0.53833157 0.14963351 -0.3295521 0.29866385 -1.0659068 -0.15996805 -0.0727609
-0.29005668 -0.44748273 -1.2546237 -0.06676382 -0.38115823 0.5738395 -0.5853726 0.17580986
-1.1587934 -0.7337639 -0.17302176 -0.39448193 -0.25131434 0.28953928 -0.4156112 0.3998127
-0.25844324 0.37331036 0.15477325 -0.3663691 0.41545433 -1.1740903 0.108647935 0.94820994
0.20207132 -0.23033065 -0.32078424 0.10830987 0.26383322 0.23723349 0.8469225 0.6837512

fc_layer.bias f4 [64]
00000000: ef59 aa3e d858 ce3d 7863 42be 045c c03e
00000010: 406b 083e 0868 b83e 6ad2 af3e ab17 4bbd
00000020: 61fe 1f3e 4c24 ac3e 4999 c63e 5d0b b53e
00000030: 66fb e63d 0b89 373e 5b1b 723e c48e 1abe
00000040: 1b8c 9cbd 68ea 4c3d a673 093e fffc b83d
00000050: 4560 cd3d 606e ddbc ffe1 3ebd 4778 733d
00000060: 7a16 8e3e 654d 763e d99b 333d 0b71 953e
00000070: c2f6 573e 6dca 953e 84b2 963d a541 493e
00000080: 08ee 963e 9a15 dabc ffaa 353e c540 343e
00000090: 6128 9a3d f1f9 973e 1143 d43d c440 f73c
000000a0: 199b 01be 3577 a33e e2de ba3e b6e9 603e
000000b0: 47d2 d33d 08d9 b73c b684 d7bd a39a b73e
000000c0: 7f27 ea3d 8b55 18be d6c9 b93e 859f 0a3e
000000d0: d74f 4a3e 1903 39bc 1a9f 953e b2b6 a53e
000000e0: fd5c 793e 0d5d bd3e 410e 4d3e 2683 783e
000000f0: 6a09 103e 88d8 673d 357f 493e cc15 8f3d
0.3327174 0.10075539 -0.18983257 0.37570202 0.13322163 0.3601687 0.3434022 -0.04958312
0.15624382 0.33621442 0.38788822 0.35360232 0.11278419 0.17923371 0.23643248 -0.15093523
-0.076439105 0.050028235 0.13423023 0.0903263 0.100281276 -0.02703017 -0.046602245 0.059440877
0.27751523 0.24052961 0.0438498 0.29187807 0.21090224 0.29256 0.07358268 0.19653948
0.29478478 -0.026621629 0.17741011 0.17602833 0.07527233 0.29682878 0.103643544 0.03018225
-0.12656821 0.31926885 0.3649817 0.21964154 0.103428416 0.022442356 -0.105233595 0.35860166
0.114333145 -0.14876382 0.362868 0.13537414 0.19757019 -0.011292242 0.29222947 0.32365948
0.24351878 0.36985055 0.20024969 0.24268779 0.14066091 0.056602985 0.19677432 0.06986579

output_layer.weight f4 [1, 64]
00000000: 44d0 6f3f dd97 a2bf 99ee 9abf d463 503f
00000010: 3c6c 693f 6190 5f3f 5d93 6f3f 6229 afbf
00000020: c67b b2bf 13e7 5e3f bb57 4f3f 51de 663f
00000030: f515 713f ce76 99bf bad8 9fbf c3ce a6bf
00000040: e908 c8bd b372 9ebf 4df5 6c3f 1bae a8bf
00000050: 27a4 a9bf 568c 93bd cf52 c9bf 4865 adbd
00000060: 25d2 603f 83e7 733f 8c15 99bf 9fa3 683f
00000070: 7312 aebf 8555 a0bf f46b aebf e9a8 96bf
00000080: bd00 733f c345 02bc 5e21 92bf 2fcb 98bf
00000090: 2bb4 a9bf aa51 703f 0871 a3bf 31be a4bf
000000a0: 5e15 743c a244 713f f644 5e3f 28ae bc3f
000000b0: d6eb 9cbf a377 afbf 182b 2f3d b435 623f
000000c0: f2f6 acbf 171e 093f f142 6b3f 424f 5b3f
000000d0: 6d94 743f f3f5 a9bf 8c15 563f dda7 773f
000000e0: a595 5f3f cba3 553f 807b ba3f 37e8 a9bf
000000f0: 6665 a4bf 0f73 a0bf 4c7e 743f 23da a3bf
0.93677163 -1.2702595 -1.2104064 0.81402326 0.9118078 0.8732968 0.93584234 -1.3684504
-1.3944023 0.8707134 0.8099324 0.9018298 0.9417413 -1.1989381 -1.2488015 -1.3031849
-0.097673245 -1.2378753 0.925618 -1.3178133 -1.325322 -0.07204501 -1.5728396 -0.084665835
0.87820655 0.95275134 -1.19597 0.90874666 -1.359938 -1.2526098 -1.3626695 -1.1770297
0.94923 -0.007951203 -1.1416433 -1.1937007 -1.3258108 0.9387461 -1.2768869 -1.2870542
0.014897672 0.9424535 0.86823976 1.4740648 -1.2259471 -1.3708385 0.042765707 0.88363194
-1.3512862 0.5356154 0.9189902 0.8566781 0.9553898 -1.3278183 0.8362663 0.96740514
0.87337714 0.83453053 1.4568939 -1.3273991 -1.2843444 -1.2535113 0.95505214 -1.2800945
