TimeGAN4paper/result/iter6000/model/OP_lag1_total1/torch_best_model.pt (torch, 87834 bytes, 7 tensors)

lstm.weight_ih_l0 f4 [256, 1]
00000000: 3461 b03d 337b 913d 43a7 f8bd 843f 363d
00000010: c520 e6bb 172a dc3c 1d42 3a3d eccc 653e
00000020: 3465 f73c ac3f b23d d432 c93d 692b c93d
00000030: d7f1 e5bd 1d5b 8abc 137b 0e3c c2ce 8e3d
00000040: 9f30 9e3d e69a e13d bed4 82bd 8576 71bc
00000050: 3076 7f3d f67a 323e c80e b8bc db5b 703e
00000060: cbfc 043e 1f71 b7bb 0933 da3d fb21 47bd
00000070: 02ff aebd 17c9 a3bc 5290 74bc 1f21 993e
00000080: 3766 673c 5628 f0bc e2a9 893b 807d 44bd
00000090: 13cc 963d d700 5f3e 1df9 243e a1f1 8b3d
000000a0: 54d9 a43d 6925 9fbc 107c d03d 2e23 27bd
000000b0: 9e5c acbc 0cc1 963d f9cc 863d 3c29 193e
000000c0: def3 f1bb ab63 9bbd e00e 213d c3d8 573e
000000d0: 3552 3d3e cda7 333e 27b9 a73d d08a 933d
000000e0: fdbe 163e 6dad 34bd e2c3 eebc d8da 1abd
000000f0: b6de 793b 352a 193d 00ee eabc 8b9d bb3c
00000100: d9b6 1f3d 81a4 cf3c 8af8 8c3d 2f5c ca3d
00000110: ee9a 193e c5ec 543e 1bfb 673b 075e 8eba
00000120: 1de1 4d3c 909e c73d 6374 a93c 27fb 6f3d
00000130: 4a25 223c 2794 04bc 076d 563c ed8b 2c3b
00000140: 225e 053b 6e80 043d b6ef f13d 63e9 633b
00000150: 189d 2e3c d13e bd3c 7f39 123c 985a 393c
00000160: abbe 5c3c c40f b4bb 1e27 443d 122c ed3d
00000170: 36b9 de3d 4805 5f3d 9c69 d53b c833 1a3c
00000180: 91b2 163c e6a9 4f3d cc02 f53a 8307 a83b
00000190: f2ff c23d c830 ca3c 2b55 a8ba e737 d03b
000001a0: 0567 fbbb db3f d03c fb81 13bc d7ef e1bb
000001b0: c8fa 163d 25f0 e23c fc51 1e3c fd14 ea3c
000001c0: d7ee 9a39 7f45 143e 2c7b 823c a049 ac39
000001d0: 90e2 273c a923 88ba 8ce6 ba3c 1203 2e3d
000001e0: f0a2 a73c 75e3 2f3d 9215 11bc 4a18 983d
000001f0: 4084 23bc 3082 2cbc 3db2 953c 7074 00bc
00000200: d2f9 93bd d18b c0bc 79c2 18bd 5a6b 183b
00000210: fc83 e1ba fa88 73bb 8963 af3d 575b e5bc
00000220: e1b9 e23c 1914 e3bc 41f3 173e 0e11 5a3e
00000230: 709e 743e 95fd 533d 0954 c33d a7e1 05bc
00000240: f291 fabd 0d80 babc 14c7 c93d d69d c4bc
00000250: 794d 55bc 3d55 9cbc e622 04be 313c f6bd
00000260: a32e 1cbd df93 973d 377b 093d 4de5 e2bd
00000270: d22d 653d 2ecb 6cbe d2d0 35bd 17c5 6bbe
00000280: 228b 39bc b7ac 11bd a3ce b2bd bcb8 21bd
00000290: 4c2a b6bd 9edc d73d 503e 98bd 35db 343c
000002a0: 734d f6bd 3838 143c 345b 493e ddea c8bd
000002b0: c11a e93d bfe2 aa3d a960 84bc 75f9 143e
000002c0: b5ba 1dbd ef2c 0abd b176 633c 347a e1bd
000002d0: cb92 1a3d 51a5 ef3d e8b4 c13c 6e4a a63d
000002e0: 61a8 cf3c 293e 323d 78cf 36bd f7cc 01bd
000002f0: f0f1 8fbd 1233 7e3d 10e5 1c3e ce82 f03d
00000300: 47d8 c73c 1a57 953c 513a 883c 5fa4 a93c
00000310: 37b3 923c 4543 d23d 2d51 8e3a eaaa a93d
00000320: 1646 b63d a8b7 bd3c 3aa7 09bc 42dc bc3c
00000330: 1165 403c 21f6 363d e63f ad3c 668c 563d
00000340: 79f9 d63d 6be9 ee3c a25f 093d d02d 193d
00000350: 9e61 e33c b0b4 043c 84ec e33d a7db ff3d
00000360: 5582 ad3c 311d 093c 2d04 243e cea2 e83b
00000370: bea2 c53c c6e2 5a3d 5317 b63c 9cd7 0e3d
00000380: fe88 753c 979c 073d 59a5 ab3b f563 3c3d
00000390: eb20 433c eaa5 cc3a a47d 063c 3abd 353e
000003a0: ad6e 8c3d 02c5 1a3d b503 613d c5f0 8e3c
000003b0: 40d3 213d 4104 803b 87f4 0a3c fa50 0e3e
000003c0: e3fe 123d 190e 7c3d 55f7 68bb 47d9 fe3c
000003d0: a041 913d 85a9 18bc 834f e33d c0e5 233c
000003e0: 0507 c83c 0580 a13c e268 513c f838 5f3d
000003f0: de69 4b3d 1601 9a3c 85fa 483c 8e63 7b3c
0.0861229 0.071035765 -0.12141278 0.044494167 -0.0070229494 0.026875539 0.045473207 0.22441453
0.030199625 0.08703551 0.09824148 0.09822733 -0.11227768 -0.01688915 0.008696335 0.0697303
0.077241175 0.11015873 -0.063882336 -0.01473773 0.06236857 0.17429718 -0.022467986 0.2347254
0.12987058 -0.005598202 0.106542654 -0.04861639 -0.08544733 -0.019993348 -0.014926987 0.29908082
0.014123491 -0.029316109 0.00420116 -0.04797125 0.07363143 0.21777664 0.16110654 0.068331964
0.080492646 -0.019427018 0.10179913 -0.040805034 -0.021040257 0.073610395 0.06582064 0.14957136
-0.0073838076 -0.075873695 0.039320827 0.21078782 0.1848839 0.1754448 0.08189612 0.07204211
0.14721294 -0.044110704 -0.029146139 -0.037806362 0.003812713 0.037393767 -0.02867794 0.02290227
0.038992736 0.025346996 0.068833426 0.09880864 0.15000507 0.20793445 0.0035397473 -0.0010861763
0.012565878 0.0974704 0.02068538 0.058589127 0.009896586 -0.008091963 0.013087518 0.002632852
0.0020350297 0.032349043 0.11813299 0.003477656 0.010657571 0.023101242 0.008924841 0.011313103
0.013473193 -0.0054950435 0.047888868 0.11580671 0.1087517 0.054448396 0.0065128338 0.00941176
0.009197847 0.050699137 0.001869285 0.0051278486 0.09521474 0.024681464 -0.0012842765 0.0063543203
-0.007672193 0.025421074 -0.009003158 -0.006895046 0.036860257 0.0277024 0.009663101 0.028574461
0.00029551118 0.14479636 0.015927874 0.0003286125 0.010246888 -0.0010386604 0.022815011 0.042483397
0.020463437 0.04294153 -0.00885524 0.07426508 -0.009980261 -0.010529086 0.018273467 -0.007840261
-0.07225384 -0.02350417 -0.03729484 0.0023257346 -0.0017205472 -0.0037160502 0.08563907 -0.027997656
0.027676525 -0.027719544 0.14838888 0.21295568 0.23888564 0.051755507 0.09537513 -0.0081714755
-0.12234868 -0.022766137 0.09852424 -0.024001043 -0.013018959 -0.019083614 -0.12903938 -0.12023199
-0.038130414 0.07401251 0.033564772 -0.11078892 0.0559519 -0.23124382 -0.0443886 -0.23024403
-0.011324676 -0.035565104 -0.08730819 -0.039482817 -0.08894786 0.10540126 -0.0743376 0.011038591
-0.12026491 0.009046607 0.19663697 -0.098104216 0.11382056 0.0834403 -0.016159372 0.14548285
-0.038508136 -0.03373426 0.013883279 -0.110096365 0.03773765 0.117014535 0.023645833 0.08119665
0.025348844 0.04351631 -0.04463145 -0.03168961 -0.07028568 0.062060423 0.15321755 0.11743699
0.024395121 0.01823001 0.01662937 0.020708261 0.017907722 0.10266737 0.0010857933 0.082845524
0.089000866 0.023158863 -0.008401686 0.023054246 0.011742846 0.04466832 0.021148633 0.052379988
0.10496802 0.029164037 0.03353847 0.037397206 0.027756508 0.00809972 0.11129096 0.12493067
0.021180311 0.008368776 0.16017218 0.007099486 0.024125453 0.053438924 0.022227919 0.03487359
0.014986275 0.03310832 0.005238217 0.045993764 0.011909704 0.0015613411 0.008208666 0.17747965
0.06857047 0.037785538 0.054935176 0.017448792 0.039508104 0.003906757 0.008481151 0.13898078
0.03588761 0.061536882 -0.0035547812 0.031109465 0.07092595 -0.00931776 0.1109915 0.010003507
0.02441741 0.019714365 0.012781354 0.05449769 0.04966151 0.018799346 0.01226676 0.01534356

lstm.weight_hh_l0 f4 [256, 64]
00000000: 929b 3dbd 5143 cd3c 9b1a febd a277 51bd
00000010: 1028 023c 9f0a cabd af9b 043e dbfd d63d
00000020: 7741 3e3e 38b6 7ebe 5216 693c 35f2 9a3d
00000030: 50c0 343e 54bd a8bd 26d6 893d 40bc b33d
00000040: 91f0 42be 48d2 2ebd 13d8 11bc f2a1 49be
00000050: 9653 193e e91d e0bd 9df6 a5bd 2798 fa3c
00000060: f373 c93c a1b3 62bb c21e 53be e367 d73c
00000070: 9f9a a63d 7575 083e 46a5 b7bd 4ec3 e9bc
00000080: 8e25 abbd 540e 26be adf6 2cbe 4117 81bd
00000090: 5a9a 27bb 682d 0b3d ac80 c6bb 76cf 433b
000000a0: d022 2c3d 2de6 323c 5dff 263e a9b7 15be
000000b0: c183 9a3d 4400 4f3c 4b2d cdbd a375 313c
000000c0: 8340 8ebd 6b97 6fbe d049 a83d 8296 383c
000000d0: 4c3b f9bc e525 143b 7a8e ffbd c8b1 7a3d
000000e0: d9a4 893d 563f 033d 51e8 01bd 8529 d839
000000f0: 8d22 40be eb96 9b3d f61a 243e a19e a23d
00000100: 08b6 2cbd 26a9 54bd 0814 cdbd e7a5 93bd
00000110: 5a16 76bc 27b7 f43d f7de 033d 2ea0 ba3d
00000120: fa38 063e 330c babc c12f 99bd 1b6b 44be
00000130: 0734 043e f9db e13c ccd5 56be 3c49 903d
00000140: 81a3 e13d 7f02 0a3e 30be e53d bba6 d73d
00000150: b7e5 32be 0e28 07be 9399 5c3e 319d be3c
00000160: 9a34 1cbe dc5c a43d 2155 243e 7d69 cd3d
00000170: 0a7f a5bd ac50 233d 04ea aebd 820e fb3d
00000180: 3140 cbbd d746 08bd bbcc 2c3d 30b2 da3d
00000190: 7e01 c7bb 8b0b d83d 83b7 72bd db78 123e
000001a0: 5ff1 c5bd 2496 d9bd 5de5 c3bc 6b08 ec3d
000001b0: 93e8 053e 6612 0c3e 8d77 253d 4a4e ddbd
000001c0: bbfd a6bd 3524 ddbd 7be5 85bd a211 cf3d
000001d0: 0f2a 0ebe dc6a 66bd 48e7 ab3c b6c2 a4bd
000001e0: 063b 8f3e 6a98 ba3d 0268 d93d f339 de3d
000001f0: 08fd 983c a74c 6fbd 0b72 843c e18f 9f3d
00000200: ef1d fd3c 2721 1e3e fafd 12be ea8e 703e
00000210: dc49 833e 777b 94bd ed33 6f3e 473a 1ebe
00000220: b416 d8bc 37b7 08bd 5519 d3bd 54c6 503e
00000230: 47a6 813e a9f9 2cbd d9e7 ad3c 0bb5 0e3e
00000240: b45d 0b3b bff1 fd3c d82e 303d f96d 97bb
00000250: 8e95 f23d 2dcf 533c b46b e03c f5e8 2a3e
00000260: 8e68 093d b803 343e 0a6c e2bd 3260 9abe
00000270: f42d 6d3e 8287 803d 5f81 b6bd 51cb 0abe
00000280: 83c0 8e3c cb92 73bd 3442 04be 0f87 a6bc
00000290: d442 83bd 30d2 08be 4a01 00bd 3b25 043e
000002a0: 260b 88bb 013e 1abe ab22 68bd 176c 96be
000002b0: 4ee6 58bb e3fd 02be bc15 6dbd 138b 9e3d
000002c0: 3726 123d dae9 02bd da3c 86bc c175 fcbd
000002d0: 2397 613d 70fe 0bbe e81e 9f3c 1c45 aebc
000002e0: 2105 33be 9c8b fb39 f369 20be 3600 353d
000002f0: d815 e4bd be15 553e 6a0d 8c3d c6b3 383e
00000300: 993b f6bc a25f 51be 6e9b 31bd dc77 fc3d
00000310: 8fd6 843e c1fd 73bc 816b 163e ca44 083b
00000320: cb26 da3d 1788 a93c 4748 14bd 7d2f 363c
00000330: a3bf deb9 1d43 da3d 5c8c 533d 54cf 9438
00000340: f2cb cdbd 4364 2b3c 7413 023e 81ff 71be
00000350: 2308 15be 4ea4 38be a999 f83b 8364 3a3d
00000360: 7a58 ef3a 0461 0e3e 089f 1b3e a989 a3be
00000370: d2a0 143c 52eb b23b 23f4 64be 796e abbd
00000380: 251c 14be f2de 2abe 5772 86be c724 e8bd
00000390: 76b9 66bd 9c1c 053e 2a89 87bd f317 513e
000003a0: d4a4 03be 074f 533d d4d6 fe3d 7030 1dbe
000003b0: c5b1 323e 640a 3d3d b313 2a3d 454b b63c
000003c0: 3ebd 81be 0e27 2abe c915 6a3e f0d0 883d
000003d0: ea04 33bd a312 2f3e bb7e 3f3e 8628 e83d
000003e0: c790 253e bf8d 5b3d 06a9 c0bd 64a6 6cbd
000003f0: 07db 45be bdeb 493e e77d 443d cb51 843e
-0.04629094 0.025056513 -0.12407418 -0.05113948 0.007944122 -0.09865307 0.12950014 0.10497638
0.1857966 -0.24874198 0.014226513 0.075657286 0.17651486 -0.082392365 0.06730299 0.0877614
-0.19037081 -0.04268101 -0.008901614 -0.19690683 0.14973292 -0.10943205 -0.081036784 0.03059013
0.024591422 -0.003459193 -0.20617202 0.026294654 0.081349604 0.13326056 -0.0896707 -0.028535511
-0.08356772 -0.16216403 -0.16890974 -0.063032635 -0.0025574178 0.03397885 -0.0060578194 0.0029878295
0.042025387 0.010919136 0.16308351 -0.14620842 0.07544661 0.012634341 -0.100184046 0.010831269
-0.069458984 -0.23397605 0.082172036 0.011266353 -0.030423783 0.0022605595 -0.12478347 0.0612047
0.06720895 0.032042824 -0.031715695 0.00041229665 -0.1876318 0.07597145 0.1602591 0.07940412
-0.042165786 -0.051919125 -0.10013586 -0.07209378 -0.015019977 0.11948996 0.032195058 0.09112583
0.13107672 -0.022710895 -0.074798115 -0.19181482 0.12910472 0.027570711 -0.20979995 0.07045218
0.11017514 0.13477515 0.11217916 0.10529848 -0.17470442 -0.13198873 0.21542959 0.023268314
-0.15254441 0.08025524 0.16048099 0.10029886 -0.080808714 0.039871857 -0.08540729 0.122586265
-0.09924353 -0.033270683 0.042187434 0.10678518 -0.006073176 0.10549077 -0.05925704 0.14303915
-0.096651785 -0.1062434 -0.02391308 0.11525043 0.13077001 0.13678893 0.040397216 -0.10805948
-0.08153864 -0.107979216 -0.065379106 0.10110785 -0.13883232 -0.056254253 0.020984307 -0.08044951
0.2797472 0.09111102 0.10615541 0.10850897 0.018675342 -0.05842271 0.016167661 0.077911146
0.030898063 0.15442334 -0.14354697 0.23492017 0.25642288 -0.072501116 0.23359652 -0.15451919
-0.026378013 -0.033377852 -0.10307566 0.20388156 0.25322172 -0.042230282 0.021228718 0.1393625
0.0021265568 0.030999063 0.043013424 -0.004621264 0.118449315 0.0129278125 0.027395107 0.16690429
0.033546977 0.17579544 -0.11055763 -0.30151516 0.23162061 0.06275846 -0.08911394 -0.13554122
0.017425781 -0.059466165 -0.1291588 -0.020328073 -0.06409231 -0.1336143 -0.03125123 0.12904827
-0.0041517196 -0.15062715 -0.056673687 -0.2937934 -0.0033096257 -0.12792163 -0.057882056 0.0774137
0.035680976 -0.0319613 -0.016386438 -0.12327147 0.055075776 -0.13671279 0.019423917 -0.021273188
-0.17482425 0.00047978468 -0.15665416 0.044189654 -0.11136979 0.20809075 0.06838496 0.18037328
-0.030057715 -0.20446637 -0.04336112 0.12327549 0.25944945 -0.014892043 0.14689447 0.0020792955
0.106519304 0.020694776 -0.03620174 0.0111197205 -0.0004248592 0.10657332 0.05164753 7.095808e-05
-0.10048665 0.010460916 0.12702733 -0.23632623 -0.14553885 -0.18031427 0.007586677 0.04550601
0.0018260621 0.13904196 0.15197384 -0.31940964 0.009071546 0.0054601813 -0.22358756 -0.0837068
-0.14463861 -0.1668661 -0.2625911 -0.1133514 -0.056329213 0.12999195 -0.06617959 0.20419292
-0.12855846 0.05158904 0.12443319 -0.15350509 0.17450626 0.046152487 0.041522693 0.022252688
-0.25339693 -0.1661646 0.22859873 0.06680477 -0.04370586 0.17096953 0.18700688 0.11335854
0.1616851 0.053601976 -0.09407239 -0.05777587 -0.19321834 0.19718833 0.047971632 0.25843653

lstm.bias_ih_l0 f4 [256]
00000000: d71d 483e 8571 903d 1ec3 563d 6299 4d3e
00000010: 4daf d43d 72b4 36bc a137 7ebd 197f edbc
00000020: 7677 113d 3e8c e83b 6701 283d 5fa2 ed3d
00000030: 2fd9 d3bc dd0c 153e 758c 033e d3d7 353e
00000040: f746 ad3d 4783 e03d 529f 91bd aa30 403d
00000050: aa93 bb3d fb0a 8f3d 4345 b53d 8129 af3b
00000060: fc44 1e3e 8304 08bd 4ad2 3a3d ca02 4ebd
00000070: f3d1 a33b 5706 863d 1942 583d 0667 c03d
00000080: a244 7a3c 803b 1a3e 3129 1a3d d214 f83d
00000090: 37c7 153e f64b ec3c 729b 31bd 9915 c63d
000000a0: b475 4a3d 610f 483d a732 b73c f5c0 123e
000000b0: 09d5 4a3e 44d0 5d3e 7bfd b8bd 55e4 733d
000000c0: 50d8 cebc 693d fbbd b2f2 a03d 3bb1 e03d
000000d0: efff 97bc b8be cc3c 8800 dd3d 7748 3e3e
000000e0: 0376 233e 34e9 d63d f464 fd3d f631 243d
000000f0: 9e2a edbc 3378 30bd 480b eb3d 72d4 dabd
00000100: 86bb 2bbb 6daa 91bd 6fc1 773d 4d8c c13d
00000110: 17a8 9cbb 4a93 a23d cc83 303d 4e85 2ebb
00000120: aca5 133c fdf1 a3bd 369c 8bbe 2e32 323b
00000130: beb1 f3bc 5f44 f33d eca9 903d 467e 9a3d
00000140: 3589 d63d 69ba 4a3d 8cab b53d 6361 f93d
00000150: 9817 e03d 4f6e 5dbc eb37 a53d 4d38 49bc
00000160: d0b6 f03d bb76 713d b912 26bd 51fc 613d
00000170: 3082 d43d f006 933d 41e2 f13d e724 743c
00000180: 004f 9bbd 48bf 4d3d bdc1 573e d07f c23c
00000190: 33eb 79bc dea6 f7bd 5859 113e 31df 043e
000001a0: fc81 1b3e b0f2 df3d a07a 173e a81c c23d
000001b0: c3a9 2e3e 0c54 53be b567 123e ee8c dbbd
000001c0: bba8 f0bc 165d eabd 4cb5 dd3d 9b80 fa3d
000001d0: 2e4b b63c 7c02 47bd 031e c2bd d03c 5c3d
000001e0: 1475 493d 4a8e 393d 9298 423e 3cbf c23d
000001f0: b9f1 113e 4a37 be3c e2ab a1bc d685 c93b
00000200: 43a8 aa3d 6b2a 63bd cda8 34bd 3c8d 69bd
00000210: efe1 a13d be08 fa3c 079a ec3d 1735 abbd
00000220: d2c9 943d e9d0 04be 6ddf 69be 7c22 2cbe
00000230: ca30 693d 277b a6bd 9dce 15be 6c55 aabc
00000240: 992d 4fbd 9270 673c 21ff cf3c f4d3 2a3d
00000250: 7f5e c13d 4e11 093e a411 f33d b8df 8d3e
00000260: b3b7 8d3d 3e5b 0bbc 39fc 4dbd 7a70 23bd
00000270: bf44 acbd e483 f63d 6477 96bd 995d 29be
00000280: ba87 8fbd 07d6 adbc bace b5bc fc98 abbc
00000290: 771c 163e 75d4 64be 5ea0 be3d b7bd 50bd
000002a0: d04c a83d 17f3 023e a8eb 043e b0f0 81bd
000002b0: 65dc 4b3c 1a09 8bbd 144a cd3d 2d40 30be
000002c0: 6462 ba3d 958a f83d 9539 153d adbc 7dbc
000002d0: 99fe b63d 334d d0bd 34ad 0cbe b2c8 1fbe
000002e0: 18fc b6bd de25 adbd 783b 903d 721e 9d3d
000002f0: 4bec 8cbd 27bc 88bd 8242 363d 7965 333d
00000300: 1b37 383e cbae 1f3d 4b67 3d3e 9148 163e
00000310: e5af a2bb 7eb8 6cbd 5a98 043e 35c4 8c3d
00000320: c6db e43d 5191 69bd 6e49 5c3a 7b0d ca3d
00000330: e26b 1e3e 7d6d 76bd b480 063c 8fa9 46bd
00000340: 58c2 0b3e a257 8e3c 306e 01bd 71ec f93d
00000350: f5a4 3d3d 8f31 16bd 33eb c3bc 7fb5 b23c
00000360: 96e1 5e3e 84a2 c83d 8c60 c23c 6701 253e
00000370: d437 03bd d775 22be 0309 b5bd 0fb5 163e
00000380: 495c b53d 4612 0fbe f5cd bfba a559 febd
00000390: 844a bb3d c678 473d 853d 033e 8116 c3bd
000003a0: c944 783d 020e 3bbe 5a91 27be 05c5 ae3d
000003b0: 8a51 a3be 715a d03d e930 5fbd 66b9 8d3d
000003c0: 43a4 d7bd b711 97be ff70 473e 2ba0 813d
000003d0: 7264 2ebd cd5e 7a3c 46c2 5dbd 020f 9b3d
000003e0: d029 8fbd b7d9 f23d e878 473e 5dee 9d3c
000003f0: 6338 68bd eeea a0bc daeb 0e3d fe3b d03c
0.19542633 0.07052902 0.052432172 0.20078042 0.103849985 -0.01115142 -0.06206477 -0.028991269
0.035514317 0.0070967963 0.041016962 0.116032355 -0.025860397 0.14555688 0.12846549 0.17758112
0.08460801 0.10962539 -0.07110466 0.04692141 0.09159024 0.06984516 0.08851101 0.005345524
0.15456003 -0.033207428 0.045610704 -0.05029563 0.004999393 0.06544178 0.05279741 0.0939465
0.015275152 0.1506176 0.03763694 0.12113346 0.14626776 0.028844815 -0.043361135 0.09672088
0.049428657 0.04884279 0.02236302 0.1433142 0.19807829 0.21661478 -0.090327226 0.059543926
-0.02524963 -0.122675724 0.078587905 0.10971304 -0.018554656 0.024993286 0.10791117 0.1858233
0.15962987 0.10493699 0.12372771 0.04008671 -0.028950986 -0.04308338 0.11476761 -0.10685052
-0.0026204302 -0.07112584 0.060487207 0.094505884 -0.00478078 0.079382494 0.04309444 -0.0026629749
0.009011667 -0.0800514 -0.27267617 0.0027190554 -0.02974784 0.11878275 0.0706366 0.07543616
0.10475389 0.04949418 0.088706106 0.12176778 0.10942 -0.013515069 0.08067306 -0.01228149
0.11753619 0.05895112 -0.0405452 0.05517227 0.10376394 0.071790576 0.11810733 0.014901376
-0.075834274 0.05023125 0.21069999 0.023742586 -0.01525383 -0.12092374 0.14194238 0.12975766
0.15186304 0.10934961 0.14792871 0.09478122 0.17056946 -0.2063753 0.14297374 -0.107202396
-0.029377332 -0.11443536 0.10825595 0.12231561 0.022252645 -0.048586354 -0.094783805 0.053768933
0.04918392 0.045301713 0.19003513 0.09509131 0.14252366 0.023219723 -0.01973528 0.0061499877
0.083328746 -0.055460375 -0.044106293 -0.057019457 0.079044215 0.030521747 0.11552816 -0.083597355
0.07265057 -0.12970318 -0.22839136 -0.1681003 0.056931295 -0.08128958 -0.14629598 -0.020792685
-0.050580595 0.01412596 0.02539021 0.04170604 0.09441852 0.13385507 0.11868599 0.27709746
0.069198035 -0.008505641 -0.050289366 -0.039902188 -0.0841155 0.12036875 -0.07346991 -0.16539611
-0.0700831 -0.02122022 -0.022193301 -0.020946972 0.14659296 -0.22346671 0.09307931 -0.050962176
0.08217776 0.12788044 0.1298052 -0.063447356 0.012442683 -0.06788845 0.10023895 -0.17211981
0.09100798 0.121358074 0.036431868 -0.015486878 0.089352794 -0.101709746 -0.13737947 -0.15603903
-0.08934802 -0.08454488 0.07042593 0.076718226 -0.06881007 -0.06676512 0.04449702 0.043797944
0.17989771 0.038985055 0.18496434 0.1467612 -0.004964816 -0.057793133 0.12948743 0.06873361
0.11174731 -0.05702335 0.0008403276 0.098658524 0.15470842 -0.06016301 0.008209396 -0.048501547
0.13648355 0.017375771 -0.031599224 0.12203301 0.046299893 -0.036668357 -0.023915863 0.02181506
0.21765742 0.097966224 0.023727678 0.16113816 -0.032035664 -0.15865265 -0.088396095 0.14717506
0.088554926 -0.13971815 -0.0014633524 -0.12419442 0.09145072 0.048699163 0.12816437 -0.09525777
0.060612474 -0.18267062 -0.16364041 0.08533672 -0.31898147 0.101735 -0.054490004 0.069201276
-0.10529377 -0.29505703 0.19476698 0.06329378 -0.04257626 0.015281391 -0.05414035 0.07571222
-0.06990397 0.11857932 0.19479716 0.0192787 -0.0566944 -0.019643273 0.034892894 0.025419232

lstm.bias_hh_l0 f4 [256]
00000000: 4c1a 923c 7234 c1bd 4935 36bd 0783 e13d
00000010: 6ec8 9fbd a230 8bbd 1d5a 1e3e 89a5 04bd
00000020: 776c 473d 8d14 2f3e 4819 a33c 7093 4d3e
00000030: 59b9 b8bc de00 873d 70a5 843d eef2 ef3c
00000040: 7789 7fbd e4ea ae3d bc03 413c e161 193e
00000050: 67d7 06bd 01d6 0d3e 791b bfbc 9321 26be
00000060: 1498 0f3e 4d27 a33d 219f 303d cd5e fb3d
00000070: 85b0 46bd 0f9f 473d 9ba7 f83d 8f1a 983e
00000080: 8fcd 233e 5510 a73d 491b fc3c 322d 2d3e
00000090: 3d20 103e 52e3 03be 2a51 c03a 4e83 373d
000000a0: 85c4 433e c89e 123e f9de b43d 8048 11bd
000000b0: 69be 37bd 1f7e 2e3d 889c 103d f5e1 983c
000000c0: 0cb1 733d d26e d3bd 09ca 2c3d 44a0 a03c
000000d0: b5f9 1b3e 0acb d3bd a397 9abb c2c3 813e
000000e0: bce9 323e c095 9bbd ba74 2b3e b94f 89bd
000000f0: be0b 28be c2d8 96bd 38ed 69bd 38e9 333d
00000100: 5ead 1a3d d0c7 0e3e beff 043e f681 99bb
00000110: 5bc1 b23d 9073 1e3e 8a9a 20bd 303b 5d3d
00000120: 4456 733d 8a93 ba3d fd2f ddbd 39ca 10bc
00000130: b074 023c 1e8d 2d3e e0ac 2a3e 82a2 3f3b
00000140: 5774 603e 2b6c 753c 4d90 ebbc 48c1 d93d
00000150: 3951 243e eca7 f3bd 0084 7d3d c7c9 e4bd
00000160: 8a14 9c3c 9f0c 323e be10 eabd 1198 f83c
00000170: a095 8b3d 47d2 a83d 8593 b73d 1b25 533d
00000180: 475d 1a3b f47d 843d 2031 613e d424 183e
00000190: 5058 52bd 1d7c 85bd 638d f43d c5e3 cc3d
000001a0: 6ddc c43c fdb6 a0bc 5390 0f3e d15a 003e
000001b0: 637c 38bc 23b6 46be 6b17 503e 7663 95bc
000001c0: 800a 113e ff1e 213d acb3 0b3e a306 953d
000001d0: cd09 c8bc ea4e 0b3d 4c8c cebd bfb9 6ebb
000001e0: 3483 b43c be5f 4e3d 2320 9e3c 708b eabc
000001f0: 60cc 873d 9690 fd3d e142 2b3e 1b3f 183e
00000200: f6d8 b23d 92dc 063e 4406 6ebd d799 813c
00000210: fceb b5ba 82df 9bbd 56bf be3d 8f52 bc3d
00000220: d88e d83d 2bc6 8e3d d5c3 eebd 878e 45be
00000230: 57dd 863e b7dc 0fbd cf6f e3bc 68e9 e6bd
00000240: 1e77 c1bc 6a95 933d 0b1f 63bd 8a38 d8bd
00000250: 9e99 7d3d e41f 1ebd 815f 523d 06ed 7c3d
00000260: f98c 233e 1a23 bb3d dc9a 7ebd bb77 a33d
00000270: 2e91 f9bb 7309 653c e98c c0bc 7410 1ebe
00000280: df2c fb3c 1526 4bbc 1a89 bbbc e636 fc3d
00000290: 387e 05bd 5cc9 e5bd 1b4e 3ebd 1e9b 093e
000002a0: 84ff 1ebb 341c 83bd b93a 9c3d 14a8 86bd
000002b0: 08cc cd3c c75f 83bd e63f 8a3d a494 53be
000002c0: 81dc 0fbe a9c4 a43c a39d 183e e8b2 8abd
000002d0: be26 f7bb ea68 523d 2b71 313d e39b 24be
000002e0: 1466 53be 1def bd3d 4a52 96bd c3ad c13c
000002f0: bfd4 0ebe a1ee 233d 8977 40bd 82a2 ac3d
00000300: 49e4 1d3d 71f6 ce3d 52c4 373d 7516 e43c
00000310: e648 a83b 1bf3 083e 05c0 9f3d 8ebd e03d
00000320: 6934 013e f6d3 613b 9dcd 3dbb 56c6 3f3e
00000330: bfa8 003e 48be 183b f86d 903d 83af 6dbe
00000340: f67b b33c e6ea dd3d 8687 f5bc 2834 12bd
00000350: e383 a5bc 19c6 b43d c7c7 05bd 3fa0 813d
00000360: ba37 fd3d ad8a 513d a147 a3bd 6ec6 703d
00000370: 666d 4b3b 7959 93bd f963 70be a35b 843d
00000380: e04c a83d c1a8 a8bd 9e27 193d 495d 813d
00000390: 9412 803d 737c b63d 28d3 b4bd 971b 10be
000003a0: 5a1b 05be 90d5 b7bd e736 76be f5c2 413e
000003b0: d386 bcbe db4b 323e 907c 8e3b 64e9 55bd
000003c0: ffb5 b5bd 0f80 e1be 876f e83d e40c 0b3e
000003d0: 7f3c 9abd e7f6 c53c ed62 a93d 1c57 0d3e
000003e0: ca7d 313d 9feb eb3d d2de 30bd d37b fdbd
000003f0: db96 eabd 24a9 633d 9417 193d 9bfe dbbc
0.017834805 -0.09433831 -0.04448441 0.110113196 -0.07801901 -0.06796385 0.15464063 -0.03238443
0.048687425 0.17097683 0.019909516 0.20075774 -0.022549318 0.06591962 0.06476867 0.029290643
-0.062386956 0.085408956 0.0117806755 0.14978744 -0.032920267 0.13851167 -0.02332853 -0.16223745
0.14022857 0.079664804 0.043120507 0.12273941 -0.048508186 0.048735674 0.12141343 0.29707763
0.15996383 0.08157412 0.03077473 0.16911772 0.14074798 -0.12879685 0.0014672626 0.044802956
0.19117935 0.14318383 0.08831591 -0.035469532 -0.044859324 0.042600747 0.03530553 0.018662432
0.059495017 -0.10323872 0.042184863 0.01960767 0.15231974 -0.10341461 -0.0047177835 0.25344664
0.17471975 -0.07596922 0.16743746 -0.06704659 -0.1641073 -0.07365562 -0.057110995 0.043923587
0.037762992 0.1394341 0.12988183 -0.004684682 0.08728286 0.15473771 -0.03920988 0.054011524
0.05940844 0.09110172 -0.10800169 -0.008837276 0.007962391 0.16948363 0.16667509 0.002924115
0.2191938 0.014979403 -0.028755331 0.106325686 0.16046609 -0.11897263 0.061893463 -0.111712985
0.019052763 0.17387627 -0.114289746 0.030345948 0.06815648 0.08243232 0.08963684 0.05154906
0.0023554133 0.06469336 0.21991396 0.14857799 -0.051353753 -0.06517813 0.1194103 0.10004381
0.024030888 -0.019618506 0.14019899 0.12534644 -0.011260125 -0.19405417 0.20321433 -0.018235903
0.14164162 0.0393362 0.13642758 0.072766565 -0.024418736 0.034010805 -0.10085353 -0.0036426631
0.022035219 0.050384276 0.019302433 -0.028630942 0.06630778 0.12381093 0.16724731 0.14867823
0.08732788 0.13170078 -0.058111444 0.015820427 -0.0013879533 -0.0761099 0.09313838 0.09195434
0.1057412 0.06971391 -0.11658446 -0.19292651 0.26340744 -0.0351226 -0.027763275 -0.112749875
-0.02361637 0.07206233 -0.055449527 -0.10557659 0.06191408 -0.038604632 0.05136061 0.06174948
0.15971746 0.091375545 -0.062159404 0.07981821 -0.0076161837 0.013979304 -0.023504691 -0.15435964
0.030661045 -0.012399216 -0.022892524 0.123151585 -0.032591075 -0.11220047 -0.046461206 0.13438079
-0.0024261186 -0.06401864 0.07628388 -0.06575027 0.025121704 -0.064147525 0.06750469 -0.2066217
-0.1404896 0.020113306 0.14903884 -0.06772405 -0.00754246 0.051369585 0.043320816 -0.16075091
-0.20644408 0.09274123 -0.07339914 0.023642426 -0.13948344 0.040022496 -0.046988998 0.084294334
0.038547788 0.10105599 0.04486496 0.02784274 0.0051356433 0.13373987 0.07800297 0.10973655
0.12617649 0.0034458614 -0.0028961666 0.18728003 0.12564372 0.0023306776 0.07052225 -0.23211484
0.021909695 0.10835819 -0.02997185 -0.03569427 -0.02020449 0.08826847 -0.032661226 0.06329393
0.123641446 0.051157642 -0.079726465 0.058782987 0.0031040548 -0.071948 -0.23475637 0.06462791
0.08217788 -0.08235312 0.037391298 0.06316621 0.062535435 0.089104556 -0.08829337 -0.14073025
-0.12998715 -0.08976281 -0.24044381 0.18922026 -0.36821613 0.17411749 0.004348345 -0.05222453
-0.088726036 -0.44043013 0.11349397 0.13579136 -0.0753107 0.024165584 0.08270822 0.13802761
0.043332852 0.115195505 -0.043181248 -0.12377133 -0.11454555 0.055581227 0.037376 -0.026854804

fc_layer.weight f4 [64, 64]
00000000: 21ab babe 4003 dabe e1b7 efbe 5891 033f
00000010: 5097 db3e 10b2 f6be 652a b03e 7764 cdbe
00000020: 77c8 d43e 51f6 aebe ebba 043f 347c 133f
00000030: db9b ff3e 8dd1 043f 38d3 063f 191a ab3e
00000040: b2cb a9be 0481 d8be 464f d43e c722 bfbe
00000050: af1b fdbe 5e03 b7be 2b09 c9be 1bc7 dabe
00000060: 3167 02bf 3438 ca3e 02a8 cf3e 1dbc fabe
00000070: e377 e23e 6e0a d8be 0418 efbe 82d5 98be
00000080: 802a 18bf de11 efbe 50cf c5be 5919 cbbe
00000090: 16e9 c5be 36f5 fb3e 81ca 04bf 3969 8c3e
000000a0: ae3a 04bf 4516 163f 42ed ec3e ae18 c6be
000000b0: 9fde 193f a2c9 da3e 03bc a0be 6c80 c83e
000000c0: 7558 cbbe 8f48 01bf 9a2d c33e 5058 f1be
000000d0: f8a3 d93e c984 0d3f ee3e 933e f0c7 cd3e
000000e0: 4820 c73e 7026 9b3e 668f 1bbf db72 babe
000000f0: e932 cbbe 072b de3e 75b2 053f 5d86 b33e
00000100: 6d83 0cbd 7599 58bc 6c38 713d f11b e83c
00000110: c7fe d0bd 3877 b03a 8802 d3bd f607 bbbd
00000120: 4c25 a93a a36f 7cbd 53f3 be3d a255 96bd
00000130: 1b0f 03bd d6b0 4c3d 569f e23c 0509 c13c
00000140: 5d05 043c f441 57bc 0c9d 96bd 225f 0a3e
00000150: 65c2 da3d c1a6 5ebd 44bb a83d 0f77 583d
00000160: ffef 9ebd 710f 89bd 85aa 4abc 42ff 8abd
00000170: 9eb3 b0bd 162a 1c3c 8c28 c9bd 902e 8dbd
00000180: 6139 e33c 022a 413b 8713 883d 3157 c23d
00000190: 2dcb bd3d f76e 97bd 8e2a dc3c 7bc7 5abd
000001a0: 2b37 2f3d a126 08be 4df7 b73d d3a8 b33d
000001b0: c1d8 31bd 08e4 71bd 253e e73d 0c70 693d
000001c0: c4a1 073e 0e4f 7ebd 8bd0 c8bd e56e cabd
000001d0: d2ee fdbc 6825 b03b 6975 b83d 142d 93bd
000001e0: 0c9e f5bd 8bbc b3ba 4479 ef3c 3368 493d
000001f0: 59c4 19bd a7c3 dfbd 8107 fcbd 0b7e f03d
00000200: 5b24 16be fa06 38be 60be 52bb 05df 54bb
00000210: 86d7 65bd 421b a2be bcca 6f3d d9ab bcbc
00000220: c310 503e 37be 32be 83ad 7b3d c33f f43d
00000230: de15 113e e2e4 8cbe e233 d93d e7af 5f3b
00000240: 29ee 003d cf8c 893e 3fb3 5abd eff1 0bbe
00000250: 2e19 21be 240e 84be 3a03 683e 9827 823e
00000260: 290a 443c 6216 30bc 6820 3c3e 3f76 b5bd
00000270: f151 debc 1ffd 9c3c 3ff4 a4be 7a7f 7abd
00000280: afbe 61be ee14 b4bd 7c9f 603d 3732 95bd
00000290: 9ec0 fb3d b7dd 6abe 22ba 853e 1f5c efbe
000002a0: fc9b b23d 3e1c 07bd 2139 42bd 142f 1cbe
000002b0: 259f 9c3e 58af 48be aa2e b13e 7401 233e
000002c0: 0d51 e6bd 5af5 62be 9e30 3abf 6ce4 0a3d
000002d0: bbd0 d0bc c633 38be a122 963e c708 8a3e
000002e0: 22e1 29bd 88f6 ff3d 356b ed3e 5dba 093e
000002f0: c902 043e 0d66 9abd 4b8c 2d3e 726c 8c3b
00000300: 1687 1ebf 6eb9 aebe 4f25 11bf 5e28 013f
00000310: 9430 193f 4707 04bf f9c2 183f 4a42 e3be
00000320: f272 eb3e 5aad e9be 9c29 e13e f483 e23e
00000330: 0ad1 c13e f3ef 1a3f 2c1b d33e 294f 0e3f
00000340: 9aaf e4be 9be9 efbe 85b6 113f f52a d6be
00000350: c983 c3be 85f0 02bf 66dc d5be 1886 14bf
00000360: 5736 01bf 7ec0 f73e 0d52 b13e de14 0bbf
00000370: 4b38 033f 6e66 bdbe 0fc8 01bf 0164 02bf
00000380: cbd1 10bf 4069 1abf b86a 0abf 41eb 0dbf
00000390: 37d9 12bf 7ccf fb3e e40c 0bbf 72c2 df3e
000003a0: 6e86 bfbe 39a0 e93e 58c2 093f eb0d 1dbf
000003b0: 6095 df3e 3186 223f 132f 0abf e89c 0f3f
000003c0: 33fe b6be 9b55 05bf c2bb d23e 50cc dcbe
000003d0: 6c8d f93e 7a4e 0d3f 9e10 e63e 8e87 1f3f
000003e0: 46fd fe3e f13d 083f d516 30bf 0114 ffbe
000003f0: 38c5 b3be ad19 ed3e 4b32 0a3f 781e dd3e
-0.36458686 -0.42580605 -0.46819976 0.5139365 0.4288888 -0.48182726 0.34407344 -0.4011571
0.41559193 -0.341723 0.51847714 0.57611394 0.49923596 0.5188225 0.52666044 0.33418348
-0.3316322 -0.4228593 0.4146673 -0.3733122 -0.49435183 -0.35744756 -0.39264807 -0.4273003
-0.5093871 0.39496005 0.40557867 -0.48971644 0.4423209 -0.42195457 -0.4669801 -0.29850394
-0.5943985 -0.4669332 -0.3863473 -0.39667776 -0.38654393 0.4921052 -0.51871496 0.2742403
-0.5165204 0.5862773 0.46274763 -0.38690704 0.6010532 0.4273196 -0.31393442 0.39160478
-0.39715925 -0.5050134 0.3812073 -0.4713769 0.4250791 0.5528074 0.2875895 0.40191603
0.38891816 0.30302763 -0.60765684 -0.36415753 -0.3968728 0.43392202 0.5222543 0.3506345
-0.034305025 -0.013220181 0.0588917 0.028333636 -0.10204845 0.0013463264 -0.10303217 -0.09132378
0.0012904792 -0.061629903 0.09323754 -0.07340552 -0.031996828 0.04997333 0.027663868 0.023563871
0.008057919 -0.013138283 -0.07354173 0.13512853 0.10681609 -0.054358248 0.08238843 0.052847918
-0.07760619 -0.06692398 -0.012369757 -0.06786968 -0.08628009 0.009531518 -0.09822187 -0.06893647
0.027737321 0.0029474501 0.066443495 0.09489287 0.09267268 -0.07394212 0.02687576 -0.053412896
0.04277722 -0.13295986 0.08982716 0.08772435 -0.043419603 -0.05905536 0.1129115 0.05699162
0.13245302 -0.06208711 -0.098054014 -0.09884433 -0.030997667 0.005375553 0.09006769 -0.07186332
-0.11993036 -0.0013712806 0.029232629 0.049171638 -0.037540767 -0.109259896 -0.12306119 0.11742791
-0.14662306 -0.17971411 -0.003215693 -0.0032481563 -0.056113742 -0.3166142 0.058542952 -0.023031162
0.20318894 -0.17455374 0.06144477 0.11926224 0.14168498 -0.27518374 0.10605599 0.0034131946
0.031477127 0.2686524 -0.0533936 -0.13666509 -0.15732262 -0.25792038 0.22657481 0.25420833
0.011965313 -0.010747524 0.18371737 -0.08860444 -0.027138682 0.019163666 -0.32217595 -0.061156727
-0.22045396 -0.087930545 0.054839596 -0.07284968 0.12292598 -0.2293614 0.2611857 -0.4674997
0.08721158 -0.03298592 -0.047417764 -0.15252334 0.30590168 -0.19598138 0.34605914 0.15918523
-0.11245928 -0.22163907 -0.72730434 0.033909246 -0.025490155 -0.179885 0.29323295 0.26959822
-0.04147447 0.12498194 0.46370855 0.13449998 0.12891687 -0.07538996 0.16948049 0.0042853886
-0.61924875 -0.34125847 -0.56697553 0.5045222 0.5983975 -0.51573604 0.59672505 -0.44386512
0.45986134 -0.4564007 0.43977058 0.44241297 0.37854797 0.60522383 0.41231668 0.5558954
-0.44665223 -0.46857914 0.5691913 -0.4182965 -0.38186482 -0.51148254 -0.41769713 -0.5801711
-0.5047354 0.48389047 0.34632912 -0.54328716 0.5125777 -0.3699221 -0.5069589 -0.50933844
-0.5657012 -0.6031685 -0.5406909 -0.55437094 -0.57362694 0.49181736 -0.54316545 0.43703038
-0.3740725 0.45630053 0.5381217 -0.6134936 0.43668652 0.6348601 -0.5397808 0.56098795
-0.35740814 -0.5208375 0.41158873 -0.43124628 0.4874071 0.5519787 0.44934553 0.62316215
0.49802607 0.53219515 -0.6878484 -0.4981995 -0.35111403 0.46308652 0.5398299 0.43187308

fc_layer.bias f4 [64]
00000000: f00b f63e 696d 29bd 54a3 cdbd 0d19 143f
00000010: 9b05 953e 1821 073f 3831 003f c2e6 023c
00000020: 20b4 f23d b664 003f aee7 123f ea19 033f
00000030: c5a5 863e 4ec2 913d 4a28 f93d 5d0f b3bd
00000040: 778b c13d 7382 98bd 8f00 903e 2573 d03d
00000050: d602 643d 292f 243e 2611 bc3d ec75 9b3d
00000060: ed6d e83e 5144 c83e a45a a2bd 9f81 ea3e
00000070: 52a5 bc3d 4cb6 853e ceca da3d 2d69 c03d
00000080: 25b0 e83e 90e8 e0bc dc6d bbbc 0830 a83d
00000090: 0900 6f3d 028f e23e 772c 7fbc 9160 05bd
000000a0: 1783 0dbe 4849 f03e 5b5d 0d3f 11da e13e
000000b0: a5d1 0bbe c165 b03d c04a 763e 380b 0a3f
000000c0: ddd5 063e a35b b63e f120 063f 9c5a a33e
000000d0: b5bf b83e 1a4a 023c 96d4 ee3e 7895 f23e
000000e0: 04eb d23e 1f8c 0d3f 1957 043f d6af 913e
000000f0: 550f 913c ab9c 1ebd 912d ba3e 7fa1 9bbd
0.48055983 -0.041364107 -0.10040918 0.57850724 0.2910584 0.5278487 0.500751 0.007989587
0.11850762 0.5015367 0.57384765 0.51211417 0.26298347 0.07117139 0.12165888 -0.08743165
0.09450429 -0.07446756 0.28125426 0.10178212 0.055666767 0.16033615 0.09182958 0.07590851
0.45396367 0.3911462 -0.079274446 0.45802018 0.0921122 0.26115644 0.10683213 0.09395061
0.45446888 -0.027454644 -0.022879533 0.08212286 0.058349643 0.4424973 -0.015574566 -0.032562796
-0.13819538 0.4693091 0.55220574 0.44111684 -0.13654192 0.08613158 0.24051952 0.5392337
0.1316752 0.35616788 0.52394015 0.31905067 0.3608376 0.0079522375 0.46646565 0.4737966
0.41194928 0.5529193 0.516954 0.28454465 0.017707506 -0.03872363 0.3636289 -0.07599162

output_layer.weight f4 [1, 64]
00000000: cd29 123f 65f1 a1bc 1fb4 14bf 922a f43e
00000010: e036 0e3f 6f13 023f de31 0c3f 302a 0bbf
00000020: e87d 88bf ccc0 073f 07d8 f93e 3386 0e3f
00000030: ae21 0f3f c8de 4cbf 2d70 3abf 5352 96bd
00000040: 0240 8bbf 3e67 5dbf b2fc 133f 308a 8ebf
00000050: 99d0 82bf 4795 8cbf 101e 8bbf 463d 26bf
00000060: 41ea 013f 7508 133f bdad 78bf 7ccd 063f
00000070: 0256 8bbf 7931 7fbf 37e2 88bf 57d7 24bf
00000080: c198 0e3f 3ebc bebb 8759 30bf 5493 7dbf
00000090: bbdc 99bd 5af3 123f 65a5 4dbf 5c9e 94bd
000000a0: 98ac cb3b c111 113f 0fef f83e 07cc 033f
000000b0: 6693 39bf 49e6 0bbf 8b90 883f 6126 fe3e
000000c0: cd02 44bf 5c0a 853f 5368 0c3f 8cda fe3e
000000d0: d435 0d3f 9a87 70bf 4a5f 003f 13ee 143f
000000e0: aae0 053f 1591 fb3e ae51 063f ffe2 82bf
000000f0: f460 65bf f528 95bf a335 173f 001e 3dbc
0.5709503 -0.019768426 -0.5808734 0.4768873 0.5555248 0.50810903 0.5476359 -0.5436125
-1.0663424 0.5302856 0.48797628 0.5567352 0.55910766 -0.8002744 -0.72827417 -0.07339921
-1.0878909 -0.8648566 0.5780746 -1.1135921 -1.0219909 -1.0983056 -1.0868549 -0.64937246
0.5074807 0.5743478 -0.97140104 0.52657294 -1.0885623 -0.99684864 -1.0694035 -0.6439108
0.55701834 -0.00582078 -0.6888661 -0.9905293 -0.07512804 0.57402575 -0.803305 -0.07256767
0.006215643 0.56667715 0.48619887 0.51483196 -0.7249054 -0.5464826 1.0669111 0.49638656
-0.76566774 1.0393786 0.54846686 0.49776113 0.5516026 -0.9395691 0.501454 0.5817577
0.52295935 0.49134126 0.52468383 -1.0225524 -0.89601064 -1.1653124 0.5906622 -0.011542797
