Conditional_TimeGAN/result/original/model/SL_lag1_total1/torch_best_model.pt (torch, 87834 bytes, 7 tensors)

lstm.weight_ih_l0 f4 [256, 1]
00000000: e8d9 8f3c f9ed 9d3d 834b afbc d3a9 15bc
00000010: f6d5 fbbc 4b18 2d3b 3f1f d33c 59ef 243e
00000020: 54ae 0e3c e0b6 623c 231f 163c b2d3 973b
00000030: 65ab 36bc 772c 09bc d867 da3b 0dbd 773c
00000040: 2474 203e ab0c c93c 2d69 05bc 2ff3 5f3c
00000050: e93e 053b a057 233e f8b4 18ba cd0a ec3a
00000060: 86b5 f73c 7f37 3cbc b629 353c 57ee a7bc
00000070: 6562 5cbc 448c 2bba be5e 04bc d389 233e
00000080: 96fa 5bbc a8a6 8abb b07c 1ebc 415e 56bc
00000090: 0465 473b 566a 283e c023 1d3e 42ea f93b
000000a0: ea85 55bc 99f4 3bba 2691 17bb 31d0 37bc
000000b0: 7e15 ecbb 1263 0a3c 3a9c c4ba 0f10 643c
000000c0: 1a96 e83b 8385 c6bb fedb 1a3d 5770 973b
000000d0: 7c87 153c b1bf 04bc b48a 14bb 897a 143b
000000e0: c94b 1f3e b9e6 9bbc d671 1c3e 2d9f 55bc
000000f0: f087 1ebb 705a 573c 9ab1 b7bb 119f 89bb
00000100: d42f 2a3c e82c ce3b 7606 6a3d 33eb cb3c
00000110: cdd0 c83c e8dd 6a3c e779 153b 6325 403c
00000120: d231 ad3c 8b8c 5a3d b11f d13d 9712 8f3c
00000130: b001 c03b 4c5f d4ba 35bf e23c b17b 39bb
00000140: 6bfa 0abc a02e de3c 989d 8c3c a785 c1bb
00000150: 6380 223d 5b25 7b3c f677 95bb dd50 a43b
00000160: 37ef 353c 0aa4 923c d582 f43b 79cd 1b3e
00000170: d7f1 523c 88e6 413c fab3 753c cf87 323c
00000180: 32c4 a43c 1ffb ae3c 3c04 0fbc 6190 85bb
00000190: d5ed f33c 68c2 1f3d c3f6 543c b944 963c
000001a0: 27b7 afbb ef7e 9a3b 4c04 ff3a b73f 10bc
000001b0: 69e4 403b fa90 9b3c b999 a0bb 77a7 9b3c
000001c0: c702 b83b 056b 1d3d f8d8 923c c2b7 a138
000001d0: 1b30 993b 637d 9e3c 6cf4 0e3c 51e8 e33c
000001e0: 3218 203e 6f8c c93c 4a63 053e 8901 953c
000001f0: 709b 20bc 42ff 0bbc f647 033c 0e1e c0bb
00000200: e0c5 e0bb bad2 d1bd d112 b2bd 1875 b13d
00000210: 1a80 cbbd 0795 4b3a b447 b73d 672a ae3d
00000220: 352b 013b fe23 873b 626c a03b 1c50 e33a
00000230: ba7e f23d 9507 be3d c40c f33d 6b35 6738
00000240: 66f8 e5bd 4494 41bc 8d31 bb3d b9d8 193b
00000250: 0e81 dcbc 022d c4bd 0094 efbd ec10 d8bd
00000260: ee8b b2bd 0cfd be3b 0e88 523c 02e5 f6bd
00000270: 23b2 b23d 8a52 c8bd fee2 1ebb a886 b1bd
00000280: 3992 05bc 639c c8bb bab8 e5bd 440a ddbd
00000290: bd55 5ebc 03e5 833c b583 cabc e8a9 9f3b
000002a0: 3a6a e6bd 65e4 6dbb a221 e13d fffc b2bd
000002b0: 362b e73d c288 b63b ae07 e7bd 4940 db3b
000002c0: 4fa9 2cbb abc4 9bbb 14b6 cc3d 54df cebd
000002d0: b05f 493b b643 84bb 16d0 b63d 8a5c ec3b
000002e0: 45c4 b73d 738d b33d 4687 b3bd 1a26 20bc
000002f0: 00f7 d2bd 8d57 b63d 2642 cb3d 7548 bc3d
00000300: 3b43 24bc f4ec bf3a 5041 8d3b 4191 54bb
00000310: aff5 39bc e9f2 92bb 8e6f 223b eed4 d2b9
00000320: 2cd6 373c 63f7 9d3b f8e5 153b 46eb c73a
00000330: 10dc 903c 0adf 4a3d e635 45bb 72f0 a13c
00000340: 1eaf 95bb 28a7 e93b d382 b83b 5464 c73b
00000350: 6179 413c 3b84 0ebc b00a 423c bdaf 163c
00000360: c2a9 2abc 0ea5 983a 3f58 523c 2abb 743b
00000370: 05ea a73a 374f 223e 982f 213e 2bfe 9cb9
00000380: ca11 113c 232e 973b 6b1f 853b 34f2 8e39
00000390: 8384 fd3a c4e1 0ebc 89bb f5bb 9230 a93c
000003a0: 1619 bf3c 0b3d 233e 0c74 223e 3810 a23c
000003b0: ec1c 883d 477f 20bc c981 96ba ceb7 223c
000003c0: 1f30 623c e1d2 0d3d 2d8d 0bbc 7ff5 46bb
000003d0: f13f 913c eae7 0d3b 5c87 f33b d4bc 183b
000003e0: c2d1 753c e28c 393c fdba 763c e8cf 833c
000003f0: fd97 5c3c 077d b43c 3b92 b53a a51d a53c
0.01755996 0.07711405 -0.021398311 -0.0091347275 -0.030741673 0.0026412185 0.025771735 0.16106929
0.008708555 0.013837546 0.009162697 0.0046333903 -0.011149262 -0.008372418 0.006665211 0.015120757
0.15669304 0.024542173 -0.008142752 0.013668819 0.0020331687 0.15951395 -0.0005825306 0.001800859
0.030237924 -0.011487841 0.011057308 -0.020499391 -0.013451193 -0.00065440335 -0.008079229 0.15970545
-0.013426444 -0.0042312928 -0.0096732825 -0.013083995 0.00304252 0.16446814 0.15345669 0.0076268027
-0.013032416 -0.0007169932 -0.0023127287 -0.01121907 -0.0072047105 0.008446472 -0.0015000172 0.013919844
0.0070979716 -0.0060583963 0.037807457 0.0046215462 0.00912654 -0.008102343 -0.0022665681 0.0022656044
0.15556253 -0.019030916 0.152778 -0.013038439 -0.0024189912 0.013144121 -0.0056058886 -0.0041998704
0.01038738 0.0062919743 0.057135068 0.024892425 0.024513626 0.014335133 0.0022808255 0.011727664
0.02114192 0.05335669 0.10211123 0.017464919 0.005859576 -0.0016202717 0.027679065 -0.0028302486
-0.008482556 0.027121842 0.01716499 -0.005905825 0.03967322 0.01532873 -0.0045614196 0.0050145225
0.011104397 0.017900486 0.0074618855 0.152151 0.012875042 0.011834748 0.014996523 0.010896637
0.020113084 0.021359978 -0.008729037 -0.004076049 0.029776493 0.03900376 0.012998286 0.018343316
-0.0053624096 0.0047148387 0.0019456237 -0.008804253 0.0029433018 0.018990029 -0.0049011377 0.019000752
0.0056155655 0.03843214 0.017925724 7.711306e-05 0.004674924 0.019346898 0.008725267 0.027820738
0.1563423 0.024603097 0.13026157 0.018189209 -0.009802684 -0.008544745 0.008012762 -0.005862958
-0.006859526 -0.10245271 -0.08694995 0.08664912 -0.09936543 0.0007766042 0.08949223 0.08504181
0.0019709591 0.0041241636 0.0048957327 0.00173426 0.118405774 0.0927879 0.11867669 5.512444e-05
-0.11229019 -0.011815134 0.091403104 0.0023475124 -0.026917007 -0.09578897 -0.11698151 -0.105501026
-0.08718096 0.0058285054 0.012849821 -0.120553985 0.08725383 -0.09781368 -0.0024244185 -0.08668262
-0.008152538 -0.0061221584 -0.112168744 -0.10792974 -0.013570246 0.016100412 -0.024721006 0.0048725493
-0.1125073 -0.0036299464 0.10992743 -0.087396614 0.11287539 0.005570502 -0.11280762 0.006691013
-0.0026346033 -0.0047536693 0.09995666 -0.1010119 0.00307272 -0.004036392 0.08926408 0.00721318
0.08972982 0.08767214 -0.08766036 -0.009774709 -0.10301018 0.08903418 0.09924726 0.091935076
-0.010025795 0.0014642761 0.0043107644 -0.003243521 -0.011350079 -0.0044845236 0.002478573 -0.00040212966
0.011220496 0.0048207506 0.0022872668 0.0015252612 0.017683059 0.049529113 -0.003009194 0.019767974
-0.0045679947 0.0071305223 0.00563083 0.006084958 0.011808724 -0.008698518 0.011843368 0.009197173
-0.01041645 0.001164587 0.012838422 0.0037343004 0.0012810832 0.1585053 0.15740812 -0.0002994401
0.008854339 0.004613654 0.004062583 0.00027264806 0.001934186 -0.008720819 -0.0074991626 0.020653043
0.023327392 0.15941255 0.15864581 0.019783124 0.066461414 -0.00979597 -0.0011482771 0.009931518
0.013805418 0.034624938 -0.008517546 -0.003035873 0.017730685 0.0021653124 0.0074319076 0.002330591
0.015003623 0.011325093 0.01505923 0.016090348 0.013463971 0.022032274 0.0013852784 0.020155737

lstm.weight_hh_l0 f4 [256, 64]
00000000: e219 edbb 653b a53e bbea 6cbd 52f7 6bbe
00000010: b50f 243e 6fd2 eb3d 45ef 30bd a4db 69bd
00000020: de6d 003d a7a1 69be 06d8 f3bd 2f7c 613d
00000030: 79f7 fdbb ddd9 97bd e5e8 7cbe 8a4f e93e
00000040: fa6e 883d 19e9 563e d79f 30be 7ef8 133d
00000050: 5aa6 9e3e 87aa 153d ff1d 923d 02c3 313e
00000060: bd6a 003e 389e 08be 93e2 95be c881 123d
00000070: b1d6 38be 160c 793e e43d a13d ea64 583e
00000080: bb20 103e 9c07 e63d 63f1 3dbb b436 853e
00000090: 5889 843e d599 2cbe 8496 083e d8fe 87be
000000a0: 5ee1 6f3e fb12 33be d3f5 d4bd 2a93 413e
000000b0: 3b6d 57be 43b4 a9bd 7fe6 d03d be24 0cbe
000000c0: ab25 d83d 501f 5ebd 96fc 15be e46b 963e
000000d0: f2a2 21bd eeb2 853e e486 0ebe 3b11 7abe
000000e0: a6cb 9bbd 5be6 6dbe adbe 16bd f440 173e
000000f0: 806c fc3c eb65 25be 1f06 02bd 1e9b 2dbe
00000100: 782a 163e 0972 f23d f04a e23c c420 01be
00000110: 85ca 343e 4aa3 4c3e 4777 85bc 1724 d8bd
00000120: 29f1 20bc 7569 e2bd b049 6abe 5239 52be
00000130: 2470 94bc e843 2bbd 4fea 4abe dda1 cd3d
00000140: 5fcf 623e 7c09 453e ea33 e8bc b638 453e
00000150: a932 8c3d f36d bd3d fb7a 273e 426e fd3d
00000160: 5c0d 8b3d 5d34 193e 6474 0d3d 4124 423e
00000170: b874 56be 4823 143e c26e 783d 0739 563e
00000180: 7f54 c43d 8dc8 f83d d751 1e3e 50cf 373e
00000190: b9d8 633d b2cd 97bd 27cd 373d d33e bf3a
000001a0: 5068 703d 7c7b 70bd 420f 58be 3b68 7c3e
000001b0: edc8 75bd d244 ec3c 3e04 5a3e 3a19 ccbd
000001c0: d16a 85bd 1963 d0bd 4f6f 52be c63f 3b3e
000001d0: bbff d6bd 6107 08bd 5d98 2abe 0f79 1cbe
000001e0: f456 523c e720 ecbc d454 ad3d 4026 613e
000001f0: 2fa7 2b3e 5a8f 8ebd 553d a7bd 13a7 24ba
00000200: 4b13 03be 267d 59bb 4fe1 b6bd 1633 813e
00000210: f59d 3fbe 012a 02bd e128 2a3e bde6 053e
00000220: ca23 973d 3cb1 9abe 811a 393d bdb6 353e
00000230: a547 493e 9287 923d 7dfa 933d b976 803d
00000240: 5f37 c4bd c6be 32be b6f7 2c3d 3183 2ebd
00000250: c81a e0bd 77bf 9abe 9c1f dfbd 65c6 b0bd
00000260: fcd5 75be 5f72 303d 11f3 763c 0946 25be
00000270: 268e 6c3e d9bf 9fbd fc9f c9bd 8b12 6abe
00000280: 532a 3ebc 9563 5c3e 5a5b 05be ebde ce3b
00000290: 67b6 23be 4922 ea3d 9f14 2abe 38e4 2fbd
000002a0: 44ba 83bd 7b78 4bbe 0706 b93d 98c2 43be
000002b0: 8219 203d 9e5f 963d 57b8 87be 018c d63d
000002c0: f932 7c3d 369e 25be 0b3b b53d 307b 60be
000002d0: d24b f33e 1e41 5dbe ff31 dd3d 48d2 9abc
000002e0: 787f 653b ee13 86bd 7141 5fbe a5ad 7b3c
000002f0: 0989 5dbe 1412 793e 8a49 8a3c 1d04 363e
00000300: 5ab7 f2bd a023 72be 7a52 e93d 5ff4 7b3e
00000310: 8d09 9bbe 64bd 863c 5b88 213e de90 773e
00000320: b06e 103e 9a81 653e 6ffa 4b3d 1e5a 9bbe
00000330: c7ab 4c3e 293e 4a3c 2f2f f53d 998a 383c
00000340: e90b bdbd 7d1b 39bd b4f1 993d 80bb 69be
00000350: fadc 5cbe 2b8a 23be 2178 0ebd 16c0 84bc
00000360: 7426 05be 7697 0d3d 71f4 2d3e b3cd 55be
00000370: 1054 ae3e 6b3a 513d d6fa 6bbe 50c6 87bd
00000380: f84a 19be 4f75 04be e1e5 70be d777 bd3d
00000390: d71a febd 36d7 363e 7d9d 2ebd 53e2 403e
000003a0: 39a3 1abe b63f 8dbd 8a34 353d 96be 323e
000003b0: fd78 0a3e 9217 903e 6b6b 013c 1c8e 033e
000003c0: ef07 0fbe e2c3 8cbd 830c 4d3e 6036 7abd
000003d0: 9f86 fcb9 d90b 18be 1662 523e 9d6a 663d
000003e0: 49fc 873e 201e 883e 485f b63d 5a93 62be
000003f0: a83d 0bbe f038 303e 4ef8 8f3d d4ab 323e
-0.0072357515 0.32271877 -0.057841044 -0.23043564 0.16021617 0.115147464 -0.043196935 -0.05709423
0.031354778 -0.22815572 -0.119064376 0.05505007 -0.0077504483 -0.07414601 -0.24698217 0.45568496
0.06661792 0.20987357 -0.17248474 0.036125652 0.3098629 0.03653958 0.071346276 0.17359546
0.12540717 -0.13341606 -0.29274425 0.0357683 -0.18050648 0.24321017 0.07873133 0.21132246
0.14074986 0.1123192 -0.002898299 0.26018298 0.25886035 -0.16855557 0.13338667 -0.26561618
0.23425815 -0.17487709 -0.1039845 0.18903795 -0.21037762 -0.08286335 0.10200214 -0.13685891
0.105540596 -0.05422908 -0.14647135 0.2937919 -0.039462037 0.26113075 -0.13918644 -0.24420635
-0.07607202 -0.23232405 -0.036802936 0.14770871 0.030813456 -0.1615216 -0.03174412 -0.16953704
0.14664638 0.11838157 0.027623624 -0.12610155 0.1765538 0.19984165 -0.016292227 -0.105537586
-0.009823122 -0.110552706 -0.22879672 -0.20529678 -0.018119879 -0.041812807 -0.19815944 0.100406386
0.22149418 0.19241899 -0.028345067 0.19259915 0.068456 0.09249487 0.16355507 0.12374546
0.067896575 0.14961381 0.034534827 0.18959142 -0.20942962 0.14466584 0.060652502 0.20920192
0.09586429 0.12147627 0.15460907 0.17950177 0.055626605 -0.0741228 0.044873383 0.0014590867
0.05869323 -0.058711514 -0.2109957 0.24649136 -0.06000607 0.02884141 0.21290681 -0.09965749
-0.06514514 -0.101751514 -0.20550273 0.18286046 -0.104979955 -0.033210162 -0.16659684 -0.15280555
0.012838114 -0.028824283 0.08463445 0.21987247 0.16762994 -0.06960936 -0.08165995 -0.00062809995
-0.12800328 -0.0033186167 -0.08929693 0.25234288 -0.187126 -0.03177834 0.16617157 0.13076301
0.07379873 -0.30213344 0.04519129 0.1774549 0.19656236 0.07154764 0.07225511 0.062726445
-0.09580874 -0.17455587 0.042228423 -0.042605583 -0.10942608 -0.302242 -0.10894701 -0.08631591
-0.2400741 0.043077823 0.0150726 -0.16139998 0.231011 -0.07800264 -0.09844968 -0.22858636
-0.011606771 0.21522363 -0.13023129 0.006313195 -0.1598755 0.114323206 -0.16609429 -0.042942256
-0.06432012 -0.19870178 0.09034353 -0.191172 0.039086826 0.07342456 -0.26507828 0.104759224
0.06157205 -0.16173634 0.08849152 -0.21921992 0.47518784 -0.21606871 0.108005516 -0.018899098
0.0035018604 -0.0654677 -0.21802308 0.015361224 -0.21634306 0.24323303 0.01688077 0.17775007
-0.11851378 -0.23646402 0.11392684 0.24604939 -0.30280724 0.01644773 0.15774672 0.24176356
0.14104724 0.2241272 0.04979938 -0.3034219 0.19987403 0.012343922 0.1197189 0.011263513
-0.09230787 -0.04519223 0.07516804 -0.22825432 -0.21568671 -0.15970676 -0.034782533 -0.016204875
-0.1300295 0.034568273 0.16987778 -0.2087925 0.3404851 0.051081102 -0.23044905 -0.06629622
-0.14970005 -0.12935375 -0.23525192 0.09251373 -0.12407463 0.17855534 -0.04263066 0.18836336
-0.15101327 -0.068969175 0.04423956 0.17455515 0.13522716 0.28142983 0.007899146 0.12847179
-0.1396787 -0.06873299 0.20024304 -0.061087012 -0.00048165486 -0.1484827 0.2054523 0.056254018
0.26559666 0.26585484 0.08904892 -0.22126523 -0.13597739 0.1720922 0.07029782 0.1744836

lstm.bias_ih_l0 f4 [256]
00000000: 916b 1e3e 8526 b63d 3221 ea3d 273f 663e
00000010: c19e 813e 79d2 4bbe 9968 23be 7913 b7bd
00000020: 0965 d3bd 2260 89be 0d9d 30be 5225 89bc
00000030: df84 da3c 7240 5c3d 2437 be3d 6f50 613d
00000040: 4b39 303e e4f8 d7bc 3e82 72bc f978 1fbe
00000050: 48dc 6fbb 1ee8 f93c ece5 80bc 1aa4 57bd
00000060: 53a8 2e3a e0a4 febd 9b27 8dbd b607 8c3b
00000070: ba47 a23d b7e1 bcbd 8386 a33d 92c1 c2bd
00000080: 8c2d 2d3b ec07 2d3e fcd7 ad3d 930d 483e
00000090: b681 3a3d 3afe 5a3d 7701 783e cdfa 56bd
000000a0: 17d7 a23c 60ec 9c3d 2886 27be d4e2 483e
000000b0: 46b3 d33d 3596 273d 70ed 79be 3f2e 63be
000000c0: 1bed f0bd 3cf2 37be 940e 3b3c 1dd5 01be
000000d0: bc22 20be 0266 263d 2dc0 50bc a7d0 6dbd
000000e0: 9123 1f3e 74f4 3a3e 23c2 8e3e b897 813d
000000f0: 06fc 1ebd add7 f4bd 4f51 cdbb b84e 5cbe
00000100: 31b5 56bc 41b0 2fbe 86e1 5abb 1ce7 19bd
00000110: ff84 e7bd d101 96be d971 b1bd af24 04bd
00000120: 32b2 2abe 4486 8bbe e3c0 05be eae5 66be
00000130: fbd1 ecbd e2b1 e33d 09df 5bbe 2f61 9b3d
00000140: afdd 043e 702b 0abe 79b1 88bd d271 683e
00000150: d3c4 eebc 0eb3 253d dac1 613d 914c 62ba
00000160: 7938 c7bc 0b22 87bb 666c b2bd 43e0 393d
00000170: eb05 8bbd 63a2 3dbd 0d4f 0f3e b585 753d
00000180: 5fd6 54be a5b7 05bd 4114 553e 3d17 0a3c
00000190: 33be b6bd 1df1 03be f784 63bc 22d3 55bd
000001a0: 976d 383e 6915 a33a fbd0 bb3d 36b3 3f3e
000001b0: 8eb2 643d 4089 3fbe a521 c2bc 6aa1 7abe
000001c0: 4d36 a3bd 01fb 7cbe 53a6 02be 53b4 8e3d
000001d0: f3f5 a83d 5657 c7bd ab47 50be c0eb c4bd
000001e0: 1044 78bc 6ef2 36bd 6e05 ac3e 85ce 273c
000001f0: 59f0 793e eddf 343d 8469 2bbe c5f9 d2bc
00000200: b4c7 a43d f617 8cbd f0f2 72bd 094e 0dbd
00000210: d38e e43d 57ad cc3c b472 cd3d 2311 02bd
00000220: 4209 073b b8d5 a1bc 37f2 5fbe 54f6 0dbe
00000230: 4484 eebd 3d03 b8bd 080b acbd 6f2e c3bd
00000240: 441d 29bd b710 633b 0470 a63c 750c a83d
00000250: e708 cf3d 047d c23d 20ac 31bc 7ad3 cb3d
00000260: 51ec 2cbc ef3d b5bd 2c56 b0bd fca7 4dbd
00000270: d151 44bd d0fb f63c abe7 9fbc 5411 e03c
00000280: 391f 63bd cc27 173d 201e 94bc 1c33 65bd
00000290: 69a6 053e ce95 0fbe bbbe 2a3e 9809 2abe
000002a0: 08dc 973d 3bab 343e e85b efbc b136 2abc
000002b0: 00d5 6fbb 5a7a f2bc e08a f73b 91b4 2dbe
000002c0: b4a2 083e a3c9 253e 509a 07bc e2b7 82bd
000002d0: 7ab0 973c df62 d4bc 1a08 91bd f835 1fbe
000002e0: 62de 0f3c 4966 3fbd e7e7 873d d226 053e
000002f0: fc85 5abd bca1 44bd 528c b93d a32f 83bd
00000300: ecbd 803d 8760 66be e84b eb3d 01b9 b2bc
00000310: 3044 7c3e 0790 60be 1aaf 33be 187c 5bbe
00000320: e456 4bbe 7bff 2ebe 1342 8cbe 9ec8 4fbe
00000330: 0aa2 28be b94b 13be a7cb 87be ec44 6fbc
00000340: 98cb 27bc 4988 4dbe 1a38 12be d80c 02be
00000350: ca7c 6bbe c943 0bbe b32b 99be 66dc 84be
00000360: 32b1 8a3d 07c3 27be 33d9 30be bc96 483d
00000370: 170b 4ebe 2e03 043a b066 053e 3c23 b2bd
00000380: ecf7 963d 0e00 93bd 0d15 83be 45cf 0abe
00000390: feee f0bd 6bdb aebd 0284 f4bc 19a4 c7bd
000003a0: 1540 43be 2a7c babc 18d7 143d 972f d2bc
000003b0: 0454 d3bd 241c 803e 4048 70be 6bd0 a1bd
000003c0: 368b fbbd 16a1 25bd a4cd 783c a68c ddbd
000003d0: a706 e0bd d98f 58be 2e04 88be 0b64 b2bb
000003e0: f9cf bcbe 5a20 17be 2a43 2fbe 8e14 9b3d
000003f0: a9bc e4bd 9b20 9abe 1f7a d5bd 30bf 4bbe
0.15470721 0.08894066 0.11432113 0.22485028 0.25316432 -0.19904508 -0.1595787 -0.08939261
-0.10322005 -0.26831156 -0.1724741 -0.016741429 0.026674686 0.053772397 0.09287861 0.055008348
0.17209356 -0.026363797 -0.01480156 -0.15573491 -0.0036599804 0.03050619 -0.015734635 -0.052646734
0.00066626555 -0.12433791 -0.0689232 0.00427338 0.07923837 -0.09222739 0.079846404 -0.09509577
0.0026424853 0.16897553 0.084884614 0.19536428 0.04553386 0.053465106 0.24219309 -0.052485276
0.019877953 0.076622725 -0.1635977 0.19617778 0.10336928 0.040914733 -0.24406981 -0.2218561
-0.11763974 -0.17963499 0.01141705 -0.12678953 -0.1563825 0.040624626 -0.012741131 -0.058060315
0.15540911 0.18257314 0.2788249 0.06327766 -0.038814567 -0.119551994 -0.0062657963 -0.21514404
-0.013104723 -0.1715708 -0.0033398583 -0.03757392 -0.11304664 -0.2929826 -0.08664293 -0.032261547
-0.16669539 -0.27250874 -0.13061862 -0.22548643 -0.11563488 0.11117913 -0.214718 0.07586896
0.1297519 -0.13493133 -0.06674475 0.22699669 -0.029146587 0.040453963 0.055116512 -0.0008632625
-0.02431892 -0.0041239313 -0.087120816 0.04537989 -0.06788238 -0.046297442 0.13994999 0.059941966
-0.20784901 -0.03264584 0.20808508 0.008428392 -0.08922996 -0.12884946 -0.013886682 -0.052203305
0.18010555 0.0012442294 0.09170719 0.18720707 0.055834346 -0.187047 -0.023697684 -0.24475637
-0.079693414 -0.24705125 -0.1275876 0.06967988 0.08250036 -0.09733455 -0.20339839 -0.09615278
-0.015152946 -0.044664793 0.33597893 0.010242109 0.24408092 0.044158865 -0.1673947 -0.025753865
0.08045903 -0.06840508 -0.059313715 -0.03449825 0.11160054 0.024984999 0.100316435 -0.031754624
0.0020604883 -0.01975523 -0.21869741 -0.13863498 -0.116463214 -0.08984993 -0.084005415 -0.09530341
-0.041287675 0.0034647414 0.020317085 0.08205501 0.1010912 0.09496501 -0.01084426 0.09952445
-0.010554389 -0.088497035 -0.08610186 -0.05020903 -0.04792959 0.03014937 -0.019519648 0.027352013
-0.055449698 0.036903188 -0.018080771 -0.055956945 0.13051762 -0.1402199 0.1667432 -0.16605222
0.074150145 0.17643444 -0.029218629 -0.010389016 -0.0036595464 -0.029599357 0.007554397 -0.16963412
0.13343316 0.161902 -0.008276537 -0.06382729 0.018516768 -0.025926052 -0.070816234 -0.15547931
0.008781048 -0.046728406 0.06636029 0.1300309 -0.053350434 -0.048005804 0.09059967 -0.0640557
0.06286225 -0.2249776 0.11489087 -0.021816732 0.24635386 -0.21929942 -0.17547265 -0.21434057
-0.19857365 -0.17089646 -0.2739416 -0.20291373 -0.16468063 -0.14384355 -0.26522562 -0.014603835
-0.010241412 -0.2007152 -0.14279214 -0.12700212 -0.22996822 -0.13600077 -0.29916152 -0.259494
0.067720786 -0.16382991 -0.17270355 0.048971877 -0.20121418 0.0005035874 0.13027453 -0.08698127
0.07371506 -0.07177745 -0.25601998 -0.1355563 -0.11764334 -0.085379444 -0.029848102 -0.09748096
-0.19067414 -0.022764284 0.036337942 -0.025657458 -0.10318759 0.2502147 -0.23465061 -0.07901081
-0.12282412 -0.040436827 0.015185747 -0.10817842 -0.10938769 -0.21148624 -0.2656569 -0.005444055
-0.3687742 -0.14758435 -0.17115465 0.0757228 -0.111687966 -0.30103 -0.104236834 -0.19897151

lstm.bias_hh_l0 f4 [256]
00000000: 2778 bbbc df7f 9bbd cc97 8e3c c367 093e
00000010: 4704 923d a4ff 82be ddfb 693d 6f06 bebd
00000020: bc69 b8bd c8e1 d5bd 673a 46be 073b 8b3d
00000030: a9a4 f53c b8e2 d3bc 1e0e ef3c c00a bfbd
00000040: 349c cd3c 352d 4fbd 496f 8b3d b28c 58bd
00000050: 3e3f 03be ed1a cb3d 91a2 02be af83 61be
00000060: 0fe4 5fbc 75da 3bbc 1741 92bd 9a90 353e
00000070: 03c9 d23c 9e18 dfbd 0707 183e 9a41 dd3d
00000080: 43de 163e 76a9 cc3d 36ca 9f3d 7e30 793e
00000090: c3e5 233d a95a d5bd b6f4 923e 06d1 d5bd
000000a0: 7d82 253e cb10 2f3e cbf9 c7bd 4b7e 8e3c
000000b0: 07eb 0ebe 3f4b 08be 2f8f f2bd 6785 86be
000000c0: 31bd 06bd 070b 24be 08b0 ccbc cb18 5ebe
000000d0: 746c 6d3c 53c8 b3bd ac60 00be 04a8 1c3c
000000e0: 5897 2e3e 47dc da3a 5e23 a53e bf9f 33bd
000000f0: cd24 32be e1b9 19be 4f6b 36be a4d4 83bd
00000100: 9c77 df3c 89b2 1f3d 8747 873d 370c 0cbe
00000110: 78e2 abbc 25da 5ebe a200 2dbe d7fd c73c
00000120: a12d eebd f492 cfbd 1b80 0b3d 5ebb 72be
00000130: 5996 9fbd 34c4 253e 0e0e f3bd dcf1 5b3b
00000140: 820d 7a3e 5583 2dbe 4ea1 3cbe cca1 583e
00000150: 7865 b33c 4220 85bd 01d6 143d cb67 cdbd
00000160: 277f fbbd 16eb e23d e2b9 24be 985f a83c
00000170: ebf2 d3bd f20b 12bd 2c4e e43d 6bd0 c53d
00000180: c8c5 04be e4f7 94bc a483 5e3e 5d76 083e
00000190: 6156 00be 22b8 95bd 502b 15bd 36c4 a7bd
000001a0: e018 563d 07ca 02be 8efc ab3d e3ff 5e3e
000001b0: c004 01be 71eb 32be 54ae 153d 9287 1fbe
000001c0: cc08 bb3d ad08 bfbd 7d9a cbbd 8ee7 a43c
000001d0: 8ec0 123d 5374 71bc d87e 56be 2440 1dbe
000001e0: 1c45 2dbd e320 22bd 9a35 293e 8268 e8bd
000001f0: b8e4 2b3e 9b39 143e 9473 a03c 4928 ef3d
00000200: 46f8 ac3d 7036 f33d 4c28 96bd 110c 1d3d
00000210: 3b54 ff3c 8336 a7bd e897 9f3d dc3f 133e
00000220: 60fa 0f3d 07f9 373e fce9 dabd 5b62 27be
00000230: 2c59 b83d f0ec 32bd bc6c 0d3d a8c1 3fbe
00000240: 60ac 6abc 3c80 7b3d 89e6 77bd b996 85bd
00000250: 0477 8c3d 48b5 9ebd 8617 a0bd e634 edbd
00000260: e5c4 a33d ed83 3a3c 40a5 c8bd 1a5c 8e3d
00000270: f40a ea3c be23 9cbd 2468 f93c 0b3d 1d3d
00000280: 0c85 393d e448 3b3d 78d8 99bc b283 b43d
00000290: 7556 47bd cd2b edbc ecd7 de3c 2809 9e3c
000002a0: 1045 2bbc 3658 7dbc 9873 a9bd f1f1 4fbc
000002b0: 40c6 133c 40d5 d3bc d045 cebc f508 51be
000002c0: fbd5 c8bd 0873 783d 86ab d53d e4b2 edbd
000002d0: 1c85 a0bd 8a34 023e dc0a e13d 2109 24be
000002e0: f7d3 ddbd b5b0 053e b1a5 9ebd 219b 9d3d
000002f0: 0600 febd 40c5 703d 005b 68ba b0fe c0bc
00000300: 08bf a0bd f3d0 26be e686 cebc 961c 10be
00000310: 324e 833e 2478 e3bc 5f67 68be 587f 31be
00000320: 5b90 3cbe 4e26 e2bd d82b 8ebe 7d12 eabd
00000330: 2d65 46be 289b a6bd 47c9 4fbe cbf8 4abe
00000340: cb9e ffbd b7ba e0bd 788d 10be 65c8 91be
00000350: 31cb 97be 173f 35bc fda5 9dbe e63e 5fbe
00000360: fa68 d7bc 8ab1 57be df63 8dbe 20a8 5abd
00000370: 4b0f 2abe 689a b23d 9ac5 83bc 5999 2dbe
00000380: 81e8 893d 7924 6cbc 765f 5ebe 9830 543d
00000390: 6b13 16be 7c36 38bd af38 7cbe b061 12be
000003a0: 4536 c3be cfa7 8f3d e4bf 25bd 9b34 a03d
000003b0: 6214 1cbe da2b a53e dc08 34be 1b3f 4dbe
000003c0: b29c d9bd be44 3ebe 1c59 87bd 4b27 12bd
000003d0: 1588 11be e976 4fbe 92e6 03be 18f2 683d
000003e0: b1d5 82be 6597 1abe d079 d1be 2de3 89bd
000003f0: 519b 2dbe a43a 67be 4564 d0bd 31a3 80be
-0.022884442 -0.07592749 0.017406367 0.13418488 0.07129722 -0.25585663 0.05712496 -0.09278571
-0.09004542 -0.10443455 -0.19358216 0.06798368 0.029985743 -0.025864944 0.029181536 -0.09328222
0.025098898 -0.050580222 0.06808335 -0.052868553 -0.12817094 0.09917245 -0.12757327 -0.2202289
-0.013665213 -0.011465658 -0.07141321 0.17730942 0.025730615 -0.10893367 0.1484643 0.10803528
0.14733224 0.099932596 0.078022406 0.24334905 0.04001404 -0.10417683 0.28702325 -0.10440259
0.16163059 0.1709625 -0.09764441 0.017394206 -0.13956843 -0.13309954 -0.11843716 -0.26273653
-0.03289527 -0.16019832 -0.024986282 -0.21689145 0.014491189 -0.08778443 -0.12536877 0.009561542
0.1704992 0.0016697728 0.32253546 -0.043853518 -0.17396851 -0.15012313 -0.17814372 -0.06437042
0.027278714 0.038988624 0.0660544 -0.13676535 -0.020982012 -0.21762903 -0.16894773 0.024413032
-0.11629797 -0.10135451 0.034057718 -0.23704287 -0.077923484 0.16188127 -0.11867915 0.0033560907
0.24419215 -0.1694463 -0.18420908 0.2115547 0.02189897 -0.06500293 0.036336903 -0.100295626
-0.12280112 0.11079995 -0.16086534 0.020553395 -0.10349067 -0.035655923 0.111477226 0.09658893
-0.12966073 -0.01818461 0.21729904 0.13326402 -0.12532951 -0.07310511 -0.03641826 -0.08191721
0.052269816 -0.1277238 0.0839778 0.217773 -0.12599468 -0.17472626 0.036543205 -0.1557906
0.09132537 -0.09327827 -0.09941576 0.020129945 0.035828166 -0.0147372065 -0.20946825 -0.15356499
-0.042302236 -0.039582144 0.16524354 -0.11348058 0.16786468 0.144751 0.019586362 0.11677606
0.08445792 0.118756175 -0.07331905 0.038341586 0.031168094 -0.08164694 0.07792646 0.14379829
0.035150886 0.1796609 -0.1068916 -0.16346113 0.09001383 -0.043682992 0.034527525 -0.18726218
-0.014323324 0.06140159 -0.06052259 -0.06522889 0.06858638 -0.077494204 -0.07816987 -0.11582355
0.07996539 0.011383993 -0.09797144 0.06951161 0.028569676 -0.07624005 0.030445166 0.038388293
0.0452929 0.04572381 -0.018779978 0.088141814 -0.048666436 -0.02895155 0.027202569 0.019291475
-0.0104534775 -0.015462926 -0.08274001 -0.012691961 0.009019434 -0.025858521 -0.025179774 -0.20413573
-0.098064385 0.060656577 0.10433106 -0.11606386 -0.078378886 0.12715355 0.109883994 -0.16019107
-0.10831445 0.1305569 -0.07746447 0.07695604 -0.12402348 0.058781862 -0.0008863658 -0.023558944
-0.07848936 -0.16290645 -0.025210809 -0.14073405 0.25645596 -0.027767248 -0.22695683 -0.17333734
-0.18414442 -0.11042462 -0.27767825 -0.114293076 -0.19374533 -0.081350625 -0.20291625 -0.1982147
-0.12481459 -0.10973113 -0.14116466 -0.284732 -0.2964721 -0.011062405 -0.30790702 -0.21801338
-0.026295174 -0.2106382 -0.27615258 -0.053382993 -0.16607396 0.08720857 -0.016085435 -0.16953029
0.067338 -0.014412993 -0.21716103 0.051804155 -0.14655845 -0.044973835 -0.24630998 -0.14295077
-0.38127342 0.07014429 -0.040466204 0.07822534 -0.1524215 0.3226002 -0.17581505 -0.20043604
-0.106255904 -0.1858091 -0.06608793 -0.035682004 -0.14212067 -0.20260204 -0.12880924 0.056871504
-0.2555366 -0.15096815 -0.40913248 -0.067327835 -0.1695378 -0.22580963 -0.10175375 -0.25124505

fc_layer.weight f4 [64, 64]
00000000: ec66 b9bf afa7 fbbe 0616 28bf f4b2 733f
00000010: 08f6 ab3e 839b 54bf 547a 433f 780b 2e3f
00000020: dcac 693f 7805 f7be fb7e 6f3f 61b3 833f
00000030: bb0a 593f e10a 1e3f a21b 6f3f b50e c53f
00000040: 9934 87bf 7905 52be 2e20 183f 0530 18bf
00000050: 541d 27bf e94b 48bf e995 3dbf 9796 72bf
00000060: 6f14 9dbf 40d8 6f3f 4d88 e93e 3366 923d
00000070: 8470 4e3f c057 1abf f7cb 25bf 7971 0cbf
00000080: c911 59bf 1bf5 02bf 56dc 38bf d449 b6bf
00000090: 47e1 09bf 12e6 783f 33f4 93bf cca1 e23e
000000a0: de34 65bf ab32 f5be fb39 033f 5a34 f0bf
000000b0: c04b 413f 59e9 ea3c 59a5 05bf 5ab0 1e3f
000000c0: 44a2 c3bf 25a1 10bf 6597 643f 6bd5 4fbf
000000d0: f442 af3e 3de8 ffbe fe1d 883e 4395 e93e
000000e0: 2276 f93e c33e 923f 9f1b 02bc 771c 14bf
000000f0: d913 97bf b67a 2e3f 0e17 c93e d394 2a3f
00000100: dd11 3b3f ea5f 593e 23f0 163f e6b4 043e
00000110: f959 abbe 1076 a1bd 60bf 413c e5f6 603e
00000120: 1b2e 57bf 212d 94be 4f31 723e ccb2 0dbd
00000130: 247d 3ebf a2bd ca3e 778d 193e a6b5 efbf
00000140: 4658 423e d773 bc3e b3d0 893e 3ba1 233f
00000150: 919f c2be d2ed d83c 9541 683f d024 423f
00000160: 07e3 ad3e fee7 95bd 498d 853e e197 10be
00000170: 1b3b 9d3e 9f63 50be a372 99be a444 cabe
00000180: 206f 34bd f07a dd3e e1d5 60be 432a bc3f
00000190: d63e e5be ce6a 9dbe 64e5 513e b258 2c3e
000001a0: 5e27 95be 6e34 c6be b129 ad3e 1b4e a03f
000001b0: e649 643e 7bde 51bf 3cca 61be 1b1e 2f3e
000001c0: 1da0 9f3f fd12 a7be 605d bdbc 7747 40be
000001d0: e710 11be edc7 42bf 599d b13d d268 b2bd
000001e0: 22d8 163e 0480 c3be 0354 213f a686 86be
000001f0: 7225 c93d 837a ff3d 2d3f 23bd fa57 98bd
00000200: 9268 adbc 0729 6bbc 5b0d 9b3d 6933 95bd
00000210: e6bf d8bd cbd4 e6bd 4df6 97bc 0dc5 323d
00000220: 27ec 433d f01e 41bd afc9 dc3a a572 23bc
00000230: 9095 8c3d 52b8 bcbd 3c45 933d 71c5 b9bc
00000240: 4953 803d d8f8 c0bd d58f 86bd 70be 49bd
00000250: ea79 52bd 424d b2bd 33cf 283d 4f5f 063e
00000260: 0a31 ce3d bea0 b8bd 6ba7 b0bc fece d1bc
00000270: 0914 8bbd e6fe 14bd 94db 503d ca30 37bd
00000280: cad5 a3bd 19ed 1a3d 6ff1 003e 0c77 e63a
00000290: 8443 103e 17ed c1bd 508c e43d 12a5 45bc
000002a0: 96f9 c83d c72c f83c 83fb b83c 645e c8bd
000002b0: ccb3 3dbd 62ee 14bc 83be 2bbb 58a8 943d
000002c0: a7bc 01bd c577 31bd d726 dabd 6d45 433d
000002d0: 8571 c03d da24 e83c 93c9 afbd f473 233d
000002e0: c19e 3a3c e154 903d 5117 f43b 618f 0a3e
000002f0: ad07 f03d 0126 c8bd 54ca b33d 20e2 61bd
00000300: 4d8d d9bf fe5c cfbe ae5a 37bf 1831 703f
00000310: e653 eb3e 5a2c 5cbf 4f76 813f 8c9a 433f
00000320: b7a6 743f 3e34 16bf 32a5 573f 5771 623f
00000330: 045f 353f f5f8 303f 8e8a 4f3f 048e e33f
00000340: f8ea 95bf a52d 7fbe ce37 393f 40ab 22bf
00000350: 3927 09bf 183f 71bf 4990 45bf deda 8cbf
00000360: 4bd0 9abf a8fe 823f 5e0d c93e 5b27 783d
00000370: 7895 5e3f 8e28 07bf 2d7c 2cbf 9410 42bf
00000380: cc13 4bbf 947d 1fbf 5eaf 5bbf 2aee c4bf
00000390: a9ee 34bf 4e1e 773f 19f2 96bf e540 1a3f
000003a0: b095 40bf 6bb8 35bf b90b 163f 7ff4 03c0
000003b0: 2f96 103f 964b 3e3e db1f 3dbf c769 493f
000003c0: 6e35 bebf 9325 11bf c325 6a3f 8b6b 44bf
000003d0: 70e0 cb3e cca8 0ebf 87a8 da3e ba36 233f
000003e0: 82f7 1d3f f3b3 ab3f e667 53bd a9ab 30bf
000003f0: 0818 91bf 61b1 333f e60b c53e 46b6 3f3f
-1.4484534 -0.4915137 -0.65658605 0.95194936 0.33586144 -0.8304979 0.7635853 0.6798625
0.9127939 -0.4824636 0.9355313 1.0289117 0.84782 0.6173535 0.9340154 1.5395113
-1.0562927 -0.205099 0.594241 -0.5944827 -0.65279126 -0.7824083 -0.7405687 -0.9476103
-1.2271861 0.93689346 0.45611802 0.07148399 0.80640435 -0.60290146 -0.6476435 -0.54860646
-0.84792763 -0.5115525 -0.72211206 -1.424128 -0.5385937 0.9722606 -1.1558899 0.44264066
-0.89533794 -0.4789022 0.51260346 -1.8765976 0.7550621 0.028675722 -0.52205426 0.6198784
-1.5283895 -0.5649589 0.8929351 -0.81185025 0.3423077 -0.4998187 0.26585382 0.4562169
0.4872294 1.1425403 -0.007941156 -0.57855934 -1.1802932 0.6815599 0.39275402 0.6663334
0.7307413 0.21227995 0.5896017 0.12959632 -0.3346708 -0.07883847 0.0118254125 0.21969183
-0.84054726 -0.2894068 0.23651622 -0.034594342 -0.744097 0.39597803 0.14995371 -1.872731
0.18978986 0.3680713 0.26917037 0.63917893 -0.38012365 0.026480589 0.9072507 0.7583742
0.3396227 -0.073196396 0.26084355 -0.14120437 0.30709156 -0.20350502 -0.29970273 -0.39505494
-0.04405129 0.43257856 -0.21956588 1.4700397 -0.44774503 -0.30745548 0.20497662 0.1683071
-0.29131597 -0.38711876 0.3382087 1.2523836 0.22293815 -0.81980103 -0.22049803 0.17101328
1.2470738 -0.32631674 -0.023115814 -0.18777262 -0.14166604 -0.7608631 0.0867259 -0.08711399
0.14730886 -0.38183606 0.63018817 -0.26274604 0.09821595 0.12474539 -0.03985517 -0.07438655
-0.021168027 -0.014353043 0.07570907 -0.07285196 -0.10583477 -0.11271056 -0.018550063 0.043644954
0.047832634 -0.047148645 0.0016844774 -0.009976064 0.06864464 -0.09214844 0.0719094 -0.022677155
0.062658854 -0.09422463 -0.065704025 -0.04925388 -0.051385798 -0.08706142 0.041213226 0.13122295
0.10067947 -0.09015034 -0.021564206 -0.025611397 -0.06790931 -0.036375903 0.050990656 -0.044724263
-0.079997614 0.03782377 0.125921 0.0017583086 0.14088255 -0.094690494 0.11159575 -0.012063282
0.0981323 0.030294789 0.022580868 -0.097836286 -0.046314046 -0.009090038 -0.0026206083 0.072586715
-0.031674054 -0.04332711 -0.10651939 0.04767363 0.09396652 0.028337885 -0.08583369 0.039905503
0.011390389 0.07047439 0.0074490686 0.13531257 0.11720214 -0.09772874 0.087788254 -0.05514729
-1.6996247 -0.40500635 -0.7162274 0.9382491 0.45962447 -0.86005175 1.011423 0.76407695
0.95566887 -0.58673465 0.84236443 0.8845419 0.7084811 0.6912988 0.8107079 1.7777715
-1.1712332 -0.24919756 0.72350776 -0.63542557 -0.53575474 -0.942369 -0.77173287 -1.1004293
-1.2094816 1.0233965 0.3926801 0.060584407 0.8694682 -0.52796257 -0.6737698 -0.75806546
-0.7932708 -0.6230099 -0.85814464 -1.5385182 -0.70676666 0.96530616 -1.1792632 0.6025527
-0.75228405 -0.70984524 0.5861164 -2.0617979 0.5647916 0.18583521 -0.7387673 0.7867703
-1.4860055 -0.5669796 0.9146387 -0.767266 0.3981967 -0.55726314 0.427067 0.6375538
0.6170579 1.3414291 -0.051612757 -0.6901193 -1.1335459 0.70192534 0.3848564 0.748875

fc_layer.bias f4 [64]
00000000: dc11 233f cfd0 2c3e 04fa f7bd 8d15 3b3f
00000010: 71e8 e43e b003 2f3f 0ad1 273f 9e1e 8f3e
00000020: 9f3e ca3d 8445 283f 3b3f 3a3f c59b 2a3f
00000030: e67a d63e d16f 1e3f 7ddf c03e 2af1 b0bd
00000040: c66c d33d cbcb b9bd f459 df3e dc5a ca3e
00000050: e7a3 d73d 606e ddbc 6d28 29bd fa73 973e
00000060: 6f4a 1c3f 9a2a 0d3f b3f2 c93d c40c 1d3f
00000070: 9602 c73e 66a5 cf3d 7618 a93e 6073 dd3e
00000080: 8029 1b3f 1c82 9c3e f742 c73e 4ea7 ca3c
00000090: 81dd c23e 8f57 193f 654a 1e3e fb38 ba3e
000000a0: a5fc f13e 20be 203f 01bc 353f 705c 14be
000000b0: 8e1b e03e 655f 543e 2915 f2bd 05b1 323f
000000c0: cdaa f33e 9f61 e13e 31a8 2d3f 690e f33e
000000d0: c0b9 033f 723b 25bd 5633 1f3f 490d 213f
000000e0: 3196 113f 39db 343f 764d 2c3f 7c58 cf3e
000000f0: de34 afba 2317 db3e 7798 b0bc 727e 9abd
0.63699126 0.16876529 -0.121082336 0.7307976 0.4470859 0.68365 0.65553343 0.27953047
0.09875225 0.6573107 0.7275273 0.66643935 0.4189064 0.6188937 0.37670508 -0.086397484
0.10323481 -0.090720735 0.43623316 0.39522445 0.10529309 -0.02703017 -0.04129832 0.2958067
0.61051077 0.5514313 0.09860744 0.61347604 0.3886916 0.10138969 0.33026475 0.43252087
0.606102 0.30568016 0.38918278 0.02473798 0.3805962 0.5989923 0.15458067 0.36371598
0.47263065 0.6279011 0.70989996 -0.14488387 0.43771023 0.20739515 -0.11820442 0.6980136
0.47591248 0.4401979 0.67834765 0.47471932 0.51455307 -0.040339895 0.6218771 0.62910897
0.568698 0.7064701 0.67305696 0.40497196 -0.0013367196 0.4279109 -0.021557076 -0.07543649

output_layer.weight f4 [1, 64]
00000000: f8f8 7b3f c40c f8bf b04d 8cbc 83e6 643f
00000010: 5f61 763f 8834 6a3f 49c6 773f 3b05 56c0
00000020: fae6 dabf dcf2 6e3f 9b48 663f f5e2 793f
00000030: e98a 793f 360e d9bf dfce 4cc0 4638 9bbd
00000040: 5898 a7bf 4ec4 21bd 739c 7c3f 48cd efbf
00000050: c7b9 14c0 568c 93bd 7fe1 20bf 78ba ecbf
00000060: 24bc 693f 5d6d 7b3f 6880 1fc0 d466 703f
00000070: 3884 f9bf 5dfc 86bc 301e fbbf 5ece cebf
00000080: 45c4 763f bf0b f5bf f28b d5bf 1bfd 2140
00000090: f6e5 c3bf fd73 7f3f 6a27 febf 8f28 e2bf
000000a0: 2202 6d3f e30f 803f d4a2 643f 06e4 2840
000000b0: ce65 e2bf 0c0d 13c0 2033 003d 2e3c 663f
000000c0: 10db edbf 67e8 783f be74 753f 0e4c 663f
000000d0: da2e 7a3f 8332 24bd 8527 673f 218e 7e3f
000000e0: cbec 6d3f 9009 693f f1f7 6c3f af5d 74c0
000000f0: 6986 cfbd 4bdb f3bf f1c6 0d40 d809 2ebc
0.9842677 -1.9378896 -0.017126888 0.8941423 0.96242326 0.91486406 0.96786934 -3.3440692
-1.7101738 0.93339324 0.8995454 0.97611934 0.97477585 -1.6957462 -3.2001264 -0.07579093
-1.3093367 -0.03949385 0.9867622 -1.8734522 -2.323839 -0.07204501 -0.6284408 -1.8494406
0.91302705 0.9821375 -2.4922123 0.93906903 -1.9493475 -0.016477758 -1.9618587 -1.6156728
0.96393234 -1.914421 -1.6683333 2.5310733 -1.5304554 0.9978636 -1.9855778 -1.7668628
0.9258138 1.0004848 0.89310956 2.6389174 -1.7687318 -2.2976713 0.031298757 0.89935577
-1.8582478 0.9722962 0.9588126 0.899598 0.9772774 -0.040087234 0.90294677 0.9943562
0.9293944 0.91030216 0.9256583 -3.818218 -0.101330586 -1.9051298 2.2152674 -0.010622464
