Conditional_TimeGAN/result/original/model/SK_lag1_total1/torch_best_model.pt (torch, 87834 bytes, 7 tensors)

lstm.weight_ih_l0 f4 [256, 1]
000000 87 d3 b4 3d fc 87 06 3e 96 f1 05 bd a7 4b 21 ba
       0.08829408 0.13137811 -0.032701097 -0.00061529357
000010 5c 46 51 bd 14 c2 1e 3e a3 d5 ea 3c 7b fb 20 3e
       -0.05109249 0.15503722 0.028666323 0.15720932
000020 3a d8 81 3c 3f 77 d5 3d d1 88 1c bd 8e 90 fc bd
       0.015850175 0.10423135 -0.038216416 -0.12332259
000030 e1 6c 1b bd bb 8e 90 bc fb 0d 34 bd d0 4d 30 3d
       -0.037945632 -0.017646184 -0.043958645 0.043042958
000040 79 3a 6b 3d a0 43 3b 3e 34 8e dd bc 3b bf ad ba
       0.05742881 0.18287516 -0.027045347 -0.0013255844
000050 5e 0a 02 3e c1 f5 05 3e 95 12 90 3a 2b 94 43 3e
       0.12699267 0.13082029 0.0010991866 0.1909949
000060 6a 22 26 3d ef aa 51 bc d7 2b 66 3e b2 db 07 be
       0.040560164 -0.012797101 0.22477661 -0.13267401
000070 5e 46 ae bc a5 77 19 bc 56 5b 7f bc a2 f0 15 3e
       -0.021273788 -0.009366904 -0.015585741 0.14642575
000080 7b b5 a9 bd 15 69 04 bd ed fc 4a bd 11 a0 8c bd
       -0.08286568 -0.032326777 -0.049557615 -0.06866468
000090 f3 00 a4 bc da 92 71 3e e9 76 f7 3c 65 84 20 3e
       -0.020019984 0.23591176 0.030208068 0.15675505
0000a0 15 d3 7d 3c f9 80 56 bd 47 12 ed bc a0 f7 99 bd
       0.01549222 -0.05236909 -0.02893938 -0.07517934
0000b0 00 35 9c bd 43 bf 8b bc b4 00 e5 3d f1 d5 66 3e
       -0.076272964 -0.017058974 0.11181775 0.2254255
0000c0 67 8e 0c 3c fa ef 63 3c 1a e1 58 3e 90 a2 17 3e
       0.008578873 0.013912195 0.2117962 0.14808106
0000d0 4d 56 83 3d 95 8e 56 3d 07 23 2c 3e df 02 93 3c
       0.06412945 0.05238207 0.16810237 0.017945705
0000e0 1f d9 a0 3c 8f d0 97 bd e8 5b 58 bd 5b 82 5f bd
       0.019634781 -0.07412826 -0.052822024 -0.054567676
0000f0 63 1f 00 3d 71 84 2a 3d 74 83 80 bd bc fa 1b 3c
       0.031279933 0.041630212 -0.06275073 0.009520229
000100 2b e3 01 3e a7 ed 5e 3d 66 19 ed 3c 23 0c cf 3d
       0.12684314 0.05442586 0.028942775 0.10109737
000110 6e e3 77 3d e0 b7 45 3e 3e 7c eb bc b3 27 a8 3c
       0.06051963 0.19308424 -0.028745767 0.020526743
000120 4d c2 83 3d 36 c0 2b 3e ac b3 5a 3e c0 bb 6b 3e
       0.06433544 0.16772541 0.21357602 0.2302084
000130 5f c7 a2 3d ee d3 13 bd a3 89 4c 3d 45 b6 01 3c
       0.07948183 -0.036090784 0.049935948 0.007916992
000140 3c f8 91 3c d5 8d 10 3e 0a d0 a0 3d 4a 07 39 bd
       0.017818563 0.14116605 0.0785218 -0.045172967
000150 96 7f 15 3c 9b 39 f3 3a 0f 09 9c 3c 90 29 69 3d
       0.009124657 0.0018556596 0.019047288 0.056924403
000160 b5 80 23 3e dd b4 3e 3b 4b 38 dd 3d f9 86 18 3e
       0.15967067 0.0029099502 0.10801753 0.14895238
000170 93 15 18 3e 6a fb ed 3d 10 b1 07 bd c9 16 e8 bb
       0.1485198 0.11620219 -0.033127844 -0.0070827943
000180 78 70 18 3e c7 56 7e 3d 43 58 23 bd b7 f4 af bc
       0.14886653 0.062094476 -0.039879095 -0.021478994
000190 d2 bb 2d 3e 93 f0 18 3e ef aa c1 bc 91 0c ae 3a
       0.16966179 0.14935522 -0.023641078 0.0013278892
0001a0 a7 a6 a4 bc 91 47 da 3d fb b9 cc 3c d4 fd 14 bd
       -0.020098997 0.106581815 0.024991026 -0.036374882
0001b0 c2 dd da 3c 50 65 2e 3d c4 22 0d 3d 2b 9d 23 3e
       0.02671707 0.042577088 0.034456983 0.15977924
0001c0 54 d4 49 3c 7c 31 2a 3e 62 17 33 3e 5f ca 31 bc
       0.012318689 0.1662044 0.17489389 -0.010851472
0001d0 d7 19 75 3c c7 f5 b3 3d f4 a1 2f 3d 88 d1 9f 3d
       0.014959774 0.08787113 0.04287906 0.07803637
0001e0 91 9c 8c 3d 27 8c ac 3d 8f 26 15 bc 1a d2 b5 3d
       0.068658 0.084251694 -0.009103431 0.08877964
0001f0 a9 09 9c bc d7 cb 0b bd 9b 28 99 bc 33 c4 9b ba
       -0.019047575 -0.034129944 -0.01869612 -0.0011884033
000200 04 d5 13 bd 20 69 eb bc 53 11 a1 bd 28 70 33 3d
       -0.03609182 -0.028736651 -0.078646325 0.043808132
000210 e8 70 55 bd 01 3c ed 3b 68 b1 cb 3d af 3f be 3b
       -0.05210963 0.007239819 0.09945947 0.0058059315
000220 4b 60 fa 3b 4a 21 1a bc 92 32 fb 3c d9 46 e4 3d
       0.0076408735 -0.009407351 0.030663762 0.111463256
000230 6c 02 ff 3d f1 95 6b 3d d7 af 38 3e 96 a1 87 b9
       0.12451634 0.057516042 0.18035828 -0.00025869597
000240 74 e0 b5 bd de 06 16 bd f8 a6 25 3e dc 7f 8f bc
       -0.08880702 -0.036627643 0.16176975 -0.017517023
000250 bc 0c 1c bd 2f a2 04 bd 6a 5d bd bd 2a e5 1a bd
       -0.038098082 -0.032381233 -0.09246333 -0.037816204
000260 68 bc 05 bd 19 96 97 3d f2 ec ae 3d 31 2c af bd
       -0.03265038 0.07401676 0.085412875 -0.08553351
000270 90 11 27 3e f6 a9 9f bd 9e 20 64 bd 38 36 92 bc
       0.16315293 -0.07796089 -0.05569517 -0.01784812
000280 f9 18 ae bc b9 99 85 bd 2a 9c c9 bd 6b 80 aa bd
       -0.021252142 -0.06523461 -0.09844239 -0.08325275
000290 81 26 a6 bc f2 60 22 3c d8 2d 69 bd d8 60 05 3d
       -0.020282032 0.009910809 -0.056928486 0.03256306
0002a0 f7 98 c6 bd c2 88 11 3c b6 0d af 3d df 5f 48 bd
       -0.096971445 0.008882703 0.08547537 -0.048919555
0002b0 ca 71 26 3e f3 15 b5 3d de 39 eb bd 6d 0c fc 3c
       0.16254345 0.08842077 -0.11485647 0.030767644
0002c0 ef 37 9e bb 03 ab a4 bd 7d d4 00 3d 6c c1 0b be
       -0.004828445 -0.080404304 0.031452645 -0.13648003
0002d0 65 aa 84 3c 84 97 2e bc 04 ac b0 3d bc d6 ca 3b
       0.016194532 -0.010656241 0.086265594 0.006190149
0002e0 9a 78 b9 3d e9 c6 41 3d dd b3 0e bd 5a d9 10 bd
       0.09056206 0.047308836 -0.0348395 -0.035363533
0002f0 ca 7d a7 bd 43 33 df 3c c6 5b fd 3d d4 73 15 3d
       -0.08178289 0.027246123 0.1237102 0.036487415
000300 ef e3 8d bb eb e8 96 3d d0 b5 ef bb 7e ab 02 3d
       -0.0043301503 0.07368644 -0.007315375 0.03190183
000310 7f 66 ae 3c 4f 14 07 3e 92 90 1e 3c 0a 3d 3c 3d
       0.021289108 0.13191341 0.009678023 0.04595665
000320 17 24 7b 3d a6 34 2f 3e fa e2 1d 3a 85 3e 3e 3c
       0.061313715 0.17109928 0.0006022897 0.0116115855
000330 87 eb 38 3c 52 02 af 3d 83 be 2d 3c 49 34 19 3e
       0.011286623 0.085453644 0.010604504 0.14961351
000340 aa c1 af 3d b8 d8 b2 3d 54 ad 62 3d 5e 32 75 3d
       0.0858186 0.08732742 0.05534108 0.059862487
000350 96 5f e4 3d 12 30 56 3d 40 64 ca 3d b6 85 b2 3d
       0.11151044 0.052291937 0.098824024 0.087169096
000360 95 2c b5 3c fb 48 4c 3c af 05 14 3e f5 59 a1 3a
       0.022115985 0.012468572 0.14455293 0.0012310134
000370 87 a1 ef 3c 1d 1b 55 3e ad c5 b1 3d 40 ea c5 3d
       0.029251827 0.20811124 0.08680282 0.0966382
000380 10 05 c2 3b 08 1f 3a 3d 25 b4 c1 3a 08 73 24 3d
       0.0059210137 0.04543975 0.0014778419 0.040148765
000390 87 50 94 3c 28 ad 2d 3d ae 62 0a 3d 0c 15 44 3e
       0.018104805 0.042401463 0.033785515 0.19148654
0003a0 f5 a5 37 3d a9 8c a2 3d 75 19 1d 3d 46 c2 0b 3c
       0.044836003 0.07936985 0.038354356 0.008530205
0003b0 8e 30 00 3e 6a 98 16 3c 13 cf 01 3d cb f7 f1 3d
       0.12518522 0.009191612 0.031691622 0.11814841
0003c0 ef a9 d2 3d 82 54 22 3e 87 94 3b 3d 0a dd 88 3d
       0.102863185 0.1585255 0.045795944 0.06682785
0003d0 a7 c1 ca 3d 05 a4 ab bb eb 37 21 3e 14 cc 9d ba
       0.099002175 -0.0052380585 0.15743987 -0.001203897
0003e0 a7 c1 27 3d 79 ff 15 3d eb 34 a4 3c 18 6d bc 3d
       0.040956166 0.03662059 0.020044765 0.092004955
0003f0 77 50 de 3d c1 a6 21 3d 3b b1 14 3b 03 22 6c 3c
       0.10855191 0.03946567 0.0022688645 0.014412406

lstm.weight_hh_l0 f4 [256, 64]
000000 36 bd 17 be 0d 1b 1d ba a6 10 3c be 83 83 c0 3c
       -0.14818272 -0.00059931056 -0.18365726 0.02350021
000010 ab 13 80 3d a4 63 1b bd cc 75 55 3e 5d 4d 1d bd
       0.06253751 -0.03793682 0.20845717 -0.038403857
000020 39 67 2e 3e 2f 87 00 be a7 2b 4f 3d 5c 9d 0a 3e
       0.17031564 -0.12551568 0.05057874 0.1353659
000030 1d 5e 6e 3e 95 05 16 3e be d7 6c 3d 36 96 3d 3d
       0.23278089 0.14650567 0.057822935 0.04628583
000040 a9 25 6b be bd 0a 61 3d 21 d5 83 3c 23 2b 7c be
       -0.22963585 0.05494188 0.016092839 -0.2462583
000050 92 37 14 3e a1 ad bb bc 76 39 76 bd 4b 7b 30 bd
       0.14474323 -0.022909941 -0.060113393 -0.04308633
000060 a4 14 57 3c 32 f5 61 3d 8a f6 37 bb 36 c0 90 3c
       0.01312748 0.055165477 -0.0028070533 0.017669778
000070 02 8d d6 3d 2d 7a 7e 3d 70 9c 26 be a6 ee 95 bd
       0.10476114 0.062128235 -0.16270614 -0.07320909
000080 9a e8 0e be 1b 96 f4 bd f2 70 58 be c7 64 bf bd
       -0.13955918 -0.11942693 -0.21136835 -0.09345394
000090 2a 25 cd bd 3d 01 d3 3c cd 2e 3f be df 82 f7 bd
       -0.10016854 0.025757426 -0.18670197 -0.120855086
0000a0 62 52 48 bd 03 23 55 be 67 5d 27 3e 08 69 5d be
       -0.04890669 -0.20814137 0.16344224 -0.21622097
0000b0 1a 29 8d 3d db 3a 30 3e 37 c1 49 be a4 11 34 3d
       0.06892605 0.17209952 -0.19702612 0.043962136
0000c0 f1 2a d5 bd e8 4a 22 be 67 c1 dd 3d c8 25 83 bd
       -0.10408581 -0.15848887 0.10827904 -0.064036906
0000d0 9a 80 32 3e 5f ed d5 3d 11 dd dd bd ea a3 10 be
       0.1743187 0.104456656 -0.10833181 -0.14125028
0000e0 24 b1 ed 3d 41 a0 6c 3d 6b a8 a3 bd 67 e9 58 3c
       0.116060525 0.057770018 -0.079911076 0.013239241
0000f0 73 f1 33 be 2b f6 ee 3d 40 4d 63 3e e3 51 f4 3d
       -0.17572574 0.116680466 0.22197437 0.11929681
000100 f9 c2 3f 3d 8f a3 91 3c 06 0d 35 be 67 fb c9 3d
       0.0468168 0.017778186 -0.1768075 0.09862404
000110 62 2d 3e 3e 10 31 2b 3d 1e ed 2a 3e ea e9 ca bd
       0.18572 0.041794837 0.16692016 -0.09907897
000120 b0 b4 2d 3e 66 29 f6 bd 54 22 19 bd a4 55 28 bd
       0.16963458 -0.12019615 -0.037386253 -0.0410973
000130 65 4f 49 3e c5 59 1b 3e f5 89 aa ba 80 f8 01 3e
       0.19659193 0.15170963 -0.0013011085 0.12692451
000140 22 83 e2 ba 36 eb 2d 3e 9a 60 1f 3e 44 c3 c8 bc
       -0.0017281512 0.16984257 0.15564194 -0.024507172
000150 26 8b da 3c ef d8 f5 bc ed 62 72 3d 01 99 d8 3b
       0.02667768 -0.030010669 0.059176374 0.0066100364
000160 cf 2b 5d bd 76 8c 50 3e 92 b8 00 3e 9c c7 cc 3b
       -0.053996857 0.20366082 0.12570408 0.006249381
000170 ff be b4 bc f9 2e e1 3c 5a c0 09 be 44 95 af bc
       -0.02206373 0.027488219 -0.13452283 -0.02143348
000180 0c 28 da bd f8 ff ca bc 20 45 a1 bd c7 6a 37 bd
       -0.106521696 -0.024780259 -0.07874513 -0.044779565
000190 d6 e5 19 be b6 65 d8 3d c3 e6 35 be fb 8e 18 bd
       -0.15029082 0.10566275 -0.1776381 -0.03724573
0001a0 69 4d 39 be d9 cc 61 be 5b 1a 94 bc 7d 6b 5d bc
       -0.18095936 -0.220508 -0.018078974 -0.013514397
0001b0 22 da 1b 3e e0 06 49 3e 4d f6 20 3d ef 9f e9 bd
       0.1521993 0.19631529 0.03929739 -0.11407458
0001c0 02 98 48 be 7d 2a 9a bd a9 c3 f1 bc 1d 79 fb bb
       -0.19589236 -0.07527635 -0.029512243 -0.00767435
0001d0 f5 18 d1 bb 60 8e 7c 3d 57 5e 0d be ae 47 1b be
       -0.006381149 0.061659217 -0.13805519 -0.15164062
0001e0 c0 1c 2c 3e f3 22 36 3e 47 d6 8f bc 2b bb 2f 3d
       0.16807842 0.1778677 -0.01755823 0.042903107
0001f0 9d 47 41 3d 8a ff ad 3d a7 64 19 3e 52 dc 71 3e
       0.047187436 0.08496006 0.14979802 0.23619202
000200 c4 59 79 bc d6 a5 01 3e d1 97 2a bd 9f ba 11 3e
       -0.015219156 0.12660918 -0.04164869 0.14231347
000210 df 9b 01 3d e9 59 d7 3d 10 ed 0e 3e 4a 6b 1e be
       0.03164279 0.10515196 0.1395762 -0.15470615
000220 f9 3f d3 3d 70 6a e0 bd 5a 54 ac bd ae b5 09 3e
       0.10314936 -0.10957801 -0.08414526 0.13448212
000230 72 a6 27 3e 61 4d c8 3d 66 98 20 3d ba 0a f0 3d
       0.16372088 0.09780384 0.03920784 0.11720796
000240 e6 18 ee bc b8 35 6c bd 9c 65 63 3c 7f e5 cc bc
       -0.029064607 -0.057668418 0.013879206 -0.025011776
000250 5a ff c5 3b 1c ff b8 bd 45 22 97 3d 0c 96 c6 3c
       0.006042403 -0.09033033 0.07379583 0.02424147
000260 2f bd 92 bd 50 3a 4a 3e 2d e6 87 bd 7d f5 1b 3d
       -0.0716499 0.19748807 -0.066356994 0.038075913
000270 f0 a8 3d 3e 4e e7 84 bd 55 f9 50 be b6 bf 1f be
       0.18521476 -0.0648943 -0.20407613 -0.15600476
000280 35 88 b9 bd 14 d6 a5 bd 6f b4 ed bd ee d4 05 bd
       -0.090591826 -0.08097473 -0.116066806 -0.03267377
000290 18 f8 17 be 6a c8 fd bc fa bf 87 bd 20 85 84 3d
       -0.14840734 -0.030979354 -0.066284135 0.06470704
0002a0 99 13 4c bc 58 76 29 be 8b 49 8d 3d d0 32 4b be
       -0.012455844 -0.16549051 0.06898793 -0.19843602
0002b0 e4 4c 3f 3d 22 c3 7b 3d 8b 46 22 be 25 d8 aa 3d
       0.046704188 0.06146539 -0.15847223 0.083420075
0002c0 76 ad 5a bd 4a f0 23 bd 24 3f bc 3a fc 7c 1d be
       -0.05338808 -0.04002408 0.0014362079 -0.15379709
0002d0 dc 09 13 3e 11 7d 03 bd 0b f1 b7 3d 97 a7 47 be
       0.1435923 -0.032101694 0.08981522 -0.19497524
0002e0 28 3b 29 bc 67 e2 53 bd 47 d9 23 be 46 30 42 3d
       -0.010329045 -0.051729586 -0.16000853 0.04740932
0002f0 38 e9 4f be 1c 1f 86 3e 00 83 3f 3d 0b 1a 73 3e
       -0.2030381 0.2619561 0.04675579 0.23740403
000300 d7 ee 87 bd 36 a2 45 be df dd 78 3c 66 82 08 3e
       -0.06637352 -0.1930016 0.015189617 0.13330993
000310 a1 c8 37 3e 78 7c ac bb 8d bd 09 3c 44 97 f8 3c
       0.17947628 -0.0052638613 0.008407009 0.030345567
000320 b9 57 07 3e 54 60 25 bc 56 12 42 bd 69 a9 8b 3d
       0.13217057 -0.010093767 -0.047380768 0.06819422
000330 cd c1 95 bd bd 1b 9a 3d 00 47 02 3e 81 56 b6 bb
       -0.07312355 0.07524822 0.12722397 -0.0055645113
000340 74 fc 9e bd 17 3b 93 bb 2c 10 e8 3d 54 8d 33 be
       -0.07762995 -0.004493128 0.113312095 -0.17534381
000350 2d c5 29 be 6f 1a c4 bd a1 d7 12 3d 5d 80 ee 3c
       -0.16579123 -0.09575354 0.03585017 0.029113943
000360 9c 4a 4f 3d b0 2c a3 3d f6 aa bb 3d 06 d2 5d be
       0.050608262 0.07967508 0.091634676 -0.21662149
000370 29 70 c7 bb 73 a8 a0 bc 08 b4 44 be 06 d7 0f bd
       -0.0060863686 -0.019611573 -0.19209301 -0.03511717
000380 6a 73 20 be 6d e2 c7 bd 1d 34 51 be 1a a9 13 bd
       -0.15669027 -0.09759984 -0.20430036 -0.03604994
000390 9f aa 00 be 0e db 11 3e 68 c0 93 ba 55 a3 f0 3d
       -0.12565087 0.14243719 -0.0011272551 0.11749903
0003a0 26 25 85 bd 06 80 19 be 1f 4a a2 3d e3 73 9f bd
       -0.06501226 -0.14990243 0.07924294 -0.077857755
0003b0 64 05 09 3e 91 5d 60 bd 62 fa f2 3c ba 63 5f 3d
       0.13380963 -0.054776732 0.029660407 0.054538466
0003c0 d2 1c 4a be 26 d1 18 be f9 91 3d 3e 5a aa 1e 3c
       -0.19737557 -0.14923534 0.18512715 0.00968417
0003d0 60 f6 24 bc 95 24 55 3e b3 2f d1 3d 7b 90 58 bc
       -0.010068506 0.20814736 0.10214176 -0.013218041
0003e0 6b 44 7d 3e 0a 55 0f ba 75 b4 c6 bd 42 5f b1 3c
       0.2473313 -0.0005467689 -0.09702388 0.021651868
0003f0 56 fb 01 be 2b 6b 1d 3e 4d bc 68 3d ee 26 52 3e
       -0.12693533 0.15372913 0.056820203 0.20522663

lstm.bias_ih_l0 f4 [256]
000000 ca cf 6a 3e ef 3e 1c 3e 1e 97 67 3d e3 87 3a 3e
       0.22930828 0.15258382 0.0565406 0.18215899
000010 61 82 30 3e 1a 1e 1d 3d 0c ac b7 bc 3d 31 cd bc
       0.17237236 0.038358785 -0.022420906 -0.025047893
000020 0b 53 fc bc e8 2f 73 bc 50 d0 17 3d d7 7e 15 3c
       -0.030801317 -0.014842965 0.037063897 0.009124479
000030 bb 7f d8 bb 4e 80 09 3e 5f 34 23 3e c2 8b 27 3e
       -0.0066070235 0.1342785 0.15937947 0.16361907
000040 57 46 e6 3d 39 b3 1f 3e 32 a5 4d bd ba 93 86 3d
       0.11243885 0.15595712 -0.05020637 0.06571145
000050 80 b2 4d 3e 7c 22 20 3e 00 83 d7 3d e3 89 36 3e
       0.20087624 0.15638155 0.10523033 0.17826037
000060 1e e8 c6 3d d1 7c 35 bc 33 0d 82 3e 8a 4f 63 bd
       0.097122416 -0.011077122 0.25400695 -0.055495776
000070 d9 36 61 3d a1 bd 90 3d 36 02 67 3d 66 a6 41 bd
       0.054983947 0.07067419 0.056398593 -0.04727783
000080 1f 9d ce 3c 16 de 2a 3e fe 0a fc 3c 45 fc b2 3d
       0.025221406 0.16686282 0.03076696 0.08739523
000090 65 68 b3 3d 3a ba 86 3d f6 11 c7 3d 20 f0 38 3e
       0.08760146 0.06578489 0.09720223 0.1806035
0000a0 31 b1 dc 3c 10 d8 69 bb 53 dc e9 bc ff d7 00 3e
       0.02693996 -0.0035681762 -0.028547442 0.12582396
0000b0 ec 67 1b 3e 81 8f 4c 3e 7a b3 f3 bc e2 0e 21 3e
       0.15176362 0.19976617 -0.029748667 0.15728334
0000c0 eb 7d 30 bd cd a5 92 bd 69 9e 80 3e d1 74 dd 3d
       -0.043088835 -0.0716053 0.25120857 0.108132966
0000d0 e7 be 68 bd 05 cd e0 3d 6e a8 58 3e e9 4a fa 3d
       -0.056822684 0.10976604 0.21158001 0.12221319
0000e0 d3 20 b0 3d b6 6c bb 3d d1 5e e8 3d ed 57 8b 3d
       0.08600011 0.09151594 0.1134621 0.0680388
0000f0 4f f6 5a 3d 53 95 c7 bc 83 df ca 3d 33 e4 d0 bd
       0.053457554 -0.024363196 0.09905913 -0.101997755
000100 cb 04 ae 3d be 6b ac bc 58 ac 87 3d 1d 35 34 3e
       0.08497008 -0.02104747 0.06624669 0.17598386
000110 db f8 5e bd 75 5e 2e bc 9e b1 e3 3c 60 a5 85 bb
       -0.054436546 -0.0106426375 0.027794655 -0.004078552
000120 76 dc 2e 3d 30 4b 12 bd c6 ad 15 bc c9 99 64 3d
       0.042690717 -0.035716236 -0.009135669 0.055810723
000130 f6 40 f1 3c b3 b7 04 3e c0 b3 90 3d a7 52 7f 3d
       0.029449921 0.129607 0.070655346 0.062334683
000140 ec 11 c0 3d 79 71 8f 3d a9 ef 50 3d 0a d4 ba 3d
       0.09378418 0.07004065 0.051009808 0.091224745
000150 78 b3 ca 3d d6 ab e9 3d 29 d1 c1 3d 0f d7 db 3d
       0.09897512 0.11409728 0.09463722 0.107343785
000160 ea 96 ec 3d 7c 03 4c 3d 5f 0d d6 3d c5 f4 bc 3d
       0.11552222 0.04980801 0.10451769 0.092263736
000170 0e 72 bd 3d a4 88 55 3d 8c eb a2 3d 7d 11 10 3d
       0.0925027 0.052132264 0.07955083 0.035172928
000180 9f 7a 08 bd b1 5c a3 3d df 01 32 3e 38 8d 0e 3c
       -0.033320066 0.07976664 0.17383526 0.008700661
000190 29 4e 0f 3e 33 76 3a bb ff 0d dc 3d 5e 54 f4 3d
       0.1399466 -0.00284518 0.10744857 0.11930154
0001a0 ce 67 13 3e 34 fe d9 3d 34 3f 0b 3e 9e 94 cd 3d
       0.14395067 0.106441885 0.13598329 0.10038112
0001b0 3e 2a 49 3e 55 b5 72 3c 58 17 0e 3e ba 4d 2c bd
       0.1964502 0.014813741 0.13876092 -0.042066313
0001c0 d0 f4 16 bd 92 6c e8 bd 1c 5e 1b 3d 90 13 f5 3d
       -0.036854565 -0.11348833 0.037931547 0.11966622
0001d0 b3 d7 f5 3c 97 cb d7 ba 11 18 42 bd cf 29 61 3d
       0.03001008 -0.0016463873 -0.047386233 0.054971512
0001e0 57 98 a7 bc 7f 29 17 3d 46 ef 1d 3e e1 62 06 3e
       -0.020458383 0.036904808 0.15423307 0.13123657
0001f0 25 06 1f 3e 2d 68 1d 3d b1 2b 33 bd 66 56 36 3c
       0.15529688 0.038429428 -0.04374284 0.011128997
000200 23 1d e0 bc 5c 63 53 bd 94 22 b7 bd 97 7b 96 bd
       -0.027357643 -0.05160843 -0.08942142 -0.07347792
000210 e9 b3 ec 3d a1 f7 e0 3c b0 0f 03 3d bd fa 66 bd
       0.11557753 0.027461829 0.031997383 -0.056391466
000220 1f 5f 41 3d fb 33 02 be b3 11 cd bc 92 1e 2d bd
       0.047209855 -0.12715141 -0.025032854 -0.042265482
000230 ad 3e c4 bd f1 b7 f5 bd 1e 19 d4 bd 26 f2 3e bd
       -0.09582267 -0.11997975 -0.10356353 -0.04661765
000240 96 87 76 bd 35 7b f4 bd 53 ad e3 3c ff 4e 9a 3d
       -0.0601879 -0.119375624 0.027792608 0.075345986
000250 31 45 c3 bc 56 22 2b 3d f0 34 83 3c bd 92 09 3e
       -0.023836704 0.041780792 0.016016454 0.13434882
000260 2a 51 01 bc 34 fa 83 ba 42 0d 2c 3c 60 3f 2c bd
       -0.007892886 -0.0010069073 0.010501208 -0.042052627
000270 95 a9 76 bd 92 b6 12 3d b6 c3 93 bd b5 0b 8e 3d
       -0.06022032 0.035818644 -0.07215063 0.06935827
000280 3a 2b a1 bd 44 01 93 bd fb f6 52 bc 25 20 17 bd
       -0.07869573 -0.07177976 -0.012876268 -0.03689589
000290 49 d1 b2 3d 96 ad b9 bd ba 5c 7d 3c b7 a8 47 bd
       0.08731324 -0.09066312 0.015464002 -0.048744883
0002a0 8b d7 8f 3d 94 39 07 3e ab 86 72 bd 6a c4 61 bc
       0.070235334 0.13205558 -0.05921046 -0.013779739
0002b0 96 09 fd bc e8 02 c6 3d 50 f9 18 3d 7e 16 58 bd
       -0.03088836 0.09668523 0.037347138 -0.052755825
0002c0 86 a5 c9 3d 9c 98 f4 3d ae f4 70 bc 39 6d ba bd
       0.09846024 0.119431704 -0.014706774 -0.09102864
0002d0 21 fb be 3d 2d b7 97 bd 91 68 30 bd dc c6 07 bd
       0.09325243 -0.07407985 -0.043068472 -0.03314863
0002e0 3a 45 7f 3c 24 2f 9a bd b9 5f eb 3d f6 f6 54 3d
       0.01558047 -0.075285226 0.11492867 0.051993333
0002f0 a8 df 19 3d 51 35 85 bd 39 d9 0d 3e ee 8f e3 bd
       0.03756681 -0.0650431 0.13852395 -0.11111437
000300 c9 21 05 3e 4c 5c bc 3d 8c a1 39 3e 87 e1 36 3e
       0.1300117 0.09197292 0.18128031 0.1785947
000310 50 d9 5c bb 4a 3c c4 bc b9 ec 1f 3e 7e 43 fe bb
       -0.0033698864 -0.02395453 0.15617646 -0.0077595105
000320 4a d8 c6 3d 0b 32 cb 3d 6e 4f 31 ba 44 54 ae 3d
       0.097092226 0.09921654 -0.000676385 0.08512166
000330 42 b6 37 3e d8 af 73 bd 36 87 1b bc 71 85 c2 3d
       0.1794062 -0.05949387 -0.009492686 0.09498108
000340 65 58 3b 3e e6 e2 0d 3e fe e1 32 3c 2f 52 14 3e
       0.18295439 0.13856086 0.010918139 0.14484476
000350 5e ac b1 3d 40 0a 27 bc cc 58 3a bb 6d 42 1d 3d
       0.086754546 -0.010195315 -0.0028434275 0.038393427
000360 0a 98 61 3e 1b df 00 3e ec fe ab 3d 66 45 19 3e
       0.22030655 0.12585108 0.08398232 0.1496788
000370 28 1c b1 bb 2e ad 06 3a 2e 78 5f 3b 8f a1 64 3e
       -0.005404968 0.00051375 0.0034098732 0.22327255
000380 9e e2 f1 3d 0c f8 2f bb 1b e3 e7 ba 00 b5 83 bb
       0.11810802 -0.0026850728 -0.0017691584 -0.0040193796
000390 80 c4 d8 3d ae ce a1 3d 30 6b 3b 3e fc 83 b5 3d
       0.105843544 0.07900749 0.18302608 0.08863065
0003a0 48 a2 39 3e 35 b9 04 be 72 89 5a bd 62 17 b5 3d
       0.18128312 -0.12961276 -0.053353734 0.088423505
0003b0 65 0b 59 3d 5b 71 c4 3d 85 8a a2 3c a5 11 ef 3d
       0.052989382 0.09591933 0.019841442 0.11673287
0003c0 22 6e a0 3d 88 03 cb 3d a2 40 6b 3e f3 67 12 3e
       0.07833506 0.09912783 0.22973874 0.14297466
0003d0 a9 ea 9d 3c 20 d2 e4 3c 98 7c 4f 3c 81 81 a2 3d
       0.019276934 0.027932227 0.012663983 0.07934857
0003e0 68 24 1c bd 27 ac 13 3e 3e 9e 5a 3e b9 dc 32 3e
       -0.038120657 0.1442114 0.21349427 0.17467012
0003f0 f5 9e 44 bd 48 22 df 3c 85 48 42 3d b0 88 6c 3d
       -0.048003156 0.027238026 0.04743244 0.057747543

lstm.bias_hh_l0 f4 [256]
000000 55 d5 53 3d fe 40 49 bc 50 61 25 bd 28 60 bb 3d
       0.05171712 -0.012283562 -0.040376008 0.091492
000010 da 96 1b bc 06 2b 97 bc 5f f2 46 3e e1 fc e8 bc
       -0.009496415 -0.018453132 0.19428395 -0.028440895
000020 92 69 90 bc 21 9d 18 3e 78 b7 82 3c e1 34 c0 3d
       -0.017628465 0.1490369 0.015956625 0.09385086
000030 26 01 58 bb 5c ce 5f 3d 87 f4 c3 3d 0e 22 7b 3c
       -0.003295967 0.05464016 0.09568124 0.0153279435
000040 65 8a 0d bd e7 e6 06 3e 9b da 05 3d 57 9f 2c 3e
       -0.03455581 0.1317402 0.03267918 0.16857658
000050 b2 65 9c 3d c9 72 66 3e 3f 8d d8 bb 76 f4 2e 3c
       0.07636584 0.22504725 -0.0066086347 0.010678401
000060 40 8e a9 3d c2 79 d0 3d d2 c6 80 3e ba b8 f0 3d
       0.08279085 0.101794735 0.25151688 0.11753984
000070 34 7d c1 3a 4d 0e 5d 3d a5 03 00 3e 67 98 1f 3e
       0.0014762045 0.053968716 0.1250139 0.1558548
000080 e9 fc 2d 3e 0b 55 c8 3d b8 d3 c3 3c a6 a0 0a 3e
       0.16991009 0.09781846 0.023904666 0.13537845
000090 76 1a a8 3d a9 1f bc bd 07 71 11 3e 41 c6 03 3e
       0.08208172 -0.09185726 0.14203273 0.12868597
0000a0 75 bd 2c 3e 80 e7 b9 3d ec 36 19 3d c3 ec 58 bd
       0.16869147 0.09077358 0.037405893 -0.05296017
0000b0 f2 b9 ba bd 23 f6 d2 3c c1 5e c4 3d f7 63 ee 3d
       -0.091174975 0.025752133 0.095883854 0.116401605
0000c0 07 9f 2a 3d 15 ae 55 bd 0c f6 5b 3e df af 93 3c
       0.041655567 -0.05216797 0.21480578 0.018028198
0000d0 cd 93 e9 3d ce b7 98 bc 3a a6 ca 3d 18 64 42 3e
       0.11405144 -0.018642332 0.098949865 0.18983495
0000e0 51 08 cf 3d 35 12 b7 bd 53 f1 20 3e d4 20 20 bd
       0.10109008 -0.089390196 0.15717058 -0.039093807
0000f0 7b 51 a7 bd 13 04 61 bd 60 22 95 bd 17 c9 47 3d
       -0.08169838 -0.054935526 -0.07281947 0.04877576
000100 9b 5c 00 3e 81 0f 42 3e 69 e5 0a 3e 0e 46 9d 3d
       0.12535326 0.18951227 0.13564076 0.076793775
000110 25 1f 1a 3d e2 87 84 3d 40 45 5f bd c1 6e 57 3d
       0.037627358 0.0647123 -0.0545094 0.052595858
000120 55 a4 be 3d fe af 0a 3e 05 46 1f 3e 2c 44 35 3d
       0.093086876 0.13543698 0.15554054 0.044254467
000130 58 8b 89 3d 9c a2 38 3e c6 b1 2a 3e d1 bf 26 bc
       0.06716031 0.1803078 0.16669378 -0.0101775685
000140 55 38 55 3e 43 83 11 3d 82 17 88 bd eb 33 9b 3d
       0.2082227 0.03552557 -0.06645109 0.07578262
000150 40 9f 19 3e 36 8f 0d 3c 68 5b 9b 3d 85 a4 01 3c
       0.15002155 0.008640101 0.07585794 0.00791276
000160 50 95 8b 3c b0 af 28 3e c2 18 fc 3c 61 1c 8a 3d
       0.017038971 0.1647327 0.030773524 0.06743694
000170 5a 0b 69 3d ac 8f 80 3d 0c 3a 51 3d 03 17 93 3d
       0.05689559 0.06277403 0.05108075 0.071821235
000180 56 c9 37 3d fc fa c0 3d 43 71 3b 3e ad bd 08 3e
       0.044869743 0.094228715 0.18304925 0.13353606
000190 a6 ad d4 3d 15 ae 58 3d 61 e8 ad 3d c5 79 b7 3d
       0.10384683 0.052900393 0.084915884 0.089587726
0001a0 ec 0a 84 3c 94 87 b8 bc fe 54 03 3e ca 16 06 3e
       0.01611849 -0.022525586 0.1282539 0.13094631
0001b0 bd 83 6f 3c cb 49 de 3c c5 c6 4b 3e f2 19 40 3d
       0.014618811 0.027134797 0.19900043 0.046899743
0001c0 f1 61 09 3e b9 ff 24 3d 30 61 87 3d b2 99 8f 3d
       0.13416268 0.04028294 0.06610334 0.07011737
0001d0 d6 7d 88 bc 9f c9 a5 3d 87 f4 5a bd 47 ec 1f bb
       -0.016661566 0.08095097 -0.053455856 -0.0024402307
0001e0 45 00 43 bd e9 fa 2b 3d db 28 87 bc 15 3f f6 3b
       -0.04760768 0.041987333 -0.016498974 0.007514844
0001f0 84 f4 a1 3d 6d 5b 0e 3e 65 ad 12 3e 6c 58 1d 3e
       0.07907966 0.13902064 0.14323957 0.15365762
000200 50 5a bf bc 30 ce 0a 3e 61 d1 d3 bd 0e 29 27 ba
       -0.023358494 0.13555217 -0.1034267 -0.0006376662
000210 94 f3 0f 3d 0e 24 a2 bd 37 69 1d 3c 52 0a f4 3d
       0.035144404 -0.07917033 0.009607605 0.11916031
000220 66 74 a4 3d 9d 00 94 3d 4d b6 b1 3d 54 67 89 bd
       0.08030014 0.072266795 0.08677349 -0.067091614
000230 7b 9e e2 3d 42 2b 97 bd 14 42 75 3c 6c e6 0d be
       0.11065384 -0.07381298 0.0149693675 -0.1385743
000240 aa 15 08 bd bd a7 7b bd de 47 59 bd e7 53 93 bd
       -0.033223785 -0.061439265 -0.053047054 -0.071937375
000250 b9 c5 66 bd e0 d0 05 be 51 29 52 bd 07 e3 a5 bd
       -0.056340907 -0.1306796 -0.051308934 -0.08099943
000260 28 38 a9 3d 63 7e ca 3d da 69 b3 ba 58 10 9f 3d
       0.08262664 0.098873876 -0.0013688162 0.07766789
000270 96 5b 85 3c 3d 87 90 bd 3a bd b5 bc f7 a5 a4 3d
       0.016279023 -0.07057045 -0.022184957 0.08039468
000280 29 9f b4 3c 95 f0 80 bd 9f 6b 5e bc 3a 8d db 3d
       0.02204855 -0.062958874 -0.013575464 0.10720296
000290 dd 26 bc bd ea c7 a8 3c fd 1b fe bd 8d e0 0b 3e
       -0.091871 0.020603139 -0.12407682 0.13659878
0002a0 7d 69 6b bc cb 1d 75 bd b7 df e6 bd a2 bf 83 bc
       -0.014368412 -0.059842866 -0.11273139 -0.016082589
0002b0 7b 2b 95 bc 43 ac cd 3d 2f 29 97 3b e9 b3 b2 bd
       -0.01820921 0.10042622 0.0046130638 -0.087257214
0002c0 45 3b 08 be f2 fc 94 3c 13 80 c8 3d 04 b4 12 be
       -0.1330386 0.01818702 0.09790053 -0.14326483
0002d0 cd b7 6e bb 88 ca a1 3d 2d ef 0c 3e a8 13 1b bd
       -0.0036425472 0.07899958 0.13763113 -0.037860543
0002e0 00 e7 cf bd 00 e6 d0 3d 95 b7 ec bc 50 ea 8d ba
       -0.10151482 0.10200119 -0.028896132 -0.0010827277
0002f0 c0 9a 07 bd 7b fd 2a 3d ff aa 40 3d 0d a0 90 bd
       -0.033106565 0.041745644 0.047038075 -0.07061777
000300 8e c0 39 bc 81 bd 1d 3e 28 ae 28 3d e5 6f 74 3d
       -0.0113374125 0.15404321 0.041181713 0.059677023
000310 4e 8c dc 3b a4 99 2b 3e df 68 d6 3d 18 2a 08 3d
       0.006730593 0.16757828 0.10469221 0.03324327
000320 51 65 e4 3d ab 84 23 3e 04 9a 90 bb 3b e9 31 3e
       0.11152137 0.15968578 -0.0044128913 0.17374127
000330 a4 f2 19 3e 9c 94 44 3b ef 59 58 3d f7 84 b5 bd
       0.15033966 0.0029995805 0.052820142 -0.08863252
000340 bb 0a 8c 3d 51 0d 6b 3e 72 8b 4d 3c 84 19 53 bc
       0.06837984 0.22954299 0.012545453 -0.012884501
000350 44 e4 a5 3c 21 fd ea 3d 29 e0 3d bc 38 94 a3 3d
       0.020250447 0.11474062 -0.0115890885 0.07987255
000360 03 52 01 3e 73 e1 a1 3d 01 82 9f bc 5a d7 41 3d
       0.12628941 0.07904329 -0.01947117 0.047324516
000370 c1 96 f3 3c f5 9f b2 3d 94 61 12 be 5e 1a 10 3e
       0.029734971 0.08721916 -0.14295036 0.14072558
000380 3a d3 e4 3d e3 f7 5f 3d d8 e6 17 3d 5b bd 3b 3e
       0.11173101 0.054679763 0.037085384 0.18333952
000390 5c 8c 9d 3d 21 8f f4 3d 5d f0 08 bd ca c6 30 3d
       0.07692787 0.11941362 -0.033432353 0.04315833
0003a0 b8 a6 18 bc 9d 57 16 bd d7 47 05 be 57 ec 44 3e
       -0.009317093 -0.03670465 -0.13015686 0.19230781
0003b0 d3 0a 76 3b 53 57 2c 3e 60 22 a1 3d 7b c2 99 bb
       0.0037543073 0.16830187 0.07867885 -0.0046923733
0003c0 52 5c c2 3d 99 6b 3d bd 51 07 18 3e 62 a4 5c 3e
       0.09490265 -0.04624519 0.14846541 0.21547082
0003d0 db 7a 5c bc e0 cc 16 3d ad 19 19 3e c8 0f 11 3e
       -0.013457025 0.036816478 0.14951201 0.14166176
0003e0 70 d6 99 3d 18 35 10 3e 09 93 c8 bc 58 85 01 3d
       0.07511604 0.14082754 -0.024484174 0.031621307
0003f0 1a ca d8 bd 8e d7 d1 3d 64 74 4c 3d 06 5a b3 3b
       -0.10585423 0.10246192 0.049915686 0.005473378

fc_layer.weight f4 [64, 64]
000000 30 53 92 bd ee b5 8f be 5e 3a 63 be 6d 7d 72 3e
       -0.07144773 -0.2806849 -0.22190234 0.23680659
000010 43 1c 9d 3d 03 e7 b0 be 4a d9 b9 3d e7 9f ed bd
       0.07671406 -0.34551248 0.09074648 -0.116027646
000020 de 81 4d 3e ad 67 1c be 36 8c 3e 3e 5e 80 cd 3e
       0.20069072 -0.15273924 0.18608174 0.40137
000030 bd 8d 90 3e dd be ac 3e 05 ca 97 3e 54 20 1b bc
       0.28233138 0.33739367 0.29646316 -0.009468157
000040 3d c3 a2 bd 5f 9c d0 bd dc fb 75 3e 61 92 fb bd
       -0.07947395 -0.101860754 0.24021858 -0.12283779
000050 63 d1 c5 be 82 20 51 be e6 e1 c2 bd 13 5e 45 be
       -0.38636312 -0.20422557 -0.09515743 -0.19274168
000060 21 0f 19 be 14 b5 22 3e 16 75 36 3e 51 96 0d be
       -0.14947177 0.15889388 0.17818102 -0.13826872
000070 48 e4 06 3e 32 b5 00 be 50 7b d6 bd 9d 0a b7 bd
       0.1317302 -0.1256912 -0.10472739 -0.08937571
000080 8b 1c 77 be aa b5 86 be 2f 64 2d be 34 bb 4c be
       -0.24131982 -0.26310474 -0.16932748 -0.19993287
000090 09 6a 08 be 1d 32 5c 3e 3e 69 99 be 6d d9 34 3e
       -0.13321699 0.21503492 -0.29963106 0.17661066
0000a0 16 e7 7b be 73 f3 29 be 9e 33 a0 3e ed 8b 37 be
       -0.24599871 -0.16596775 0.3128938 -0.17924471
0000b0 d0 00 a0 3e d5 3d 2b 3e 95 1c 93 bd 25 8a b0 3d
       0.3125062 0.16722806 -0.07183186 0.08620099
0000c0 eb 80 1b be 08 12 01 be 32 72 7f 3d 28 27 7b be
       -0.15185897 -0.12604535 0.062364765 -0.24526656
0000d0 d4 3d 18 3e 6d 91 96 3e 20 77 16 3e ca ef 33 be
       0.14867336 0.29407826 0.1469388 -0.17571941
0000e0 8d e8 0e 3e 19 e1 ee 3c 14 cd 74 be 05 7a 67 bd
       0.13955899 0.02916007 -0.23906356 -0.05651285
0000f0 29 7a 8a be ec a3 33 3e 31 0a a2 3e 5c bb ad 3d
       -0.27046326 0.17543 0.316484 0.084830016
000100 67 8b 4b bd de 30 8f 3d 34 3c 3c b8 46 86 cc 3d
       -0.04969349 0.069917426 -4.487876e-05 0.09986548
000110 a0 45 a7 bd c1 2e bd 3d 87 37 61 bd 23 fd b9 bd
       -0.08167577 0.09237433 -0.054984596 -0.09081485
000120 55 32 a6 3c 23 75 2b bd 5f 79 1f 3e 02 31 e3 bd
       0.020287672 -0.041859757 0.15573643 -0.11093332
000130 6c 76 64 3d 9f 75 de 3d bc c4 9a 3d 08 b5 93 3d
       0.055777 0.10862278 0.07557055 0.07212263
000140 21 11 08 3b a6 63 96 3c 5e ba f7 36 b9 2b e1 3d
       0.0020762163 0.018358063 7.3828696e-06 0.109946676
000150 4c 9f d2 3d c6 21 2a be 78 93 88 3d a6 b6 ea 3d
       0.1028429 -0.16614446 0.066687524 0.11460619
000160 8a a0 8f bd d1 c7 2a bc ec a9 cd 3b a1 58 30 be
       -0.07013042 -0.0104236165 0.00627636 -0.17221309
000170 a6 c1 81 bd 08 c1 6c 3c e3 6f 0f be a8 07 a0 bc
       -0.06335764 0.014450319 -0.14007525 -0.0195349
000180 c3 ff 9e bc ec 78 21 bd 1e 40 1e 3d 73 cd fb 3d
       -0.019409066 -0.03942196 0.038635366 0.12295046
000190 2e 0a 4b 3d 19 8e c9 bd d3 31 af bb 23 c4 b1 bd
       0.049570255 -0.09841556 -0.0053465157 -0.08679988
0001a0 d7 68 ce 3c 97 a4 0a bc d5 b1 f8 3d 52 ed a6 3d
       0.025196476 -0.008462093 0.12143294 0.08150734
0001b0 3f 59 31 bc 32 e1 19 3c f7 31 b4 3d b4 c0 d6 3c
       -0.010824501 0.00939207 0.087985925 0.026214935
0001c0 99 49 db 3d 7e 8b 85 bd bf 1d f2 bd 7b 0e db bd
       0.10707397 -0.06520747 -0.1182208 -0.10696121
0001d0 42 98 b7 bc 25 38 c5 bc da 49 13 3e 14 3c 07 bd
       -0.02241147 -0.024074623 0.14383641 -0.03301628
0001e0 b9 e6 00 be d0 4d 24 3d 00 a6 a9 3c 7a 01 0b 3d
       -0.12588014 0.04011327 0.020709038 0.033936955
0001f0 c5 13 bc bd 85 43 b7 bd 0b 0b a7 bd a5 b6 10 3e
       -0.09183458 -0.08948425 -0.08156403 0.14132173
000200 27 4f 11 bd 7a e5 ae 3c 35 63 5c 3d 36 47 35 bd
       -0.035475876 0.021349657 0.05380555 -0.044257365
000210 e5 03 0d be 4e f1 37 bc 0f 30 4c 3c 9c d6 a2 3d
       -0.13771017 -0.011226965 0.01246263 0.0795109
000220 79 4a a0 3d ca 24 a5 bd f3 da cb 3b 38 23 00 39
       0.078267045 -0.080636576 0.006221169 0.00012220151
000230 74 fe fd 3c 70 c2 ae 3c ed da d0 3d e6 54 54 bc
       0.031005122 0.02133295 0.10198007 -0.0129596945
000240 1e 17 4d 3d b2 ec d4 bd 84 f1 f6 bd f0 28 ab bd
       0.050070874 -0.103967085 -0.12057784 -0.083574176
000250 63 d5 a4 bd 12 60 1b be 8a a2 11 3e a6 0d 1d 3e
       -0.08048513 -0.15173367 0.1422216 0.15337238
000260 ff 4f 21 3e e5 58 79 bd b4 d6 80 bd 91 b7 3f bd
       0.15753172 -0.060875792 -0.06290951 -0.046805922
000270 fe 85 dd bd be bf 1c bc bd 4f 43 3c 6a 63 f0 3c
       -0.108165726 -0.009567199 0.011920867 0.02934428
000280 c5 ae dd bd 98 c7 d2 3d f4 f3 fa 3d 9e 8b 9a bc
       -0.1082435 0.10291976 0.122535616 -0.018865403
000290 ef 62 dc 3d d3 b0 2e be b9 ca bb 3d 0e db 87 3c
       0.107610576 -0.1705964 0.09169526 0.016583946
0002a0 8b 0a 90 3d 76 ee 41 3d 5f e8 c4 3d 72 fe ca bd
       0.07033261 0.047346555 0.09614634 -0.09911813
0002b0 ec 56 fa ba 72 c1 78 bd d8 0b 1f bd ad d9 99 3d
       -0.0019099391 -0.06073136 -0.038829654 0.075122215
0002c0 ee 98 8c bd b7 5b b1 bc 88 0f a3 bd 19 6c b8 3c
       -0.068651065 -0.021650178 -0.07961947 0.022512482
0002d0 0d 1e cf 3d 1b de 42 3d 13 ea 42 bd bb 4e ec 3c
       0.101131536 0.047575098 -0.04758651 0.028846135
0002e0 6b 9b 58 bd 69 cf cc 3d 41 bf fd 3d c2 05 49 3e
       -0.052882593 0.10000498 0.123899944 0.19631103
0002f0 dc 14 5c 3b 48 fb 73 bd 08 7d b6 3d f4 de cd bc
       0.003358177 -0.059565812 0.089105666 -0.025130726
000300 b2 b5 9f be 24 f0 14 be 6f ec 9a be 5d c4 26 3e
       -0.3119331 -0.14544731 -0.3025851 0.16285844
000310 30 a9 46 3e 91 b3 a6 be d7 78 94 3e ad 24 c4 bd
       0.19400477 -0.32558873 0.28998443 -0.09577308
000320 35 33 1c 3e d1 d7 56 be 42 97 b3 3d 0f 0d 73 3e
       0.15253909 -0.20980765 0.087690845 0.2373545
000330 69 21 0d 3e 48 06 c9 3e 1b c9 00 3e 8b 0a 21 3e
       0.13782276 0.39262605 0.12576716 0.15726678
000340 1f 08 e0 bd 8d e5 c3 bd bf 0e b4 3e 1a c7 c1 bd
       -0.10939049 -0.09565268 0.351675 -0.09461804
000350 5b 7c 61 be 9c e9 a3 be 61 2d cf bd 19 9f 95 be
       -0.22020094 -0.32014167 -0.10116077 -0.29222944
000360 44 d3 f7 bd 1a af 66 3e 52 1b ce 3d d5 98 3d be
       -0.121008426 0.22527733 0.10063805 -0.18515332
000370 44 f6 21 3e b3 37 99 bc 0e 4c cb bd 8c 43 58 be
       0.15816599 -0.018703317 -0.09926616 -0.21119517
000380 87 97 48 be 4c de b0 be 90 de 89 be 01 33 a2 be
       -0.19589053 -0.345446 -0.26927614 -0.31679538
000390 96 ba 7d be 05 c4 3b 3e 5a bf 94 be db 52 94 3e
       -0.24778208 0.18336494 -0.2905224 0.28969464
0003a0 4f 6d f3 bc ae c5 bc be 32 6e ac 3e 50 1a bd be
       -0.029715208 -0.36869568 0.33677822 -0.36934137
0003b0 f7 c8 f7 3d e2 25 9b 3e 5f 10 93 be 54 01 52 3e
       0.12098878 0.3030234 -0.28723428 0.20508319
0003c0 0e e8 19 bd 98 02 95 bd a1 a3 69 3d 01 8b ec bd
       -0.03757482 -0.07275885 0.057040814 -0.115499504
0003d0 5c f5 0d 3e 89 52 6e 3e ec 8a 85 3e 18 c6 cc bb
       0.13863128 0.23273672 0.2608255 -0.0062492006
0003e0 f7 be 26 3e 2a 10 83 3e b7 48 7c be 64 a8 0e be
       0.16283785 0.2559827 -0.24637114 -0.13931423
0003f0 6c dd 33 be a2 b3 04 3e 87 11 a0 3e 16 02 c8 3d
       -0.17564934 0.1295915 0.31263372 0.09766023

fc_layer.bias f4 [64]
000000 f4 6e 87 3e af 2d 47 bd fd ec b6 bd 9f a3 85 3e
       0.26451838 -0.04862755 -0.08931921 0.26101395
000010 11 ae 83 3d 5a f5 8e 3e 27 96 7e 3e d9 d3 8b bc
       0.06429685 0.27921563 0.24861966 -0.01706879
000020 07 14 e6 3c cd c0 84 3e e2 a0 99 3e 90 1f 84 3e
       0.028085722 0.25928345 0.30005556 0.2580533
000030 a8 69 50 3d b4 07 a5 3d b3 87 02 3e 0f 6a 07 be
       0.05088201 0.0805811 0.12747078 -0.13224052
000040 79 6d 40 3b 01 9a 28 bd 7f 0a 1f 3d 10 f7 ca bc
       0.0029362126 -0.041162495 0.03882837 -0.024776012
000050 98 f9 c4 bc a9 05 ff bc 62 d0 00 bc fe d6 b1 3c
       -0.024044797 -0.031130629 -0.007862182 0.021708962
000060 2f 5d 29 3e 89 25 ed 3d d9 aa e5 bc 3d b4 67 3e
       0.16539453 0.11579425 -0.028035568 0.22627349
000070 b3 c3 ce 3d a6 2d 3a 3e ff 71 cd bc 29 98 70 3d
       0.100959204 0.18181476 -0.025078772 0.05873886
000080 c2 80 4b 3e 0d ab 0c 3d 50 0b 9b 3d 5f 2f d7 3d
       0.19873336 0.034342814 0.07570517 0.10507082
000090 56 fe 5b bb 33 12 5f 3e 55 9b 0e bc 54 29 88 3c
       -0.0033568344 0.21784286 -0.008704026 0.01662127
0000a0 36 3f 38 3d 1e ac 61 3e 2d e9 95 3e 56 ed 28 3e
       0.044982158 0.22038314 0.29279462 0.16496786
0000b0 d8 a9 0c bd 5a 53 75 3c ef 97 83 bd 9c 14 93 3e
       -0.034341663 0.014973486 -0.064254634 0.2872666
0000c0 f7 df 14 3e 4d b7 8c 3d 02 1b 98 3e 7b 28 17 3d
       0.14538561 0.06870899 0.29708105 0.03690384
0000d0 f6 eb f0 3d a9 0c e5 bc 12 e9 36 3e a1 e7 74 3e
       0.11763756 -0.027960138 0.17862347 0.23916484
0000e0 6e 9d 35 3e d3 5f 98 3e 72 d9 88 3e 13 1f 2b 3e
       0.17735836 0.29760608 0.26728398 0.16711073
0000f0 e6 c4 d2 3c 39 6f b8 3c 1d e7 b2 3d b8 ee 45 bd
       0.025728654 0.022513973 0.087354876 -0.048323363

output_layer.weight f4 [1, 64]
000000 37 bc b9 3e b7 72 04 be 52 72 22 be ec e0 86 3e
       0.3627641 -0.12934385 -0.15863922 0.26343477
000010 45 32 ae 3e 44 fe 9a 3e a0 fe aa 3e 85 2d 98 be
       0.34022728 0.30272114 0.33397388 -0.2972223
000020 23 93 ce be 1c 17 a2 3e 09 3a 8b 3e 77 01 ac 3e
       -0.4034663 0.31658256 0.27192715 0.33594868
000030 41 80 b6 3e 19 ae 92 be 1a 48 b0 be 15 d4 81 be
       0.35644725 -0.2864845 -0.3443001 -0.25357118
000040 c5 2a ca be 14 0b a6 be 1e 06 bc 3e 5c 74 d1 be
       -0.39485756 -0.32430327 0.36723417 -0.40909088
000050 57 b6 c5 be cb fd 9e be e3 25 b0 be 81 32 8d be
       -0.38615677 -0.31053004 -0.34403905 -0.27577594
000060 a6 50 94 3e 40 69 b7 3e 0b e5 a7 be d3 a8 9f 3e
       0.2896778 0.35822487 -0.32791933 0.3118349
000070 6c 22 d2 be 33 6b b6 be b6 8e df be 7a 2e 6b be
       -0.41041887 -0.35628662 -0.43663567 -0.22966948
000080 5c 1a af 3e 64 ce 88 be f1 90 7e be 38 78 8a 3e
       0.34199798 -0.26719964 -0.24859978 0.27044845
000090 d1 e4 85 be 1a fe bb 3e 93 4f bf be 36 1e b9 be
       -0.26151136 0.36717302 -0.37365398 -0.36155862
0000a0 f3 1d ad 3e e1 4c b7 3e b1 15 8b 3e 7b e9 96 3e
       0.33811912 0.3580084 0.27164987 0.29475006
0000b0 f1 75 be be af 43 9d be 82 91 af 3e 3e 5e 8e 3e
       -0.37199357 -0.307157 0.342907 0.27806276
0000c0 02 e1 9c be 7f 8d be 3e b1 e5 a8 3e ed 84 8e 3e
       -0.30640417 0.37217328 0.3298774 0.2783579
0000d0 70 4a ab 3e 51 49 97 be a4 87 95 3e 97 c5 ba 3e
       0.3345523 -0.29548123 0.29205048 0.36478874
0000e0 76 c4 9e 3e 98 da 8e 3e fd 86 9a 3e 96 94 a3 be
       0.31009263 0.2790115 0.30181113 -0.319493
0000f0 e2 9a ad be bb 76 ba be c0 58 df 3e 85 f2 80 be
       -0.3390723 -0.3641871 0.43622398 -0.25185028
