Conditional_TimeGAN/result/original/model/OP_lag1_total1/torch_best_model.pt (torch, 87834 bytes, 7 tensors)

lstm.weight_ih_l0 f4 [256, 1]
00000000: 7aad 983d f256 203e 37ea 55bd 55a2 fc3d
00000010: a568 dcbc 8eea c83d c20a 2f3d 424f 423e
00000020: 85d1 54ba 5c33 253e 626b cc3c 4f50 fb3c
00000030: cfdb 6abd 52ac dcbc 9b88 eb3b 1ff2 bf3c
00000040: 5870 a73d 8205 6b3e 4575 80bd 4cd2 963b
00000050: abaa 2e3e 413f 243e 3200 81bc f3e7 a33d
00000060: 1ea0 ca3d f18e 8a3d e35b 423c 5429 93bd
00000070: e3a5 43bd 7f26 ea3d fe4d 0cbb c686 1f3e
00000080: 8d79 99bc 9505 17bd c73c 153c 5f73 14bd
00000090: e98c 33bd d80f 813e 1a3a 9e3d 72a8 1a3e
000000a0: 7f0f 6b3c 0c45 433d 9b10 5d3d 2f80 a6bc
000000b0: 6de1 0ebd 1673 2c3c 1e18 633d 7076 263e
000000c0: edc8 c93c 3b4d a83d 7a50 f43d 175e 8a3d
000000d0: 9e65 c63d 0c83 0a3e 1fa5 1f3e c368 91bb
000000e0: cc53 e33d 974f 58bd be1c eebc 09c6 1ebd
000000f0: 12e9 543c 5c1f 623d f41b 37bd dbc3 b03d
00000100: facb 403c eb98 68bb f47d af3d 9fa3 d93c
00000110: ba1d 113e 7e3e 303d 4f73 75bc 4995 50bb
00000120: f6ab 683d 2d1e 413e bb33 023e 624a 7c3e
00000130: 0ed1 e73d 75cb 4ebc 152f 5f3d 96da 2b3b
00000140: 07f6 bebb 1fb9 0b3d ba8d 193e 6c1f 18bc
00000150: b1cc 993c 1859 bf3c fb95 57bb 20ff f1ba
00000160: 7eee b03c 5675 afba 9202 3d3d 85e4 c43d
00000170: bddb 083e 89f6 c73d 5e3a 1c3c 4d7a 06bc
00000180: a88a bc3d 4a98 4e3d 0398 2ebc 527f be3c
00000190: 2772 3c3e c7c6 b73b 2075 c0ba 4fc3 533c
000001a0: 7527 1fbc 4617 153d 510c eabb e164 a03c
000001b0: 4b0a 253d 1747 583c 552d 753b 3f88 c23d
000001c0: a18a a63c 5e09 003e 6a2a 123c b94d 453c
000001d0: f917 553c 8c93 893c d8ed 7e3c c229 9f3c
000001e0: fa80 243c a715 d23c 5454 e5bb af98 9f3d
000001f0: ca48 223c d441 ac3b e255 a73b 10f8 11bc
00000200: 7cf3 93bc cc87 bbbc c81b 843b b88a 5d3d
00000210: 17a5 a4bc 8650 7b3b 79c9 623d 64d8 4dbc
00000220: 9a9b eb39 84fb 023c 091c 283c 69f6 da3c
00000230: 261c 433e 26fe a93d 06fb 773d d628 a7ba
00000240: b894 a8bd 33f6 7ebc b910 dd3d d2d1 ccba
00000250: ff01 edbb a704 dbbc dcd5 acbd 1699 8dbd
00000260: 27e3 abbb 6961 663d 8b12 ac3b d6ad b7bd
00000270: daa2 a43d 9f06 b7bc f76e 68bc 073d 1ebd
00000280: 81b6 61bd d9c7 2cbd 27fb 10be b0ca 21bc
00000290: b780 50b9 263f 753c 82a7 40bd 162e 573c
000002a0: 0cb9 eabd 5da3 55bb ef0d b53d 0b0a 383c
000002b0: f535 0e3e 3b35 593b 2c82 3ebd 1c49 dabb
000002c0: 345c 40bc bcde c8bc 6da2 203c 7aab 75bd
000002d0: 2d53 223c daea 933c b591 6c3c 9dd5 b33d
000002e0: b3cb 473c 7bb7 863c 2d3c a2bc a0f2 d3bc
000002f0: a262 efbd 611e 803d 46cd d23d fa70 4c3d
00000300: ee34 ad3c 0a94 0e3d fdf2 333c 5d74 c93c
00000310: e15e b03c 8720 ca3d 6317 d93c a107 e93c
00000320: 75c5 483d d077 ff3c 5c58 33ba 298a 6c3b
00000330: 5b75 723b 3b42 4e3d 9827 fe3c fee5 af3d
00000340: 2e44 0d3d ddfb 383d 86f7 503d d294 843d
00000350: 5920 3a3d c697 223d d0e4 4b3d 5b76 bf3d
00000360: f626 cfbb 2649 cd3a 384b 9c3d cfcc 513b
00000370: f2cd 543c 52ab c53d eab8 fa3c b899 573d
00000380: 9b70 0a3c a8a6 013d a680 9e3b 69cd ce3c
00000390: 8149 363d 217b 5b3c e891 01bc 86d0 543e
000003a0: 52bb 8f3b ccaf 0a3d 428b 8a3d a618 d53c
000003b0: 88e6 1e3d ace9 0c3c 3178 b5b9 134d c43d
000003c0: b19e 153d 24e2 833d db1c 01bb 1216 d23c
000003d0: 02a6 2a3d 5206 f63a ab58 353e 3918 ec3b
000003e0: 8779 c23c 56c4 b63c 0947 bc3c 0ee8 983b
000003f0: 461d 083d 707f 3a3c cec7 973c cb09 c73b
0.07454963 0.15658167 -0.052225318 0.1233565 -0.026905367 0.09810363 0.04273487 0.18975547
-0.0008118379 0.16132873 0.024953548 0.030677943 -0.057338532 -0.026937637 0.0071879155 0.023430882
0.08175725 0.2295132 -0.062723674 0.004602706 0.17057292 0.16039754 -0.015747163 0.08003225
0.09893821 0.06765545 0.011862728 -0.07185617 -0.047765624 0.11433124 -0.0021408792 0.15578756
-0.018734718 -0.036870558 0.009108729 -0.03624284 -0.043835554 0.252074 0.07725926 0.1510332
0.014346956 0.04767327 0.053970914 -0.020324795 -0.03488295 0.0105254855 0.05544292 0.16256118
0.024631942 0.082178555 0.11929412 0.067562275 0.09687351 0.13526553 0.15590332 -0.0044375374
0.11099967 -0.052810278 -0.02906644 -0.03876308 0.012995021 0.055205688 -0.044704393 0.086311065
0.011767382 -0.0035491537 0.085689455 0.026567278 0.14171496 0.043028347 -0.014981105 -0.0031827262
0.05680462 0.18859167 0.12715046 0.2463775 0.11319171 -0.01262175 0.05448826 0.0026222817
-0.0058276686 0.034112092 0.1499547 -0.009284835 0.018774362 0.023357913 -0.0032895792 -0.0018462874
0.021598097 -0.0013386409 0.04614503 0.09613899 0.13365074 0.0976382 0.0095354 -0.00820787
0.09206134 0.050438203 -0.01065636 0.02325407 0.1840292 0.005608413 -0.0014683343 0.012924983
-0.009713997 0.03639915 -0.0071425815 0.019579353 0.04029302 0.013200543 0.0037411053 0.09498643
0.020329775 0.12503573 0.008921245 0.012042456 0.013006204 0.016793989 0.015559636 0.019429091
0.010040516 0.02564509 -0.006998578 0.07792794 0.00990505 0.0052568708 0.0051066736 -0.00890924
-0.018060438 -0.022891901 0.004031632 0.05408737 -0.020098252 0.0038347556 0.05536792 -0.012563799
0.00044938625 0.007994536 0.01026059 0.026728826 0.19053707 0.08300428 0.06054213 -0.0012753259
-0.08231491 -0.015561628 0.10794205 -0.0015626496 -0.007232904 -0.026735617 -0.08439228 -0.069139645
-0.0052455845 0.05624524 0.005251234 -0.089687034 0.08038874 -0.022342024 -0.014186612 -0.03863242
-0.05510569 -0.042182777 -0.14158307 -0.009874985 -0.00019884376 0.014968669 -0.047034748 0.013133546
-0.11461076 -0.0032598593 0.08840548 0.011232863 0.1388777 0.00331433 -0.04651086 -0.0066615473
-0.011740733 -0.02452027 0.00980435 -0.059977986 0.009907526 0.018056322 0.014439036 0.08780978
0.012194562 0.016444912 -0.019804085 -0.025872529 -0.116887346 0.06255794 0.10293059 0.04991243
0.021143403 0.03480915 0.010983226 0.02459162 0.021529617 0.09869485 0.02650041 0.02844602
0.049016435 0.03118506 -0.00068414747 0.0036093092 0.003699622 0.05035613 0.03102474 0.085887894
0.03448885 0.04516207 0.051017307 0.06473698 0.045441005 0.039695524 0.04977876 0.093487464
-0.006321783 0.0015662059 0.07631534 0.0032012945 0.012988554 0.096518174 0.030605752 0.052636832
0.008449699 0.031653076 0.0048371134 0.025244432 0.044503693 0.013396055 -0.007908322 0.2078267
0.004386344 0.03385906 0.067648426 0.02601273 0.03879407 0.008600634 -0.0003461256 0.09585013
0.036528293 0.06439617 -0.0019701037 0.02564529 0.041662224 0.0018770194 0.17709605 0.007205036
0.02373959 0.022310417 0.022983091 0.004666335 0.033231042 0.0113829225 0.018527891 0.0060741655

lstm.weight_hh_l0 f4 [256, 64]
00000000: 028a 15be ea0a f23c def6 e0bd e3ca e8bc
00000010: e49e cebc 6202 b43d f97c d63d 5151 923d
00000020: ef02 c63d 512e cfbd ca1c b43c e44b b43d
00000030: 2142 293e f694 e13d dca0 d3bb 9c95 edba
00000040: 6848 5dbe daa3 753d 55c7 5cbc 0a37 32be
00000050: 7191 db3d 0fba b7bd 7921 6dbd a028 06bd
00000060: deb8 09bd 452e d6bc 76da fdbc c110 6b3d
00000070: 6217 923d d3e6 823d 9466 eebd c30e 48bc
00000080: 6f09 a1bd 33cd 87bd 288d 08be 41e1 48bd
00000090: 4bc7 87bc dd2c 2d3d 8a66 b2bd 074f 28be
000000a0: f218 cf3a 4bd7 3ebd de0e 473e d18f 97bd
000000b0: 162c ae3c 7f74 0e3d 203e 13be a797 993d
000000c0: c871 2ebd e2c3 14be 1d92 f6bb d5fa 52bc
000000d0: ae92 f23d a199 f63c d556 c93b c26c fa3c
000000e0: 6ae0 583c 09ff 713c 8351 fdba d3c4 903c
000000f0: 6c51 13be 6260 803d a798 d63d 27f2 883d
00000100: 16b4 953d 4c86 e93d 35d8 18be 13b1 943a
00000110: 0a10 da3d cc01 8a3d 4fcf 393e 9f9c 2dbd
00000120: ccb9 7a3d 97a7 dabd 2696 26bd bff7 08bd
00000130: bddd 4d3e bcfe 203e e035 f4bc ff4b 903d
00000140: d349 b9bc 3a4c 1a3e 26c2 323e a58d 0abc
00000150: 0a46 863d 48a5 333d 6030 d23c 15a5 b23d
00000160: e6aa 03bd de18 323e 0a9d dd3d c4d3 4d3c
00000170: 5882 dbbc 97bb 453c deac 98bd 73c3 483d
00000180: b142 29bd 692c 833c b945 16bd ce5b c3bd
00000190: 4d48 bdbd c977 e43c a7e9 1ebe 0e0b 3b3c
000001a0: 8c64 26be d800 dfbd 5973 c43c 937a 4d3d
000001b0: bf6c f23d 6b66 42bc 6209 9a3d e17a 84bd
000001c0: e807 16be 66ff c5bc 8a77 43bd beda be3c
000001d0: e7ad c83b 6493 abbd 90c5 4ebe 8e16 64bd
000001e0: 17e9 933d 7b74 2c3e b83f d53c 6407 783d
000001f0: 19f4 ac3d 78bc 0d3d 3eec da3d 81da 223e
00000200: fa89 113d 687a f43d 4ea3 a0bd 7b92 8d3d
00000210: 268d 3e3e b225 423b 0046 0b3e f643 c7bd
00000220: 41f9 b5bc 2454 ebbd 516d ccbc e16d 1b3e
00000230: 224b 3e3e d704 123d 2b3e 3fbc e028 133e
00000240: 24cf 4b3d 96a8 293e 7a2e f13c 19d8 523d
00000250: 802c 9e3d 8b85 e9bd 51c1 713d b793 3e3d
00000260: 28d4 5bbc 6c39 083e e3fd 8ebc 232f 6ebe
00000270: 4c46 6c3e 1970 3cbd a656 24be e626 d6bd
00000280: 4d25 eebd 0e64 c2bd aaa1 69bd 1887 5c3d
00000290: a010 21be 3deb 02be d60c 3dbd 3294 a83d
000002a0: a0ef db3c 917f 60bd 58d8 923c 0f93 54be
000002b0: a808 95bc 78cc 943d 4ac6 0abe 7d62 b03d
000002c0: af4f 6d3d 0a37 34bd a832 69bd 69d9 cfbd
000002d0: 4be7 8d3d a3da 1fbd 510d 593d 7d8e 36bd
000002e0: e6ad 00be 3b68 28bd b43d babd a214 ea3c
000002f0: 7d9e 4dbe 2761 2b3e d306 a93c 22c8 ec3d
00000300: 05de 8fbc 95d0 8cbd f5c3 a7bd 02e8 733d
00000310: 25eb 5e3e 1856 5e3b 7648 203e a33e 51bd
00000320: b27c a53d b853 9dbd 53ba 163e 6db0 4f3e
00000330: 0e3c 893d b456 143e 3f07 823e 72a8 8fbc
00000340: 7ec0 6abe 4886 723d 2e56 3d3e f393 83be
00000350: f9a4 81bd 56fc 113c 3bd8 35be fb51 833c
00000360: bfe8 0e3e 0eb4 273e 6d96 303e 7be9 a8be
00000370: 78e9 923d fc5f 20bd 180c 81be d006 47bd
00000380: 1a64 5bbe 1c85 53be 68e1 9bbe 7130 65bd
00000390: f07e 0dbe 61a6 8b3d f6aa afbd 4ff6 7d3d
000003a0: d2a3 71be 831b 513d a95d 113e 4c3b 34be
000003b0: 40b0 7c3e 4658 f2bd 0047 b4bd 122e 9a3c
000003c0: 5138 8cbe 36b9 0fbe acd7 f33d 4557 adbd
000003d0: 11bd 8c3d 67da 803d 9931 073e c04f 1a3e
000003e0: e452 cf3d 3a2c e33d 6a68 0cbe 838b e5bd
000003f0: 9fcd 4ebe 3a40 6e3e d3e8 1e3e f136 8d3e
-0.14603427 0.02954622 -0.10984586 -0.028417056 -0.02522225 0.08789517 0.104730554 0.07144416
0.09668528 -0.10116256 0.021986384 0.088035375 0.16529132 0.1101474 -0.006458385 -0.0018126252
-0.21609652 0.059970714 -0.013475259 -0.17403808 0.107211 -0.08971035 -0.05789325 -0.032753587
-0.03362357 -0.02614511 -0.03098796 0.057389025 0.07133366 0.063916825 -0.11640659 -0.012210551
-0.078631274 -0.066309355 -0.13335097 -0.049042944 -0.016574522 0.042279113 -0.08710964 -0.16436397
0.0015800281 -0.046592038 0.19439265 -0.07400478 0.021261256 0.034779068 -0.14379168 0.074996285
-0.04258898 -0.14527848 -0.0075247423 -0.012877186 0.11844383 0.030102553 0.0061443844 0.030569438
0.013237098 0.014770278 -0.001932666 0.017671978 -0.14386529 0.062683836 0.10478335 0.06686812
0.07309739 0.11402568 -0.14926226 0.0011344276 0.106475905 0.06738624 0.18145488 -0.042385694
0.061212346 -0.106764965 -0.040670536 -0.033439394 0.20104118 0.15722173 -0.029810846 0.07045745
-0.02261821 0.1506814 0.17456874 -0.008456622 0.06556328 0.043858796 0.025657833 0.08722893
-0.032145403 0.17392299 0.108209684 0.012562696 -0.026795551 0.012068651 -0.07454847 0.04901452
-0.041323368 0.016012387 -0.036687586 -0.09538995 -0.09242306 0.02788915 -0.15518819 0.01141621
-0.16249293 -0.10888833 0.023980783 0.050165724 0.11837148 -0.011865239 0.07521321 -0.0646875
-0.14651453 -0.024169635 -0.047721423 0.023297664 0.0061242464 -0.08377722 -0.20192552 -0.055685572
0.07222193 0.16841309 0.02603136 0.060553923 0.084449954 0.034603566 0.10689591 0.15903665
0.035531975 0.1193741 -0.07843648 0.069127046 0.18608531 0.002962452 0.13600922 -0.097297594
-0.02221358 -0.11490658 -0.02495447 0.15178634 0.18583348 0.035649147 -0.011672537 0.14371061
0.04975809 0.16568217 0.029441107 0.051475618 0.077233315 -0.114024244 0.05902225 0.04652759
-0.013417281 0.13303155 -0.017455047 -0.23260169 0.23073691 -0.046005342 -0.16048679 -0.10456638
-0.11628208 -0.0949174 -0.05703894 0.053839773 -0.15728998 -0.12785049 -0.04615482 0.08231391
0.02684766 -0.054809157 0.017925426 -0.20759223 -0.018192604 0.07265562 -0.13552204 0.08612535
0.05793732 -0.0439978 -0.056933075 -0.101488896 0.06928881 -0.039026868 0.052991215 -0.04456948
-0.12566337 -0.041115027 -0.090938 0.028574292 -0.2007999 0.1673628 0.020633137 0.1156161
-0.017561922 -0.06875721 -0.08191673 0.05954743 0.21769388 0.0033925828 0.15652642 -0.051085126
0.08080424 -0.07681984 0.14719515 0.20282145 0.06700908 0.144862 0.25396153 -0.017536376
-0.22924992 0.05921009 0.18489906 -0.25698814 -0.06330294 0.008910259 -0.17758267 0.016030302
0.13955973 0.16377279 0.17244883 -0.3299063 0.07173437 -0.039154038 -0.2520454 -0.04859048
-0.21424904 -0.20656246 -0.3044541 -0.0559544 -0.13817954 0.06818844 -0.0857753 0.062002476
-0.23597649 0.051051628 0.14195885 -0.17600745 0.24676609 -0.11833243 -0.08802605 0.018820796
-0.27386716 -0.14035496 0.119063705 -0.08463911 0.06871999 0.06291657 0.13202514 0.15069485
0.10123232 0.1109242 -0.13711706 -0.112082504 -0.20195626 0.23266688 0.15518503 0.2758098

lstm.bias_ih_l0 f4 [256]
00000000: 6e4e 3d3e 577e f93d 5878 5f3d fdde 803e
00000010: d483 5e3e a592 1ebc c882 32bd 1dbb a5bd
00000020: f93d c53c 8255 5abd 7b55 3d3d 337b 783d
00000030: e385 b2bc 5b26 153e 0e15 343e ab2c 1e3e
00000040: fe96 9f3d e082 8b3e fe5c a7bd 23e1 893d
00000050: 4000 2b3e 0f72 6d3d 610c 8c3d 74d1 8a3d
00000060: f01f d53d 8966 9a3c 906f 633d c7b7 9bbd
00000070: b7ca 253d 8db1 003e fe53 b63d 901f 08bd
00000080: 197d 2a3c c805 043e 75de 953d 0560 0a3e
00000090: 418a eb3d 39d7 863d acc2 fb3d 477f 1f3e
000000a0: c64d 39bd c944 713d 4f6e bdbc 7253 503e
000000b0: def8 403e 8c41 4a3e 0533 12be e110 ed3d
000000c0: 6cb2 4abc bee7 3abd 65b4 dc3d 8126 2f3e
000000d0: 6d9a 20bd 40c1 a03d 1eb4 203e bfbd ca3d
000000e0: 597f 233e 3fc1 c93d 2ad7 cc3d 735b 493d
000000f0: b34f 413c 4241 6fbc 2840 c13d 8b85 b9bd
00000100: f37d 943b 46dd 80bd 8618 1a3d 0797 763d
00000110: 6ffd 45bd db39 58bd de4e 813c a9f0 0fbd
00000120: 175f 93bd 8d8e 01bd 3628 90bd 4094 1ebd
00000130: 0def e83c d6df 443e 8325 5c3d 9a03 4a3d
00000140: 1d01 c13d 04ab 043c 85d8 e63d 8421 e03d
00000150: 70f7 ad3d b3af ac3d 5d04 523d 31a0 fe3d
00000160: 7263 cc3d 3692 203d 3b23 883d f07b 98bc
00000170: 3cc6 ce3d feb5 ff3c 049b 383e a96b 5ebc
00000180: 62ea dabd 5095 453d 9c7d 413e fee5 dabc
00000190: 542b 8e3d e1ff aa3c 814f d53d d885 c43d
000001a0: caa8 063e 0661 953d a067 a53d f02c db3d
000001b0: eda3 273e 5f5b a4bd 09d5 a63c 3614 06be
000001c0: e12d 73bc 0ea9 32be 6079 933d 4df1 1c3e
000001d0: fd43 153d df1d aebd c80b a7bd afab 543b
000001e0: db78 933c 918b b53c ef3f 303e b301 c33d
000001f0: a02d 2c3e d034 063c 5653 8fbd 8ef5 8ebb
00000200: 9cdc 29bc d5e2 0fbd 064f fe3c 00cc 0fbe
00000210: 195b c03d 1f05 203d a15a 5f3d 910f b0bd
00000220: 34c2 213d a317 febd 6f7f f6bd 1aaf c0bd
00000230: ebcb 1abe 9f35 2fbe 48a8 23be f712 08bd
00000240: d860 b6bc 33a8 9ebd 9cd9 1f3d 86a6 8b3d
00000250: cf93 223d e5d1 403e 05a8 243d b1f1 393e
00000260: 271e 803d e889 84bd 07c0 a5bd 15be fcbc
00000270: b04f 6ebd 0400 b13d e259 37bd 0e76 8e3d
00000280: 0adb 54bd 66d5 04bd 4638 853d 7d15 9d3c
00000290: 508e e03d 079d f9bd ad55 953d 1b70 11be
000002a0: b80a ec3d 6685 1a3e d1bb 33bd 3ce6 c83c
000002b0: 21db 95bc fc0b 613d 77b7 8f3d b773 8abd
000002c0: e1a7 163e 60b8 253e 4d55 5ebd 76a6 7e3d
000002d0: c49a 563d 3ebc 93bd d460 bdbd 41fc 0bbe
000002e0: 5212 a7bc ca3d a2bd f11b c33d 5657 b73d
000002f0: 386e d6bd 6ae9 90bd 69c6 d33d d9e5 12be
00000300: 9ca0 323e 4fa9 2b3d 01d9 363e 7460 253e
00000310: 500e 473c 5bc2 eabd 8ebd 1b3e 6330 96bc
00000320: 5911 2e3d f301 95bd 2858 313b 8c2c c33d
00000330: 376e 2a3e ef0a 81bc 3dba 1d3d 33b1 22bd
00000340: d95b a8bc 0ae0 cd3d e89d 13bc 05f9 003e
00000350: 7ff2 a83d 2f80 beba 1e51 14bd f877 633c
00000360: db93 4b3e 0b2c c23d 26f3 b1bd d5ed 3a3e
00000370: 2796 e2bc f887 bcbd 7d99 a8bd 39f3 423e
00000380: ed2a 053e d8a6 a5bd 8503 36bc 47fa 81be
00000390: e2a3 bd3d 0415 363d c759 ce3d 37a5 cb3d
000003a0: 8f00 403d 5a70 cebd 83c1 06be 71d3 ba3d
000003b0: bca5 30be e247 e13d d041 26bd 4d16 8bbd
000003c0: 903d a1bd 4304 a13b 39f3 523e 9241 933d
000003d0: 9d6c 72bd bb07 f63c 3a7b 18bd e23f 913d
000003e0: dd14 85bd 66a4 fe3d c948 613e 6a92 313d
000003f0: ccb5 1abd fdb6 3dbc 7ed0 013d ade6 3c3d
0.1848695 0.121823005 0.054558128 0.25170127 0.21729976 -0.0096785175 -0.043581754 -0.0809233
0.024077402 -0.053304203 0.0462241 0.060664367 -0.021792358 0.14565413 0.17586157 0.15446727
0.07792471 0.27248287 -0.08172034 0.067323945 0.16699314 0.057970103 0.068382986 0.06778231
0.10406482 0.01884772 0.055526316 -0.07603412 0.040476527 0.1256773 0.08902739 -0.033233225
0.010405802 0.1289283 0.07317821 0.13513191 0.11500979 0.06584019 0.1229299 0.15575896
-0.045240186 0.05890349 -0.023123888 0.20344332 0.18844935 0.19751567 -0.14277275 0.11575485
-0.012371641 -0.045631163 0.10776595 0.17104532 -0.039209772 0.078493595 0.15693709 0.098994724
0.15966548 0.09851312 0.10001977 0.04915948 0.011798787 -0.014602961 0.09436065 -0.090586744
0.004531616 -0.062922046 0.037621044 0.060202625 -0.048337396 -0.05278955 0.015784677 -0.03514162
-0.07195871 -0.031630088 -0.0703892 -0.0387156 0.0284343 0.19226012 0.05374671 0.04931984
0.094240405 0.008097414 0.112717666 0.109438926 0.084944606 0.084319495 0.051273692 0.12432898
0.09979905 0.039201938 0.06647345 -0.018613786 0.10096404 0.03121471 0.18027884 -0.013575473
-0.10689236 0.0482381 0.18895572 -0.026720997 0.06941858 0.020873966 0.10415555 0.09595841
0.13150325 0.072938964 0.080764055 0.107019305 0.16371126 -0.0802524 0.020365255 -0.13093647
-0.014842481 -0.17447302 0.07200885 0.15326424 0.03644179 -0.08501791 -0.08156544 0.0032450964
0.018001964 0.022161277 0.17211889 0.095218085 0.1681428 0.008191302 -0.06998317 -0.0043627685
-0.010367539 -0.035128433 0.03104354 -0.14042664 0.093923755 0.039067384 0.05452979 -0.08596719
0.039491847 -0.12406852 -0.12036025 -0.09408398 -0.15116851 -0.17110299 -0.15982163 -0.03322121
-0.022262976 -0.07746925 0.039025888 0.06818871 0.039691743 0.18830068 0.0401993 0.18158604
0.06255751 -0.06471616 -0.08093267 -0.030852357 -0.058181465 0.08642581 -0.044763453 0.06956111
-0.051966704 -0.032430075 0.06504874 0.019175285 0.10964644 -0.12188154 0.07291732 -0.14202921
0.11525482 0.1508995 -0.043880288 0.024523847 -0.018292965 0.05494307 0.07017415 -0.06760352
0.14712478 0.16183615 -0.054280568 0.06217047 0.05239369 -0.07213639 -0.09246984 -0.13670446
-0.020394478 -0.079219416 0.09526814 0.08952205 -0.10470241 -0.0707577 0.10340578 -0.14345492
0.1744408 0.041909512 0.17856218 0.16150075 0.012149408 -0.114628516 0.15209028 -0.01833362
0.042497013 -0.072757624 0.0027060602 0.09529981 0.16643606 -0.015752284 0.03850769 -0.03971977
-0.020551609 0.10052498 -0.009009816 0.12594993 0.082493775 -0.0014534051 -0.036210172 0.013883583
0.19880621 0.09481057 -0.08688955 0.18254788 -0.027659489 -0.092056215 -0.082324006 0.19038095
0.13004656 -0.080884635 -0.011109238 -0.2538626 0.09259774 0.044453636 0.100757174 0.099436216
0.046875533 -0.10080023 -0.13159756 0.091223605 -0.17250723 0.11000039 -0.040590107 -0.06791363
-0.0787307 0.004913838 0.20600595 0.07190241 -0.059185613 0.030032983 -0.037226893 0.07092263
-0.0649812 0.124337 0.22000422 0.043352522 -0.03777103 -0.011579272 0.031692974 0.046118427

lstm.bias_hh_l0 f4 [256]
00000000: 427b ee3b 064f 30bd 0d80 2dbd fce5 243e
00000010: 6020 113d 2f2c 88bd fe46 313e 08ae acbd
00000020: 2894 183d 2d75 e23d 53c1 cd3c 14e1 143e
00000030: 1166 97bc 1234 873d 56b6 e53d 7b62 ca3b
00000040: aa74 8dbd 3939 7e3e 45b0 983a 1446 2e3e
00000050: 0902 2e3d eaac 013e 3eff 31bd c963 ccbd
00000060: f7c5 b73d afe1 063e 5f3c 593d 97a8 c63d
00000070: 0980 55bc 482c df3d 186d 213e c5f9 2d3e
00000080: 02d1 1e3e f248 753d e4d0 873d b582 3b3e
00000090: 5c3c e03d 7a02 bcbd c4c8 2b3e 23aa d43d
000000a0: 2ba7 c53d 67ec 1c3e b16d 2f3d f501 ca3c
000000b0: 182f 5fbd 4086 c03c 006b 8cbc 4f57 993d
000000c0: bd37 943d 4a95 d6bc ca26 923d 46c4 a53d
000000d0: 08d3 063e 5472 4cbd 757c 353d 069e 2a3e
000000e0: 26f3 323e b1bd a8bd bf2d 133e 9075 6dbd
000000f0: 04a3 fcbd 6809 39bd b3c1 9ebd 0687 763d
00000100: a2f8 373d 0f2e 173e b62a db3d a7b1 1fbd
00000110: bc1a 333d aeda b83c 7c3b 88bd a265 b03c
00000120: e2a2 b0bc 37df 0e3e 6619 c13d ebe9 4dbd
00000130: 9476 873d 8cca 783e 2861 193e e7fd bdbc
00000140: f2af 553e 4769 d8bc f36d 9bbb 6a81 c03d
00000150: f940 0b3e b429 adbc 0919 053d 15f6 cb3c
00000160: b26b ac3a 71d3 1d3e 073f eebb 96ee 31bd
00000170: 84d9 853d 6471 2b3d a673 1b3e 9901 bd3c
00000180: 1a22 ebbc e568 803d 01ed 4a3e dfef c83d
00000190: 8679 083d 77ea 9c3d d029 a73d 0cab 873d
000001a0: 8884 703b b77e 65bd 3393 953d 4be3 0c3e
000001b0: ee6f 94bc 941f 8bbd c214 a53d 63e8 2bbd
000001c0: a3ec 1f3e 2697 a9bc 802b cd3d 8768 d43d
000001d0: 429a 27bc 3da4 1ebb 0e7a b3bd 91dd 5dbd
000001e0: dcdc 15bc 5a2e df3c 6cb6 b53a 8080 e9bc
000001f0: 8343 bc3d 98c9 de3d 2e9d ef3d 2d7b 0d3e
00000200: c6ad d0bb 82ae 1b3e 3c94 8b3c cb6a 8abd
00000210: e30a 5d3c 5c5f 8abd 0ba5 033d 1578 b73d
00000220: 31a6 943d f54f 9a3d d124 0cbc 2987 f3bd
00000230: f38a 623d 3dde ffbd da1e 29bd bc2e 00be
00000240: f20e 9a3b ca02 a0bc f544 2bbd 19fc a1bd
00000250: 0b86 eb3b 31c7 813c 8538 debc 3d4a 0abd
00000260: 5ac0 1c3e ea08 103d 400f bebd c700 b63d
00000270: 450f 963c 8d8b a3bc 2273 aa3b 4810 a53d
00000280: 1fcb 473d 1c68 c1bc adc9 833d 5731 273e
00000290: d269 8ebd 8bea 2dbc dc71 88bd ad6a 313d
000002a0: b517 fb3c a4ee 27bd 547a c7bd 9708 b63c
000002b0: f4f4 b7bb a95e 703d c35a 193d 7c1c d1bd
000002c0: 9bcb acbd 562e 783d 60e8 6e3d 45c2 223c
000002d0: 1b47 36bd 72c5 a53d 21b2 b43d 7ccf 10be
000002e0: 39ca 0cbe 0ad7 c83d fce2 46bd 0649 153d
000002f0: b895 33be 6394 133d 3e4a 433c e3db d2bd
00000300: 958a 073d a8f3 d43d e48a 1d3d c96a 2e3d
00000310: 8245 b63c 0d80 9d3d 290a ce3d 0db5 b93c
00000320: 6d2b 693d 3755 49bc 0710 87ba c455 3c3e
00000330: ffaa 0c3e f573 3f3d 037b ce3d 67b1 64be
00000340: 9b5e 0abe fc1a 443e 21e9 f1bb c728 02bd
00000350: 35fc 823c c3e4 fc3d 3d23 38bd 1bc4 623d
00000360: 689c d63d 649e 443d 6ce9 42be ef3b a43d
00000370: f41c f53b fe59 afbb 592c 6abe 6bd8 dc3d
00000380: 6e46 fd3d dbac c0bc 8a4a e33c b331 88bd
00000390: d06b 823d 96ca ad3d 96f4 ecbd 3009 5d3d
000003a0: 982c 13be 6d4c 01bc 1767 55be f8c9 473e
000003b0: 5810 63be 86c2 3a3e aa7c 953c f9e1 41be
000003c0: 9b9e 7ebd 9fd4 0fbe 9c73 ff3d 84dd 133e
000003d0: 6a40 bcbd 9367 1f3d 3306 cc3d a76f 083e
000003e0: 9da7 453d 47b6 f73d 173f 93bc 242e ccbd
000003f0: 8cd5 c3bd 7058 823d 1cfc 0b3d a3b3 c9bb
0.007277877 -0.043044113 -0.042358447 0.16103357 0.035431266 -0.06649052 0.17312238 -0.08431631
0.037250668 0.11057506 0.025116598 0.14538985 -0.018481286 0.066017285 0.112164184 0.0061762906
-0.069070175 0.24826516 0.0011649212 0.1701892 0.04248241 0.12663618 -0.04345631 -0.0997997
0.08973306 0.13172029 0.05303609 0.09700125 -0.013031014 0.10897118 0.15764272 0.16989811
0.15509418 0.05988402 0.066316396 0.1831158 0.10949013 -0.0918016 0.16775805 0.103840135
0.096510254 0.15324555 0.04282922 0.024659136 -0.05448827 0.023501515 -0.017140865 0.07487356
0.07237194 -0.026194233 0.07136305 0.08094077 0.1316644 -0.04991372 0.044308145 0.16661844
0.17475566 -0.08239306 0.1437292 -0.057973444 -0.1233578 -0.045174986 -0.07751789 0.060187362
0.04491485 0.14763664 0.10701506 -0.03898778 0.043726668 0.022565212 -0.06651971 0.021532837
-0.021562044 0.13952337 0.094286725 -0.05027191 0.06614414 0.24296016 0.14978468 -0.02319236
0.20867899 -0.026417388 -0.0047433316 0.09399684 0.13599004 -0.02113805 0.03249458 0.024897614
0.0013154654 0.1541269 -0.007270697 -0.043440424 0.065356284 0.041856185 0.15180835 0.02307205
-0.028702784 0.06270007 0.19816972 0.09811377 0.03331902 0.07661908 0.08162272 0.066244215
0.0036700089 -0.056029048 0.07303467 0.1375858 -0.018119778 -0.067931324 0.080606 -0.041969668
0.15617613 -0.020701956 0.100180626 0.103714995 -0.010229649 -0.002420678 -0.087635145 -0.05416638
-0.009146895 0.027243782 0.001386357 -0.028503656 0.09192564 0.10878295 0.116999015 0.13816519
-0.0063683717 0.15203288 0.017038457 -0.067586504 0.013491365 -0.067564696 0.03213982 0.08958451
0.07258261 0.07534782 -0.0085537 -0.11891014 0.055308294 -0.124935605 -0.041289188 -0.12517828
0.0047014887 -0.01953258 -0.04181381 -0.07909412 0.00718761 0.015842052 -0.02712656 -0.033762205
0.15307751 0.03516475 -0.092802525 0.08886867 0.018317828 -0.019964004 0.005201713 0.08059746
0.048777696 -0.023609214 0.06434951 0.16327415 -0.069537774 -0.010615001 -0.06662342 0.043314625
0.030650953 -0.04099907 -0.09740129 0.022220893 -0.0056139175 0.058684025 0.037440073 -0.10210511
-0.08437272 0.060591064 0.05832708 0.009934013 -0.044501405 0.080943 0.08823038 -0.14141649
-0.13749017 0.098066404 -0.048556313 0.036446594 -0.17537582 0.036030184 0.011919556 -0.10295846
0.033091146 0.10398036 0.038462535 0.042582307 0.02224994 0.076904394 0.10060532 0.02266934
0.05692618 -0.012288383 -0.0010304459 0.18392092 0.13737105 0.046741445 0.100820564 -0.22333299
-0.13512652 0.19150919 -0.0073825275 -0.03177717 0.015989402 0.1234832 -0.04495548 0.055362802
0.10479051 0.048002616 -0.19034356 0.08019244 0.007480258 -0.005351304 -0.2286848 0.10783466
0.12366949 -0.023519924 0.027745504 -0.066501044 0.0636822 0.08485906 -0.115700886 0.05396384
-0.1437248 -0.0078917565 -0.20840107 0.19510639 -0.22174203 0.18238267 0.018247921 -0.18933858
-0.062162977 -0.14045952 0.124732226 0.1443997 -0.091919735 0.038917135 0.0996212 0.13323842
0.04825555 0.120953135 -0.01797442 -0.09969738 -0.09562215 0.06364524 0.034175977 -0.0061554476

fc_layer.weight f4 [64, 64]
00000000: 4862 cabe 18b3 cebe 8e78 fbbe dba1 043f
00000010: 4bbc e83e d07b 07bf 75b8 bc3e 3986 d5be
00000020: 6681 f13e 6903 95be d656 0b3f 8f3d 183f
00000030: 1d07 063f 52b0 133f a60b 0e3f 0fc5 d33e
00000040: baf7 aebe fb61 e1be fdb0 e13e 5b4c c9be
00000050: 6abd 17bf e203 c6be 1e4c e0be 19ae e2be
00000060: 3e7c 19bf bd98 d83e 152d de3e fbb3 03bf
00000070: 6ef8 ed3e 7946 d4be 7284 dabe 465d a5be
00000080: edc7 1ebf 958a d3be 0bd7 d1be 711b f0be
00000090: 4f2a d0be 24cc 063f f4e2 0dbf e134 913e
000000a0: 5a90 09bf 7772 063f 5d6c f73e bba4 d5be
000000b0: 45b2 093f 2f4a f03e 7160 a9be a819 e73e
000000c0: a3f9 d3be 2bab d3be 0438 e83e 1a15 fabe
000000d0: a0ff d63e 0ba3 083f f7dc ad3e 8a68 e33e
000000e0: da37 e43e 1a41 a93e b268 09bf f321 c5be
000000f0: 3f0f d0be d728 ea3e 385f 0b3f 535c c03e
00000100: 819c 0bbd 8166 4ebc 4dbe 703d fe08 e23c
00000110: ea77 d0bd 6ba9 f23a c4a2 d3bd 8edd babd
00000120: 91af 6d3a 5d61 7abd b542 be3d acad 97bd
00000130: 2338 05bd dd55 493d 9408 d23c 0195 bb3c
00000140: 0726 0c3c 03c2 4ebc 5bef 98bd 8812 0c3e
00000150: e3d0 db3d c9f2 5cbd 57a8 a93d da9c 5a3d
00000160: 5d9f 9ebd 0724 8abd 96e5 52bc 88ea 8abd
00000170: 0e36 b1bd d375 243c e263 c7bd 0ee0 8bbd
00000180: cbdd e93c e071 8e3b bb28 883d 3764 c23d
00000190: 259c c13d 2989 9abd 2b45 e53c 56e9 5cbd
000001a0: dc97 313d 544b 06be b2ee b63d 7f2a b33d
000001b0: bbf9 36bd 5b08 72bd 9454 e93d 8060 673d
000001c0: 127c 083e 3017 7cbd 44f4 cabd ea4d c9bd
000001d0: 2c19 01bd 027c c73b b07e b73d 029b 92bd
000001e0: 8926 f6bd 6961 c4ba 7476 f33c 1fe4 4c3d
000001f0: 48b8 17bd b32b e2bd 9a1c fdbd 0d97 ef3d
00000200: 1ce0 da3e 3729 f3be e10d b6bc dc06 f03e
00000210: ad08 82bc bda0 9a3e 46bc bd3d 7461 2bbe
00000220: 219e 8a3e 0a97 3dbe 221d eb3d 50dd 073e
00000230: a095 0f3e bb05 42bf dbee 143e 3ce9 3c3e
00000240: 965e 20ba 7ddd 1d3e 4292 9ebc 6289 2dbe
00000250: 8358 143f ff7c 19bf 32ed 333e 5b4a 27be
00000260: c503 143f 2f10 f33d 40de 173e 2f9d d7bd
00000270: 05db a03d 004d 6cbe 0c74 e4b9 7227 2cbe
00000280: 3df2 73be 8806 01bd 091a 843c c7f4 233f
00000290: 1040 003e e648 9c3e 81ab 383e b459 fd3d
000002a0: e45b 72bc b33a c1be af36 913e ee8d 803e
000002b0: 3ce2 3bbd 2329 16bf 403d cebe 0b37 c3be
000002c0: d6e6 153d 4978 a4be 95a5 59bf 9a25 9dbd
000002d0: e1f5 e13e dd9d 303f f250 c9bd afb8 833e
000002e0: 573d 19bf dc18 253e 2d6f e23e 54b0 d0bc
000002f0: ebf2 2e3d a424 b53c ce4a 6a3e 455f d43c
00000300: 665a 27bf 2e32 a3be 4d2d 18bf 226d 023f
00000310: cfa8 203f 94bd 11bf c8fd 1f3f e074 edbe
00000320: 67fb 053f c8b9 cdbe b911 f03e 8754 ed3e
00000330: e8fe cf3e d142 2b3f 8164 e33e b0d9 253f
00000340: 4e51 ebbe b9fa fabe dc11 193f 4296 e1be
00000350: eba0 fbbe 3a90 0bbf 3c68 f0be 3579 19bf
00000360: 0367 1abf 73fa 033f d4ac c23e cbd9 12bf
00000370: e8df 093f f66c babe f02e edbe 4dda 09bf
00000380: 6946 18bf 3b39 0bbf 7759 11bf db60 22bf
00000390: e0a7 18bf 7fd0 063f 9fb6 15bf 50f8 e53e
000003a0: 0752 ccbe bc84 c73e 590b 103f 8e86 25bf
000003b0: 78db bb3e ca9d 2e3f 5656 0fbf 62de 203f
000003c0: bbf2 c0be 7a30 d8be 0b4a fb3e db9f e7be
000003d0: 5e10 f93e 386e 083f 6b3b 023f e9ad 2b3f
000003e0: 46a3 0f3f 942b 103f 692b 1dbf 8796 05bf
000003f0: cc06 babe d6ff fa3e b2b8 103f f01b ec3e
-0.39528108 -0.40371013 -0.49115413 0.5180947 0.45456156 -0.529233 0.3685948 -0.41703966
0.47169036 -0.29104164 0.54429376 0.5946893 0.52354604 0.5769092 0.55486524 0.4136128
-0.34173375 -0.44020066 0.44080344 -0.39316067 -0.592734 -0.38674837 -0.43808073 -0.4427345
-0.59955204 0.4230403 0.4339377 -0.51446503 0.464786 -0.41460016 -0.42679173 -0.32297724
-0.6202381 -0.41316667 -0.40984377 -0.46895936 -0.4065728 0.52655244 -0.5542443 0.28360656
-0.5373589 0.5251841 0.48324862 -0.41727242 0.5378764 0.46931598 -0.3308139 0.45136762
-0.41401395 -0.41341528 0.45355237 -0.48844224 0.419919 0.53373784 0.33957645 0.44415694
0.4457386 0.3305748 -0.5367538 -0.38502464 -0.40636632 0.45734283 0.5444217 0.37570438
-0.0340848 -0.012597681 0.058775235 0.027592178 -0.10179122 0.0018513625 -0.103337795 -0.091242895
0.0009066994 -0.06112801 0.09290067 -0.07406172 -0.03252424 0.04915415 0.025638856 0.022898199
0.008553988 -0.012619498 -0.074675284 0.13678944 0.10733201 -0.053942475 0.082840614 0.05337224
-0.0774524 -0.06745153 -0.01287212 -0.067830145 -0.08652888 0.010037857 -0.09735848 -0.068298444
0.028548142 0.004347071 0.06648394 0.09491771 0.0945361 -0.075456925 0.027987083 -0.053933464
0.043357715 -0.13114673 0.08932246 0.0874834 -0.044671755 -0.05909 0.11393085 0.056488514
0.13328579 -0.06154555 -0.09909871 -0.09829314 -0.031518146 0.006087781 0.089597106 -0.07158472
-0.12019069 -0.0014982644 0.029719569 0.05002224 -0.03704098 -0.11043491 -0.12358971 0.116987325
0.42749107 -0.47492382 -0.022223415 0.46880233 -0.015873278 0.3020076 0.09264426 -0.16736394
0.27073768 -0.18514648 0.11480166 0.13268018 0.14021921 -0.75789994 0.14544241 0.18448347
-0.000611761 0.15416522 -0.01935685 -0.16946939 0.5794756 -0.59956354 0.17570952 -0.16336958
0.5781825 0.11868321 0.14830875 -0.10528027 0.07854275 -0.23076248 -0.0004357401 -0.16811922
-0.23822875 -0.03150037 0.016125696 0.64045376 0.12524438 0.30524367 0.18034174 0.12370625
-0.014792416 -0.37740096 0.28362033 0.25108284 -0.04587005 -0.5865652 -0.40281105 -0.38127932
0.036597095 -0.3212302 -0.85018283 -0.076731876 0.44132903 0.6899088 -0.09829892 0.2572684
-0.5985922 0.16122764 0.44225445 -0.025474705 0.042712133 0.022112198 0.22880098 0.025924334
-0.6537231 -0.31874222 -0.59444124 0.50947773 0.6275758 -0.569299 0.62496614 -0.4637823
0.52336735 -0.40180802 0.4688852 0.46353552 0.40624166 0.6689883 0.44412616 0.6478529
-0.45960468 -0.4901941 0.59792876 -0.4405995 -0.49146208 -0.5451695 -0.46954525 -0.5995057
-0.60313433 0.5155403 0.38022482 -0.57363576 0.5385728 -0.36411256 -0.46324873 -0.53848726
-0.5948244 -0.543842 -0.5677714 -0.6342904 -0.59631157 0.5266189 -0.5848178 0.4491601
-0.39906332 0.38968456 0.56267315 -0.6465844 0.3669088 0.68209517 -0.55991113 0.6283933
-0.3768519 -0.42224485 0.49079928 -0.45239148 0.486453 0.5329318 0.50871915 0.6706224
0.5610851 0.56316495 -0.61394364 -0.5218281 -0.3633331 0.49023312 0.5653182 0.46115065

fc_layer.bias f4 [64]
00000000: 4288 013f e77d 2bbd c17f 00be fdec 1b3f
00000010: e63e a23e e336 0e3f 2b03 073f 16be febb
00000020: aa8a 863d 3965 073f d863 1a3f 4de0 093f
00000030: d2d6 933e 53f3 843d 330e fd3d 556d 99bd
00000040: dc90 4d3d 1ff6 0abd 09f2 9c3e 9bd3 073d
00000050: 8a10 223d 606e ddbc 1213 433e 85ec 843d
00000060: 8014 f73e fb66 d53e f581 52bd 6099 f83e
00000070: fdee a63d d809 883e f641 403e 2750 333d
00000080: ac72 f53e 36b3 8e3c bc58 a83d 9209 0c3e
00000090: 24c7 833d da73 ef3e 3d63 16bd eae3 21bb
000000a0: 418d 6cbd 2c97 fd3e 2fea 143f d695 f03e
000000b0: 4437 dd3d df24 853d fc44 ab3e 0282 113f
000000c0: 6b79 d73d 20d1 5b3e c9dc 0c3f db63 b23e
000000d0: 199d c63e d04c 18bd 7c67 fd3e 38a5 ff3e
000000e0: be21 e13e a4fe 143f 508e 0b3f 00ab 903e
000000f0: d96d e03c 29b7 a43d 10d2 c73e e1de f4bc
0.5059854 -0.041868117 -0.12548734 0.6090849 0.31688613 0.555525 0.5273921 -0.007774125
0.06569417 0.5288883 0.603086 0.5385788 0.28874832 0.06491723 0.12356224 -0.074915566
0.050186977 -0.033926126 0.30653408 0.033160787 0.039566554 -0.02703017 0.19050243 0.06490425
0.48257828 0.4168013 -0.051393468 0.48554516 0.08151052 0.2657001 0.18775162 0.04377761
0.4793905 0.017419439 0.0822005 0.13675526 0.064344674 0.46768075 -0.036715735 -0.0024702498
-0.057751898 0.49529397 0.58169836 0.46989316 0.10801557 0.06501173 0.33451068 0.56839
0.105212055 0.21466494 0.5502439 0.3484181 0.3879173 -0.03718263 0.49493015 0.4993074
0.43971056 0.5820105 0.54514027 0.28255463 0.02739613 0.080427475 0.39027452 -0.029891433

output_layer.weight f4 [1, 64]
00000000: d4d9 173f d7ae 9fbc 29f6 3bbf 1522 003f
00000010: cdf9 133f b9e3 073f d84e 123f c229 06bf
00000020: c488 84bf 78b5 0d3f 5ebe 023f 025d 143f
00000030: d1ff 143f 52a9 27bf 04f1 25bf 59e1 f3be
00000040: 9fea 81bf 46d8 41bf d62f 1a3f 12f3 82bf
00000050: 4c84 72bf 568c 93bd bba7 73bf e921 a4bd
00000060: eede 073f 4ef8 183f 0c4f 4fbf a172 0c3f
00000070: 0168 56bf bdd8 6cbf b361 6bbf 31fb b3be
00000080: 5cc1 143f 71f4 5cbf eea7 18bf 1ca8 63bf
00000090: 658f babd 3f1e 193f d409 3bbf 74b7 41bf
000000a0: 31c6 0d3f cfcd 163f bba7 023f 01af 093f
000000b0: 2b30 6abf 5cc6 07bf 9637 923f 3d24 053f
000000c0: 8c98 1fbd 287e 983f d8f4 113f 6037 053f
000000d0: 2b51 133f b7a4 5cbf bc31 063f c58f 1a3f
000000e0: fb01 0c3f 3dc4 033f b85a 0c3f 00b2 5dbf
000000f0: 5f3b 46bf 068e 80bf 9e61 1d3f 281d 57bf
0.59316754 -0.01949255 -0.73422486 0.50052005 0.5780304 0.5308185 0.57151556 -0.5240747
-1.0354238 0.55355024 0.5107173 0.5795442 0.58202845 -0.6549274 -0.64820886 -0.47632864
-1.0149726 -0.7572063 0.6022924 -1.0230429 -0.9473312 -0.07204501 -0.9517781 -0.0801428
0.5307454 0.5975388 -0.8097999 0.5486241 -0.8375245 -0.92518216 -0.9194595 -0.3515258
0.58107543 -0.8631049 -0.5963124 -0.8892839 -0.091093816 0.59811777 -0.7306187 -0.7567055
0.5538054 0.5890779 0.51037186 0.5378266 -0.9147975 -0.5303705 1.1423213 0.5200842
-0.03896384 1.19135 0.57014227 0.5203762 0.5754573 -0.86188835 0.5241964 0.60375625
0.5469052 0.5147131 0.54825926 -0.8659973 -0.77434343 -1.0043342 0.61477077 -0.84028864
