TimeGAN4paper/result/iter6000/model/SK_lag1_total1/torch_best_model.pt (torch, 87834 bytes, 7 tensors)

lstm.weight_ih_l0 f4 [256, 1]
0.052510694 0.18648197 -0.03636496 -0.0018988249 -0.020924898 0.18796217 0.068644375 0.017335517
0.022224959 0.043575168 0.030927382 -0.06707727 -0.1018768 -0.034232315 -0.07817025 0.040451724
0.07566722 0.20958766 0.014539765 0.0052804155 0.24234892 0.14984934 0.022067148 0.15457208
0.15324289 0.142954 0.05503684 -0.06488076 -0.04533877 0.0077654477 -0.012276427 0.122088805
-0.10661485 0.03710082 -0.0045379377 -0.07273785 -0.008414416 0.09827308 0.088486984 0.056527115
0.079056144 -0.0077793607 0.06981778 -0.1014495 -0.03438667 0.040164277 0.18711114 0.20499194
-0.041054565 0.026651654 0.17228633 0.13736512 0.048650045 0.004314324 0.043991372 -0.049894966
0.25691813 -0.053790376 0.0051139705 -0.061566383 0.08889697 0.085363604 0.013409683 0.0870467
-0.0027676194 -0.031036558 -0.18895835 0.02248687 0.061522182 0.033855975 -0.008537894 -0.016541116
0.07042122 0.08403057 0.04231454 0.092675045 0.040316857 -0.041403905 0.009373851 -0.031862356
0.009571878 0.097989686 0.030005729 -0.029339025 0.033459067 -0.116569795 -0.010505589 0.021476613
0.031042846 -0.0088248765 -0.022168634 -0.05388522 0.035676617 0.044914953 -0.043699794 -0.035533927
0.056445133 0.047572333 -0.009700486 -0.022242008 0.064853616 0.09470459 -0.0039653424 -0.0118240565
-0.047513686 0.026265617 -0.02092922 -0.13584988 -0.006166872 0.016888933 -0.004364391 0.060036026
-0.014101498 0.07027897 0.04680713 -0.03837275 -0.0113119865 -0.018998267 -0.016463084 0.0076977815
0.032950666 -0.00016888634 -0.022606524 0.030478828 -0.054024197 -0.032856386 -0.0030141391 -0.030137809
-0.08492718 -0.057457022 -0.0033990098 0.07890862 -0.029112639 -0.03158737 0.09872719 -0.062512256
0.0145779755 0.002336181 0.0517285 0.091586076 0.10562518 0.0851436 0.12261416 0.03972306
-0.04689101 -0.09648051 0.10731023 -0.017177394 -0.074384816 -0.11274158 -0.16128588 -0.124463364
-0.07419432 0.054964326 0.10410945 -0.10360022 0.02481299 -0.05403608 -0.048422255 -0.015842382
-0.045844242 -0.00049783697 -0.10968513 -0.115574576 -0.027955992 0.015791258 -0.046447754 0.07235631
-0.16218497 -0.01198026 0.13532586 -0.023841087 0.08319149 0.09284409 -0.06618049 0.103234686
-0.035810962 -0.0068278057 0.08275774 -0.08754208 0.0064692334 0.0030759184 0.121959604 -0.0041470923
0.06734724 0.05995493 -0.085909925 -0.036074854 -0.13353819 0.09896121 0.15277869 0.12988701
0.009959405 0.078535564 -0.2100599 -0.004336203 0.02902214 0.16630274 0.014930735 0.049090672
0.03767121 0.100956015 -0.0053086425 0.018635748 -0.0010813824 0.12076254 0.031600215 0.1509806
0.038445927 0.15053792 0.0634422 0.038397692 0.07227212 -0.07628666 0.05552416 0.06767213
0.03537536 0.038412977 0.09722239 -0.20749441 0.058686644 0.075017944 0.118507564 0.046631604
0.039195552 0.071483105 0.0046391855 0.033682972 0.022996379 0.05139749 0.08705729 0.10822326
0.07958413 0.11149348 0.11327763 -0.14829715 0.08599563 0.0074233324 0.013687758 0.10789418
0.07301682 0.12048004 0.031795647 0.035726957 0.10780408 -0.014706293 0.10552138 -0.0036641029
0.11694665 0.023375956 0.023604546 0.10093613 0.1255618 0.041647673 0.018939115 0.02385485
00000000: 7415 573d 21f5 3e3e 6df3 14bd fee1 f8ba
00000010: b16a abbc 2879 403e 6c95 8c3d 3703 8e3c
00000020: 1e11 b63c e07b 323d 6c5b fd3c cf5f 89bd
00000030: c9a4 d0bd 2f37 0cbd b917 a0bd b5b0 253d
00000040: 6af7 9a3d 269e 563e 3238 6e3c 5607 ad3b
00000050: 512a 783e 1b72 193e 2ac6 b43c 2548 1e3e
00000060: b4eb 1c3e 8962 123e 4f6e 613d 34e0 84bd
00000070: 25b5 39bd 4c75 fe3b 1123 49bc b209 fa3d
00000080: e358 dabd 08f7 173d fbb2 94bb 95f7 94bd
00000090: 9edc 09bc 6643 c93d aa38 b53d fa88 673d
000000a0: 30e8 a13d 02ea febb a0fc 8e3d c1c4 cfbd
000000b0: 09d9 0cbd 4c83 243d 109a 3f3e 68e9 513e
000000c0: d528 28bd 9254 da3c d46b 303e 71a9 0c3e
000000d0: 4545 473d 2c5f 8d3b 4c30 343d aa5e 4cbd
000000e0: c68a 833e 4c53 5cbd 1893 a73b 082d 7cbd
000000f0: 9d0f b63d 1dd3 ae3d 49b4 5b3c 8a45 b23d
00000100: f360 35bb 6140 febc 4c7e 41be 6236 b83c
00000110: affe 7b3d 90ac 0a3d 86e2 0bbc 3c81 87bc
00000120: 0039 903d 3818 ac3d 0352 2d3d 6acc bd3d
00000130: 4a23 253d 2497 29bd c894 193c 1a82 02bd
00000140: 5ed3 1c3c d1ae c83d 93ce f53c 6558 f0bc
00000150: 600c 093d 25bc eebd a21f 2cbc b9ef af3c
00000160: 914d fe3c 3796 10bc ff9a b5bc c0b6 5cbd
00000170: a521 123d bef8 373d 8efe 32bd 068c 11bd
00000180: 0333 673d 35db 423d caee 1ebc df34 b6bc
00000190: f9d1 843d 7bf4 c13d b4ef 81bb b0b9 41bc
000001a0: b69d 42bd fe2a d73c c173 abbc 3b1c 0bbe
000001b0: 7913 cabb a95a 8a3c 2a03 8fbb 56e8 753d
000001c0: f809 67bc 6cee 8f3d d5b8 3f3d bf2c 1dbd
000001d0: e955 39bc 41a2 9bbc 97dd 86bc ac3d fc3b
000001e0: 47f7 063d 1517 31b9 5131 b9bc bcae f93c
000001f0: 7a48 5dbd 6b94 06bd dd88 45bb 91e3 f6bc
00000200: 4dee adbd 0e58 6bbd ecc1 5ebb d89a a13d
00000210: a17d eebc c261 01bd 7b31 ca3d 6d06 80bd
00000220: 76d8 6e3c 9d1a 193b 43e1 533d 7b91 bb3d
00000230: 0452 d83d c55f ae3d 221d fb3d a6b4 223d
00000240: ca10 40bd 9397 c5bd 77c5 db3d 9bb7 8cbc
00000250: 1157 98bd 0fe5 e6bd 2028 25be a6e6 febd
00000260: 31f3 97bd 4622 613d 5637 d53d 5a2c d4bd
00000270: 9d44 cb3c f054 5dbd 6a56 46bd e2c7 81bc
00000280: 2cc7 3bbd 4681 02ba 99a2 e0bd 5db2 ecbd
00000290: f703 e5bc ab5c 813c 0040 3ebd 8c2f 943d
000002a0: d113 26be da48 44bc dd92 0a3e 624e c3bc
000002b0: 4d60 aa3d 0b25 be3d a389 87bd b56c d33d
000002c0: 84ae 12bd c9bb dfbb e47c a93d 4349 b3bd
000002d0: ddfb d33b 5995 493b f5c5 f93d 55e4 87bb
000002e0: 5aed 893d 4d93 753d 8bf1 afbd 3ac3 13bd
000002f0: 3cbe 08be 2dac ca3d 0472 1c3e 1a01 053e
00000300: c62c 233c 41d7 a03d f119 57be b516 8ebb
00000310: d7bf ed3c 444b 2a3e 0ba0 743c 4d13 493d
00000320: 204d 1a3d 07c2 ce3d 1ff4 adbb ffa9 983c
00000330: 2cbd 8dba 5a52 f73d 3a6f 013d a99a 1a3e
00000340: 7a79 1d3d 9d26 1a3e fced 813d e646 1d3d
00000350: 6803 943d 2e3c 9cbd 4d6d 633d b097 8a3d
00000360: c1e5 103d ed56 1d3d 881c c73d 6a79 54be
00000370: 6861 703d 02a3 993d 18b4 f23d c800 3f3d
00000380: 848b 203d bc65 923d 4f04 983b 28f7 093d
00000390: e762 bc3c 2d86 523d 184b b23d 28a4 dd3d
000003a0: 01fd a23d b256 e43d 1afe e73d 35db 17be
000003b0: 7a1e b03d 6d3f f33b 9e42 603c a0f7 dc3d
000003c0: d889 953d 3dbe f63d 273c 023d 6e56 123d
000003d0: 63c8 dc3d aaf2 70bc 981b d83d 7221 70bb
000003e0: ba81 ef3d ef7e bf3c 525e c13c 9ab7 ce3d
000003f0: 4693 003e c096 2a3d 3426 9b3c 3f6b c33c

lstm.weight_hh_l0 f4 [256, 64]
0.0034934198 0.10829858 0.0020034409 -0.15356205 0.048644554 0.1032696 -0.04179193 0.08230914
0.1439089 -0.12728503 -0.07744793 -0.037407443 -0.010063053 0.06833631 -0.1486049 0.0105057275
-0.18632594 0.09675502 -0.088453226 -0.17989904 0.19835347 0.065025635 -0.013903026 0.13155203
0.16856582 -0.10113025 -0.12570743 0.25632158 0.13126943 0.035092548 -0.081846446 -0.035547864
-0.013884416 -0.10192607 0.028823566 0.053142693 -0.009461941 0.08433621 -0.101943545 -0.05706182
0.17537478 -0.1663163 0.088168725 0.051363617 -0.0013659687 -0.0786202 -0.08946101 0.022629552
-0.04542386 -0.14737311 -0.084136985 -0.01655752 0.12107806 0.08046005 -0.1481687 -0.12961674
-0.076192126 0.040059384 0.13085598 0.16450705 -0.099096075 -0.040059716 -0.062641166 -0.12146228
0.09632021 -0.013313616 -0.13440058 -0.04732651 0.11395294 0.07223704 0.1098689 0.047905196
0.12738386 -0.12350776 -0.17196931 -0.23322871 0.006234983 0.1394934 -0.19625752 0.12875314
0.034114122 0.14279227 0.052761123 0.08170891 -0.09252516 -0.04039346 0.15334861 0.002794935
-0.17964748 0.20507519 0.034195404 0.061891 -0.17594373 -0.026504202 -0.12889731 0.091429666
0.008638818 -0.023291081 0.09316507 0.091076374 -0.117584795 0.04409386 -0.12577903 0.03923817
-0.031110158 -0.20917125 -0.04351837 0.111228794 0.12520464 0.25773317 0.01930058 -0.14242072
-0.15382002 -0.16411193 -0.039476383 0.08594679 -0.023283055 -0.038570423 -0.130607 -0.109839275
0.17533168 0.12805553 0.14357117 0.15438505 0.09237282 -0.07440579 -0.031026684 0.009090487
-0.059917737 0.19935653 0.21511514 0.18707745 0.17486112 0.2467583 -0.13989715 -0.17495099
0.13488217 -0.23287758 -0.0029926323 0.12055645 0.20000833 0.040152684 0.039394233 0.16395825
-0.035108507 0.07230133 0.028539883 -0.05416078 0.2518046 0.013778022 0.023194874 0.22876054
0.12221233 -0.112954 0.027826032 0.16107409 0.1833164 -0.12529217 -0.15268509 -0.27910528
0.021300964 -0.23937441 -0.10290824 0.0044502253 0.008225901 0.1188402 -0.15881123 0.1791595
0.014875798 -0.26658264 0.046667755 0.15542704 0.046659045 -0.077096574 -0.10030862 0.16380519
-0.02927022 -0.127478 -0.24617605 -0.21265574 0.22823016 0.15362114 0.10709611 -0.34140038
-0.25983387 0.048377026 -0.10871628 0.11519224 -0.1966081 0.14404012 0.012795472 0.10891651
-0.005532486 -0.08091382 0.2981301 0.0722392 0.3513805 0.099928714 -0.25453833 -0.013507433
0.19748284 -0.10720746 -0.05938958 -0.12727717 -0.18157132 0.06104437 0.031720173 -0.004597523
-0.10757728 0.08920197 0.04824823 -0.27919504 -0.0015144086 0.124917395 -0.042046297 0.16652444
0.18858884 -0.022469742 0.08755623 0.042118464 -0.144781 -0.05420033 -0.13126138 -0.107158735
0.08549426 -0.25030226 -0.087408856 0.0383976 -0.09920045 0.25557446 -0.04380812 0.14557078
-0.00960172 -0.19650424 0.05285662 0.2525271 0.1876367 -0.2062011 0.020376962 0.0482799
-0.282986 -0.1289484 0.029681575 -0.04623824 0.032781813 0.3119064 0.08976531 -0.15760428
0.041647445 0.13055834 0.035763457 0.18327315 -0.082797214 0.024505246 -0.041420773 0.015756572
00000000: dcf1 643b a5cb dd3d 294c 033b 5f3f 1dbe
00000010: 833f 473d 037f d33d 042e 2bbd b291 a83d
00000020: db5c 133e 0257 02be 059d 9ebd 8c38 19bd
00000030: 81df 24bc e8f3 8b3d e22b 18be 3720 2c3c
00000040: 3acc 3ebe 7f27 c63d f726 b5bd 7437 38be
00000050: 2c1d 4b3e 292c 853d 84c9 63bc 93b5 063e
00000060: 859c 2c3e 601d cfbd 73b9 00be 953c 833e
00000070: 7e6b 063e 34bd 0f3d 1c9f a7bd a39a 11bd
00000080: 767b 63bc 9ebe d0bd 661f ec3c 27ac 593d
00000090: 4206 1bbc 76b8 ac3d c7c7 d0bd a8b9 69bd
000000a0: 7295 333e d24e 2abe ce91 b43d a862 523d
000000b0: 4e0a b3ba a103 a1bd 5637 b7bd 9c61 b93c
000000c0: 5f0e 3abd fae8 16be 0350 acbd a3a3 87bc
000000d0: c6f7 f73d 3dc8 a43d 89b9 17be 40ba 04be
000000e0: 9e0a 9cbd 4f15 243d 1cff 053e 8974 283e
000000f0: e2f2 cabd a815 24bd 034a 80bd 37c1 f8bd
00000100: 8843 c53d 5a21 5abc 4ea0 09be 71d9 41bd
00000110: 2960 e93d 03f1 933d f202 e13d 3d38 443d
00000120: ea70 023e a3f1 fcbd b918 30be 82d3 6ebe
00000130: d44e cc3b 5cd7 0e3e bbf7 48be ddd7 033e
00000140: 40bb 0b3d 2338 123e 0c1c 583d 0057 a73d
00000150: d57d bdbd 9d73 25bd 6b07 1d3e 3a2b 373b
00000160: 82f5 37be 3bff 513e 7b10 0c3d 6b81 7d3d
00000170: 982a 34be 571f d9bc a8fd 03be 7a3f bb3d
00000180: d489 0d3c f0cc bebc 54cd be3d 4086 ba3d
00000190: 4cd0 f0bd c39b 343d 38cc 00be 34b8 203d
000001a0: bbda febc fd30 56be 5140 32bd eccb e33d
000001b0: a535 003e 9af5 833e 401c 9e3c bdd6 11be
000001c0: ff82 1dbe f50c 28be fdb1 21bd df04 b03d
000001d0: 1bbc bebc 05fc 1dbd d7bd 05be 6af3 e0bd
000001e0: 268a 333e fd20 033e 5204 133e 1d17 1e3e
000001f0: f62d bd3d 1062 98bd ac2b febc 44f0 143c
00000200: 4d6c 75bd 1e24 4c3e 2547 5c3e 3b91 3f3e
00000210: cb0e 333e 35ae 7c3e 3341 0fbe 5a26 33be
00000220: 8d1e 0a3e 7677 6ebe 0a20 44bb 4de6 f63d
00000230: fcce 4c3e 2477 243d d95b 213d ace4 273e
00000240: f0cd 0fbd b812 943d 79cc e93c b2d7 5dbd
00000250: 88ec 803e 36bd 613c 2d03 be3c 3440 6a3e
00000260: 754a fa3d 6d54 e7bd 6bf3 e33c 9bf0 243e
00000270: 4bb7 3b3e 974c 00be 7b59 1cbe e3e6 8ebe
00000280: 5c7f ae3c 911e 75be 8ec1 d2bd 32d3 913b
00000290: eec5 063c 7e62 f33d 699f 22be 9775 373e
000002a0: 9eb9 733c 857d 88be b026 3f3d 4428 1f3e
000002b0: 8e1d 3f3d cfe4 9dbd 9b6e cdbd 8cbc 273e
000002c0: 1ac8 efbc 9889 02be 9315 7cbe 6dc2 59be
000002d0: 2bb5 693e dc4e 1d3e 3555 db3d 08cc aebe
000002e0: f208 85be fd26 463d a4a6 debd e9e9 eb3d
000002f0: a253 49be 417f 133e 19a4 513c 9f0f df3d
00000300: db49 b5bb 25b6 a5bd 82a4 983e 25f2 933d
00000310: 25e8 b33e 6da7 cc3d d952 82be 484e 5dbc
00000320: f138 4a3e 968f dbbd 7d42 73bd f254 02be
00000330: d5ed 39be a909 7a3d 03ed 013d d1a6 96bb
00000340: 7a51 dcbd 86af b63d f09f 453d a7f2 8ebe
00000350: 1f7f c6ba b1d4 ff3d bd38 2cbd 6285 2a3e
00000360: 6f1d 413e 7712 b8bc ae50 b33d 6984 2c3d
00000370: 7841 14be 2a01 5ebd 6269 06be 0a76 dbbd
00000380: 9d17 af3d 9e27 80be 6a03 b3bd cd46 1d3d
00000390: 9b29 cbbd a8da 823e 2570 33bd 8210 153e
000003a0: 8850 1dbc 6838 49be 2f80 583d 3b4b 813e
000003b0: d623 403e 6226 53be 96ed a63c 25c1 453d
000003c0: 8ae3 90be 0d0b 04be c626 f33c 4f64 3dbd
000003d0: 3946 063d 32b2 9f3e e0d6 b73d 0463 21be
000003e0: 8396 2a3d 16b1 053e b47c 123d f5ab 3b3e
000003f0: 9691 a9bd 3abf c83c d4a8 29bd ed13 813c

lstm.bias_ih_l0 f4 [256]
0.2222501 0.08852251 0.11578075 0.20546529 0.16544522 0.06177353 -0.022541353 -0.026931902
0.032740455 0.020185271 0.06320494 0.046885323 0.006068307 0.14038447 0.20351113 0.17630728
0.06541712 0.07881581 -0.009609155 0.07716167 0.14163704 -0.005427919 0.1389029 0.15981878
0.0337456 -0.010840113 0.19146468 -0.12109343 0.106224306 0.07189329 0.08517678 -0.004692847
0.053262874 0.15760633 0.08856834 0.11437692 0.12826024 0.16639976 0.20192899 0.11844942
0.029863438 0.032229953 0.018478675 0.10211051 0.19605914 0.19512692 0.03823223 0.16938053
-0.043195907 -0.09262785 0.17997983 0.13709715 -0.04147104 0.07756687 0.19494443 0.056158382
0.034358453 0.1312063 0.15599862 0.093704544 0.077458 -0.0013601474 0.1411662 -0.033014514
0.1684552 -0.112934776 0.1101667 0.15316875 -0.0018597182 -0.038375232 -0.0024558674 -0.025822798
0.047620796 0.020848896 -0.04647686 0.06991519 0.03726593 0.12081537 0.09567109 0.06122363
0.1173136 0.025764773 0.16326822 0.11933349 0.0070244363 0.06990106 0.11388561 0.042377252
0.015653094 -0.015608871 0.08850554 -0.015699523 0.16549739 0.1320746 0.10310291 0.044382572
-0.030923726 0.095422715 0.162611 -0.023711512 0.14899066 0.0759523 0.1655217 0.0965227
0.14770973 0.14760797 0.12373554 0.04413131 0.21561906 -0.088366635 0.08466999 -0.0011032413
0.002386437 -0.06446506 -0.011611552 0.13475454 0.062151358 0.033325337 -0.028452741 0.08817959
-0.12402229 0.068197235 0.17108916 0.17688458 0.1239406 -0.019671664 -0.038534507 0.027957603
-0.03361528 -0.113231376 -0.08933233 -0.01230746 0.18155433 -0.05835928 -0.00592611 -0.12534153
0.1324336 -0.21337855 -0.004351726 -0.04087063 -0.08918611 -0.02139694 -0.062520824 0.019312177
-0.0657097 -0.019726986 0.09008188 0.0015102741 0.01591015 0.12209455 -0.06465006 0.17462535
0.05843953 0.044484127 0.05175491 -0.037717327 -0.058160424 -0.029854067 -0.115727864 -0.04222113
-0.04864857 -0.0763499 -0.011450231 -0.13023342 0.027921662 -0.026262427 -0.024559299 -0.03459959
0.07063016 0.0610765 0.03252708 -0.012369866 0.10208519 0.023642065 -0.048269946 0.016941646
0.07366953 0.045935873 -0.07823495 -0.12542477 0.11458093 0.011197832 -0.041700147 -0.11530521
-0.026610525 0.011838518 0.048767045 0.111777164 -0.056089655 -0.037339635 0.14758562 -0.069403715
0.18027702 0.075314514 0.28161755 0.1721214 0.005423019 -0.09517517 0.15215464 0.0076348637
0.10699084 0.011348748 -0.0025039169 0.08244963 0.19861853 -0.011987187 0.018912027 0.07965943
0.12136275 0.13633937 -0.0072755907 0.14181575 0.09692144 0.024306122 -0.042464584 0.024055801
0.19679214 0.11897197 -0.0077170143 0.17929368 0.030830462 -0.12245277 0.043696437 0.20865414
0.12100245 0.1372547 -0.011452725 -0.078137614 0.15519837 0.05735548 0.18148005 -0.007978945
0.16275188 -0.0617182 -0.07101033 0.09408996 -0.085771106 0.10870034 -0.007444072 0.023052862
0.06717493 -0.0020751017 0.21188582 0.14175968 0.015184012 0.044467412 -0.018564101 0.055969562
-0.042140577 0.15688649 0.22128226 0.14857587 0.08187776 0.02297267 0.045842916 0.053355258
00000000: 8895 633e 4a4b b53d 751e ed3d 7e65 523e
00000010: 796a 293e 3e06 7d3d a5a8 b8bc 4ba0 dcbc
00000020: db1a 063d 955b a53c 9771 813d d30a 403d
00000030: a6d8 c63b f2c0 0f3e 3965 503e e589 343e
00000040: 69f9 853d 2f6a a13d b86f 1dbc f006 9e3d
00000050: 4d09 113e afdc b1bb 903c 0e3e 89a7 233e
00000060: d438 0a3d bb9a 31bc 510f 443e d5ff f7bd
00000070: 218c d93d ca3c 933d 2a71 ae3d 74c6 99bb
00000080: 2c2a 5a3d 8e63 213e 5163 b53d 723e ea3d
00000090: a756 033e b364 2a3e 79c6 4e3e 9c95 f23d
000000a0: 2ba4 f43c 8e03 043d 9760 973c 511f d13d
000000b0: bac3 483e 5acf 473e 6699 1c3d 1772 2d3e
000000c0: 31ee 30bd acb3 bdbd a24c 383e 3263 0c3e
000000d0: 8add 29bd 61db 9e3d 839f 473e 5506 663d
000000e0: 73bb 0c3d f25a 063e 1abe 1f3e 2be8 bf3d
000000f0: 4da2 9e3d f946 b2ba df8d 103e 3a3a 07bd
00000100: 857f 2c3e 594a e7bd 149f e13d 45d8 1c3e
00000110: cac1 f3ba 592f 1dbd 9ef2 20bb 558a d3bc
00000120: 060e 433d 4ecb aa3c 855e 3ebd b22f 8f3d
00000130: 29a4 183d 0c6e f73d 34ef c33d a1c5 7a3d
00000140: 1d42 f03d a510 d33c c92f 273e 1e65 f43d
00000150: 3e2d e63b 4928 8f3d dc3c e93d c593 2d3d
00000160: eb3a 803c 5abc 7fbc 6442 b53d 499c 80bc
00000170: 2678 293e 903e 073e 9e27 d33d 80ca 353d
00000180: c153 fdbc fc6c c33d 7f83 263e a53e c2bc
00000190: 0291 183e e18c 9b3d 857e 293e b1ad c53d
000001a0: 3841 173e 8b26 173e 0f69 fd3d 08c3 343d
000001b0: 3ecb 5c3e 91f9 b4bd 7667 ad3d a39a 90ba
000001c0: c565 1c3b 4206 84bd 613e 3ebc 18fd 093e
000001d0: 6c92 7e3d 2680 083d b915 e9bc 8097 b43d
000001e0: 66ff fdbd feaa 8b3d ff31 2f3e 3b21 353e
000001f0: 92d4 fd3d 7826 a1bc 5cd6 1dbd 5807 e53c
00000200: 2db0 09bd dae5 e7bd def3 b6bd 3ba5 49bc
00000210: 61e9 393e 240a 6fbd d02f c2bb 8859 00be
00000220: ac9c 073e e87f 5abe ec98 8ebb f667 27bd
00000230: 35a7 b6bd a348 afbc eb0a 80bd 9234 9e3c
00000240: cf92 86bd 7d9a a1bc d97c b83d 64f4 c53a
00000250: 0156 823c b50c fa3d 4067 84bd fdd0 323e
00000260: 4a5e 6f3d fd34 363d f5fc 533d 7c7d 1abd
00000270: a039 6ebd 8490 f4bc bb02 edbd 10f0 2cbd
00000280: b943 47bd 565d 9cbd c099 3bbc e95b 05be
00000290: f8bb e43c 4d24 d7bc 9530 c9bc 4db8 0dbd
000002a0: 8ca6 903d 5a2b 7a3d 1e3b 053d faaa 4abc
000002b0: 0a12 d13d 01ad c13c b5b6 45bd 35c9 8a3c
000002c0: 0de0 963d 4127 3c3d a539 a0bd 5a6f 00be
000002d0: 68a9 ea3d 1d77 373c c6cd 2abd 2325 ecbd
000002e0: 51fe d9bc 58f6 413c f4bf 473d 6deb e43d
000002f0: 44be 65bd 72f1 18bd af20 173e 8923 8ebd
00000300: 8a9a 383e 7f3e 9a3d 2d30 903e 9840 303e
00000310: 95b3 b13b 33eb c2bd 6dce 1b3e e12d fa3b
00000320: 031e db3d 19f0 393c c118 24bb 5adb a83d
00000330: a862 4b3e e865 44bc 65ed 9a3c 7c24 a33d
00000340: 098d f83d 8c9c 0b3e 1468 eebb 2638 113e
00000350: bf7e c63d a21d c73c 58ef 2dbd ac10 c53c
00000360: e183 493e 94a7 f33d 02df fcbb c398 373e
00000370: 2a90 fc3c 85c8 fabd 09fb 323d 6ea9 553e
00000380: 22d0 f73d 7f8c 0c3e 36a4 3bbc 9d06 a0bd
00000390: 52ec 1e3e 94ed 6a3d e8d5 393e 1fba 02bc
000003a0: 6ea8 263e 39cc 7cbd dd6d 91bd 3db2 c03d
000003b0: c3a8 afbd 499e de3d 67ed f3bb 5bd9 bc3c
000003c0: 0293 893d 6efe 07bb 99f8 583e 7329 113e
000003d0: 5dc6 783c 7623 363d be13 98bc 5740 653d
000003e0: 999b 2cbd daa6 203e d197 623e 4624 183e
000003f0: 87af a73d 2e31 bc3c c8c5 3b3d 0b8b 5a3d

lstm.bias_hh_l0 f4 [256]
0.044657696 -0.076344885 0.01886416 0.11479799 -0.01642357 0.0049615703 0.1941635 -0.030324878
0.04591382 0.18406485 0.042097677 0.1316107 0.0093793925 0.060747318 0.13981387 0.028015258
-0.081577785 0.05459884 0.07327572 0.18002766 0.01712585 0.06323726 0.027062492 -0.007763749
0.019414164 0.1020317 0.18897451 0.051941685 0.05271726 0.055187028 0.15379307 0.198438
0.19795282 0.08856111 0.08170598 0.16236085 0.12274056 0.00875842 0.24675795 0.06653131
0.17161398 0.1265723 0.08443186 -0.07667405 -0.04687867 0.021113439 0.16386458 0.1284995
0.041548416 -0.073190704 0.14357646 0.04699247 0.12940381 -0.050840806 0.08231522 0.12378209
0.04944843 -0.04969967 0.1997089 -0.013428827 -0.05769781 -0.031932663 -0.030711915 0.11775986
0.2088385 0.09762463 0.17956144 0.05397811 0.09020434 0.03697917 -0.084760696 0.030851591
0.098017834 0.19200288 0.11819881 0.058358796 0.07497626 0.17151721 0.19170982 -0.011288133
0.2317514 -0.008750111 0.04580598 0.10389162 0.058070328 -0.0355558 0.09510659 -0.057053715
-0.08283069 0.09931595 0.014761411 -0.040526383 0.12988992 0.1427162 0.07463233 0.08103019
0.047266185 0.10988455 0.17182496 0.101123825 0.11289108 0.1316963 0.1429891 0.06680892
0.0198762 0.018640198 0.11600612 0.07469674 0.03378777 -0.07604571 0.14491113 0.087863
0.17340536 0.08930571 0.016560355 0.08520641 0.015479828 0.11592253 -0.034522228 0.03076816
-0.15117075 0.0732798 0.00035601042 0.053161576 0.04772369 0.08091996 0.1484483 0.17048451
-0.029616186 0.073929876 -0.1033375 0.06053232 0.101122685 -0.16499199 -0.028315999 0.050210405
0.1655243 -0.013961944 0.10745497 -0.06569677 0.11729174 0.024770064 0.056011993 -0.072644606
-0.038744867 0.038209718 0.009242082 -0.14577219 -0.016593974 -0.050364487 -0.13197672 -0.040722862
0.14895974 0.14436527 0.039884903 0.08200398 0.018338991 -0.13624303 -0.06576158 -0.031184798
0.052095905 -0.06752895 -0.01214944 0.013865573 -0.15126234 0.08500417 -0.16410069 0.15074374
-0.013973769 -0.13082309 -0.020994565 -0.014672766 0.114764124 0.027383022 -0.08100402 -0.017560033
-0.15782799 -0.05530873 0.034372244 -0.17766093 0.01768626 0.16427648 0.13899978 -0.12001709
-0.14370617 0.18912333 -0.09505741 0.058701392 -0.12676236 0.06944714 0.056098662 -0.02890719
0.0389282 0.13738556 0.14151852 0.053204164 0.015523394 0.09635835 0.10066869 0.048638012
0.12141964 0.07181768 -0.006240433 0.1710706 0.16955337 0.050506372 0.081224926 -0.10395354
0.006787705 0.22732267 -0.005648168 -0.015910735 0.030416803 0.14924338 -0.051210128 0.06553483
0.10277535 0.07216379 -0.11117049 0.076938316 0.06597051 -0.03574822 -0.10266324 0.12610705
0.114625424 0.19461931 0.027402299 0.10922292 0.12628339 0.097760916 -0.03497763 -0.05345105
-0.027847249 0.03118994 -0.1478134 0.19797552 -0.13500586 0.18108268 0.05139379 -0.09837314
0.08374237 -0.14744836 0.13061284 0.2142573 -0.017549893 0.053351667 0.11828521 0.118284285
0.071097 0.15350266 -0.016695919 0.005526788 0.024026778 0.09819689 0.048325986 0.0010811151
00000000: fdea 363d b55a 9cbd 0389 9a3c 351b eb3d
00000010: b98a 86bc ab94 a23b ccd2 463e e16b f8bc
00000020: 2110 3c3d 7f7b 3c3e 9d6e 2c3d f5c4 063e
00000030: 06ac 193c 2ed2 783d 5e2b 0f3e 4180 e53c
00000040: 4112 a7bd 09a3 5f3d 9511 963d 2c59 383e
00000050: 834b 8c3c 8982 813d 29b2 dd3c 0c67 febb
00000060: 740a 9f3c fff5 d03d 8982 413e cec0 543d
00000070: 0eee 573d cb0b 623d ee7b 1d3e 5533 4b3e
00000080: 25b4 4a3e 875f b53d 7755 a73d ec41 263e
00000090: 675f fb3d 7a7f 0f3c 1eae 7c3e 9141 883d
000000a0: 93bb 2f3e 2b9c 013e 9cea ac3d 4907 9dbd
000000b0: d903 40bd 17f6 ac3c 1ecc 273e 5f95 033e
000000c0: ac2e 2a3d 02e5 95bd b505 133e 2d7b 403d
000000d0: 6f82 043e 733e 50bd e294 a83d 7781 fd3d
000000e0: 708a 4a3d e291 4bbd 7d80 4c3e 9504 5cbc
000000f0: 8a54 6cbd d3cb 02bd 8e97 fbbc 152c f13d
00000100: c2d9 553e 6cef c73d f4de 373e 2718 5d3d
00000110: 0ebd b83d 7877 173d 0497 adbd 7abc fc3c
00000120: 93bd c83d 679c 443e 3812 f23d a209 6f3d
00000130: 278d 993d 35a2 2f3e 944f 443e ddf1 38bc
00000140: 3d50 6d3e a05c 0fbc 0d9f 3b3d 21c5 d43d
00000150: 27db 6d3d f5a2 11bd 3ec7 c23d 28b1 69bd
00000160: 23a3 a9bd 2966 cb3d d8d9 713c fefe 25bd
00000170: dd01 053e 3224 123e d6d8 983d 28f3 a53d
00000180: 309a 413d 270b e13d e2f2 2f3e 021a cf3d
00000190: 7033 e73d 65db 063e bc6b 123e 1dd3 883d
000001a0: 6ad3 a23c 54b3 983c 9e94 ed3d 9bfa 983d
000001b0: 0b65 0a3d dabd 9bbd 9563 143e 84f1 b33d
000001c0: 2d91 313e e9e5 b63d 95a9 873c b380 ae3d
000001d0: 1b9f 7d3c cb68 ed3d 2e67 0dbd 820d fc3c
000001e0: 81cc 1abe b813 963d e9a6 ba39 f4bf 593d
000001f0: ea79 433d 5db9 a53d d502 183e 7e93 2e3e
00000200: a59d f2bc 8c68 973d 9ca2 d3bd bdf0 773d
00000210: 6919 cf3d a9f3 28be f4f6 e7bc 6da9 4d3d
00000220: 347f 293e a3c0 64bc 5a11 dc3d 078c 86bd
00000230: a736 f03d 97ea ca3c d56c 653d b2c6 94bd
00000240: f0b2 1ebd cb81 1c3d 1a6c 173c 4e45 15be
00000250: 16f0 87bc fe4a 4ebd e824 07be 04cd 26bd
00000260: e788 183e 7dd4 133e 5a5e 233d b4f1 a73d
00000270: a73b 963c 4b83 0bbe 02ae 86bd 4377 ffbc
00000280: 8462 553d 9e4c 8abd 720e 47bc 6e2c 633c
00000290: 84e4 1abe ab16 ae3d 030a 28be 915c 1a3e
000002a0: 3cf2 64bc 7df6 05be cbfc abbc 0b66 70bc
000002b0: 7409 eb3d 5c52 e03c 70e5 a5bd 0fda 8fbc
000002c0: a99d 21be 688b 62bd e9c9 0c3d bfec 35be
000002d0: c7e2 903c 1838 283e f555 0e3e 85cb f5bd
000002e0: b627 13be 8ca9 413e 76ad c2bd df70 703d
000002f0: fecd 01be 4d3a 8e3d b6c7 653d c5ce ecbc
00000300: 2d73 1f3d cdae 0c3e 3bea 103e 9cec 593d
00000310: d555 7e3c 8757 c53d 632b ce3d a738 473d
00000320: dcaa f83d 2615 933d 8c7c ccbb 222d 2f3e
00000330: 669f 2d3e c5df 4e3d 4159 a63d 98e5 d4bd
00000340: 656b de3b 46c7 683e 4414 b9bb 3b57 82bc
00000350: a92c f93c 42d3 183e b6c1 51bd 2037 863d
00000360: e27b d23d 9cca 933d 5bad e3bd d691 9d3d
00000370: 8c1b 873d ba6c 12bd 1b41 d2bd 3522 013e
00000380: bcc0 ea3d 494a 473e c97a e03c 44b0 df3d
00000390: 6f50 013e e036 c83d b444 0fbd 7def 5abd
000003a0: ea1f e4bc 0c82 ff3c 655c 17be 18ba 4a3e
000003b0: fa3e 0abe bd6d 393e 4b82 523d db77 c9bd
000003c0: 1f81 ab3d b4fc 16be 5fbf 053e 4466 5b3e
000003d0: cbc4 8fbc 4787 5a3d 843f f23d 083f f23d
000003e0: 4e9b 913d cd2f 1d3e e1c5 88bc 0f1a b53b
000003f0: ced3 c43c 731b c93d 78f1 453d 34b4 8d3a

fc_layer.weight f4 [64, 64]
-0.025260199 -0.27973756 0.00059520593 0.31935617 0.186141 -0.35962734 -0.01780073 -0.2127649
0.18896127 -0.06188712 0.30991516 0.31149286 0.23497207 0.1574808 0.32115862 0.026971258
-0.11644527 -0.28847626 0.20107917 -0.10886998 -0.36647898 0.07839244 -0.10499103 -0.11311165
-0.30908203 0.11296866 0.10854373 0.060208715 0.18556385 -0.2059846 -0.16206956 -0.12188677
-0.260592 -0.22995044 -0.16780184 -0.20992887 -0.21648817 0.28829232 -0.20778568 -0.01934905
-0.21279083 0.02197463 0.14814897 0.13912775 0.22702776 0.077745885 0.058433846 0.09226686
-0.09326588 -0.1188957 0.12936981 -0.18721513 0.12639797 0.23617841 0.01847793 -0.27584177
0.23194659 0.05757279 -0.18473323 -0.21580464 -0.12538911 0.074341305 0.18044886 0.15362145
-0.102435865 0.21815248 0.19230798 -0.09541371 -0.017163038 0.23324682 -0.06284922 -0.02510629
0.067213565 -0.16262193 -0.02467013 -0.07699988 -0.07110279 0.17365606 -0.020761795 0.17716269
0.010948078 0.20792593 -0.059611995 0.086706154 0.34148037 0.07634742 0.01776679 -0.02307527
0.18758538 -0.22910756 0.13224374 -0.101270445 -0.1367428 0.020434944 -0.1362426 -0.055543944
0.07888196 -0.0006366907 0.17883886 0.26171514 0.189344 -0.021437109 -0.17734438 0.09888933
-0.06343627 -0.32196012 0.2610584 0.07021717 0.060536757 -0.030319534 -0.0020888767 0.21556176
-0.040435024 -0.26653323 -0.24509642 -0.21119738 0.16882734 0.13093546 0.2230712 -0.15692732
-0.35362104 0.07215794 0.018046228 0.2511281 -0.14236572 -0.00068970845 -0.0519441 -0.00077267794
0.106979966 -0.00073243276 0.14348055 -0.30997816 -0.0035792904 -0.21771558 -0.03872349 0.3023403
0.24077171 -0.2630049 -0.25324908 -0.044510912 -0.10315433 -0.16736895 -0.11881126 0.03413089
-0.06783761 0.0046413727 -0.14993982 -0.009208671 0.05991791 0.07555858 0.008325252 0.28581768
0.17525965 -0.046109796 -0.041745465 0.102445185 -0.13192265 -0.23855102 0.22936134 -0.090427525
-0.006096092 -0.10181149 0.14070351 -0.0018859045 -0.029761754 -0.12557979 0.057200897 -0.04102092
0.11464095 -0.14725314 0.080112554 -0.08833794 0.026857013 -0.08548624 0.12486173 0.13362202
-0.103266135 -0.24512263 -0.27541625 -0.036647856 0.28423193 0.04763582 -0.20733099 0.014086019
0.07346511 0.10224633 0.117481016 0.19203252 0.29643026 -0.24289331 0.070124365 -0.29668534
0.006094191 0.23535779 0.032292344 -0.24128875 0.19035865 -0.094305225 0.09998139 0.32002282
0.18668005 -0.16457424 -0.32695788 -0.0336278 -0.263632 0.015440386 -0.20668867 0.08122996
-0.075887814 0.14227714 -0.028991302 0.15467498 0.23018402 0.18217342 0.06220883 0.008556596
0.11820436 0.006398447 -0.16811532 0.09322342 -0.0042719897 -0.057371486 0.2295881 0.00043815843
-0.013711056 -0.14810526 -0.009938254 -0.038996328 -0.2604412 -0.07527063 -0.12118436 -0.077506706
0.117614664 -0.22426221 0.06606381 -0.10235244 -0.07999453 0.064651586 0.134033 0.082581006
0.08008361 -0.11490283 -0.26749188 0.014245696 0.1958702 0.054500595 -0.1287938 0.109967686
0.05641264 0.029049737 0.1139632 0.119257845 0.3590822 -0.24212404 0.018610222 -0.29928458
00000000: 7aee cebc c339 8fbe 9807 1c3a a782 a33e
00000010: bf9b 3e3e 1321 b8be d6d2 91bc 0bdf 59be
00000020: 107f 413e 597d 7dbd 33ad 9e3e fe7b 9f3e
00000030: 859c 703e a642 213e e76e a43e d4f2 dc3c
00000040: dc7a eebd 29b3 93be b3e7 4d3e 39f7 debd
00000050: 22a3 bbbe 378c a03d 8a05 d7bd 15a7 e7bd
00000060: 0040 9ebe 1d5c e73d 2d4c de3d 6a9d 763d
00000070: 7304 3e3e a1ed 52be 90f5 25be c59f f9bd
00000080: 516c 85be 2178 6bbe 3fd4 2bbe 98f7 56be
00000090: 13af 5dbe 0d9b 933e c5c5 54be e681 9ebc
000000a0: d7e5 59be 2404 b43c 5db4 173e 8177 0e3e
000000b0: f779 683e 3c39 9f3d 5458 6f3d 68f6 bc3d
000000c0: 2f02 bfbd 977f f3bd 8579 043e 53b5 3fbe
000000d0: 786e 013e c1d8 713e 075f 973c 223b 8dbe
000000e0: 6883 6d3e 72d1 6b3d b52a 3dbe e4fb 5cbe
000000f0: 0166 00be 4140 983d 96c7 383e f14e 1d3e
00000100: e5c9 d1bd 5d63 5f3e 62ec 443e 4368 c3bd
00000110: 8099 8cbc 41d8 6e3e 18b7 80bd b5ab cdbc
00000120: 44a7 893d 5d86 26be 0319 cabc 1db2 9dbd
00000130: 579e 91bd e5d2 313e a414 aabc 236a 353e
00000140: 915f 333c 89ea 543e b52b 74bd ff92 b13d
00000150: 84d6 ae3e 095c 9c3d a98b 913c 5908 bdbc
00000160: 6216 403e 2c9b 6abe e76a 073e e166 cfbd
00000170: 4e06 0cbe 2f67 a73c 2e83 0bbe 0c82 63bd
00000180: dd8c a13d 97e7 26ba 8921 373e 87ff 853e
00000190: 65e3 413e e09c afbc c499 35be 7d86 ca3d
000001a0: e0ea 81bd f5d7 a4be 72a9 853e 05ce 8f3d
000001b0: 64f5 773d ac60 f8bc 89e5 08bb 39bc 5c3e
000001c0: 329f 25bd 0b77 88be 8efa 7abe 2044 58be
000001d0: 13e1 2c3e f213 063e c76c 643e 8eb1 20be
000001e0: d10d b5be 8bc7 933d afd5 933c dd93 803e
000001f0: 52c8 11be 8dcd 34ba 56c3 54bd 8a8d 4aba
00000200: 5018 db3d bb00 40ba 91ec 123e 75b5 9ebe
00000210: 8792 6abb d5f0 5ebe 869c 1ebd 59cc 9a3e
00000220: dc8c 763e 94a8 86be dda9 81be 1351 36bd
00000230: 9442 d3bd c462 2bbe 5153 f3bd d5cc 0b3d
00000240: 72ee 8abd a816 983b d389 19be f7df 16bc
00000250: 7b6c 753d 75be 9a3d a366 083c b256 923e
00000260: 4477 333e a0dd 3cbd 4bfd 2abd c8ce d13d
00000270: bb16 07be b846 74be b3dd 6a3e 1132 b9bd
00000280: bac1 c7bb 8b82 d0bd 9514 103e 7430 f7ba
00000290: ecce f3bc fd97 00be 7d4b 6a3d 8d05 28bd
000002a0: e0c8 ea3d 87c9 16be 0d12 a43d 86ea b4bd
000002b0: 3d03 dc3c 6913 afbd 82b7 ff3d 36d4 083e
000002c0: 327d d3bd 6d01 7bbe 5c03 8dbe 101c 16bd
000002d0: d986 913e c71d 433d 934e 54be 0cc9 663c
000002e0: e074 963d 8666 d13d e399 f03d 2ca4 443e
000002f0: b5c5 973e 06b9 78be 5d9d 8f3d 24e7 97be
00000300: c8b1 c73b a201 713e fa44 043d 6614 77be
00000310: 61ed 423e 1923 c1bd 0bc3 cc3d 08da a33e
00000320: 0e29 3f3e 2686 28be 0667 a7be 4ebd 09bd
00000330: c6fa 86be acf9 7c3c 32a6 53be e55b a63d
00000340: 126b 9bbd 19b1 113e 2b7f edbc 1e63 1e3e
00000350: 5cb5 6b3e ab8b 3a3e b0ce 7e3d f730 0c3c
00000360: 2115 f23d 10aa d13b 6c26 2cbe eceb be3d
00000370: 0cfc 8bbb 5dfe 6abd 2519 6b3e a1b8 e539
00000380: 56a4 60bc e8a8 17be 0fd4 22bc 9dba 1fbd
00000390: 8d58 85be 7d27 9abd 812f f8bd d6bb 9ebd
000003a0: f5df f03d fea4 65be 764c 873d 289e d1bd
000003b0: 2cd4 a3bd 0d68 843d f23f 093e 3b20 a93d
000003c0: e002 a43d 2d52 ebbd b2f4 88be c866 693c
000003d0: 3392 483e 043c 5f3d 86e2 03be bd36 e13d
000003e0: f110 673d b7f9 ed3c 8a65 e93d 753d f43d
000003f0: 9fd9 b73e 5def 77be 7774 983c d43b 99be

fc_layer.bias f4 [64]
0.22459666 0.016505571 0.052472796 0.28882515 0.06461786 0.3057568 0.22104847 0.13035953
0.047747016 0.22593184 0.26808044 0.30997783 0.013023254 0.059849586 0.21781941 0.064751185
0.077171154 -0.01681863 0.009666037 0.049968913 -0.047160495 0.106115736 0.05828583 0.21113177
0.16083929 0.10432262 0.062945075 0.2501943 0.16510473 0.27280223 -0.045013264 0.2179332
0.20170823 0.09242072 0.07480834 0.026086884 0.16893345 0.20944396 0.05193619 0.018373623
-0.11843744 0.18729173 0.30091268 0.2023664 -0.03701008 0.1681372 0.08649076 0.2662919
0.24475303 0.027818216 0.3083186 0.0043909983 0.15322286 0.13027565 0.24198441 0.270431
0.09430139 0.22122873 0.29094884 0.1616154 0.042695034 -0.024779165 -0.21355568 0.13381521
00000000: abfc 653e b136 873c b7ed 563d e4e0 933e
00000010: 5e56 843d 288c 9c3e 885a 623e f87c 053e
00000020: 6092 433d ad5a 673e d741 893e 6ab5 9e3e
00000030: 7d5f 553c d724 753d 0d0c 5f3e 459c 843d
00000040: e90b 9e3d 39c7 89bc 4c5e 1e3c 34ac 4c3d
00000050: 5d2b 41bd 3553 d93d 1fbd 6e3d ed32 583e
00000060: 0eb3 243e 19a7 d53d 59e9 803d 7819 803e
00000070: 3711 293e bcac 8b3e d45f 38bd e129 5f3e
00000080: 9a8c 4e3e 1347 bd3d 1d35 993d 29b4 d53c
00000090: e4fc 2c3e 7a78 563e 0bbb 543d 4884 963c
000000a0: 548f f2bd 67c9 3f3e 3a11 9a3e 2339 4f3e
000000b0: e297 17bd 282c 2c3e 1122 b13d 6957 883e
000000c0: 8aa0 7a3e 07e3 e33c efdb 9d3e 5de2 8f3b
000000d0: 74e6 1c3e fb66 053e c3ca 773e ef75 8a3e
000000e0: 1621 c13d c989 623e 3ff7 943e 827e 253e
000000f0: fde0 2e3d adfd cabc 57ae 5abe db06 093e

output_layer.weight f4 [1, 64]
0.34377822 -0.27908155 -0.26798612 -0.25954345 0.3075517 0.27909935 0.3084778 -0.3003425
-0.40514076 0.2956828 0.24100195 0.307762 0.3295556 -0.28919768 -0.34754395 -0.3072617
-0.37021452 -0.26729304 0.34692413 -0.3639371 -0.37712136 -0.30230722 -0.34864593 -0.31568307
0.26844415 0.32445985 -0.28574213 0.28848594 -0.39771748 -0.25131676 -0.4115941 -0.29777446
0.30517295 -0.25552464 -0.18572165 -0.31557804 -0.2719672 0.3435794 -0.3577095 -0.3635039
0.298638 0.33349812 0.24074958 0.26067442 -0.36017537 -0.30688325 0.25312176 0.25404322
-0.2938326 0.296537 0.29662135 0.25391933 0.31307444 -0.30650154 0.2715867 0.34057638
0.28758517 0.25095776 0.2714771 -0.30639288 -0.35042033 -0.3488968 0.45700008 -0.26789495
00000000: b303 b03e c7e3 8ebe 7a35 89be e1e2 84be
00000010: 6b77 9d3e 1ce6 8e3e cdf0 9d3e 7ec6 99be
00000020: 9c6e cfbe bc63 973e 37c9 763e fb92 9d3e
00000030: 83bb a83e b811 94be 48f1 b1be 6851 9dbe
00000040: c28c bdbe a2da 88be 0aa0 b13e f755 babe
00000050: 0d16 c1be 03c8 9abe b881 b2be 36a1 a1be
00000060: 8371 893e 9a1f a63e cb4c 92be 6eb4 933e
00000070: a0a1 cbbe 97ac 80be 76bc d2be e575 98be
00000080: a13f 9c3e 20d4 82be d12d 3ebe 7293 a1be
00000090: 493f 8bbe a4e9 af3e b325 b7be 2f1d babe
000000a0: 14e7 983e 44c0 aa3e 0f87 763e 1e77 853e
000000b0: e868 b8be cd1f 9dbe 2d99 813e f411 823e
000000c0: 3a71 96be b3d3 973e c1de 973e b701 823e
000000d0: 4b4b a03e c5ed 9cbe 690d 8b3e 0760 ae3e
000000e0: 5d3e 933e 897d 803e 0cff 8a3e 87df 9cbe
000000f0: 4b6a b3be 9aa2 b2be eafb e93e 8729 89be
