TimeGAN4paper/result/iter6000/model/KT_lag1_total1/torch_best_model.pt (torch, 87834 bytes, 7 tensors)

lstm.weight_ih_l0 f4 [256, 1]
000000 f4 2f ce 3b 8a 4c f9 3c 71 1e 5d 3c 62 88 03 bc
       0.0062923376 0.030432004 0.013496027 -0.008028122
000010 13 19 d0 3b 16 35 db 3d f8 9b b9 3c c6 5e 12 3e
       0.0063506453 0.10703485 0.02265738 0.14293966
000020 19 a1 2f 3e 19 97 be 3d 3f 38 5b bb 14 69 2c bc
       0.17151298 0.09306163 -0.0033450273 -0.010523099
000030 c0 29 91 bc a4 4b 06 3d a1 df 84 3d b6 f3 a0 3b
       -0.017720103 0.03278698 0.06487966 0.004911865
000040 7c 7d eb 3d 06 ae c3 bb 62 30 ec ba 55 34 10 3c
       0.114985436 -0.005971673 -0.001801979 0.008801539
000050 b2 10 14 3e f0 99 b4 3d 28 db 31 bc 43 3b 01 3e
       0.14459494 0.08818424 -0.010855474 0.12620263
000060 9f 58 0e ba 61 4a e8 bb c7 84 33 3e f4 12 65 bc
       -0.00054300757 -0.007088945 0.1753112 -0.01398157
000070 75 e6 e1 bc da 77 a2 3d 13 1b 5c bc 66 c5 fc 3d
       -0.02757571 0.07933016 -0.013434189 0.12342338
000080 79 8d 0a 3e 57 c3 11 bc c7 7e 57 3c d9 23 a9 bc
       0.1353053 -0.00889667 0.013152785 -0.020646976
000090 70 ca ab 3c 68 a1 44 3e df 21 9a ba 1a f6 1c 3d
       0.020970553 0.19202197 -0.0011759362 0.03832064
0000a0 44 da e0 3b 61 bc e1 bc 1f b9 a1 bb ac 75 8b bc
       0.006861957 -0.027555646 -0.004935398 -0.017023884
0000b0 c3 2f 8b bc f5 35 c5 bb 63 ba ad 3d 42 f5 c8 3b
       -0.016990548 -0.006018395 0.08482816 0.0061327526
0000c0 41 48 26 3c 75 8d 41 bb d8 b2 eb 3d 38 8c 3c 3e
       0.010149063 -0.0029533778 0.11508721 0.18412864
0000d0 26 85 f3 3c 97 b9 23 3e 19 5d d6 3d 80 d9 98 bc
       0.029726576 0.15988766 0.10466976 -0.0186584
0000e0 0a c2 ac 3b 7b 25 c1 bc 76 62 8c bc 4f 20 83 bc
       0.0052721547 -0.023577442 -0.017136794 -0.016006617
0000f0 02 0f 1a 3e cc 33 e4 3d ef 91 4d 3d 21 e6 06 bc
       0.15044788 0.11142692 0.050188 -0.008233578
000100 26 24 9e 3d 88 2b 70 bc c5 99 be 3d 26 3a 6d 3d
       0.077217385 -0.014658816 0.09306673 0.057916783
000110 2f 2e ba 3d 51 3e 22 3e 28 ad 62 bb c4 58 a4 3b
       0.0909084 0.15844084 -0.0034588072 0.0050154645
000120 12 82 23 3e 4b 4a 81 3d 87 1a ba 3d 9e dd 46 3e
       0.15967587 0.063129984 0.09087091 0.19420478
000130 34 a1 4e 3d 2a 91 96 3b c7 24 3a 3c 60 5f 02 bb
       0.050446704 0.0045949416 0.011361307 -0.0019893274
000140 00 60 16 bc f9 ab fa 3d a1 85 2d 3e c5 dd 8b bb
       -0.009178162 0.122398324 0.16945507 -0.0042683803
000150 4a 4c 24 3c 18 44 c8 3c 1e b1 38 bb ef 6e d4 bb
       0.010027954 0.024446532 -0.0028181742 -0.006482951
000160 c0 c3 02 3e 57 12 56 bb 0a a7 b1 3d 39 69 b0 3d
       0.12769985 -0.003266474 0.08674438 0.0861382
000170 9b a1 01 3e 09 01 52 3c f7 00 35 bc bc 6c 01 3d
       0.12659304 0.01281763 -0.011047593 0.031597838
000180 02 60 33 3e e0 03 2f 3d 61 cd 37 3b 10 b7 af 3b
       0.17517093 0.042728305 0.0028046 0.005362399
000190 51 83 14 3e 29 40 00 3e c0 41 ad bb a0 37 16 bb
       0.14503218 0.12524475 -0.005287379 -0.0022921339
0001a0 ff 0c 2e bb 9b 52 5e 3c 38 3e 87 bb 38 c4 01 3d
       -0.002655804 0.013569499 -0.00412729 0.03168127
0001b0 f8 eb 57 3d 07 05 1b 3e 44 be 22 3b ce 6c 07 3e
       0.05271527 0.15138637 0.0024832645 0.132251
0001c0 60 e0 ce 3c 9e 3c 58 3e af 4e a4 3d b3 85 e3 bb
       0.025253475 0.21116874 0.0802282 -0.0069434284
0001d0 8b be 5a 3b 94 cd 3f 3a f7 71 a4 3c 5a 48 df 3d
       0.0033377733 0.00073167053 0.020073874 0.10902472
0001e0 12 7b 51 3d 88 64 a3 3d 64 cb 1a 3c 75 83 36 3e
       0.05114276 0.07978159 0.009447906 0.17823584
0001f0 63 a2 48 3d 1f 07 28 3d 4c be ca 3b 11 f0 2b bb
       0.04898299 0.041022416 0.006187236 -0.002623562
000200 33 ca 86 bc 50 53 b5 bc 01 f5 8e ba f5 fb a5 ba
       -0.016453838 -0.022134453 -0.0010906757 -0.001266359
000210 3a 78 07 bb f2 dd 3b ba f6 e6 d1 3d 5a 27 db 3a
       -0.0020671026 -0.00071665563 0.102491304 0.0016720102
000220 4e 7a 6f 3d b9 00 40 bc d0 29 90 ba 8f ce 9a 3d
       0.05846625 -0.011718922 -0.0010998789 0.07558929
000230 37 1f 94 3b 76 e5 30 3e fb 5d 55 3c 4c 44 30 bb
       0.0045203227 0.17275032 0.013022895 -0.0026896177
000240 a2 92 a4 bd c7 7d 13 b9 af 09 ac 3c 2f 63 a4 3a
       -0.080357805 -0.00014065868 0.021000711 0.0012541766
000250 3b 66 3f bc 0a 16 36 bd 12 ae c8 bd 08 89 eb bd
       -0.0116820885 -0.04445461 -0.09798826 -0.11500746
000260 23 81 d9 bb 2b 15 65 3c 0f 95 33 3c e8 4a cc be
       -0.0066377087 0.013982098 0.010960831 -0.399009
000270 c3 90 57 3d 8a c8 d9 bc e3 50 c1 bd 15 89 6c bb
       0.05262829 -0.026584882 -0.09439256 -0.003609245
000280 c5 f0 17 ba bb 97 a2 bb 4c 30 5f bd 1b f8 6b be
       -0.00057960703 -0.0049619353 -0.05448942 -0.23043863
000290 af c9 34 bb 6e 28 09 3b df a7 36 bd 7f bf 57 3c
       -0.0027586033 0.002092864 -0.044593688 0.013168215
0002a0 1c eb 2a bd ea 00 e3 3c 9c 6e 8e 3d da af af bb
       -0.041728124 0.027710397 0.06954691 -0.0053615393
0002b0 e9 5b c3 3d 64 0f 2d ba 60 e8 ea bc 58 4c 90 3b
       0.09539015 -0.00066017197 -0.028675258 0.004403632
0002c0 67 70 39 bc 38 2b 10 bc ba 38 8c 3d 76 ae c6 bd
       -0.011318303 -0.008799367 0.06846757 -0.097012445
0002d0 79 ca 74 3c 03 19 3f 3b 5a 4f c9 3c dd df 5c 3c
       0.014940851 0.0029159195 0.02457397 0.013481108
0002e0 19 61 05 3d 5d 37 ee 3c 6a 03 24 bd 6f ea df bb
       0.032563303 0.029079134 -0.04004232 -0.0068333666
0002f0 fd f7 49 bd 07 1a 9a 3c 40 99 1d 3d 44 a3 38 3d
       -0.049308766 0.018811239 0.03847623 0.045077577
000300 21 6f 66 3c f0 73 9e 3d c6 15 02 3c 3e 17 5d 3d
       0.014064581 0.07736957 0.0079397615 0.053977244
000310 76 24 5c 3c f4 8f 1f 3e 7d 75 12 3c 4d 1d 83 3c
       0.013436427 0.15582258 0.008939144 0.016005183
000320 be e1 96 3d dd cc b1 3d a8 35 99 3b 68 dd 2d bc
       0.07367276 0.08681653 0.004675586 -0.010611869
000330 a0 b2 02 bc 45 ce 32 3e bc 05 5c 3c e5 b8 ae 3d
       -0.007977158 0.17461498 0.013429102 0.085313596
000340 53 70 06 3e f5 4e a7 3d cd dd 55 3d f9 8d b7 3d
       0.13128786 0.08169357 0.05221348 0.08962626
000350 b7 62 ba 3d b6 d5 09 3e 36 9a bf 3d bf 8e c8 3d
       0.091008596 0.1346043 0.09355585 0.09792852
000360 20 6d e3 3b 72 4c 56 3d 6d ec dd 3d a7 f1 0a 3c
       0.006940499 0.052318998 0.1083611 0.008480466
000370 db 91 b7 3c d4 7b 02 3e a8 0e c1 3d 82 79 76 3d
       0.022408416 0.12742549 0.094266236 0.060174473
000380 64 d4 20 3c 45 69 01 3e ce aa ab 3c 28 a8 88 ba
       0.009816263 0.12637813 0.02095547 -0.0010426091
000390 df 69 1b 3d 78 f3 cc 3b cf 42 ba 3c 66 fa 02 3d
       0.037942763 0.0062546097 0.022736935 0.03197708
0003a0 75 f0 22 3e 03 e5 c5 3d 80 f6 90 3d 45 5e e2 3b
       0.1591204 0.09662821 0.07078266 0.0069082105
0003b0 91 29 8e 3d 0f c4 8e 3a 99 b7 20 3c 46 b4 07 3e
       0.06941522 0.001089217 0.009809398 0.13252363
0003c0 ba bd 31 3e 1e 5b d2 3d d4 27 bf 3c 91 2d 67 3b
       0.17357531 0.102712855 0.023334421 0.0035274962
0003d0 fa f2 18 3e 4f 66 2e bb 2a fb 13 3e 85 b9 aa 3d
       0.14936438 -0.0026611274 0.1445128 0.08336166
0003e0 ac 6a f6 bb 71 3b de 3c b4 3d e9 bb d7 4e c6 3d
       -0.0075200405 0.027127953 -0.0071179513 0.09683006
0003f0 32 21 a2 3d a3 a2 e0 3d 04 9c f8 3b f3 4a 1f 3d
       0.07916488 0.109685205 0.007586958 0.038889837

lstm.weight_hh_l0 f4 [256, 64]
000000 44 85 aa bd 3d a9 32 3d a5 d8 80 bd ce d6 0b be
       -0.083262 0.04361843 -0.06291322 -0.1365616
000010 a2 a8 51 bd 26 e1 76 3d 6c 6a 87 3d 8a 77 09 3e
       -0.05118621 0.060273312 0.06612095 0.13424507
000020 c1 e3 bc 3d d4 1b c7 bd d2 2e 8e 3b 68 94 a3 3d
       0.09223128 -0.09722105 0.0043390775 0.079872906
000030 20 34 14 3e a0 6b b7 3d 94 0f 66 bd 17 6d b6 bd
       0.14473009 0.08956075 -0.0561672 -0.08907526
000040 1e 3b 2a be 1f 84 f9 3b 71 e8 57 bc f4 34 4a be
       -0.16624114 0.007614627 -0.013177977 -0.19746763
000050 ef 77 8a 3d 44 e7 ea bd 4f 97 6d bd 9b 3a 15 bc
       0.06761157 -0.11469892 -0.058005627 -0.009108211
000060 92 f2 5e bd de 57 34 bd 8d 04 a9 bc 8d 17 6e 3d
       -0.05443055 -0.04402911 -0.020632053 0.05812793
000070 70 d7 bf 3d 6b e7 b1 3d a6 30 e7 bd 1b f5 d9 3d
       0.09367263 0.086867176 -0.11288576 0.10642453
000080 92 03 43 3d d0 88 4d bb 54 e2 eb bd 0d 78 16 3b
       0.047610827 -0.0031362064 -0.11517778 0.002295974
000090 9a 66 05 3d 1d 39 06 3d 37 bd 99 bd 02 cc 9a bd
       0.03256855 0.03276931 -0.07506793 -0.07558443
0000a0 ce a6 06 3c f8 49 f6 bc 98 9b 1a 3e ec f3 de bd
       0.00821848 -0.030064568 0.15098417 -0.10886368
0000b0 dd 22 b7 bc f9 9f 5d 3d 83 a7 9c bd ad 95 d0 3d
       -0.022355491 0.05410764 -0.07649138 0.101847984
0000c0 1f 33 0f bd 13 4a e4 bd 54 a0 6d 3d 56 03 2d 3d
       -0.034960862 -0.11146941 0.05801423 0.04223951
0000d0 e0 84 d3 3d 84 30 04 3c 59 8c 84 bd 8d 1a f8 3c
       0.10328078 0.008068208 -0.06472082 0.030286098
0000e0 24 61 73 3d fa d0 cf 3c 0e 4c 18 bb de 23 bb 3d
       0.059418812 0.025368202 -0.0023238692 0.091377005
0000f0 98 89 f4 bd af e8 db 3b 60 80 8d 3d a2 c9 81 3d
       -0.119403064 0.0067110877 0.06909251 0.063372865
000100 2c 80 eb bb ed a2 56 3e ea d7 41 bd 7d 56 23 be
       -0.00718691 0.20960589 -0.047325052 -0.15950961
000110 fc 12 72 3e 06 61 3e 3e d5 d0 55 3d 39 51 27 bd
       0.23640054 0.18591699 0.05220111 -0.040848944
000120 46 66 e1 3c 09 f8 51 bb 84 8b 9f bc 6d 5f e7 bd
       0.027514588 -0.003203871 -0.019475706 -0.11297498
000130 c8 78 03 3d dc 46 b8 3d 1d 89 da bd 76 f5 d6 bd
       0.032097608 0.0899789 -0.106706835 -0.10496037
000140 ff 84 bb 3d 1e e1 1c 3e 43 1f e9 3d 95 8c 17 3d
       0.09156226 0.1532025 0.11382916 0.036999304
000150 21 c8 c5 3d 14 d3 c8 3d 98 2d c6 3d 62 e3 92 3d
       0.09657312 0.09805885 0.09676665 0.07172276
000160 07 3e 98 bd 70 73 b0 3d ff de 59 3d 20 3e be 3d
       -0.07433706 0.08615768 0.05319118 0.09289193
000170 81 27 e4 bd 72 dc 2e 3e e2 bd 8c bd e2 84 72 3e
       -0.11140347 0.1707628 -0.06872155 0.23683503
000180 7e f5 b4 3d ea 79 bf 3d 5a 53 b4 3c 2f 9d 02 3e
       0.088358864 0.09349425 0.022012401 0.12755273
000190 20 33 b0 3b 5c bb 1f 3d c2 16 98 bd b6 00 2c be
       0.0053771883 0.03899704 -0.07426216 -0.16797146
0001a0 06 22 97 bd 13 2a 14 be 76 bd fa bd bd 72 0b 3e
       -0.07379536 -0.14469175 -0.12243168 0.13617988
0001b0 63 e7 60 3d b7 52 aa 3d 53 91 44 3e 8c aa 9d bd
       0.054908168 0.08316558 0.19196062 -0.07698545
0001c0 be 88 b4 ba 2a e5 38 3d 03 2f a0 bd b5 65 f5 3d
       -0.0013773663 0.045140423 -0.07821467 0.1198229
0001d0 79 ef 8c be 7e 79 0d be 0a d6 67 be a1 97 d9 bd
       -0.27526453 -0.13815877 -0.22640243 -0.10624624
0001e0 21 9e 8b b9 a5 79 8f 3d 6a 97 d6 3d 32 56 85 3e
       -0.0002662996 0.07005624 0.10478099 0.26042324
0001f0 36 a5 f9 3d 49 af 0d bd 6d 76 8e bd 34 58 be 3d
       0.121897146 -0.034590993 -0.06956182 0.09294167
000200 91 b9 08 3c 1f d6 d0 3d d2 9a 4d 3b cd a9 35 3e
       0.008345024 0.1019709 0.0031372798 0.17740555
000210 0b 62 7f 3d 19 2a fd ba 09 df a3 3d 7f d1 4d bb
       0.06234936 -0.0019314914 0.08001525 -0.0031405387
000220 1c 54 d5 bc ff 82 e0 bd 83 9a fd 38 85 59 0d 3e
       -0.026041083 -0.109624855 0.0001209276 0.1380368
000230 a8 0b 2d 3e 13 91 1c 3d dd 28 b4 bc 91 47 71 3e
       0.16898978 0.03822429 -0.021992141 0.23562457
000240 0e 1a 08 3d 91 a4 73 bd e4 fb c8 bb 87 99 dd 3c
       0.033227973 -0.059483115 -0.0061335433 0.027050747
000250 37 f1 7e 3c be 8f f8 bd b8 66 9b 3d a4 63 43 3d
       0.01556044 -0.12136792 0.075879514 0.047702447
000260 fe 9c d9 bd 20 be ee 3d 10 10 1d bd 26 32 dd bd
       -0.10625647 0.11657357 -0.038345397 -0.10800581
000270 00 14 16 3e f5 cf ca bc 41 85 1f be 5e 80 ba bd
       0.14656067 -0.024757365 -0.15578176 -0.09106515
000280 1f 31 a1 bc 7b 8f 81 bd b9 43 2b bd bf bf ad 3d
       -0.019676743 -0.06326195 -0.041812632 0.08483838
000290 a1 57 fd bc 22 a1 14 bd 50 f2 1f bd 30 7b b2 3d
       -0.030925574 -0.03628648 -0.039049447 0.087149024
0002a0 95 4d 11 3c 85 76 17 bd 56 79 1a 3d 04 b4 0b be
       0.008868595 -0.036978263 0.03771337 -0.1364289
0002b0 7c ad 1e bb 15 98 1f 3e b1 32 fc bd 3a 81 8a 3d
       -0.0024212291 0.15585358 -0.12314356 0.06762929
0002c0 cf d1 8f 3d fc 83 5b bd 58 ff 05 bd 11 e8 ba bd
       0.0702244 -0.053592667 -0.032714218 -0.091262944
0002d0 6d 94 7f 3d 45 3d fa bc cd 12 cb 3d a4 b7 8f bb
       0.06239741 -0.030546794 0.09915695 -0.0043859053
0002e0 f0 a1 8d bd 39 2f 85 bd 2a d5 a0 bd 54 69 a7 3a
       -0.06915653 -0.06503148 -0.07853158 0.0012772479
0002f0 2c e0 2c be 3a 30 19 3e 80 42 9d bc 93 33 b1 3d
       -0.1688239 0.14959803 -0.019196749 0.08652415
000300 19 47 68 bd 31 93 2b be 69 f8 a7 bc 3d 90 1a 3e
       -0.05670843 -0.16755368 -0.020504193 0.15094085
000310 2b 4d 89 3e 29 b3 b2 3a 4d b9 05 3d 21 69 59 3e
       0.26816687 0.0013633716 0.03264742 0.2123151
000320 32 81 95 3d 2d 82 b0 3a c7 98 b4 3c 63 08 cc 3d
       0.07300033 0.001346653 0.022045506 0.09962537
000330 bb d4 c6 bc 71 4e 28 3d cc 89 10 3e 8b 42 80 bd
       -0.02427136 0.041090433 0.14115065 -0.06262692
000340 fe 91 8d bd c2 ae 8f bd 65 c3 2b 3e 91 b2 34 be
       -0.069126114 -0.07015754 0.16773756 -0.17646243
000350 f5 c1 2b be a5 87 9f bd 32 d6 0c bd 51 70 cb 3b
       -0.16773207 -0.07789544 -0.03438396 0.0062084575
000360 98 aa 88 bd e6 34 a2 3d 0a eb e9 3d f2 94 a2 be
       -0.06673163 0.07920246 0.11421783 -0.3175426
000370 68 b4 0a 3d dd ff 2a bc fc 03 27 be 4e 2f 4d bd
       0.033863455 -0.010436979 -0.16310114 -0.05009394
000380 0e 37 24 be 6f f5 1b be 56 c8 64 be 0b 0c aa bd
       -0.16036627 -0.15230344 -0.22342047 -0.08303078
000390 81 e4 d3 bd e2 f5 6a 3e f0 6c 3f bd c1 df f7 3d
       -0.10346318 0.2294536 -0.04673475 0.121032245
0003a0 b4 35 ab bd 92 e0 b4 3d 16 c9 62 3d 5d e5 30 be
       -0.083598524 0.08831896 0.05536755 -0.17274995
0003b0 b1 5b 35 3e f8 7b e2 3d 43 49 74 3d fd 74 cc 3d
       0.17710759 0.110588014 0.05964018 0.09983251
0003c0 85 77 39 be e0 cf 39 be e2 e2 64 3e b9 d6 9f bb
       -0.18112 -0.18145704 0.22352174 -0.004877892
0003d0 c0 40 48 bd c7 92 21 3e 41 88 00 3e 51 5c 4c 3e
       -0.048889875 0.15778647 0.12551977 0.19957091
0003e0 39 61 14 3e 91 ab 94 3d b6 8a f2 bd 5d 4d e8 bd
       0.14490213 0.07259286 -0.11842863 -0.11342881
0003f0 33 2d 14 be 6f 05 f4 3d 63 96 ad 3b f1 f3 31 3e
       -0.14470367 0.11915099 0.0052974685 0.17378213

lstm.bias_ih_l0 f4 [256]
000000 96 86 ed 3d 29 e8 9a 3d 68 68 58 3d 60 3a 4e 3e
       0.11597936 0.07563812 0.052833945 0.20139456
000010 87 79 09 3e ba bf a3 3d 8e 84 55 bd 59 42 14 bd
       0.13425265 0.07995553 -0.052128367 -0.036196087
000020 8e 14 20 3d 8f 1e ac bb dd 7d f9 bc 1e 2a 89 bd
       0.039082102 -0.0052526663 -0.030455524 -0.06697486
000030 3e ff 18 bd b7 c0 48 3e 9e 8f dd 3d 3f 44 f8 3d
       -0.037352793 0.19604765 0.108184084 0.12122392
000040 c8 34 96 3d a1 23 90 3c 5e 86 50 bd 25 7f 22 3d
       0.07334286 0.017595114 -0.050909393 0.039672036
000050 34 b5 11 3e f6 ce d5 3d fb 7d 4b 3c 01 cd 23 3e
       0.1422928 0.10439865 0.012420173 0.15996172
000060 b6 fb c0 3a e4 b2 db bd a3 7f 2a 3e 99 6b e6 bb
       0.0014723453 -0.1072748 0.16650252 -0.0070318696
000070 99 76 49 3d 02 a3 82 3d 13 14 48 3d ec 61 09 be
       0.04918537 0.063787475 0.04884727 -0.1341626
000080 64 2e c8 3d 2e e8 44 3e 47 c0 3d 3d c7 d0 ef 3d
       0.09774473 0.19229195 0.046325948 0.11709743
000090 f7 27 e0 3d 60 ca 8e 3d a3 65 0f 3d 6b a3 42 3d
       0.10945123 0.06972194 0.035009038 0.04751913
0000a0 40 9e d0 3b 27 c2 99 3c d0 0d 03 be 5a 4b 13 3e
       0.006366521 0.018769337 -0.12798238 0.14384213
0000b0 86 5c 4e 3e 50 b1 03 3e af 3b 95 bd eb 50 5e bb
       0.20152482 0.12860608 -0.07286774 -0.0033922743
0000c0 65 8d 30 bd 9d 53 0a be 13 f6 10 3e 06 a6 ae 3d
       -0.043103594 -0.13508458 0.1415637 0.0852776
0000d0 ce 85 12 be 9d 49 f5 3d 87 c7 b5 3d 9e 2d 76 3d
       -0.14308855 0.11976931 0.088759474 0.060102098
0000e0 a4 be a7 bb f6 bc e7 3d f9 d1 06 3e b3 93 ed 3d
       -0.0051191617 0.11315338 0.13166036 0.11600437
0000f0 69 20 bd 3d 5a 45 62 bd a8 20 d6 3d 43 2a 1f be
       0.09234697 -0.05524192 0.104554474 -0.15543465
000100 dc 07 b2 3d 10 d3 b0 bc a5 77 34 3d d5 90 22 3e
       0.08692905 -0.021585017 0.044059414 0.15875562
000110 40 8e 21 bd cb 4a 82 3d 76 b5 d6 3c 67 e7 43 bc
       -0.0394423 0.06361922 0.026209574 -0.011957026
000120 a4 ac 94 3d a8 b6 03 be 84 b6 d1 bd 26 72 84 3d
       0.07259491 -0.12862647 -0.1023989 0.064670846
000130 a5 8f 0e 3d c0 39 26 3e 14 d4 5e 3d df a1 ec 3d
       0.03480496 0.16232967 0.054401472 0.11554312
000140 58 f9 e5 3d de 60 61 3d 69 c0 27 3e 29 41 12 3e
       0.11229199 0.05502402 0.16381992 0.14282669
000150 fb 7d 26 3c 98 58 b1 bc 70 ac bc 3c 3b f1 dc 3d
       0.010161872 -0.02164869 0.023031443 0.107881986
000160 a3 d8 42 3e aa 68 0a bc 7a a4 3a 3d 2f 7a 5c 3e
       0.19027953 -0.008447805 0.045567013 0.21530984
000170 f2 8f eb 3d 11 32 df bc a8 9f e2 3d a7 14 6a 3d
       0.11502065 -0.027245553 0.11065608 0.0571486
000180 73 3d 0e 3d 15 f8 dd 3c 5a 03 62 3e 5b 50 5b 3d
       0.03472657 0.027095834 0.22071591 0.05354343
000190 59 ff d0 3d 8d f6 3b 3d 56 9e 1b 3e 4c 67 c6 3d
       0.10204954 0.045889426 0.15197119 0.09687671
0001a0 75 fe 08 3e fa a0 cc 3d 01 a7 19 3e c1 c4 d4 3d
       0.13378318 0.09991641 0.15005113 0.1038909
0001b0 7d 59 3f 3e 86 72 f8 3c e7 a7 db 3c 69 95 73 bd
       0.18686481 0.030328047 0.02681346 -0.05946866
0001c0 61 a0 8d bd fe ef df bc b8 cb 92 3d a0 38 c6 3d
       -0.069153555 -0.027336117 0.071677625 0.09678769
0001d0 1a f9 14 bd de fa 50 bd c5 7a 23 be 73 1d f0 3c
       -0.036370374 -0.051020496 -0.15964802 0.029310917
0001e0 4f 03 57 bd e1 12 8b 3d 97 3e 5d 3e a1 ab 27 3e
       -0.05249339 0.0679071 0.21605907 0.16374065
0001f0 8b a8 06 3e 5b 0e 0c 3c 9b 0e 17 be 27 26 34 bc
       0.13150232 0.0085483445 -0.14751665 -0.010995424
000200 4c 13 0f bc 59 5e aa 3c cd 96 4a bd 2c 88 a9 bd
       -0.008732628 0.020796942 -0.04946022 -0.08277926
000210 d9 db bb 3d b4 09 14 bd 5e e2 c4 3d 00 c3 ca bd
       0.09172792 -0.036142066 0.096134886 -0.099004745
000220 1e 28 31 3d b7 d0 8a bd ff cd 97 bd ff 10 ba bc
       0.04325115 -0.067780904 -0.074123375 -0.022713182
000230 b3 1e 1a be d1 31 29 3d 75 18 1d be 76 65 61 bd
       -0.15050773 0.041307274 -0.15341361 -0.0550284
000240 88 5b 2e bd c2 72 ba bd 6d de 8a bc 3d 5c 71 3d
       -0.04256776 -0.091039196 -0.016951764 0.058925856
000250 be af da 3d 2a f4 5a 3e 0f c5 0d bd 77 76 03 3e
       0.106780514 0.21382204 -0.034611758 0.1283816
000260 ed 66 62 bd 95 53 c3 bc ba bb 3f bd be 4b cc be
       -0.05527394 -0.023843566 -0.04680989 -0.39901537
000270 e8 e4 7c bd 4e 92 d4 3d 9f be 97 bd cb 87 91 3d
       -0.06174174 0.10379468 -0.07409405 0.071059786
000280 85 b2 b4 bd c7 d6 81 3d 80 44 b0 bc 6b 56 19 be
       -0.088231124 0.06339794 -0.021517038 -0.14974372
000290 3c 3d bd 3d bd 52 fa bd ff 84 88 3d a4 5a 20 be
       0.09240195 -0.12222812 0.06665992 -0.15659577
0002a0 74 65 0b 3e b3 84 1e 3e 9a 2e 09 bd af a6 b4 3c
       0.1361292 0.15480308 -0.03349171 0.022052137
0002b0 a1 94 42 bd fe dd 30 3d c1 82 d2 3d 46 82 ac bd
       -0.047505025 0.04318046 0.102788456 -0.08423285
0002c0 00 a3 29 3e 9f 87 00 3e 79 09 45 3d 33 38 38 bd
       0.16566086 0.12551735 0.048104737 -0.04497547
0002d0 ac 7d 2f bc 3d 55 b4 bd d7 ea 3f be 48 9b 9e bd
       -0.010711115 -0.088053204 -0.18741928 -0.07744461
0002e0 63 6d 11 be ee 32 8b bc 02 22 9a bc 8c a8 e8 3d
       -0.14201884 -0.016992059 -0.018815044 0.11360273
0002f0 5e 13 be 3c 9f 57 b4 bd 30 ab 86 bc 96 b9 a6 bd
       0.023202594 -0.08805775 -0.01643905 -0.081408665
000300 0e 17 e7 3d a6 ba 80 bd 72 e3 68 3d af df d1 3d
       0.11283694 -0.062856 0.056857534 0.102477424
000310 d0 a6 21 bc 5c 16 45 be 8d 35 37 3d fc c8 16 be
       -0.009866431 -0.1924681 0.044728804 -0.14725107
000320 05 0d 7e bd 15 8c d5 bd ba 25 70 bd 09 23 9e 3c
       -0.062024135 -0.10427109 -0.05862973 0.019303815
000330 3a 3a bf 3b d0 3a 43 bd 07 05 db bd 81 5a 21 bd
       0.0058357986 -0.04766351 -0.10694318 -0.039392952
000340 53 a1 2d 3c 3d ea 44 bd 23 69 48 be b5 13 66 bc
       0.010597545 -0.04807495 -0.19571356 -0.014042784
000350 4b 58 89 bd 9d b6 6d 3d b8 b3 ee bd 5e 27 ff bd
       -0.06706294 0.05803548 -0.116553724 -0.124586806
000360 f4 d5 35 3e 8e 27 90 3d 8a 7e f7 bd 27 36 08 3e
       0.17757398 0.070387945 -0.12084682 0.13301907
000370 96 fa 19 be f1 70 10 be ca 92 9d bd 7f ac 26 3c
       -0.15036997 -0.14105584 -0.076940134 0.010172962
000380 ac ce 83 bc 36 6d 72 bd cc 37 9d bd 18 04 4a be
       -0.01608976 -0.059186183 -0.07676658 -0.19728124
000390 0a 65 9c bc 1e 10 83 bd 23 47 c6 3c 08 0f 59 bd
       -0.019091148 -0.063995585 0.024203843 -0.05299285
0003a0 a3 85 9f 3d 51 47 23 be 8d af 3c be e6 13 b6 bc
       0.07789161 -0.15945174 -0.18426342 -0.022226285
0003b0 b2 4c 68 be 2e de 16 3d 12 ba 7e bd 76 58 a4 bd
       -0.22685507 0.03683298 -0.06218917 -0.08024685
0003c0 b0 d8 00 be 1d 87 b4 bd 33 f0 e6 3d d7 17 7f bd
       -0.1258266 -0.08814833 0.11276283 -0.062278595
0003d0 c8 2e d1 bd 61 79 45 3d 07 13 20 be 5b 36 19 3d
       -0.10214001 0.04821146 -0.15632258 0.037405353
0003e0 88 7b cd bd 10 2d 61 3c 4c fe f6 3d e2 4e 68 3a
       -0.10033327 0.013743654 0.12060222 0.0008861852
0003f0 e6 53 81 bd 62 f7 48 bd bd 4d a9 3b 8d 69 4f bd
       -0.063148305 -0.049064048 0.005166738 -0.05063777

lstm.bias_hh_l0 f4 [256]
000000 77 6a 7c bd c9 bd b6 bd 61 90 34 bd 60 bc e2 3d
       -0.06162497 -0.089229174 -0.044083003 0.11071086
000010 29 09 43 bd fa 93 bd 3c fa 84 28 3e 72 28 22 bd
       -0.047616158 0.02314185 0.16456977 -0.039589353
000020 bd 09 56 3d 0a 6e 22 3e 36 33 53 bd 26 69 91 3c
       0.05225538 0.15862289 -0.05156251 0.017750334
000030 59 6f 0b bd 5c 69 ee 3d 03 3a 36 3d 4d a8 dd bc
       -0.034041736 0.116411895 0.044488918 -0.027057791
000040 d0 d6 96 bd a1 fb d8 bb e1 f8 02 3d 4c f5 11 3e
       -0.07365191 -0.0066217934 0.03197563 0.1425373
000050 27 b7 91 3c e8 36 31 3e 48 9f cb bd 31 a6 f9 bb
       0.01778753 0.17306101 -0.0994249 -0.0076186885
000060 ed ae 52 bc ce 1e b7 3b d7 f2 27 3e 7d fc 29 3e
       -0.012859088 0.005588389 0.1640123 0.16600223
000070 0d a9 8d bb 2f d9 40 3d ac 8e f0 3d f1 3e 8d 3d
       -0.004323131 0.047082122 0.117459625 0.06896771
000080 1f 3f 78 3e 68 60 fc 3d c3 a4 21 3d dc 09 29 3e
       0.24242829 0.123230755 0.03946377 0.16507667
000090 1c da d4 3d f0 0f b4 bd 79 81 a3 3d 5b 32 90 bb
       0.103931636 -0.08792102 0.07983679 -0.004400534
0000a0 e0 a8 17 3e b0 a6 e7 3d ee 10 7e bd b3 2c 0f bd
       0.14810514 0.1131109 -0.062027864 -0.034954738
0000b0 ee 85 29 bd ac ff 39 bd f6 20 58 3d 59 58 35 bd
       -0.04138749 -0.045409843 0.05276581 -0.044273708
0000c0 39 7b 2a 3d 8c d8 ec bd cc 5e d7 3d 56 28 9e bb
       0.04162142 -0.115647405 0.10516128 -0.0048265858
0000d0 50 a0 e3 3c 2a 8b 0d bc f3 94 c3 bc 5a ca 02 3e
       0.027786404 -0.008639136 -0.023874735 0.12772503
0000e0 be 5b 23 3c 8c c1 8a bd 63 98 33 3e 9c 58 11 3c
       0.0099706035 -0.067751974 0.175386 0.008871224
0000f0 bb 5a 2f bd 13 c0 af bd 02 e1 89 bd 66 bc 98 bb
       -0.042811137 -0.08581557 -0.0673237 -0.0046611307
000100 05 5e 02 3e 9a 82 41 3e 73 59 e8 3d 0f fe 73 3d
       0.12731178 0.18897477 0.11345186 0.05956846
000110 0b 8a 57 3d 91 4f 0e 3e 7f c3 65 bd f8 2e 37 3d
       0.052621882 0.1389754 -0.056094643 0.044722527
000120 ea e2 fb 3d c6 2f 2e 3d b9 15 7f 3d a8 8d 59 3d
       0.1229914 0.04252603 0.062276576 0.05311361
000130 c0 7b 94 3d 88 26 5a 3e df 0a 1a 3e 19 44 30 3d
       0.07250166 0.21303761 0.1504321 0.043033693
000140 00 2b 68 3e ee 01 a8 3c 26 e2 3d 3d 1a 71 02 3e
       0.22672653 0.020508733 0.04635825 0.12738457
000150 9a b4 7a 3d da 27 02 be 84 5a 8b 3b 6d b3 0a 3c
       0.06120739 -0.12710515 0.0042527337 0.00846563
000160 dc ff bb 3d 22 0e da 3d 38 d6 e6 bc c2 0d 43 3e
       0.09179661 0.10647227 -0.02817832 0.19048217
000170 50 a4 a2 3d 18 07 88 bc f6 50 a8 3d 37 19 c0 3d
       0.07941496 -0.016604945 0.08218567 0.09379809
000180 b8 40 e7 3d 43 38 2a 3d b8 72 6b 3e a7 a8 36 3e
       0.11291641 0.04155756 0.2299298 0.17837773
000190 ae 10 87 3d b9 25 d0 3d 81 8b 04 3e 09 8b 89 3d
       0.06594978 0.10163445 0.12943842 0.06715972
0001a0 91 23 c3 3b ad fc ed bc 2b b7 11 3e fd af 09 3e
       0.0059551676 -0.02905115 0.1423003 0.1344604
0001b0 fb 29 a6 3b 97 b3 2e 3d 98 48 b2 3d ca a8 f1 3c
       0.0050709224 0.04265174 0.087052524 0.02949943
0001c0 cd 93 d0 3d 7c 78 01 3e b0 7d cc 3d fa 7c 41 3d
       0.10184441 0.12643617 0.099849105 0.047238328
0001d0 e5 11 aa bd 9c 56 01 3d e7 b1 29 be c3 32 e6 bc
       -0.08304194 0.031576738 -0.1657177 -0.028100377
0001e0 74 1b a3 bd 8d 7b 95 3d be b3 39 3d f5 e9 23 3d
       -0.07964221 0.07298956 0.04533743 0.04001804
0001f0 b3 72 62 3d bc 83 df 3d 33 a7 21 3d 48 af 06 3e
       0.055285167 0.10913798 0.039466094 0.13152802
000200 b5 1a 9b bb cb f2 54 3e 12 f9 81 bd 07 d8 22 bc
       -0.0047334083 0.20795743 -0.063463345 -0.0099392
000210 9a 09 39 3c b2 30 12 be 6f 07 97 3d c3 bd 9c 3d
       0.011293793 -0.14276388 0.07374465 0.07653382
000220 96 59 9c 3d 52 cd 06 3e 97 58 1a 3d 5e b8 42 bd
       0.07634275 0.13164261 0.037682142 -0.047539108
000230 7e 40 65 3d 0b 26 b3 3d b8 dd 0e bd 37 86 16 be
       0.055969708 0.087474905 -0.034879416 -0.14699636
000240 0b a7 7f bc 14 98 07 bd b0 46 c8 bd 34 f6 b4 bd
       -0.015603791 -0.033104017 -0.097791076 -0.08836022
000250 73 1e 98 3d c1 6a 29 3d a2 c4 d0 bd 4e 1b b2 bd
       0.07427683 0.041361574 -0.10193755 -0.08696614
000260 4f 5f 10 3d 82 ba 9b 3d 33 5a 70 bd 8b ff 8e be
       0.035247143 0.07603933 -0.05867977 -0.2792934
000270 75 c7 71 3c fa fc 29 bb e6 a9 c5 bc fc 21 a8 3d
       0.014757027 -0.002593814 -0.024128865 0.08209607
000280 4e fe 4c 3c 8d e7 93 3d cc fe b5 bc f4 ff b8 bb
       0.012511803 0.07221899 -0.022216223 -0.0056457464
000290 01 bb b1 bd 6e 7e 33 bc 4a 42 95 bd c4 83 eb 3c
       -0.08678246 -0.010955436 -0.07288034 0.028749354
0002a0 e5 0b 53 3d cf f5 17 bd 2c 34 b2 bd 20 c9 a1 3c
       0.051525015 -0.037099656 -0.08701357 0.019749224
0002b0 a0 a5 0e bd b8 30 40 3d 44 79 8f 3d 91 2b f3 bd
       -0.03482592 0.04692146 0.070055515 -0.11873544
0002c0 04 d5 86 bd 7a d7 c6 3c f6 91 24 3e ce 18 c7 bd
       -0.06583598 0.02427267 0.16071305 -0.09721528
0002d0 57 61 dc bd b5 2c 85 3d 93 47 dc bb d9 41 a8 bd
       -0.107607536 0.06502668 -0.0067223995 -0.082156844
0002e0 a2 aa 84 be 67 23 24 3e 47 8b 26 be df e8 77 3d
       -0.25911433 0.1602913 -0.16264068 0.060524818
0002f0 ba 70 42 bd 09 68 99 3c a0 07 dd bd 80 92 27 bd
       -0.047470786 0.018726366 -0.1079247 -0.040911198
000300 14 99 e9 bc dd 0a 4e ba 90 7b aa bd f4 b2 86 bc
       -0.028515376 -0.0007859895 -0.08324349 -0.016442753
000310 e9 79 75 39 b8 55 75 ba 05 60 dd bb 38 99 d9 bd
       0.00023410436 -0.00093587814 -0.006755831 -0.10624927
000320 6c f3 42 bd 67 6a 33 bd b4 73 7f bd 89 05 dd 3d
       -0.047595426 -0.043802645 -0.062366202 0.10792071
000330 f8 49 be bc ac fd 72 3c 57 cf 36 bd a8 5b 64 be
       -0.02322863 0.014830988 -0.04463133 -0.22300589
000340 69 f2 d4 bd 0d c0 2f 3d 8f be 46 be 25 e5 2f be
       -0.103977986 0.042907763 -0.1940863 -0.17177255
000350 f7 c5 08 be 1a 5d 3b 3e 8e 4e 00 be 4c 34 aa bd
       -0.13356768 0.18297234 -0.12529966 -0.08310756
000360 31 21 ab 3d c3 2c c1 3c 42 af 65 be 22 35 fb 3c
       0.0835594 0.023580914 -0.22430137 0.030664984
000370 a2 fe eb bd 57 9f 5e bd d1 a8 64 be 36 39 94 bd
       -0.11523177 -0.054351177 -0.22330023 -0.072374746
000380 4c 0c b8 bc d1 b5 ee ba 35 49 1b bd 95 8b 22 bc
       -0.022466801 -0.0018212144 -0.037911613 -0.009920974
000390 cb a1 44 bd 8f 3f c1 bc 2c df 44 be 85 a7 c9 bd
       -0.04800586 -0.023589877 -0.19225758 -0.09846405
0003a0 2d d4 e6 bd e6 47 88 bd 53 aa 85 be 72 3b a7 3d
       -0.11270938 -0.066543385 -0.2610651 0.08165635
0003b0 87 5c 8d be ab ab df 3d 53 9b 5b bb e4 82 4e be
       -0.27609655 0.10921415 -0.0033509328 -0.20167118
0003c0 26 c3 df bd dc 20 6f be 80 fb 00 3d 6a 6f 27 3c
       -0.109258935 -0.23352379 0.03148985 0.010219434
0003d0 c2 1c 0a be 52 dd 69 3d f8 85 9f bc 2d 3b cc 3d
       -0.13487533 0.057095833 -0.019473061 0.099722244
0003e0 14 6f 53 3c fd ba 29 3c a6 62 f0 bd ff 92 11 be
       0.012904901 0.010359523 -0.11737566 -0.14216231
0003f0 87 ce f7 bd 04 4e d6 3c f5 a9 fa 3b 1b c3 d2 bd
       -0.12099939 0.026160248 0.007649655 -0.1029112

fc_layer.weight f4 [64, 64]
000000 06 34 af be 56 b3 43 bf 0e b2 ad be 2d 05 dd 3e
       -0.34219378 -0.7644552 -0.33924907 0.4316801
000010 08 09 7d 3e dd 6a 3b bf 2b f3 87 3e 77 1e 7d 3e
       0.24710476 -0.73209935 0.2655271 0.24718653
000020 02 2f da 3e 57 f2 f2 be 23 f4 f9 3e cc 14 6b 3f
       0.4261399 -0.47450516 0.48819074 0.9182861
000030 68 5d 47 3f e2 6d fe 3e 32 3d f4 3e 19 d6 53 3e
       0.778769 0.4969321 0.47702938 0.2068714
000040 9d 2c b5 be ea 4f d0 be e8 a1 d9 3e 66 55 14 bf
       -0.353856 -0.4068597 0.42506337 -0.5794281
000050 59 df e0 be de b0 bf be b3 d0 26 bf 48 d2 de be
       -0.439204 -0.37439626 -0.651622 -0.43519807
000060 89 3c f0 be c2 29 22 3f 85 ea d7 3e 09 0f ed be
       -0.46921185 0.6334497 0.42171112 -0.46300533
000070 6a f6 c1 3e 2a 83 d2 be 5b 2c 3b bf d8 87 b9 be
       0.37883312 -0.41115695 -0.73114556 -0.36236453
000080 6e f6 1d bf 21 6c 4a bf 67 ed c0 be 27 d7 c8 be
       -0.61704147 -0.7907124 -0.37681124 -0.39226648
000090 a9 9f b6 be 4e 09 ad 3e c3 3c f7 be b1 11 6e 3e
       -0.35668686 0.3379616 -0.48288545 0.23248936
0000a0 d5 2b 02 bf 07 be 04 3f 1f c7 f8 3e 37 59 92 be
       -0.5084813 0.5185246 0.48589417 -0.2858369
0000b0 6c 4c 0d 3f bc 85 e9 3e a2 bd a0 be e7 ec ce 3e
       0.55194736 0.45609844 -0.31394678 0.40415117
0000c0 aa 30 05 bf 0a 71 da be 2d 56 bf 3e 51 c4 8d be
       -0.5202738 -0.42664367 0.37370434 -0.2768884
0000d0 53 b2 6b 3e 45 99 57 3f b7 e9 04 3f 6d 65 19 3f
       0.23017244 0.84218246 0.5191912 0.5992039
0000e0 17 82 1d 3f 06 88 9b 3e 5e 6c 4d bf 5d 42 b7 be
       0.61526626 0.30377215 -0.8024348 -0.3579282
0000f0 d5 19 cf be bb 0c 13 3f de b8 f5 3e ee 92 03 3f
       -0.40449396 0.574413 0.47992605 0.5139607
000100 9d 3b c5 bc 67 15 7e bc a8 be 88 3d f6 51 18 3d
       -0.024076277 -0.015508032 0.0667699 0.03718754
000110 9d f6 e4 bd 7a 64 e8 39 96 9a e4 bd ef 70 cc bd
       -0.1117985 0.0004432535 -0.111622974 -0.09982478
000120 a6 c3 32 ba 67 b0 81 bd 6d e8 ab 3d 3f 5d aa bd
       -0.0006819315 -0.06332474 0.08393941 -0.083185665
000130 84 bb 20 bd eb 50 24 3d 1d 77 69 3c f4 29 aa 3c
       -0.03924133 0.040116232 0.01424959 0.020771958
000140 37 bc 37 3c ea 7b 27 bc aa f4 a0 bd 0a 34 1e 3e
       0.0112143075 -0.0102224145 -0.07859166 0.15449539
000150 a2 7e d5 3d 47 19 81 bd 4a 99 bc 3d 6f 05 65 3d
       0.10424544 -0.063036494 0.09208925 0.055913385
000160 62 fd 8a bd 7b 3e 9e bd 51 74 7c bc f8 71 71 bd
       -0.0678661 -0.07726761 -0.015408591 -0.05894658
000170 92 60 c0 bd 2f 98 17 3c 50 c6 b1 bd c3 7a 87 bd
       -0.09393419 0.009252592 -0.08680403 -0.06615212
000180 42 41 9f 3c b5 45 ea 3b f3 8d 98 3d 6a bd d4 3d
       0.019440297 0.007149423 0.0744895 0.1038769
000190 6e 43 ac 3d 39 eb 9f bd 94 7f fa 3c 8b d1 51 bd
       0.08411299 -0.07808537 0.030578412 -0.051225226
0001a0 64 16 39 3d 98 a0 11 be d9 ba b1 3d ba 8f c4 3d
       0.04518737 -0.14221418 0.086782165 0.09597726
0001b0 d3 24 6e bd f2 6f 89 bd 4c 97 d8 3d e5 9a 5d 3d
       -0.058140587 -0.06710805 0.105757326 0.054102797
0001c0 19 27 01 3e e2 15 71 bd ec 94 e9 bd 4d 0f c4 bd
       0.12612571 -0.05885876 -0.11405358 -0.09573231
0001d0 bb 71 e8 bc 94 63 67 3c 10 55 bd 3d 30 ef a3 bd
       -0.028374543 0.014122862 0.0924474 -0.08004606
0001e0 86 6c ed bd d0 f0 55 bc 7a 4c 1f 3d e6 9b 2d 3d
       -0.11592965 -0.013057902 0.038891293 0.042385004
0001f0 d6 ec 0c bd 32 b0 e2 bd a6 3a e6 bd 30 2c de 3d
       -0.03440555 -0.11068763 -0.11241655 0.10848272
000200 65 34 dd bc a9 0a 6f bc 29 f6 91 3d ef c5 8d bd
       -0.027002523 -0.014589944 0.071270294 -0.069225185
000210 96 03 e7 bd 93 09 e8 bd a8 ff 36 bc 67 82 2d 3d
       -0.11279981 -0.11329951 -0.011169352 0.04236069
000220 34 39 4d 3d 2e 89 43 bd 6c fe 9c 3b 72 eb c8 b9
       0.05010338 -0.047738247 0.0047910716 -0.00038322393
000230 6b 61 92 3d 3f d2 a4 bd fd 06 b0 3d 71 64 c4 bc
       0.07147487 -0.08047914 0.08595083 -0.023973675
000240 fe ce 7e 3d 89 21 c2 bd bb 7b 59 bd 03 1b 63 bd
       0.062209122 -0.094790526 -0.053096514 -0.055445682
000250 43 d7 54 bd a0 bb b9 bd 65 27 0d 3d 8a c3 05 3e
       -0.051963102 -0.0906899 0.034461398 0.13062873
000260 25 f4 ca 3d ed 75 ac bd 98 bc ab bc 41 57 f6 bc
       0.09909848 -0.0842093 -0.020963952 -0.030070903
000270 4f ff 74 bd 2f bf 3a bd c5 34 2a 3d 33 45 38 bd
       -0.059813794 -0.045592483 0.04155423 -0.04498787
000280 70 72 a9 bd 10 b1 da 3c eb 69 fa 3d 41 9a 02 ba
       -0.0827378 0.026695758 0.122272335 -0.0004982092
000290 cc 7c 00 3e 55 09 bd bd 4f 7c e7 3d 80 1a 3b bc
       0.12547606 -0.092302956 0.11303007 -0.011419892
0002a0 90 37 c8 3d bb 8d 83 3c 3b 39 be 3c c6 ef cf bd
       0.09776223 0.016058793 0.023220649 -0.10153155
0002b0 7a 1b 05 bd d4 31 9f bb e4 b6 48 bc b3 98 95 3d
       -0.032496907 -0.004858235 -0.012250636 0.07304516
0002c0 a4 b9 1b bd e3 11 2b bd e8 3d cc bd 2c 38 4d 3d
       -0.038018838 -0.041765105 -0.09972745 0.050102398
0002d0 d2 b4 c1 3d 2b 13 d6 3c ec 8b ae bd 71 b0 3e 3d
       0.09458317 0.026132187 -0.08522782 0.046554986
0002e0 c8 64 2a 3c f1 b0 99 3d f8 9c 9d 3b 1d 4d fa 3d
       0.010400005 0.07504452 0.004809972 0.122217394
0002f0 75 e0 ee 3d ff be b7 bd 47 b9 bb 3d 3a 26 44 bd
       0.116639055 -0.089719765 0.09166198 -0.04788802
000300 04 0d 10 bf 65 85 20 bf 8c 55 d1 be 97 83 c6 3e
       -0.5626986 -0.62703544 -0.4088558 0.3877227
000310 88 61 bd 3e 4b e8 35 bf c1 46 f8 3e c7 9a 94 3e
       0.36988473 -0.71057576 0.4849148 0.29024336
000320 85 53 d5 3e 64 53 07 bf e2 07 c1 3e 59 21 40 3f
       0.41665283 -0.5286162 0.37701327 0.75050884
000330 e0 2a 1f 3f 05 90 0c 3f c3 0f a6 3e 45 84 c6 3e
       0.621748 0.54907256 0.324339 0.3877279
000340 dd e8 d5 be cf 73 cb be 65 6d 05 3f 6d db 15 bf
       -0.41779223 -0.39736792 0.5212005 -0.5853794
000350 6c 63 8b be da 56 f8 be 7f 47 23 bf b6 6f 09 bf
       -0.2722429 -0.48503762 -0.6378097 -0.5368608
000360 e3 6a dd be 27 1b 30 3f ec 49 9d 3e 8a 98 f6 be
       -0.4324561 0.6879143 0.3072046 -0.48163253
000370 1e af cc 3e be 99 98 be a5 34 3b bf 60 6b 06 bf
       0.39977354 -0.29804796 -0.73127204 -0.5250759
000380 d3 c2 0e bf 08 f0 5c bf 82 a7 ff be 07 c2 03 bf
       -0.5576603 -0.8630376 -0.49932486 -0.5146794
000390 0a ab fe be 46 51 92 3e fc 30 eb be 65 18 b0 3e
       -0.49739867 0.28577632 -0.4593581 0.34393612
0003a0 b3 3b a2 be c5 b7 b0 3e 39 a3 02 3f 1d 2b f5 be
       -0.31686172 0.34515205 0.5103031 -0.47884455
0003b0 87 96 ab 3e 32 39 23 3f a2 79 00 bf 4b 9b 04 3f
       0.3351328 0.6375915 -0.50185597 0.5179946
0003c0 a8 81 e3 be 57 53 c1 be bf 44 b9 3e 20 de 40 be
       -0.44434857 -0.37758896 0.36185262 -0.18834734
0003d0 9f 69 74 3e e5 20 52 3f 50 d2 20 3f 8d b3 49 3f
       0.23868416 0.82081443 0.6282091 0.787896
0003e0 b4 f5 2d 3f 79 19 fc 3e 50 0b 56 bf e4 36 de be
       0.6795304 0.49238184 -0.8361101 -0.43401253
0003f0 73 e1 9d be 13 3a 10 3f 31 56 ee 3e ec 6a 0f 3f
       -0.30836067 0.56338614 0.46550134 0.56022525

fc_layer.bias f4 [64]
000000 c2 0c fd 3e c8 83 36 bd b5 be f6 bd f9 53 09 3f
       0.49423796 -0.04455927 -0.12048093 0.5364376
000010 66 34 97 3e b4 6d 04 3f 74 c5 00 3f f4 30 84 3e
       0.29532164 0.51729894 0.5030129 0.25818598
000020 0d e3 94 3e 6f cf fc 3e 76 94 09 3f 39 49 03 3f
       0.29079476 0.4937701 0.5374216 0.51283604
000030 19 42 8c 3e 91 84 bb 3e d3 c7 c0 3e 5a b9 2c 3e
       0.27394179 0.36624578 0.37652454 0.16867581
000040 34 49 65 3c a4 9e 26 3e 60 7d 97 3e bd 68 23 3e
       0.013994504 0.16271454 0.2958784 0.15957923
000050 8d 6b 4d 3e 35 c9 48 3e a0 9c 81 3e b1 dc b5 3e
       0.20060559 0.19608004 0.25314808 0.35519937
000060 69 52 dd 3e 6d c9 c8 3e cb 25 55 3e e6 2b e6 3e
       0.43226936 0.39216176 0.20815198 0.44955367
000070 56 b4 b4 3e 45 8c c4 3e 18 cf 13 3e 86 f4 d0 3d
       0.35293835 0.38388267 0.14434469 0.10202889
000080 69 97 e2 3e de 8a 85 3e 49 8e a8 3e 12 3c 5d 3e
       0.44256142 0.2608251 0.32921055 0.21604946
000090 b4 7b af 3e 68 e8 ea 3e 44 46 80 3e d0 e1 5f 3e
       0.34274065 0.45880437 0.25053608 0.21863484
0000a0 81 c7 92 3e c4 55 f3 3e 07 58 04 3f f0 ab d4 3e
       0.28667834 0.4752637 0.5169682 0.41537428
0000b0 6f 53 4e 3e 40 2c b4 3e f4 de dc 3d 2d f4 03 3f
       0.20149015 0.3519001 0.107847124 0.5154446
0000c0 2c 39 26 3e 17 81 92 3e 43 38 05 3f 39 61 93 3e
       0.16232747 0.28614113 0.52038974 0.28785113
0000d0 d2 1f b6 3e 85 b9 23 3e 94 48 e5 3e ed 1f f8 3e
       0.35571152 0.15988739 0.44781935 0.48461857
0000e0 22 0d cd 3e 95 71 05 3f aa 12 b9 3e ea dc c4 3e
       0.40049082 0.5212644 0.36147052 0.38449794
0000f0 8a ee 9a 3e 52 b0 85 3e aa 1b 83 3e 0d 21 9a 3d
       0.30260116 0.26111084 0.25607044 0.07525835

output_layer.weight f4 [1, 64]
000000 19 8a 3a 3f dd fe 99 bc f2 92 91 bc 32 cf 1f 3f
       0.7286697 -0.018798286 -0.017770264 0.6242553
000010 16 10 38 3f c6 9d 2b 3f 79 a2 33 3f 57 79 25 bf
       0.71899545 0.6703762 0.7016979 -0.64638275
000020 ba 7d 45 bf b5 d5 2e 3f 64 7a 24 3f 8f b4 33 3f
       -0.7714497 0.6829484 0.64249253 0.70197386
000030 15 8c 38 3f 1c 84 24 bf 8a c3 32 bf 0d 40 20 bf
       0.7208875 -0.6426408 -0.6982962 -0.62597734
000040 e4 b2 0a bf 71 3f 22 bf e9 a3 3b 3f ad ff 3c bf
       -0.54179215 -0.63378054 0.7329698 -0.7382763
000050 b8 be 37 bf a8 5d 0f bf 72 33 3a bf 90 5b 2b bf
       -0.7177539 -0.56002283 -0.7273475 -0.6693659
000060 71 f7 26 3f 77 20 37 3f 4f 09 29 bf ca b7 29 3f
       0.65221316 0.7153391 -0.6602983 0.66296065
000070 f3 8f 37 bf 56 1e 26 bf 19 00 29 bf 8b 1e eb be
       -0.71704024 -0.6489004 -0.66015774 -0.4592174
000080 bb 0e 32 3f 47 42 14 bf 74 8f 25 bf 39 23 17 bf
       0.69553727 -0.5791363 -0.6467202 -0.5903812
000090 05 77 26 bf 3a 99 3a 3f 4e d3 43 bf 93 75 22 bf
       -0.6502536 0.72890055 -0.764943 -0.63460654
0000a0 d3 1b 27 3f 52 f3 3a 3f 9d c1 20 3f 78 7f 27 3f
       0.6527683 0.7302753 0.6279543 0.65428877
0000b0 32 fd 2c bf ba 10 2e bf 5c ce 12 3f 69 7e 25 3f
       -0.67573845 -0.6799427 0.5734613 0.6464601
0000c0 b2 6c d3 be db cd 32 3f 83 e0 31 3f 66 cb 22 3f
       -0.41293865 0.6984536 0.694832 0.6359161
0000d0 3d 9a 2f 3f 41 05 1c bf 8b 4a 28 3f e0 b4 3a 3f
       0.68594724 -0.60945517 0.65738744 0.72932243
0000e0 fb 37 2d 3f 18 c5 24 3f 43 bd 24 3f 8b 52 33 bf
       0.67663544 0.6436324 0.6435129 -0.70047826
0000f0 bd 5b 46 bf 4a 0a 30 bf b0 28 29 3f ac bb d8 be
       -0.7748373 -0.687657 0.6607771 -0.42330682
